scheduler/BaGTI/checkpoints/energy_latencyCNN_4_Trained_V2.ckpt (torch, 538127 bytes, 36 tensors)

find.0.weight f4 [10, 1, 6, 6]
0.19658874 -0.2021138 0.26818854 -0.33960935 0.12850636 0.4561507 0.3741358 0.2589619
-0.8129871 0.15263881 -0.27439284 0.3764395 0.6290893 -0.60324764 0.28234127 -0.32468042
-0.41587168 -0.21133812 -0.33163026 0.34087685 -0.074179634 0.40451464 -0.3312283 0.3346814
-0.49082384 -0.3204656 0.23466139 0.33392224 0.41983408 0.19068813 -0.53335375 -0.49805057
0.4171525 0.02706076 -0.51023173 -0.349696 -0.01609877 -0.14761037 0.6195624 0.19549474
-0.24036898 0.037976008 0.2906874 0.4694862 -0.51999307 0.30914113 0.36321723 -0.3819921
-0.9138974 0.30281973 0.17263016 0.08417196 0.29256138 0.1866581 -0.24339607 0.33244398
-0.49974698 -0.3214169 0.2796582 -0.1922667 0.10506355 0.2507665 0.09234049 -0.25196576
0.027237052 -0.20096882 0.32652786 -0.43788037 0.15432084 -0.22365801 -0.026999636 0.16510767
-0.39443564 -0.73227763 -0.12062488 -0.0952499 0.35164487 -0.5500202 -2.258269 0.564992
0.026445234 -0.6790931 -0.056944568 -0.53590524 -0.61999494 0.6953354 -0.091634035 -0.17372143
-0.76880956 0.7649536 0.486099 0.6135079 -0.29141915 0.13302393 0.40988603 0.6258486
0.06885126 0.14781022 0.058275025 -0.31403232 -0.14871402 -0.11518876 -0.11429669 -0.5772036
-0.17584251 0.1248061 -0.5044643 -0.6949231 0.41152632 0.12798983 -0.49783695 1.0253413
-0.45999706 0.8340813 0.4057858 0.043203585 -0.09277323 0.514495 -0.10255958 0.48475295
-0.58176273 -0.56965756 0.14974108 0.1554768 -0.2741647 0.14326769 0.6662497 -0.36935925
0.32113406 -0.4589475 0.45619375 -0.08169651 0.0570877 0.07844297 0.43120044 -0.2538003
-0.13208231 -0.106771 0.32473093 0.15667672 -0.032536954 -0.29627436 -0.27235818 0.06154801
-0.8588651 0.39017588 0.27916402 -0.32240525 -0.6521492 0.34658358 -0.20144533 0.13169517
-0.19970609 -0.43910068 -0.42908177 0.5452543 0.03428789 0.2027697 -0.613939 0.2588603
-0.38798332 0.17439589 -0.19657435 0.22179094 0.2376935 0.11647894 0.16924071 0.011958578
0.2515387 -0.47167286 -0.14158082 0.025614599 -0.5308038 0.7550635 -0.13352291 0.1494134
0.3906911 -0.024633443 0.23984881 -0.2403915 -0.6274358 -0.36675873 0.58937335 0.021709042
-0.6979771 0.58039254 -0.04485673 -0.1310172 -0.63051873 0.12700818 -0.23055159 0.05310131
0.37478912 0.299498 -0.0652242 -0.28886926 -0.045424916 -0.5530144 0.59325683 0.09027583
-0.0008355375 0.11209556 0.056047007 0.45936093 -0.5868424 -0.26939085 0.09345925 -0.14133817
-0.011170842 0.26651803 -0.09485715 0.37060776 0.4691352 -0.8892057 0.28964302 0.6510581
0.6392606 -0.39996225 0.48216155 0.59886754 0.3432057 -2.6163292 -0.51661575 -0.38193816
-0.076883875 0.25034106 -0.46468118 0.6135842 0.61896664 -0.36801904 0.009709281 0.30209708
-0.040616546 -0.25236621 0.057176568 0.009837515 -0.034750156 0.2157857 -1.136932 0.32079566
0.1871425 0.14990024 -0.042730786 -0.13318026 0.11552132 0.15307027 0.3604416 -0.46153766
0.108431846 -0.052235894 -0.6567687 0.23586787 0.013186403 -0.017061256 0.0127091 -0.61146206
00000000: 8f4e 493e ecf6 4ebe 0250 893e 47e1 adbe
00000010: 2c97 033e 968c e93e ba8e bf3e a796 843e
00000020: ec1f 50bf 594d 1c3e 387d 8cbe aebc c03e
00000030: ff0b 213f 706e 1abf 098f 903e 833c a6be
00000040: 22ed d4be 0569 58be 71cb a9be 6987 ae3e
00000050: 7eeb 97bd 8b1c cf3e c196 a9be 5c5b ab3e
00000060: 434d fbbe 1114 a4be 134b 703e dbf7 aa3e
00000070: 7ef4 d63e c043 433e df89 08bf 7c00 ffbe
00000080: 0395 d53e 87ae dd3c 8c9e 02bf 5b0b b3be
00000090: 91e1 83bc 2c27 17be a49b 1e3f c62f 483e
000000a0: 4923 76be bb8c 1b3d fbd4 943e 7f60 f03e
000000b0: 441e 05bf bf47 9e3e 9cf7 b93e 7894 c3be
000000c0: 2ef5 69bf 300b 9b3e f6c5 303e 5962 ac3d
000000d0: 9bca 953e 4d23 3f3e d23c 79be 1936 aa3e
000000e0: d6de ffbe c290 a4be 5c2f 8f3e 90e1 44be
000000f0: 8f2b d73d 7764 803e 031d bd3d a801 81be
00000100: 3d20 df3c c5ca 4dbe a92e a73e db31 e0be
00000110: 4806 1e3e 9b06 65be 572e ddbc fc11 293e
00000120: 78f3 c9be 8c76 3bbf 2d0a f7bd 6112 c3bd
00000130: cc0a b43e 20ce 0cbf 7b87 10c0 51a3 103f
00000140: ada3 d83c 0cd9 2dbf b53e 69bd 1631 09bf
00000150: fdb7 1ebf 8001 323f a0aa bbbd 08e4 31be
00000160: b4d0 44bf 00d4 433f f8e1 f83e db0e 1d3f
00000170: e434 95be 6d37 083e 95dc d13e 9d37 203f
00000180: e401 8d3d 905b 173e cbb1 6e3d d8c8 a0be
00000190: 7d48 18be 16e8 ebbd 6214 eabd 9dc3 13bf
000001a0: 0f10 34be 579a ff3d 9324 01bf 7be6 31bf
000001b0: 94b3 d23e c40f 033e 7ce4 febe 623e 833f
000001c0: bc84 ebbe 5a86 553f 28c3 cf3e 3ef6 303d
000001d0: e4ff bdbd f2b5 033f c20a d2bd 8a31 f83e
000001e0: 67ee 14bf 14d5 11bf ba55 193e 4f35 1f3e
000001f0: 515f 8cbe c4b4 123e 578f 2a3f a81c bdbe
00000200: af6b a43e 2bfb eabe 3a92 e93e 8050 a7bd
00000210: cbd4 693d b5a6 a03d 4ec6 dc3e 1df2 81be
00000220: 9640 07be c1aa dabd 2243 a63e dd6f 203e
00000230: 7845 05bd 46b1 97be 8872 8bbe c419 7c3d
00000240: 95de 5bbf 22c5 c73e 96ee 8e3e 4d12 a5be
00000250: 40f3 26bf 6773 b13e af47 4ebe 19db 063e
00000260: c17f 4cbe ced1 e0be 9bb0 dbbe c995 0b3f
00000270: 7571 0c3d dca2 4f3e 1b2b 1dbf 5689 843e
00000280: c0a5 c6be d694 323e c94a 49be 2a1d 633e
00000290: ed65 733e 838c ee3d 704d 2d3e e9ed 433c
000002a0: aec9 803e 1b7f f1be 90fa 10be b5d5 d13c
000002b0: c2e2 07bf d74b 413f 3bba 08be d4ff 183e
000002c0: aa08 c83e 13cc c9bc ed9a 753e 3029 76be
000002d0: a29f 20bf cdc7 bbbe 2ce1 163f 29d7 b13c
000002e0: a1ae 32bf 9b94 143f b1bb 37bd 5f29 06be
000002f0: ad69 21bf 6f0e 023e b715 6cbe c280 593d
00000300: 5ce4 bf3e cd57 993e 4494 85bd ace6 93be
00000310: 7a0f 3abd 5a92 0dbf aedf 173f 89e2 b83d
00000320: f907 5bba 5b92 e53d 8c91 653d 5b31 eb3e
00000330: 4e3b 16bf 99ed 89be 9067 bf3d f4ba 10be
00000340: e805 37bc 0d75 883e 7744 c2bd 4dc0 bd3e
00000350: 7d32 f03e fca2 63bf 174c 943e beab 263f
00000360: 95a6 233f dac7 ccbe e1dd f63e 624f 193f
00000370: a8b8 af3e f071 27c0 ee40 04bf 668d c3be
00000380: 4b75 9dbd b42c 803e b1ea edbe db13 1d3f
00000390: 9974 1e3f fe6c bcbe ad13 1f3c 78ac 9a3e
000003a0: 895d 26bd 2536 81be fa31 6a3d 872d 213c
000003b0: 2e56 0ebd edf6 5c3e fd86 91bf 543f a43e
000003c0: 49a2 3f3e 737f 193e 7a06 2fbd 6860 08be
000003d0: 7196 ec3d 74be 1c3e cd8b b83e aa4e ecbe
000003e0: 8411 de3d 4ef5 55bd fe21 28bf 5987 713e
000003f0: c80b 583c 0cc4 8bbc d439 503c c788 1cbf

find.0.bias f4 [10]
-0.2566347 -0.22918986 -0.58266723 -0.37080717 -0.12055063 -0.24350606 -0.22052409 -0.008128059
-0.34335276 0.16594934
00000000: a065 83be bfb0 6abe ae29 15bf 70da bdbe
00000010: 40e3 f6bd a759 79be 11d1 61be 8d2b 05bc
00000020: efcb afbe a0ee 293e

find.2.weight f4 [20, 10, 5, 5]
0.7022484 -0.37224442 0.039608266 0.56029654 0.15323767 -0.43304673 0.07045256 -0.12705119
0.32560244 0.23627177 -0.41353256 0.8248696 -0.3321653 0.0024453527 0.26931456 -0.60348845
-0.32237795 0.62772197 0.39879385 0.7022471 -0.8969429 0.11100744 -0.9006894 -0.23041967
0.359373 0.36451235 0.058717303 0.064125404 0.15322329 0.04398479 -0.09778793 0.15898779
0.1700622 -0.4754572 0.09835412 -0.17643484 -0.09869802 0.031146234 0.14468005 -0.7101135
0.14012478 -0.0011048071 0.14770956 0.32309067 -0.27584988 -0.4512816 0.43064314 0.13806464
-0.31720206 -0.124471225 -0.98656356 0.78237444 0.23538949 0.012091435 -0.69896555 -0.64602625
0.12927231 1.0743701 -0.3577126 0.07730301 -0.32728958 -0.298052 0.6483494 0.39675894
0.6786589 -1.9829208 -0.8390551 0.032662503 0.16635722 0.06774072 -0.6653058 0.16406655
0.20269838 -1.4287288 0.44332787 0.8046345 0.25470975 -0.5482869 -0.2565945 0.26828623
-0.3096718 0.24773692 -0.27464464 0.37495446 -0.1824735 0.20283483 -0.56352174 0.44771844
0.33274508 0.09406965 0.19929598 -0.041638035 -0.1930892 -0.05090646 -0.29725012 0.71096927
1.068698 -1.3689879 -0.58067524 0.24227421 -0.87043196 -0.24547915 -0.0019311712 0.07212516
-0.16588624 -0.5224011 0.038109194 0.28216982 -0.39395428 -0.08550202 -0.16880023 -0.054319922
-0.104571834 -0.19283187 0.18458723 -0.13864082 -0.29401118 0.10692897 -0.6327162 0.52993584
-1.009362 -0.53628373 -0.25956982 -0.10362622 0.5422569 0.15924734 -0.34458137 -0.73099995
0.30686867 0.93698347 -0.34719828 -0.017815389 -0.028620768 0.4442675 -0.2130806 0.44955754
0.26234597 0.28803435 -0.30155268 -0.0738031 0.21584886 -0.34744114 -0.30835742 -0.29388246
0.5556289 1.1048174 0.55272317 -0.20448007 -0.39585584 0.5646093 0.5188318 0.1508801
0.03018829 0.32478905 -0.18034375 0.34189293 0.05322967 -0.27494925 -0.3815248 -0.010711724
-0.16406894 0.66482115 -0.73919666 0.52706915 0.49502873 -0.40919474 0.15237138 -0.54708874
0.15237847 0.20543697 0.37381065 -0.04431971 -1.1789458 0.09110663 0.23855099 -0.036795452
-0.13851139 -0.6854826 -0.23458359 -0.09904779 -0.0260121 -0.09820383 -0.03253426 -0.20715962
-0.37152365 -0.1289533 -0.17969921 -0.16603059 -0.06778382 0.031978797 0.51522875 -0.24685763
0.16745184 0.30492967 0.17149328 -0.65165854 -0.7290629 0.031055165 1.1414126 -0.5869339
-0.70235515 -0.045217793 -0.30330864 -0.123694494 -0.06840798 -0.62252915 -0.31540963 0.3839787
0.31413582 -0.06445069 -0.47927418 -0.08926151 -0.9317842 0.4712236 0.18830307 0.16950952
-0.23439334 0.3492734 -0.0065595484 -0.16170177 0.5758816 0.09526181 0.68479264 0.10283188
-0.011000323 0.25879812 -0.47052702 -0.5155449 -0.25396624 0.5785412 -0.53125596 -1.1613362
-0.35287976 0.20002303 -0.39299992 -0.12868229 0.7677732 -0.5864959 0.40518948 -0.19714008
-1.359174 0.11422774 -0.46974337 -2.0120473 -1.0127441 0.2141032 -1.120434 -1.453483
-0.03665713 0.7471839 -1.0154965 -0.22826347 -0.592618 0.67125165 0.5151738 -0.5565939
00000000: 8dc6 333f d296 bebe 473c 223d 986f 0f3f
00000010: 56ea 1c3e 4db8 ddbe 6f49 903d b519 02be
00000020: 5db5 a63e 3af1 713e 8aba d3be a72a 533f
00000030: 9211 aabe 3642 203b 99e3 893e 387e 1abf
00000040: b90e a5be 63b2 203f b52e cc3e 77c6 333f
00000050: 0d9e 65bf de57 e33d 9593 66bf 22f3 6bbe
00000060: bdff b73e 5da1 ba3e 8e81 703d 2e54 833d
00000070: 91e6 1c3e 6529 343d 0a45 c8bd b2cd 223e
00000080: c924 2e3e 206f f3be e36d c93d 56ab 34be
00000090: 3022 cabd 6326 ff3c 0227 143e 00ca 35bf
000000a0: df7c 0f3e 2dcf 90ba 2d41 173e 246c a53e
000000b0: 323c 8dbe 620e e7be 427d dc3e d160 0d3e
000000c0: 4f68 a2be c5ea febd 6e8f 7cbf b149 483f
000000d0: f109 713e 271b 463c 68ef 32bf fa61 25bf
000000e0: f65f 043e f684 893f 1b26 b7be 0a51 9e3d
000000f0: 8092 a7be 469a 98be 3afa 253f fd23 cb3e
00000100: 97bc 2d3f 59d0 fdbf 51cc 56bf 1ec9 053d
00000110: 8c59 2a3e a6bb 8a3d 7b51 2abf 1001 283e
00000120: 2a90 4f3e 96e0 b6bf dffb e23e 87fc 4d3f
00000130: 5169 823e 885c 0cbf 5b60 83be d05c 893e
00000140: 4d8d 9ebe bfae 7d3e 399e 8cbe 08fa bf3e
00000150: 55da 3abe efb3 4f3e f642 10bf 5a3b e53e
00000160: 905d aa3e 97a7 c03d 3f14 4c3e a58c 2abd
00000170: 2db9 45be 4b83 50bd 2b31 98be 1502 363f
00000180: 19cb 883f ff3a afbf 22a7 14bf bb16 783e
00000190: a1d4 5ebf e35e 7bbe 5a1f fdba 5bb6 933d
000001a0: 15de 29be 14bc 05bf 6318 1c3d 9078 903e
000001b0: 60b4 c9be af1b afbd f8d9 2cbe 917e 5ebd
000001c0: c229 d6bd b875 45be 6f04 3d3e dcf7 0dbe
000001d0: a288 96be 93fd da3d b0f9 21bf e0a9 073f
000001e0: c632 81bf e449 09bf 56e6 84be fc39 d4bd
000001f0: 59d1 0a3f bc11 233e f86c b0be d022 3bbf
00000200: e41d 9d3e 26de 6f3f f9c3 b1be 94f1 91bc
00000210: 1a76 eabc 0877 e33e cd31 5abe 682c e63e
00000220: 3652 863e 3d79 933e 1d65 9abe 1426 97bd
00000230: 7c07 5d3e cee3 b1be 06e1 9dbe c377 96be
00000240: b23d 0e3f a86a 8d3f 447f 0d3f 3963 51be
00000250: 9ead cabe 3c8a 103f 29d2 043f 5080 1a3e
00000260: 6f4d f73c c04a a63e 08ac 38be 970c af3e
00000270: 5b07 5a3d 26c6 8cbe 3857 c3be 3a80 2fbc
00000280: b001 28be b831 2a3f fe3b 3dbf 01ee 063f
00000290: 6874 fd3e f981 d1be 3e07 1c3e 020e 0cbf
000002a0: 1a09 1c3e 125e 523e 1c64 bf3e 9688 35bd
000002b0: b2e7 96bf 1d96 ba3d b646 743e d4b6 16bd
000002c0: eed5 0dbe ca7b 2fbf ae36 70be 91d9 cabd
000002d0: 5417 d5bc 171f c9bd a542 05bd a721 54be
000002e0: 5938 bebe 550c 04be 1203 38be ec03 2abe
000002f0: 3ed2 8abd 33fc 023d 08e6 033f 3fc8 7cbe
00000300: 7f78 2b3e be1f 9c3e ef9b 2f3e 18d3 26bf
00000310: dea3 3abf 6767 fe3c cf19 923f 4d41 16bf
00000320: 8ccd 33bf 4b36 39bd 454b 9bbe 8a53 fdbd
00000330: 7c19 8cbd 125e 1fbf 5f7d a1be db98 c43e
00000340: 69d6 a03e b9fe 83bd 6d63 f5be bdce b6bd
00000350: 6989 6ebf 3844 f13e 85d2 403e e793 2d3e
00000360: cf04 70be f7d3 b23e 7bf1 d6bb 2695 25be
00000370: fa6c 133f a018 c33d 924e 2f3f 8599 d23d
00000380: b33a 34bc 3081 843e ebe8 f0be c0fa 03bf
00000390: dd07 82be 471b 143f 6400 08bf aaa6 94bf
000003a0: a8ac b4be d6d2 4c3e 4937 c9be 4ac5 03be
000003b0: c98c 443f 9824 16bf ff74 cf3e 17df 49be
000003c0: 6af9 adbf 3cf0 e93d 3482 f0be 62c5 00c0
000003d0: 99a1 81bf df3d 5b3e 626a 8fbf bb0b babf
000003e0: c925 16bd 7247 3f3f cafb 81bf e6bd 69be
000003f0: d0b5 17bf 26d7 2b3f 6ee2 033f f07c 0ebf

find.2.bias f4 [20]
-0.5387998 -0.05032675 -0.13032049 0.065728284 -0.95178056 -0.84833145 0.25374192 0.14227729
0.2702192 -0.31720024 -0.7199542 0.22337055 -0.26295748 -0.6214254 -0.032345377 -0.49698424
-0.4906219 0.075644106 -0.078187466 0.059611037
00000000: c9ee 09bf 6c23 4ebd bc72 05be 8d9c 863d
00000010: e4a7 73bf 402c 59bf 76ea 813e 23b1 113e
00000020: 2c5a 8a3e 1268 a2be eb4e 38bf 40bb 643e
00000030: 5da2 86be bc15 1fbf 967c 04bd b874 febe
00000040: cb32 fbbe 4ceb 9a3d c020 a0bd b42a 743d

find.4.weight f4 [30, 20, 4, 4]
-0.005746938 -0.11892914 -0.35600778 0.032724053 -0.27669585 0.053143196 0.08751534 -0.50976896
0.33868852 -0.4643209 -0.056001805 -0.013297182 -0.37819767 0.12944266 -0.25614247 -0.7190031
0.44238064 0.1427431 -0.21856499 0.16742365 0.00508712 -0.3781487 -0.35256472 -0.25357115
-0.39617136 0.35020906 -0.0031582087 0.03863437 -0.3347611 0.6735713 0.50014395 -0.36179638
-0.33619088 0.3134525 0.042357836 -0.1878373 0.504548 -0.19770926 0.28132474 0.21517268
0.34901762 0.383759 0.031012518 -0.46020293 -0.2371421 0.1603256 0.5203854 0.3672953
0.27872753 0.09797309 -0.017105862 0.035317134 0.0043792883 0.16061664 -0.056920275 -0.56788015
0.06538067 -0.20639516 -0.25361344 -0.12214126 0.38740906 0.3600201 -0.055819582 -0.322586
0.18117562 0.043027777 0.109934054 0.34070033 -0.4356476 0.13232914 -0.19034764 0.03431564
-0.34121948 0.2354582 -0.4902814 -0.6912855 -0.17767514 -0.29229328 -0.16459064 -0.022542851
0.288989 -0.11160725 -0.42901233 -0.3374867 0.32194918 -0.8541029 -0.94326484 0.1014164
0.114077315 0.064178355 -0.2416297 0.3760364 -0.2133623 -1.0705681 -0.30917773 -0.05914428
0.5633918 -0.39492783 0.6530924 0.47830516 -0.546878 0.5607871 0.2197546 -0.4902168
0.074945174 0.104271464 -0.6547502 -0.30294478 -0.63670653 0.31903008 -0.23560144 -0.4368706
0.17494358 0.087955765 0.24643151 -0.094936356 0.4272128 -0.36488965 -0.27255523 0.25360733
0.2723953 1.0402167 0.018958647 -0.5174369 0.42770317 -0.26365837 0.038408976 0.18649623
0.043336686 -0.014169674 -0.29746425 -0.3481661 0.18838805 0.5679468 0.7124273 -0.39696676
0.104005635 -0.097071856 -0.08869428 -0.1516454 -0.07183481 -0.5741402 0.12801675 -0.44980595
-0.7511822 -0.08613132 0.22187722 -0.08461338 -0.17104928 0.11320221 -0.08396648 -0.39317998
0.028124696 -0.38761267 -0.23147497 0.32000497 0.554701 -0.34457627 -0.50822467 0.052706018
0.40420467 -0.23360808 -0.53179806 -0.8807028 -0.3990213 0.24028175 0.44155344 0.09414736
0.091301285 -0.032617666 -0.3947994 0.13620341 -0.1753346 0.37391937 -0.5693725 -0.3935861
0.3992039 0.037928678 -0.13653895 -0.83267796 0.25798336 -0.3158688 -0.6456256 0.17590526
-0.41206518 0.07114682 0.18344486 -0.1742143 -0.99970126 -0.15292424 -0.444724 0.045697767
0.30309865 -0.910183 0.023088526 -0.08945007 0.033390384 -0.28285494 0.23201942 -0.08405082
0.2616403 -0.44989607 0.10931615 -0.4180875 0.28085557 -0.27106667 -0.05327482 -0.55498207
0.3347863 -0.15518399 0.09293299 -0.049934763 -0.036855727 -0.069951154 -0.80780727 -0.6375738
-0.16327935 0.71003455 -0.67136943 -0.83857083 -0.38512847 -0.09197502 -0.3827551 -0.60097545
0.6976367 -0.32764253 -1.1516253 0.46588528 -0.03392624 0.052607503 -0.027230565 -0.13882312
0.45009896 -0.37070146 -1.0470773 -0.23626506 -0.28482017 0.014899772 -0.50586194 -0.037831165
-0.3867584 0.25730875 0.101137646 -0.12848759 0.07036269 -0.35188776 -0.10157539 -0.42493698
0.06642423 0.22085537 -0.332153 -0.7944257 0.10681895 0.35974136 0.46759114 -0.14007646
00000000: cf50 bcbb 1f91 f3bd a746 b6be a809 063d
00000010: 14ab 8dbe aeac 593d 3e3b b33d 3880 02bf
00000020: 9568 ad3e 78bb edbe 2662 65bd 6cdc 59bc
00000030: 20a3 c1be 9e8c 043e 1b25 83be 9610 38bf
00000040: b77f e23e 3f2b 123e 80cf 5fbe 1b71 2b3e
00000050: dbb1 a63b b59c c1be 5d83 b4be 14d4 81be
00000060: f9d6 cabe 9a4e b33e f3f9 4ebb 133f 1e3d
00000070: cf65 abbe 2b6f 2c3f 6f09 003f 603d b9be
00000080: 3621 acbe d97c a03e 697f 2d3d 6c58 40be
00000090: 0f2a 013f 4c74 4abe cc09 903e 3a56 5c3e
000000a0: 70b2 b23e 0f7c c43e f70d fe3c b89f ebbe
000000b0: 61d5 72be 652c 243e fa37 053f 210e bc3e
000000c0: 60b5 8e3e 1ea6 c83d 9821 8cbc b3a8 103d
000000d0: 2280 8f3b b078 243e 3c25 69bd 9860 11bf
000000e0: 4de6 853d 4159 53be 9fd9 81be 3225 fabd
000000f0: 7b5a c63e 8e54 b83e 13a3 64bd fe29 a5be
00000100: 1a86 393e e53d 303d 1b25 e13d 4670 ae3e
00000110: 340d dfbe 4a81 073e 7eea 42be 8e8e 0c3d
00000120: 52b4 aebe f41b 713e 2a06 fbbe 16f8 30bf
00000130: 79f0 35be 77a7 95be 738a 28be c9ab b8bc
00000140: 5ef6 933e 5892 e4bd 81a7 dbbe 0fcb acbe
00000150: 86d6 a43e 7da6 5abf ce79 71bf 67b3 cf3d
00000160: 5ea1 e93d f16f 833d c76d 77be d887 c03e
00000170: a67b 5abe 6008 89bf 8b4c 9ebe 4641 72bd
00000180: 723a 103f fb33 cabe 1031 273f 6ae4 f43e
00000190: 3200 0cbf be8f 0f3f 5a07 613e b2fd fabe
000001a0: db7c 993d 478c d53d b69d 27bf 941b 9bbe
000001b0: 33ff 22bf e957 a33e 8141 71be 81ad dfbe
000001c0: 6924 333e 2722 b43d 8b58 7c3e fe6d c2bd
000001d0: a3bb da3e d1d2 babe 5c8c 8bbe d2d8 813e
000001e0: 6677 8b3e d225 853f 2a4f 9b3c bf76 04bf
000001f0: e9fb da3e 3bfe 86be bb52 1d3d def8 3e3e
00000200: cf81 313d ec27 68bc 3c4d 98be d442 b2be
00000210: cce8 403e f664 113f a361 363f 3a3f cbbe
00000220: e800 d53d 9ccd c6bd 59a5 b5bd ef48 1bbe
00000230: 211e 93bd dafa 12bf d316 033e f74c e6be
00000240: 7a4d 40bf 9e65 b0bd c833 633e c849 adbd
00000250: 8b27 2fbe 8fd6 e73d 9ef6 abbd e34e c9be
00000260: c365 e63c 2b75 c6be c607 6dbe b1d7 a33e
00000270: e200 0e3f 4d6c b0be 031b 02bf 44e2 573d
00000280: eaf3 ce3e f536 6fbe eb23 08bf bd75 61bf
00000290: 854c ccbe 6b0c 763e 4b13 e23e 55d0 c03d
000002a0: 2bfc ba3d 1a9a 05bd 2623 cabe e878 0b3e
000002b0: ea8a 33be 5c72 bf3e 65c2 11bf 1e84 c9be
000002c0: 7464 cc3e 1a5b 1b3d ded0 0bbe 622a 55bf
000002d0: 6516 843e 8eb9 a1be b847 25bf 8220 343e
000002e0: 35fa d2be 6db5 913d f8d8 3b3e 3c65 32be
000002f0: 6cec 7fbf 2c98 1cbe ddb2 e3be 952d 3b3d
00000300: bf2f 9b3e c101 69bf 2624 bd3c 9931 b7bd
00000310: 5bc4 083d 5dd2 90be 8096 6d3e d622 acbd
00000320: b8f5 853e c758 e6be 25e1 df3d 910f d6be
00000330: 4dcc 8f3e 40c9 8abe b336 5abd 4e13 0ebf
00000340: 1c69 ab3e 8de8 1ebe a753 be3d 6588 4cbd
00000350: 08f6 16bd 8d42 8fbd 75cc 4ebf 0938 23bf
00000360: b432 27be d3c4 353f dede 2bbf 94ac 56bf
00000370: 8f2f c5be 665d bcbd 7af8 c3be 87d9 19bf
00000380: 5298 323f c3c0 a7be 7568 93bf 8488 ee3e
00000390: 3ef6 0abd f77a 573d a212 dfbc a627 0ebe
000003a0: 5f73 e63e 95cc bdbe a106 86bf 78ef 71be
000003b0: f3d3 91be 2c1e 743c 2b80 01bf daf4 1abd
000003c0: 3205 c6be f9bd 833e 4121 cf3d 4092 03be
000003d0: 501a 903d a22a b4be c206 d0bd 5791 d9be
000003e0: 6d09 883d e927 623e f50f aabe 7c5f 4bbf
000003f0: e5c3 da3d 0530 b83e 1b68 ef3e 3470 0fbe

find.4.bias f4 [30]
-0.2735704 0.49860495 0.32795966 0.115539975 -0.34279782 0.6238575 0.5784242 -0.44702467
0.039251488 -0.22571024 0.69275624 -0.47108907 0.35608166 0.6617744 0.21291761 -0.24840799
-0.78079444 -0.56898665 0.20739149 -0.614604 0.22330835 0.38089058 0.5243696 -1.0479863
-0.02211903 -0.9750216 0.42328176 0.175491 -1.070421 -0.7919711
00000000: 6b11 8cbe 2649 ff3e 54ea a73e 39a0 ec3d
00000010: 3283 afbe 20b5 1f3f 9c13 143f 6be0 e4be
00000020: 2bc6 203d 9620 67be 7958 313f 9632 f1be
00000030: 5650 b63e 0c6a 293f 1307 5a3e aa5e 7ebe
00000040: 25e2 47bf 1ca9 11bf 6f5e 543e b056 1dbf
00000050: f2aa 643e 1704 c33e 163d 063f 6a24 86bf
00000060: f832 b5bc 049b 79bf 63b8 d83e eab3 333e
00000070: 8e03 89bf 9ebe 4abf

find.6.weight f4 [40, 30, 3, 3]
-0.22303848 -0.12762338 -0.3898987 0.029131413 -0.11441457 0.24792284 -0.06789471 -0.18722056
-0.1569362 0.030176684 0.14843565 -0.032895036 -0.012105955 -0.13636509 0.22569156 0.33050504
0.15454863 0.37951854 -0.6137262 -0.08923656 -0.23026142 0.0071427063 -0.111865915 -0.23312224
0.0071176765 -0.43211204 -0.050495327 -0.42836908 -0.4549244 0.11430557 0.088592015 -0.09631763
0.14537404 -0.06856373 -0.12238151 0.11381458 -0.1683653 -0.1797248 -0.0254733 -0.3783785
-0.11259424 -0.1206675 0.18333389 0.2559186 -0.084712215 0.08277596 -0.023815436 -0.18113962
0.07706152 -0.060012907 -0.04013729 0.08402026 -0.05825917 -0.15341204 -0.28745666 -0.38023198
-0.092855334 0.114421435 0.113368884 0.33832642 -0.20528717 -0.24019709 0.07678996 -0.25297323
0.17053822 -0.09540884 -0.14685108 -0.09039612 -0.21801345 -0.27207965 0.20402521 -0.23207146
-0.44110855 0.13419479 -0.14664753 0.13670923 0.03218841 0.09194125 -0.27287182 0.14553015
-0.28774393 -0.24229357 -0.020180842 0.17359431 -0.050264042 -0.03905593 -0.21619682 0.19679385
-0.19995113 0.06646095 0.22949049 0.57189745 0.3433284 0.35761863 0.46269593 -0.06409342
0.20556056 0.052710403 -0.12524904 -0.32746854 0.18373215 -0.22464874 -0.4369659 -0.15182298
-0.21574524 -0.5623701 -0.17714116 0.19928485 -0.014406315 -0.0019473104 -0.023191016 -0.1272103
0.12376396 -0.34766942 -0.19119 0.37970385 0.41961357 -0.43833578 -0.21577416 -0.121554874
-0.38556412 -0.37498605 0.31899083 -0.4612989 -0.07983016 -0.20389406 0.020878332 -0.27890188
-0.049929287 0.113013685 -0.013180515 0.31382975 -0.25322437 -0.2713362 0.010219263 0.46089682
0.13304438 0.2010599 0.069194436 0.15434048 -0.121154025 0.5610445 -0.064104706 0.10237513
-0.10248141 -0.08808381 -0.056952395 -0.31423628 -0.32361704 -0.3017769 -0.25191814 -0.09086569
-0.35919714 -0.036102753 0.07058876 -0.14084738 0.07600908 0.001006105 -0.19206268 -0.16820249
-0.07006255 -0.22510876 0.05214323 0.33792952 -0.116475314 -0.025146794 0.045751326 0.5143986
-0.2384266 0.04666697 0.0020110346 -0.15108725 -0.19136035 -0.13108212 0.14800757 -0.5063867
-0.39045268 -0.6297408 -0.49316552 0.008347214 -0.050757315 -0.06166282 -0.013219741 -0.123839095
-0.1341557 0.14359213 -0.14422368 -0.081464805 -0.047906026 -0.094188906 -0.2271846 0.21764733
-0.42337704 -0.12678164 0.052329186 -0.13971913 -0.13808237 0.12141274 -0.08644024 -0.083992526
0.02449309 -0.06492298 -0.2886871 -0.119334266 0.04738715 -0.040042564 -0.21114677 0.08876662
-0.057852425 -0.03746372 0.2115011 -0.09452083 -0.100875966 0.12571071 -0.021088103 0.34294447
0.056246262 0.0045029717 -0.054450914 0.16938205 0.17423972 -0.08308793 -0.24194965 -0.19031021
-0.1816164 -0.042088617 0.4024736 -0.09727649 0.20184585 0.048565436 0.01422073 0.29774725
0.26903853 -0.04685108 -0.02924407 -0.40709004 -0.17820528 -0.09997781 0.0077778134 -0.34189242
-0.032258667 -0.21000163 -0.13458921 -0.015776416 -0.13702162 -0.062154148 -0.41278744 0.1209015
0.016680831 0.26944858 0.07726167 -0.015959674 0.0808521 0.028313974 -0.12007515 -0.14360274
00000000: 3364 64be b4af 02be cda0 c7be 00a5 ee3c
00000010: 3052 eabd 7cdf 7d3e 620c 8bbd bfb6 3fbe
00000020: e2b3 20be 1835 f73c 84ff 173e f2bc 06bd
00000030: 0e58 46bc 4aa3 0bbe b01b 673e f537 a93e
00000040: ff41 1e3e 4150 c23e 291d 1dbf a8c1 b6bd
00000050: a6c9 6bbe 5d0d ea3b f519 e5bd 99b7 6ebe
00000060: 663b e93b ca3d ddbe 30d4 4ebd 3153 dbbe
00000070: daeb e8be 0a19 ea3d bb6f b53d 2d42 c5bd
00000080: efdc 143e 246b 8cbd 28a3 fabd 9e17 e93d
00000090: f467 2cbe c709 38be 62ad d0bc d4ba c1be
000000a0: cf97 e6bd 8620 f7bd e1bb 3b3e c307 833e
000000b0: 997d adbd 7186 a93d 9718 c3bc aa7c 39be
000000c0: 6ed2 9d3d 18d0 75bd 0067 24bd d012 ac3d
000000d0: 2ba1 6ebd 0c18 1dbe 852d 93be c4ad c2be
000000e0: f02a bebd c955 ea3d f22d e83d 1f39 ad3e
000000f0: cd36 52be 3af6 75be 0e44 9d3d b585 81be
00000100: 92a1 2e3e b665 c3bd 2160 16be 9a21 b9bd
00000110: eb3e 5fbe 064e 8bbe fceb 503e 24a4 6dbe
00000120: fbd8 e1be 5c6a 093e c52a 16be 81fd 0b3e
00000130: ffd7 033d b24b bc3d dbb5 8bbe db05 153e
00000140: 2c53 93be ce1b 78be 4b52 a5bc b5c2 313e
00000150: abe1 4dbd 1cf9 1fbd b362 5dbe 5484 493e
00000160: fdbf 4cbe ae1c 883d 8eff 6a3e df67 123f
00000170: bdc8 af3e ca19 b73e 7be6 ec3e 6943 83bd
00000180: 787e 523e dde6 573d 4941 00be f5a9 a7be
00000190: 4824 3c3e 520a 66be ffb9 dfbe 7c77 1bbe
000001a0: 52ec 5cbe 7df7 0fbf 7e64 35be 5411 4c3e
000001b0: 7708 6cbc e53c ffba 16fb bdbc 6b43 02be
000001c0: f677 fd3d ba01 b2be 50c7 43be 8b68 c23e
000001d0: 97d7 d63e 8c6d e0be e7f3 5cbe c3f1 f8bd
000001e0: a968 c5be 2cfe bfbe c452 a33e 5f2f ecbe
000001f0: ff7d a3bd 9bc9 50be 0909 ab3c 3acc 8ebe
00000200: a782 4cbd b873 e73d 16f3 57bc 4bae a03e
00000210: a0a6 81be 94ec 8abe b26e 273c abfa eb3e
00000220: c93c 083e a5e2 4d3e d0b5 8d3d 6e0b 1e3e
00000230: 9a1f f8bd 9da0 0f3f 5449 83bd 0daa d13d
00000240: c6e1 d1bd 4965 b4bd ea46 69bd 94e3 a0be
00000250: 22b1 a5be 8082 9abe 6afb 80be ca17 babd
00000260: b0e8 b7be 7be0 13bd d790 903d 4c3a 10be
00000270: a6aa 9b3d 48df 833a 14ac 44be 463d 2cbe
00000280: f47c 8fbd e982 66be 2494 553d 1905 ad3e
00000290: 9c8a eebd a600 cebc be65 3b3d a0af 033f
000002a0: 1a26 74be dd25 3f3d 90cb 033b 9eb6 1abe
000002b0: f8f3 43be 643a 06be 4c8f 173e 8fa2 01bf
000002c0: 6ae9 c7be b136 21bf 3180 fcbe c1c2 083c
000002d0: e7e6 4fbd 2792 7cbd 9d97 58bc 5a9f fdbd
000002e0: 1d60 09be d109 133e 5faf 13be 05d7 a6bd
000002f0: 1c39 44bd 1de6 c0bd 14a3 68be f1de 5e3e
00000300: e0c4 d8be 0cd3 01be 2157 563d 8812 0fbe
00000310: 7765 0dbe 3ea7 f83d 9507 b1bd 4604 acbd
00000320: bca5 c83c 57f6 84bd ccce 93be 8665 f4bd
00000330: 0719 423d ac03 24bd dc36 58be 46cb b53d
00000340: aaf6 6cbd 8f73 19bd bf93 583e 2394 c1bd
00000350: 0f98 cebd 4fba 003e f5c0 acbc 6b96 af3e
00000360: 7b62 663d aa8d 933b ec07 5fbd 7d72 2d3e
00000370: e66b 323e 012a aabd a6c1 77be aee0 42be
00000380: a6f9 39be 1d65 2cbd 0511 ce3e e538 c7bd
00000390: aeb0 4e3e 8dec 463d 11fe 683c 5472 983e
000003a0: 6bbf 893e ebe6 3fbd 4391 efbc 1b6e d0be
000003b0: 727b 36be 2bc1 ccbd 07dd fe3b 860c afbe
000003c0: aa21 04bd ab0a 57be c1d1 09be 8b3d 81bc
000003d0: 654f 0cbe 5995 7ebd e058 d3be 359b f73d
000003e0: 3da6 883c 2af5 893e 5e3b 9e3d ddbd 82bc
000003f0: c995 a53d b5f2 e73c f6e9 f5bd 990c 13be

find.6.bias f4 [40]
-0.91118443 -1.1638339 0.407865 -0.035687942 -0.63577366 0.8571999 0.318169 -1.0697641
-0.48483485 -0.24952061 -0.7621175 0.96025956 -1.0436155 -0.2452139 -1.1061105 -0.2964036
-0.23799078 -0.75376046 -1.2311414 0.34609723 0.6810385 -0.3200478 -0.6517877 -0.3297361
-0.63455874 -0.92584056 -1.0247276 -0.62090695 0.9862724 -0.21581052 0.9880542 -0.9022912
-0.7900271 0.26534826 -0.56685555 -0.7879003 0.23207842 -0.5601015 -0.09082755 -1.4774073
00000000: 6243 69bf 82f8 94bf aed3 d03e 852d 12bd
00000010: 10c2 22bf 7471 5b3f 0ce7 a23e 08ee 88bf
00000020: 463c f8be 5582 7fbe 221a 43bf 92d3 753f
00000030: 3195 85bf 5a19 7bbe 0795 8dbf 36c2 97be
00000040: dbb3 73be 72f6 40bf 0b96 9dbf a833 b13e
00000050: 8a58 2e3f 4edd a3be 8fdb 26bf 2cd3 a8be
00000060: 7172 22bf e303 6dbf 462a 83bf c2f3 1ebf
00000070: 597c 7c3f 6ffd 5cbe 1ff1 7c3f 8efc 66bf
00000080: 373f 4abf badb 873e 721d 11bf d6b3 49bf
00000090: f7a5 6d3e d062 0fbf cb03 babd af1b bdbf

find.8.weight f4 [50, 40, 2, 2]
-0.013185185 0.24773267 -0.025199559 0.10260265 0.007361431 -0.19316904 0.091963336 -0.048494205
0.022411639 0.083078384 0.011553055 0.07908831 -0.03677198 -0.066064626 0.20821467 -0.040809367
0.09686529 0.10691599 -0.025745498 0.031895705 -0.26267615 0.018746931 -0.271066 0.012705415
0.038270053 0.05927024 0.081192575 0.07590776 0.006053892 0.15213953 0.038272124 0.13105567
-0.019271638 0.13077015 -0.073428854 -0.02745243 0.073948346 0.030259155 -0.027413413 -0.094654545
0.033294953 0.18789367 0.124370374 0.10800848 0.0684341 0.114597484 0.10359652 0.15548396
-0.15137224 -0.10468521 -0.034234166 0.119144574 0.024348253 -0.04989805 -0.031656314 -0.03416711
-0.15084341 -0.05644586 -0.092247695 -0.027121045 0.13589899 -0.032343566 0.096171275 -0.02819053
0.1519544 -0.038991116 -0.09447286 -0.0048901127 -0.010605479 0.038049523 -0.2057635 0.14548574
0.0860226 0.012967742 0.15022798 0.01629083 0.07251043 0.033339307 0.0686335 -0.0018870069
-0.009935407 -0.13073201 -0.02165031 -0.22330871 0.045263615 0.059137218 -0.039760184 0.087276615
-0.12712558 -0.08846213 -0.08607965 -0.07137994 0.1624675 0.07577909 -0.006736302 0.025918351
0.04861244 0.026724637 -0.06002005 -0.07126237 -0.03668665 0.03921081 0.020699436 0.11914052
0.079308555 -0.013139867 -0.09957871 0.0151278945 0.13021162 0.033176314 0.07777789 0.07201373
0.03309069 -0.13360609 0.035485335 -0.163314 -0.027633587 0.10522151 0.0017142446 0.041792635
-0.20207004 -0.006959119 -0.17600912 -0.011735581 -0.09171094 -0.074755624 -0.015949542 -0.15035826
0.108277574 -0.016714111 -0.08383797 0.1168821 0.07295395 -0.0722331 0.08446135 0.0037874773
-0.029147027 -0.12623867 -0.009109344 0.12910077 0.18353212 -0.07692749 0.020542346 -0.04331122
0.009740607 -0.02911012 0.09051604 0.0694171 0.11258338 0.1706595 0.066011555 0.12669116
0.12236322 0.022954687 0.16349347 0.053170398 0.23123723 0.5087002 0.35715607 0.49233654
-0.013185247 0.24773265 -0.025199553 0.10260265 0.0073614544 -0.193169 0.091963336 -0.0484942
0.02241164 0.083078384 0.011553052 0.07908831 -0.03677196 -0.06606461 0.20821469 -0.04080933
0.09686528 0.106916 -0.025745515 0.031895712 -0.26267612 0.01874693 -0.27106598 0.012705416
0.038270056 0.059270248 0.081192575 0.07590775 0.006053883 0.15213951 0.038272128 0.13105567
-0.019271616 0.1307701 -0.07342884 -0.027452432 0.073948376 0.030259138 -0.027413433 -0.09465452
0.033294942 0.18789369 0.12437041 0.10800848 0.06843408 0.11459748 0.103596516 0.15548396
-0.15137218 -0.104685195 -0.03423415 0.11914456 0.024348253 -0.04989806 -0.03165631 -0.034167107
-0.15084344 -0.056445867 -0.0922477 -0.02712104 0.13589899 -0.03234358 0.09617128 -0.028190535
0.15195437 -0.038991153 -0.09447283 -0.004890185 -0.01060549 0.038049538 -0.20576355 0.14548573
0.08602256 0.012967691 0.15022796 0.016290845 0.07251044 0.033339303 0.068633504 -0.0018870007
-0.0099354 -0.130732 -0.021650301 -0.22330874 0.04526362 0.059137195 -0.03976021 0.08727659
-0.12712558 -0.08846213 -0.08607963 -0.071379945 0.16246754 0.07577906 -0.006736308 0.025918337
00000000: ad06 58bc a2ad 7d3e 4e6f cebc 5721 d23d
00000010: 2938 f13b 1bce 45be 4657 bc3d dca1 46bd
00000020: 9d98 b73c 0025 aa3d 0649 3d3c 0df9 a13d
00000030: 379e 16bd e44c 87bd 3a36 553e b927 27bd
00000040: 4f61 c63d c5f6 da3d 39e8 d2bc 12a5 023d
00000050: 7d7d 86be 2a93 993c 2ac9 8abe 5f2a 503c
00000060: 0fc1 1c3d 5ac5 723d 4b48 a63d 8775 9b3d
00000070: ba5f c63b 77ca 1b3e 3bc3 1c3d 7533 063e
00000080: 8edf 9dbc 9ce8 053e de61 96bd ebe3 e0bc
00000090: 3b72 973d 0ce2 f73c 1892 e0bc 3eda c1bd
000000a0: 4a60 083d 3367 403e e5b5 fe3d 8d33 dd3d
000000b0: 2d27 8c3d 16b2 ea3d 6a2a d43d 3037 1f3e
000000c0: 5301 1bbe 3365 d6bd 2039 0cbd 1202 f43d
000000d0: fd75 c73c e661 4cbd 0daa 01bd d0f2 0bbd
000000e0: b276 1abe c633 67bd 5cec bcbd f42c debc
000000f0: 1b29 0b3e b07a 04bd 72f5 c43d d4ef e6bc
00000100: ef99 1b3e 26b5 1fbd fd7a c1bd 3d3d a0bb
00000110: 9ac2 2dbc d1d9 1b3d abb3 52be 37fa 143e
00000120: 9e2c b03d a776 543c 5dd5 193e 5974 853c
00000130: 5980 943d cc8e 083d b88f 8c3d 7255 f7ba
00000140: 1ec8 22bc 9dde 05be fe5b b1bc 0aab 64be
00000150: 5766 393d de39 723d 93db 22bd 15be b23d
00000160: 352d 02be a22b b5bd 874a b0bd a52f 92bd
00000170: e15d 263e 1132 9b3d 32bc dcbb b952 d43c
00000180: d61d 473d a0ed da3c 95d7 75bd 01f2 91bd
00000190: be44 16bd 849b 203d dd91 a93c f2ff f33d
000001a0: 866c a23d 9948 57bc ecef cbbd fdda 773c
000001b0: 3256 053e e3e3 073d 044a 9f3d ef7b 933d
000001c0: 1a8a 073d 09d0 08be 1259 113d c93b 27be
000001d0: d55f e2bc 607e d73d 81b0 e03a c12e 2b3d
000001e0: 73eb 4ebe 5209 e4bb bc3b 34be 9846 40bc
000001f0: f2d2 bbbd 7a19 99bd 9da8 82bc 84f7 19be
00000200: a2c0 dd3d 08ec 88bc 3eb3 abbd e25f ef3d
00000210: e168 953d f3ee 93bd 13fa ac3d 5337 783b
00000220: bfc5 eebc b644 01be 5c3f 15bc fe32 043e
00000230: d8ef 3b3e 298c 9dbd 6c48 a83c 1b67 31bd
00000240: 1197 1f3c 5978 eebc 7960 b93d 8d2a 8e3d
00000250: 1d92 e63d 5dc1 2e3e 1131 873d 54bb 013e
00000260: 9199 fa3d 780b bc3c d56a 273e 34c9 593d
00000270: 74c9 6c3e 2d3a 023f 29dd b63e 8913 fc3e
00000280: ef06 58bc a1ad 7d3e 4b6f cebc 5721 d23d
00000290: 5b38 f13b 18ce 45be 4657 bc3d dba1 46bd
000002a0: 9e98 b73c 0025 aa3d 0349 3d3c 0df9 a13d
000002b0: 329e 16bd e24c 87bd 3b36 553e af27 27bd
000002c0: 4e61 c63d c7f6 da3d 42e8 d2bc 14a5 023d
000002d0: 7c7d 86be 2993 993c 29c9 8abe 612a 503c
000002e0: 10c1 1c3d 5cc5 723d 4b48 a63d 8675 9b3d
000002f0: a75f c63b 76ca 1b3e 3cc3 1c3d 7533 063e
00000300: 82df 9dbc 99e8 053e dc61 96bd ece3 e0bc
00000310: 3f72 973d 03e2 f73c 2392 e0bc 3bda c1bd
00000320: 4760 083d 3467 403e eab5 fe3d 8d33 dd3d
00000330: 2b27 8c3d 15b2 ea3d 692a d43d 3037 1f3e
00000340: 4f01 1bbe 3165 d6bd 1c39 0cbd 1002 f43d
00000350: fd75 c73c e861 4cbd 0caa 01bd cff2 0bbd
00000360: b476 1abe c833 67bd 5dec bcbd f12c debc
00000370: 1b29 0b3e b47a 04bd 73f5 c43d d6ef e6bc
00000380: ed99 1b3e 30b5 1fbd f97a c1bd d83d a0bb
00000390: a6c2 2dbc d5d9 1b3d aeb3 52be 36fa 143e
000003a0: 992c b03d 7076 543c 5cd5 193e 6174 853c
000003b0: 5b80 943d cb8e 083d b98f 8c3d 3d55 f7ba
000003c0: 17c8 22bc 9cde 05be f95b b1bc 0cab 64be
000003d0: 5866 393d d839 723d 9adb 22bd 12be b23d
000003e0: 352d 02be a22b b5bd 844a b0bd a62f 92bd
000003f0: e45d 263e 0d32 9b3d 3fbc dcbb b152 d43c

find.8.bias f4 [50]
0.30450487 0.30450487 0.30450487 0.30450487 0.30450487 0.30450487 0.30450487 0.30450487
0.30450487 0.30450484 0.30450484 0.30450487 0.30450487 0.30450484 0.30450484 0.30450484
0.30450484 0.30450484 0.30450487 0.30450484 0.30450484 0.30450487 0.30450487 0.30450484
0.30450487 0.30450487 0.30450484 0.30450484 0.30450487 0.30450487 0.30450484 0.30450487
0.30450487 0.30450484 0.30450484 0.30450487 0.30450487 0.30450484 0.30450484 0.30450487
0.30450487 0.30450487 0.30450487 0.30450487 0.30450484 0.30450487 0.30450487 0.30450487
0.30450484 0.30450487
00000000: 10e8 9b3e 10e8 9b3e 10e8 9b3e 10e8 9b3e
00000010: 10e8 9b3e 10e8 9b3e 10e8 9b3e 10e8 9b3e
00000020: 10e8 9b3e 0fe8 9b3e 0fe8 9b3e 10e8 9b3e
00000030: 10e8 9b3e 0fe8 9b3e 0fe8 9b3e 0fe8 9b3e
00000040: 0fe8 9b3e 0fe8 9b3e 10e8 9b3e 0fe8 9b3e
00000050: 0fe8 9b3e 10e8 9b3e 10e8 9b3e 0fe8 9b3e
00000060: 10e8 9b3e 10e8 9b3e 0fe8 9b3e 0fe8 9b3e
00000070: 10e8 9b3e 10e8 9b3e 0fe8 9b3e 10e8 9b3e
00000080: 10e8 9b3e 0fe8 9b3e 0fe8 9b3e 10e8 9b3e
00000090: 10e8 9b3e 0fe8 9b3e 0fe8 9b3e 10e8 9b3e
000000a0: 10e8 9b3e 10e8 9b3e 10e8 9b3e 10e8 9b3e
000000b0: 0fe8 9b3e 10e8 9b3e 10e8 9b3e 10e8 9b3e
000000c0: 0fe8 9b3e 10e8 9b3e

find.10.weight f4 [2, 20]
0.076650314 -0.098475575 0.18603122 -0.21506847 -0.28468925 -0.023836471 0.10926742 0.05894791
0.0012922003 0.034650434 -0.1506694 0.016582886 0.03350032 -0.09573279 0.22084965 0.030837536
0.02760621 -0.057691522 0.049800694 0.2612042 0.2541402 -4.208545 0.01927652 -0.19139025
0.6088766 -0.73983645 -0.38023147 0.48175016 0.019799784 0.085935555 -0.281451 -3.8528414
0.029361106 0.18297718 -0.015539426 -0.2545026 -1.0865402 -0.028533148 0.19050677 -0.035585888
00000000: d7fa 9c3d 90ad c9bd f87e 3e3e e93a 5cbe
00000010: cac2 91be b444 c3bc 99c7 df3d 5d73 713d
00000020: 0c5f a93a 9ded 0d3d 1449 1abe d5d8 873c
00000030: a237 093d 8e0f c4bd 6926 623e 009f fc3c
00000040: 6b26 e23c f24d 6cbd d0fb 4b3d 8fbc 853e
00000050: aa1e 823e 67ac 86c0 cbe9 9d3c cefb 43be
00000060: 56df 1b3f ec65 3dbf b3ad c2be f5a7 f63e
00000070: 2833 a23c fbfe af3d 581a 90be f494 76c0
00000080: b486 f03c 5f5e 3b3e 1499 7ebc 2a4e 82be
00000090: c013 8bbf 59be e9bc 3514 433e 82c2 11bd

find.10.bias f4 [2]
0.13274468 0.28139555
00000000: 39ee 073e 1413 903e

exp_avg f4 [10, 1, 6, 6]
-0.0022910696 0.021697013 0.021227712 0.0046835383 0.0008969507 -0.011355806 0.0068217134 0.0011350426
-0.0002583226 -0.03945719 -0.026768724 -0.03414277 -0.026047768 -0.006198398 -0.019643523 0.009171575
0.009599335 -0.0027922292 -0.007640666 -0.024254583 -0.0018188152 0.027048657 0.04661728 0.02190653
-0.011150204 -0.036269624 -0.04853706 0.052673563 0.046947356 0.0064794123 0.018575735 0.0031101436
0.010823632 0.010575964 0.009980679 0.0069853184 0.009477042 -0.022456465 -0.014645178 0.003105843
-0.0057294318 -0.00853238 -0.017825585 -0.013512772 -0.015368502 -0.0034641612 -0.017202701 -0.015711078
-0.025523018 0.0040619047 -0.004287775 0.027685285 0.015930949 -0.0045298403 0.00086501334 -0.029411811
-0.028817317 -0.022390462 0.01989054 0.02181982 0.04094897 0.016016107 0.00820041 -0.0065239044
-0.008988113 0.0044111838 0.016716614 0.0050096055 -0.00218638 0.006631717 0.009707479 0.012305309
-0.009228356 -0.009296348 -0.0057292827 -0.007998936 -0.0005174796 -1.1469761e-05 -0.005539267 -0.052055508
-0.04164104 -0.0003389768 -0.00032193476 0.0042497953 -0.0041602324 -0.0048469272 -0.0028089453 0.016051011
-0.007356925 -0.001961356 -0.019566612 -0.056033336 -0.027568784 -0.030423157 0.009847261 -0.004114364
-0.053081416 -0.008273317 0.0028999425 -0.015594917 0.0015086032 0.008080191 -0.019106576 0.0028524683
-0.0030881301 0.013168363 0.011118501 0.009596138 0.00145373 -0.0042296685 -0.012101112 -0.037130423
-0.03454967 -0.01777563 -0.008535971 -0.03532104 -0.012754324 -0.011210997 0.044440076 0.0364303
0.016785093 0.036197186 -0.018413303 -0.021210156 -0.025614455 -0.023253242 0.02363296 0.006495095
0.018634101 -0.0008067662 0.031244934 -0.0075564347 -0.0068552215 0.0058266106 0.04027686 0.007153378
-0.00500115 -0.051264457 -0.0134553965 0.010800647 -0.027203282 0.019351626 -0.006678124 0.047654502
0.001190672 -0.013666884 -0.017771443 -0.007002122 0.0019666832 0.0003614208 -0.01922796 -0.0077951467
-0.009291874 0.0042303046 -0.010406142 -0.0057983976 -0.0025789894 -0.008307471 -0.02116008 -0.016755346
-0.0044528316 -0.023513319 -0.020315975 0.0097381845 0.0092643155 0.0030135247 0.008008305 -0.025515791
-0.03968709 -0.010875717 -0.020897778 -0.017650502 0.0010257822 0.005663968 -0.0087603945 0.0044440157
-0.0126351975 0.011511559 -0.0058931587 -0.0016717494 0.014535897 0.025395893 0.0035590164 -0.006108984
-0.0038322639 -0.006408989 0.015448881 0.007824323 0.007188928 -0.014037812 -0.0029061125 -0.015530737
0.00925243 -0.0111360205 -0.016186593 -0.0108621335 -0.015315411 0.0049624215 0.02104314 0.022529282
0.03407521 0.01354443 0.023177972 0.025175698 0.00561172 -0.0018151051 0.0059509687 0.028741658
0.044487 0.035445128 0.031567346 0.040630985 0.005375571 -0.00439352 0.0063563194 0.022411443
0.02857634 0.004444818 0.0014741024 -0.020260971 -0.008041097 -8.71268e-05 -0.0036392936 -0.028385043
-0.016001409 -0.059649207 0.019148586 -0.033756997 0.034007452 0.028936211 0.013710255 -0.03745033
-0.05765541 -0.050972465 -0.06964637 -0.039918113 -0.033636823 -0.02085778 0.030245896 -0.008698948
-0.021577679 0.005839228 -0.0077865273 0.010109458 0.020756649 0.021266883 -0.044777416 -0.019523013
-0.033553157 -0.024432184 -0.007853756 -0.015468428 -0.025001474 -0.012397471 0.024442835 0.011368361
00000000: c525 16bb efbd b13c bde5 ad3c 5e78 993b
00000010: 5821 6b3a b40d 3abc ae88 df3b b6c5 943a
00000020: 796f 87b9 dd9d 21bd 154a dbbc 4ad9 0bbd
00000030: 2162 d5bc ee1b cbbb 74eb a0bc 6044 163c
00000040: 8746 1d3c d5fd 36bb 8d5e fabb 8cb1 c6bc
00000050: 5065 eeba 2595 dd3c c3f1 3e3d 5375 b33c
00000060: 58af 36bc 758f 14bd ccce 46bd 3cc0 573d
00000070: df4b 403d 4051 d43b 242c 983c 8dd3 4b3b
00000080: 9a55 313c cf46 2d3c 0086 233c 19e5 e43b
00000090: 9845 1b3c 9ff6 b7bc 54f2 6fbc 668b 4b3b
000000a0: f5bd bbbb 65cb 0bbc f606 92bc ac64 5dbc
000000b0: 2bcc 7bbc fb06 63bb aeec 8cbc 85b4 80bc
000000c0: a615 d1bc ba19 853b 7780 8cbb 40cc e23c
000000d0: 9f81 823c 0e6f 94bb 10c2 623a 0af1 f0bc
000000e0: 4b12 ecbc 346c b7bc 7cf1 a23c 7bbf b23c
000000f0: 1bba 273d 3634 833c 035b 063c 7ac6 d5bb
00000100: e142 13bc b18b 903b 48f1 883c 9e27 a43b
00000110: 5f49 0fbb e04e d93b 1e0c 1f3c 359c 493c
00000120: 8832 17bc b64f 18bc b5bc bbbb f80d 03bc
00000130: 78a7 07ba 406e 40b7 bd82 b5bb 2838 55bd
00000140: cc8f 2abd b2b8 b1b9 5ac9 a8b9 de41 8b3b
00000150: 8f52 88bb f9d2 9ebb 4816 38bb 697d 833c
00000160: 5c12 f1bb 188a 00bb 294a a0bc 3683 65bd
00000170: eed7 e1bc fc39 f9bc 6856 213c c9d1 86bb
00000180: e66b 59bd ce8c 07bc f60c 3e3b d381 7fbc
00000190: 53bc c53a c762 043c 6585 9cbc 7af0 3a3b
000001a0: 3a62 4abb 1ec0 573c 602a 363c 1f39 1d3c
000001b0: 168b be3a 0899 8abb be43 46bc 1216 18bd
000001c0: f483 0dbd 339e 91bc 75da 0bbc cbac 10bd
000001d0: 83f7 50bc 54ae 37bc cc06 363d f037 153d
000001e0: e480 893c 8043 143d 7fd7 96bc ecc0 adbc
000001f0: 68d5 d1bc 957d bebc e999 c13c ced4 d43b
00000200: 8ba6 983c 2a7d 53ba 60f5 ff3c f89b f7bb
00000210: c4a1 e0bb 27ed be3b 59f9 243d e266 ea3b
00000220: b0e0 a3bb aefa 51bd 0674 5cbc 32f5 303c
00000230: 6bd9 debc 4d87 9e3c 2ad4 dabb 5e31 433d
00000240: 5310 9c3a 11eb 5fbc 6b95 91bc 0e72 e5bb
00000250: 78e3 003b 147d bd39 f483 9dbc 6e6e ffbb
00000260: f23c 18bc 5e9e 8a3b 867e 2abc 7c00 bebb
00000270: 4304 29bb 0f1c 08bc e757 adbc 8242 89bc
00000280: 0fe9 91bb 019f c0bc b06d a6bc e88c 1f3c
00000290: 5bc9 173c 8e7e 453b 4435 033c 7e06 d1bc
000002a0: ee8e 22bd 1030 32bc d131 abbc c997 90bc
000002b0: 8a73 863a cf98 b93b c287 0fbc 1b9f 913b
000002c0: dc03 4fbc fa9a 3c3c 661b c1bb 9a1e dbba
000002d0: f927 6e3c 0c0b d03c 633e 693b df2d c8bb
000002e0: b826 7bbb 7f02 d2bb 4e1d 7d3c 9731 003c
000002f0: 1991 eb3b dafe 65bc 7a74 3ebb a274 7ebc
00000300: 8197 173c db73 36bc bf99 84bc 17f7 31bc
00000310: 7ded 7abc cf9b a23b aa62 ac3c 548f b83c
00000320: 7392 0b3d 75e9 5d3c bbdf bd3c 443d ce3c
00000330: 85e2 b73b d2e8 edba 5800 c33b a073 eb3c
00000340: 0038 363d e92e 113d c34c 013d ad6c 263d
00000350: 8f25 b03b 84f7 8fbb ac48 d03b 3498 b73c
00000360: ee18 ea3c d6a5 913b ab36 c13a 56fa a5bc
00000370: cebe 03bc d8b7 b6b8 3781 6ebb c087 e8bc
00000380: 6315 83bc ba52 74bd 7fdd 9c3c c744 0abd
00000390: 664b 0b3d a20b ed3c faa0 603c 8465 19bd
000003a0: 1428 6cbd 81c8 50bd c2a2 8ebd 2d81 23bd
000003b0: c4c6 09bd efdd aabc 3ec6 f73c 0886 0ebc
000003c0: acc3 b0bc ff56 bf3b 2026 ffbb 24a2 253c
000003d0: d909 aa3c e337 ae3c 8668 37bd baee 9fbc
000003e0: 096f 09bd 0126 c8bc 0aad 00bc 4a6f 7dbc
000003f0: e4cf ccbc c31e 4bbc 573c c83c 5d42 3a3c

exp_avg_sq f4 [10, 1, 6, 6]
2.4063601 1.010032 0.7270795 0.62262005 1.1724052 0.98989224 2.2524667 9.2108135
1.0777932 4.8155 5.798554 9.745636 12.494947 2.9395752 6.779229 2.2456985
1.4475653 2.1535692 6.184389 14.180146 7.5135784 7.267445 1.849763 4.1568794
13.064716 7.8784895 6.4497504 16.631426 5.2683525 6.0990424 0.81837314 2.0049722
4.5533347 2.0141418 1.3157549 0.82308173 1.2839645 0.9580338 1.3676939 0.76004165
0.4619609 0.6332656 5.1544886 7.545703 2.682083 6.2264194 2.6585097 1.8767776
9.004924 12.516616 11.004864 7.313254 6.4640026 6.431575 2.3931203 3.0775394
1.5253924 1.2916572 4.594695 2.8875794 10.354914 11.69562 13.521578 4.358971
7.909097 3.186668 3.1062973 1.1579629 5.0183554 5.7831445 2.707567 2.2178087
1.4997338 0.12178663 0.28589395 0.2197988 0.3388417 0.073834024 0.455299 5.829438
6.173241 2.2343984 1.2695856 0.18139279 2.1796944 4.4286604 2.1534195 1.9154396
1.2262516 3.5503097 12.046442 10.404304 11.569299 5.479616 4.2308254 4.3066883
20.399273 24.63278 22.2443 12.431012 13.094097 10.46072 10.604129 10.405354
9.097769 7.4169273 6.1708465 6.670475 1.4547274 0.50483084 1.1864723 2.598479
1.2022632 1.5957899 5.849304 12.121818 4.1149063 5.553418 6.757304 3.3662932
2.9453826 2.5752852 2.192092 1.2192823 1.1877302 1.5396272 16.631695 2.4237223
10.33017 2.630963 14.893174 6.3045053 15.227672 4.338064 2.5035715 5.1306267
2.208528 8.443859 12.953334 15.850051 6.824669 2.5480816 3.4034808 14.418605
1.5017171 2.1221967 0.5296399 0.17375462 0.021092124 0.12827094 3.2576852 3.2153687
0.96163905 0.9583152 1.2686789 2.3465652 2.5384078 1.8704885 0.973078 2.1234667
0.48123866 0.61772954 1.9196708 15.743492 5.6918993 3.7389214 3.821553 4.840376
5.845934 2.2698019 2.4839303 4.915901 1.8418764 4.0854273 20.692015 13.808336
4.725447 4.4480386 2.2887526 14.582477 3.9668717 0.5206456 0.44183922 0.5006814
0.012191923 0.47565222 1.9448627 1.2228432 0.38521615 1.0604833 0.7995681 1.1918021
6.308572 1.0810174 1.73913 0.6198076 0.35550392 0.5778757 6.317955 13.322024
3.6874287 12.283308 10.099356 4.781542 2.631272 1.3545078 3.6853027 1.518357
0.7625357 0.5404676 24.198406 11.044655 1.8517581 0.85566473 1.6267031 7.00485
2.4588063 0.8146145 2.6460593 0.98049414 2.5272613 0.034409586 1.5107548 3.7821612
1.5051153 2.9250832 1.8219544 2.1216943 8.073128 6.1295547 9.257302 13.611657
9.53423 5.9817066 5.1669374 4.2733464 2.399245 3.1281612 1.3750261 2.1120338
5.9579515 3.848553 13.919879 10.36678 3.634247 4.52868 4.0420327 3.6573591
3.5813937 2.8687415 2.0187223 2.3935943 6.4861183 0.300457 0.54364544 0.054447576
00000000: ce01 1a40 bb48 813f e221 3a3f 0764 1f3f
00000010: 6011 963f 9469 7d3f 6a28 1040 7e5f 1341
00000020: 21f5 893f 9318 9a40 c18d b940 20ee 1b41
00000030: 4eeb 4741 0022 3c40 72ef d840 86b9 0f40
00000040: d249 b93f 14d4 0940 84e6 c540 e1e1 6241
00000050: 3c6f f040 e98e e840 09c5 ec3f 2805 8540
00000060: 1409 5141 961c fc40 5b64 ce40 290d 8541
00000070: 5896 a840 5b2b c340 e780 513f 7751 0040
00000080: ebb4 9140 b3e7 0040 a86a a83f 7cb5 523f
00000090: f358 a43f b441 753f 9810 af3f 1792 423f
000000a0: 2486 ec3e b21d 223f 92f1 a440 6676 f140
000000b0: 3fa7 2b40 d43e c740 0625 2a40 403a f03f
000000c0: 2b14 1041 0f44 4841 ec13 3041 2d06 ea40
000000d0: 1cd9 ce40 76cf cd40 e228 1940 68f6 4440
000000e0: 0f40 c33f 0655 a53f be07 9340 1ace 3840
000000f0: baad 2541 4221 3b41 6258 5841 b17c 8b40
00000100: 5317 fd40 5ef2 4b40 93cd 4640 2138 943f
00000110: 5e96 a040 850f b940 c748 2d40 94f0 0d40
00000120: 47f7 bf3f 456b f93d b160 923e f012 613e
00000130: a97c ad3e 4b36 973d f31c e93e c28a ba40
00000140: 318b c540 6200 0f40 c881 a23f 08bf 393e
00000150: 1d80 0b40 96b7 8d40 a0d1 0940 202d f53f
00000160: d0f5 9c3f 4638 6340 3abe 4041 0778 2641
00000170: d91b 3941 0459 af40 ec62 8740 64d0 8940
00000180: b631 a341 ef0f c541 54f4 b141 6de5 4641
00000190: 6c81 5141 1c5f 2741 83aa 2941 547c 2641
000001a0: 7690 1141 7857 ed40 9377 c540 8874 d540
000001b0: 8234 ba3f 983c 013f 53de 973f 7b4d 2640
000001c0: c3e3 993f d842 cc3f 802d bb40 f7f2 4141
000001d0: 50ad 8340 9ab5 b140 d63b d840 5971 5740
000001e0: 2681 3c40 79d1 2440 3c4b 0c40 7111 9c3f
000001f0: 8b07 983f 8112 c53f b60d 8541 441e 1b40
00000200: 6048 2541 b361 2840 714a 6e41 82be c940
00000210: 8ba4 7341 6cd1 8a40 843a 2040 182e a440
00000220: 8658 0d40 0c1a 0741 db40 4f41 cf99 7d41
00000230: b063 da40 c513 2340 a1d2 5940 9bb2 6641
00000240: 4438 c03f 12d2 0740 7b96 073f bbec 313e
00000250: 64c9 ac3c 7559 033e ea7d 5040 9ac8 4d40
00000260: fa2d 763f 2554 753f 1264 a23f 202e 1640
00000270: 4675 2240 2b6c ef3f a41b 793f e1e6 0740
00000280: ea64 f63e 8623 1e3f c6b7 f53f 58e5 7b41
00000290: 0a24 b640 7d4a 6f40 5394 7440 5ce4 9a40
000002a0: e411 bb40 6f44 1140 b7f8 1e40 104f 9d40
000002b0: 9bc2 eb3f d2bb 8240 3f89 a541 f2ee 5c41
000002c0: dd36 9740 5556 8e40 ec7a 1240 d351 6941
000002d0: 3ae1 7d40 0849 053f c038 e23e a82c 003f
000002e0: a2c0 473c b088 f33e 43f1 f83f 2086 9c3f
000002f0: 0d3b c53e ebbd 873f 7fb0 4c3f f98c 983f
00000300: d2df c940 c75e 8a3f d09b de3f b6ab 1e3f
00000310: 9c04 b63e a9ef 133f b02c ca40 0327 5541
00000320: d5fe 6b40 6e88 4441 f696 2141 6402 9940
00000330: c366 2840 8360 ad3f 00dc 6b40 8659 c23f
00000340: 8a35 433f 165c 0a3f 5696 c141 e8b6 3041
00000350: 6906 ed3f d80c 5b3f cf37 d03f bb27 e040
00000360: 155d 1d40 938a 503f 0959 2940 aa01 7b3f
00000370: a6be 2140 11f1 0c3d 6a60 c13f ee0e 7240
00000380: 9ea7 c03f 9034 3b40 cd35 e93f d7c9 0740
00000390: 882b 0141 5025 c440 e91d 1441 59c9 5941
000003a0: 358c 1841 246a bf40 8d57 a540 41bf 8840
000003b0: 3b8d 1940 cb33 4840 db00 b03f 902b 0740
000003c0: 8aa7 be40 b14e 7640 d3b7 5e41 55de 2541
000003d0: 8197 6840 f2ea 9040 5558 8140 2c12 6a40
000003e0: 8e35 6540 7699 3740 bf32 0140 a630 1940
000003f0: 488e cf40 80d5 993e 592c 0b3f 6c04 5f3d

exp_avg f4 [10]
0.021252366 0.028779114 -0.056024626 -0.019222628 -0.026813993 0.028714739 -0.11599766 0.013458821
0.005523756 -0.018164989
00000000: 7119 ae3c 2dc2 eb3c 147a 65bd c678 9dbc
00000010: 05a9 dbbc 2c3b eb3c 2e90 edbd 6382 5c3c
00000020: a000 b53b bece 94bc

exp_avg_sq f4 [10]
5.317326 4.000633 24.514957 32.93135 2.4836502 7.9776134 18.378344 6.6398773
6.536172 14.115678
00000000: 8927 aa40 2f05 8040 a21e c441 b4b9 0342
00000010: 20f4 1e40 9c48 ff40 d906 9341 e079 d440
00000020: 5228 d140 d1d9 6141
