scheduler/BaGTI/checkpoints/energy_latencyGNN_BiGRU128L3_4_Trained_Normal.ckpt (torch, 955343 bytes, 276 tensors)

find.0.weight f4 [128, 360]
00000000: 57dd 5abd 1b29 1b3d 2638 813c 2fa0 0a3d
00000010: 92ce c8bb c436 5abd 873b 03bd 2f01 6c3c
00000020: 416e 113d 96e0 c8bb 7933 59bd 1b1b 0f3d
00000030: 2f68 6a3c a041 1e3d 9ded c8bb c5f4 59bd
00000040: e527 2f3d cdd2 743c 30d0 1b3d dfe2 c8bb
00000050: ce4c 5abd 8149 3139 a345 763c eafa 103d
00000060: c9e8 c8bb 4840 5abd 8e03 dabc e4bc 613c
00000070: 094b 193d a6c8 c8bb 9fcd 59bd 2216 a73c
00000080: c782 803c cd60 0f3d aed4 c8bb 9a9d 59bd
00000090: 300c 01bd e391 743c 4e92 143d b8e9 c8bb
000000a0: ca4d 58bd 3540 1ebc 54bd 813c bc9e 093d
000000b0: 6cd5 c8bb 0fd8 59bd 22b4 0dbd bcea 833c
000000c0: fa94 163d dcb3 c8bb 6065 58bd a212 f5bb
000000d0: 16de 6f3c 5478 0e3d d7c8 c8bb 0875 58bd
000000e0: 9135 04bd 44a0 803c 98f7 1e3d 3ccb c8bb
000000f0: 2d64 59bd 2b67 2c3d 9176 753c 7d7d 173d
00000100: 98d4 c8bb c0b8 58bd 883b d7bc d783 6e3c
00000110: e7b1 0a3d cdd2 c8bb 6ebf 58bd 6a89 89bc
00000120: 6b64 7e3c ddbc 143d edd1 c8bb 2a70 58bd
00000130: 4091 dbbc fe3b 723c 0d7a 133d d9cc c8bb
00000140: f36f 58bd c7ee 08bd 51d6 6b3c d38b 0c3d
00000150: 09cf c8bb 3870 58bd 6a10 c1bb f0ed 783c
00000160: b292 123d 74cf c8bb fb6f 58bd 1ad0 09bd
00000170: 1024 833c 43ed 113d 22cf c8bb 4870 58bd
00000180: c635 2f3d 0954 773c 26e3 173d abcd c8bb
00000190: 40ab 59bd 7cf1 cd3c 6d45 813c e2ab 173d
000001a0: 9cf5 c8bb 808f 5abd edd9 363d 49f7 7f3c
000001b0: 77e2 0f3d fdba c8bb f7f2 59bd b1cd 463d
000001c0: a666 813c 138b 183d 2ec6 c8bb cf2c 59bd
000001d0: fbfd 6fbc d3b7 653c f09d 193d 8cea c8bb
000001e0: df5a d0bb 2261 7bba 3f1c da3c e76e f0bb
000001f0: c558 5cbc 38f4 ec3c c228 80ba 561f dc3c
00000200: 4f3b f0bb 0773 01bc 3b1d f43c dec1 97ba
00000210: 761d d93c b068 f0bb edf2 183d 2e98 2e3d
00000220: cf86 77ba 4e08 da3c 4cee efbb a765 b6bc
00000230: 7a10 c33c 1fbe 87ba b20a da3c 604f f0bb
00000240: 26c0 04bc 470e 1b3d d625 86ba ec20 da3c
00000250: ad47 f0bb 18b3 3e3c 398c 3f3d 30b4 a4ba
00000260: 5a6e da3c 6b44 f0bb 50ee 87bc c65a 0ebc
00000270: dd0d a2ba e5e6 da3c de63 f0bb 7bc5 7fbc
00000280: d1c1 0d3d 9857 8fba 26a1 da3c 652a f0bb
00000290: f361 c53c c3cb a6bb b2b6 99ba 2d70 da3c
000002a0: d838 f0bb 0440 a1bb 5646 9f3c 67cc 9aba
000002b0: 79a6 da3c 7289 f0bb 3bf5 1d3d f6a8 b43c
000002c0: f961 8cba 2a8b da3c dd23 f0bb dfbd e53c
000002d0: ab4e 833b 34eb 92ba 5e6d da3c 3261 f0bb
000002e0: 62d0 f63b 79e8 953c 6d59 7cba fe49 da3c
000002f0: 1e4a f0bb 893d 0d3d dd1a 143d 18bf 72ba
00000300: 5f19 da3c 1132 f0bb 7014 ecbc 61f4 213c
00000310: a64b 8eba 3044 da3c 91f9 efbb 3490 253c
00000320: 5b36 353d 69bf 82ba 46e9 d93c 0449 f0bb
00000330: f179 8abc 4327 38bc a351 97ba 06ca da3c
00000340: b67b f0bb 7d77 963c 90de 2f3d cc16 afba
00000350: 748b da3c 91f6 efbb 9d8c 94bb 2502 d4bb
00000360: fe59 6bba 5ebd da3c 5159 f0bb 182c 183d
00000370: f441 723c d998 95ba 30b8 da3c f751 f0bb
00000380: e354 a0bc 154c 4c3c 0241 bbba 1aa8 db3c
00000390: d210 f0bb e033 eb3c 7142 253d 4d26 9dba
000003a0: e6d6 d83c 1c70 f0bb 1144 dabc 10b5 3d3d
000003b0: bcb7 b1ba 6697 da3c 0e18 f0bb 8d40 df3b
000003c0: ebf9 29bd 216f 2d3e aa62 f43d 5f91 b33d
000003d0: b764 37be c23c 8a3d 83e6 2dbd 4a31 f3bd
000003e0: 0154 eb3c 6b3f 92bd 4b84 163e 01d8 1a3e
000003f0: f6f3 d2bd 9bbc 4fbb 5e9d 403d e604 ee3d
-0.053433742 0.037880998 0.015773844 0.03384417 -0.0061281407 -0.053274885 -0.03203919 0.014404579
0.035505537 -0.0061302884 -0.053027604 0.03493796 0.014307066 0.038636804 -0.0061318413 -0.053211946
0.042762656 0.014942837 0.03804034 -0.0061305608 -0.053295903 0.00016907418 0.015031251 0.03539554
-0.006131266 -0.05328396 -0.026613023 0.013777945 0.037425075 -0.006127435 -0.05317461 0.020396296
0.01568736 0.035004426 -0.006128869 -0.053128816 -0.031505764 0.01492736 0.03627234 -0.006131377
-0.05280856 -0.009658863 0.015837349 0.033598647 -0.0061289575 -0.053184565 -0.034595616 0.016103141
0.03676317 -0.0061249565 -0.052831054 -0.007479028 0.014640352 0.034782723 -0.0061274576 -0.052845985
-0.032277647 0.01570142 0.038810343 -0.006127743 -0.05307405 0.042090576 0.014981882 0.03698491
-0.006128859 -0.052910566 -0.026273504 0.0145578 0.033861067 -0.006128645 -0.052916937 -0.016789157
0.015526871 0.036312927 -0.0061285407 -0.052841343 -0.026802659 0.014784811 0.03600507 -0.0061279354
-0.052841138 -0.03343084 0.014394359 0.034313034 -0.006128196 -0.052841395 -0.0058918493 0.0151934475
0.03578443 -0.006128246 -0.052841168 -0.033645727 0.016008407 0.03562666 -0.006128208 -0.052841455
0.04277589 0.015095719 0.03708186 -0.006128033 -0.053141832 0.025139563 0.015780175 0.037029155
-0.0061327945 -0.05335951 0.044641424 0.015622922 0.035128083 -0.0061258064 -0.053210225 0.048536006
0.015796017 0.037242007 -0.0061271405 -0.05302125 -0.014647956 0.014020878 0.037504137 -0.006131476
-0.006358489 -0.0009589364 0.026624797 -0.0073374393 -0.013448899 0.028925046 -0.0009777772 0.02687041
-0.007331289 -0.00790096 0.029799094 -0.0011578163 0.026503306 -0.0073366985 0.037341047 0.0426256
-0.00094423903 0.026615288 -0.0073221084 -0.022265268 0.023811568 -0.0010356343 0.026616428 -0.007333681
-0.008102452 0.037855413 -0.0010234665 0.026627026 -0.007332763 0.011639379 0.046764586 -0.0012565907
0.026663948 -0.007332375 -0.016593128 -0.008688634 -0.0012363751 0.026721427 -0.007336124 -0.015611048
0.034608666 -0.0010936139 0.02668817 -0.0073292726 0.024094557 -0.0050902083 -0.0011727421 0.026664818
-0.007330995 -0.0049209613 0.019442718 -0.0011810184 0.026690708 -0.0073406035 0.038563948 0.022053223
-0.001071035 0.026677687 -0.007328494 0.02804464 0.0040071807 -0.0011209012 0.026663478 -0.0073358053
0.0075321654 0.018299328 -0.00096263626 0.02664661 -0.007333054 0.034482513 0.03615843 -0.00092600426
0.026623426 -0.007330187 -0.02881834 0.009884925 -0.0010856285 0.026643842 -0.007323452 0.0101051815
0.04424129 -0.0009975258 0.026600491 -0.007332923 -0.01690385 -0.0112398295 -0.0011544715 0.02670766
-0.0073389662 0.018367523 0.04293686 -0.0013358234 0.026677825 -0.007323094 -0.004533364 -0.006469982
-0.00089779485 0.026701625 -0.007334866 0.037151426 0.014786232 -0.001141335 0.026699156 -0.0073339897
-0.019571727 0.012469311 -0.0014286342 0.026813556 -0.007326224 0.02871126 0.040346567 -0.0011989564
0.026469659 -0.007337583 -0.026643785 0.046315253 -0.0013558785 0.02668352 -0.0073270863 0.006813115
-0.041498106 0.16936924 0.11932881 0.08767962 -0.17909513 0.0674987 -0.04245616 -0.118746355
0.02872658 -0.07141002 0.14698903 0.15121461 -0.10300438 -0.003169811 0.047025077 0.11622028

find.0.bias f4 [128]
00000000: 94f3 8b3d b39b 79bd 926d 963c 7b0a 0e3d
00000010: 604e 6cbd 9ede fc3b 2779 1dbd 862c a73d
00000020: 9afc 9dbd 914c 3d3d 458b 46bd db55 c43d
00000030: 6a0e e2bc 6633 8a3d 79e7 a63d 5035 573c
00000040: 96a8 8c3d 3cbc 9abc 239c 18bd 22bf 0a3d
00000050: a9e2 513d f166 9dbd 9e4d a9bc 9e4c 0b3c
00000060: 17ee 403c bfdc a83c 7591 1c3d 99e6 233d
00000070: 1624 9cbd 7a51 9dbc 18b7 b83c ee48 64bd
00000080: c155 8dbc 8d9f 23bd cd3a 103d eb48 28ba
00000090: f70f 4cbd 4d76 01bd 66cd 513d 2a2d 1dbd
000000a0: aea7 66bc 3216 aa3d cd79 a2bc 6762 243d
000000b0: 0e30 803c 0e08 983d f20b 533d 4cf3 bfbb
000000c0: 4c9a 6f3a bdc8 3cbd d415 45bd cf92 d1ba
000000d0: 0906 45bd b555 31bd 261a 6bbd 05b4 16bd
000000e0: 0482 36bd 8e9d a2b9 97b7 39bd db03 36bd
000000f0: 9744 12bd 7213 96bd c2b8 a2bd e750 9d3c
00000100: af80 ccbc d5be c6bb 2946 473c 2206 70bd
00000110: a66d 2fbd 7435 a4ba d3f8 29bd 8f2a 333d
00000120: 4d17 5fbd 7c65 18bc 1049 dc3c f8c5 42bd
00000130: 99b7 253d 7996 c33c 2a00 60bd f0ec e9bc
00000140: fb2f 12bd eaf9 663b 0477 87bc 7fb1 50bd
00000150: 6ef6 77bd 44eb b3bb e79d 803b 6f47 08bd
00000160: ac26 41bd 61ab 143d 78db 853b d037 3a3d
00000170: b50a b83b b4c1 b73d 66a1 ad3b 3d51 423d
00000180: 968d 9f3b 7658 413d e69a 0fbd b244 e2bc
00000190: bc05 b63c b9ec 8fbd 59d6 26bc 205c 85bd
000001a0: 1647 bd3d 5721 78bd ff08 163c 7c53 f93c
000001b0: 9e34 debc 9e23 5fbd 0543 093d 8a09 ccbc
000001c0: 0e70 bc3b 7698 59ba c3ac 3ebb a8f6 12bc
000001d0: a4f9 2abd 29d2 14bd 826e 603d 287c 0dbd
000001e0: 7de1 84bd c0c3 da3c 8b81 ebbc 2c8d 14bd
000001f0: d932 83bd dab5 0ebd baab 753c 32e1 623d
0.06833568 -0.060939502 0.018362794 0.034677964 -0.05769193 0.0077169677 -0.038445618 0.08162789
-0.077141955 0.046215598 -0.04847266 0.09586688 -0.027594764 0.06748085 0.08149619 0.013135269
0.06868093 -0.018888585 -0.03725828 0.033873685 0.05124155 -0.0768565 -0.020666894 0.008502154
0.011775515 0.020613072 0.038224656 0.040014837 -0.0762407 -0.01920389 0.022548243 -0.055733614
-0.017252805 -0.03994708 0.035212327 -0.0006419557 -0.049819913 -0.03160696 0.051221274 -0.03837315
-0.014078064 0.08305015 -0.01983347 0.040132906 0.015647914 0.07423411 0.051525064 -0.0058578607
0.00091401185 -0.046089876 -0.04811652 -0.0015989187 -0.04810146 -0.043294627 -0.057397984 -0.036792774
-0.044557586 -0.00031016435 -0.0453411 -0.04443727 -0.035709944 -0.07327928 -0.07945396 0.019203616
-0.024963705 -0.0060652294 0.012162724 -0.0585996 -0.04282918 -0.0012528137 -0.041497063 0.04374176
-0.05446558 -0.0093015395 0.026890308 -0.04755208 0.040458295 0.023875462 -0.054687656 -0.028555363
-0.03569029 0.0035244175 -0.016536243 -0.050950523 -0.060537748 -0.0054906923 0.0039250734 -0.03327125
-0.04715602 0.036296252 0.0040850006 0.045463383 0.0056165108 0.08972493 0.005298781 0.047440756
0.0048691733 0.047203504 -0.035059832 -0.027620647 0.022219531 -0.07027573 -0.01018294 -0.06511712
0.09242074 -0.06057867 0.009157418 0.030435316 -0.0271247 -0.054477327 0.03351118 -0.024906892
0.0057506626 -0.00083006115 -0.0029094673 -0.00896994 -0.041741982 -0.036333237 0.05479289 -0.034542233
-0.06488321 0.026704669 -0.028748294 -0.036267444 -0.06406183 -0.034841396 0.014994556 0.055390544

find.2.weight f4 [128, 128]
00000000: 0fbb 19bd edab 0a3c 969e 5d3c 5c79 99bc
00000010: 36f3 933c b572 f2bc fcba b8bc 037b 52bb
00000020: 539c 00bc d229 9abd 1a7a 8e3b 2605 2ebd
00000030: c959 ccbb df05 0fbc 50ac 69bd bbf0 abbc
00000040: c002 7ebc 3b41 343a c8e5 8c3c e0ea 19bc
00000050: 89c5 31bc 1d11 f4ba 3db9 04bc 3c00 8dbb
00000060: 4a2f bf3b 1488 99bd 2b43 073d 92bf 4dbc
00000070: 4545 20bd dbf1 923d b1d9 d73b 4742 643c
00000080: 7552 a0bc 9930 39bd f944 853c 7c81 28bd
00000090: 5c02 eebc 8ec7 8a3c 070f 8ebd 0b8d 9abc
000000a0: e857 133c f865 2ebc a656 423b d57f 573d
000000b0: 7727 36bd bc72 63bc 39ea ddbc c746 7abc
000000c0: 62b0 033d 4880 bfb9 8ca1 c93b d0e7 1e3d
000000d0: 988c bfbc 2ba9 b23a a265 703c 01a7 28bc
000000e0: a101 9c3c 2f28 f2bc f673 debb 233b 07bd
000000f0: c2a4 a73b f38c 773c 5e47 343b 1021 60bc
00000100: bbeb 51bb a9a9 85bd af3d 4c3d c656 99ba
00000110: 3be2 853b 01fb 12bd 85bd 93bd fc1f 2fbd
00000120: 0b37 f83b 3005 4cbc 943f 6fbd c1d7 853c
00000130: 447e 8cbd d659 b1bb 9cdc 3d3c ee5a ccba
00000140: 0dbe 493b f519 043d 1660 5f3c 2856 b3bc
00000150: ad6f ecbc 4a8c 613b da6c 16bd 6159 873b
00000160: 7c99 583b 05dc 8dbb f35e 35bc 3775 5abd
00000170: 6d47 d53b 5e7f 3c3c f04c ff3c 93ca e1bc
00000180: 6a86 15bd 7caf 4fbd 7275 b33b f277 3a3b
00000190: ebce 0a3b 4682 013b a32a 863b ba90 e23a
000001a0: 7983 92ba 2a1f 79bc 4817 a2bc 544c cebb
000001b0: 5fa0 fd3c 68e5 cabc ae8f 51bd ba33 833c
000001c0: ee21 62bd 7bb2 183d 48bb 323d 1b56 a33d
000001d0: fb28 b4bc 3431 763b 8492 41bd 82b2 b73a
000001e0: 92cf 263b 1f96 0ebd 0cf2 9d3b 08d6 b5bb
000001f0: 29fe 13b9 ca5f 223d 3ca8 03bc 23a4 5f3c
00000200: 8764 173d 5ded ff3c 9e72 123e 3d66 913d
00000210: ffc8 b4bd 15aa 083d de79 8fbd b316 0b3d
00000220: bb52 e4bb 3836 853d f98b b23c ae6c 7a3c
00000230: 6333 0d3c a031 3c3e 13d7 37bd f266 00bb
00000240: 07dc ed3d e998 823b ea2a 643d b0b1 9b3d
00000250: 9d8b 263e cb68 08bd 6196 eabb f86f bd3d
00000260: 7c37 63bd b1d9 90bc 4cdd eb3d c262 1f3e
00000270: 1b92 0dbd 393b a53d c973 3a3d 3f5f 2abd
00000280: 4770 073e ffc2 60bc 723a 863c c6f8 053c
00000290: 4301 4b3c 736e d6bc 9a2f 9b3d 0600 65bd
000002a0: 4aa0 55bd 1647 863e 2c2a 62bb 251e bdbd
000002b0: 1c5a e73d 1f72 e33d 19c0 403d bbb5 0d3d
000002c0: 7ea2 ab3a 5249 29bc 2981 00bb 5e59 2abe
000002d0: 2cea 4bbc cad5 96bc a191 5cbd 100b 783c
000002e0: 785b da3a f223 bdbb 9453 b2bc a06e f33d
000002f0: a956 f4ba 2dbe 87bd e88a e4bb efaf 813d
00000300: b49e e03c 96f4 39be 5b5f 7dbd 8165 0d3d
00000310: 6675 753c 12ec e63d cd05 32bc 4730 133e
00000320: 716e 77bc 32fa b7bc 9ef7 873c e214 1c3d
00000330: 59cc e33d 23d5 483e fa2c 36bd b69b 0e3c
00000340: 465a b3bc b09b 383e 9438 5ebe dceb fd3c
00000350: 40cc 7f3d b7a1 953c 21a1 303e f15b 83bc
00000360: 669d f9bc 01ce 973c 6810 c63c 33b8 763e
00000370: d8db febd 1b02 4f3d 3e6b b1bd c4f1 873d
00000380: 2493 91bd 0a6d 1b3c eed9 f6bb 1293 883a
00000390: 6bbc b8bc 19e7 3dbc dfd9 cf3c 081b 36bc
000003a0: 7bbe b13d e19b e5bc 0a1b 2e3d 0f13 ee3d
000003b0: edb9 d2bd 16a9 67bd 93b3 39bc f592 6e3d
000003c0: 0211 8b3d 0c84 413e 5d07 88be 0ee7 edbd
000003d0: 150f 8dbd 3f77 34bc 1314 d23c f95d 5abc
000003e0: 14e3 06bc 29c1 7b3d 7bd2 7dbd 6785 0cbd
000003f0: cd28 80bc 5796 65bd 1a69 94bc 613d 63bc
-0.03753191 0.008463842 0.013526579 -0.018734626 0.018060308 -0.029595712 -0.022550099 -0.0032116778
-0.007849771 -0.07527508 0.0043480517 -0.04248538 -0.006236289 -0.008729427 -0.057049096 -0.020988813
-0.015503585 0.0006876175 0.017199412 -0.0093943775 -0.010850319 -0.0018620823 -0.008100805 -0.0043030065
0.0058344947 -0.07496658 0.03302304 -0.012557881 -0.03912856 0.071750365 0.00658723 0.013931817
-0.019570569 -0.045212362 0.01626824 -0.04113911 -0.02905386 0.016940858 -0.0693646 -0.018866083
0.008993126 -0.010644428 0.0029653697 0.052612145 -0.04447123 -0.013882335 -0.027089225 -0.015275664
0.032150634 -0.00036525936 0.006153291 0.038795292 -0.02338247 0.0013630738 0.014672669 -0.010293723
0.019043745 -0.029560177 -0.006788726 -0.03301538 0.005116076 0.0151092885 0.0027508358 -0.013679758
-0.0032031375 -0.06526501 0.049863514 -0.0011698834 0.0040858067 -0.035883907 -0.07213882 -0.042755112
0.007574921 -0.012452409 -0.058410242 0.016338231 -0.06860021 -0.0054123206 0.011588242 -0.0015591064
0.0030783445 0.032251317 0.0136337485 -0.021891668 -0.028861845 0.0034415894 -0.036724903 0.004130528
0.0033050468 -0.004329207 -0.011070001 -0.05333444 0.0065087588 0.011504976 0.031164616 -0.027562415
-0.03650514 -0.050704464 0.005476647 0.002845284 0.0021180462 0.0019761487 0.004094438 0.0017285564
-0.0011178098 -0.015205184 -0.019786492 -0.00629572 0.03096026 -0.024767593 -0.051162414 0.016015876
-0.05520814 0.037279587 0.043635637 0.07975408 -0.021992197 0.0037565948 -0.04725887 0.0014014991
0.0025453311 -0.034811135 0.004820114 -0.005549196 -0.00014113694 0.039642133 -0.008035716 0.013649973
0.036961105 0.031241113 0.14301535 0.070995785 -0.088273995 0.033365328 -0.07005666 0.033957195
-0.00696787 0.06504482 0.02179526 0.0152847 0.008618209 0.18378305 -0.044882845 -0.001959261
0.116142325 0.0039855135 0.05570499 0.076022506 0.16264196 -0.033303063 -0.00715904 0.09249872
-0.055472836 -0.017681928 0.115168184 0.15565017 -0.034563165 0.080679365 0.045520578 -0.04159474
0.13226424 -0.013718366 0.01638529 0.008176988 0.012390438 -0.026175713 0.07577439 -0.055908225
-0.052154817 0.2622611 -0.003451 -0.09234265 0.11296484 0.11105751 0.0470582 0.03459714
0.0013094691 -0.010332422 -0.0019608235 -0.16635653 -0.012445968 -0.01841249 -0.05384982 0.015139356
0.001665934 -0.0057721073 -0.021768369 0.118863344 -0.0018641549 -0.0662807 -0.0069745667 0.06332385
0.027419426 -0.18159708 -0.061858516 0.03452063 0.014981603 0.112754956 -0.010865641 0.14373885
-0.015102015 -0.02245817 0.016597565 0.038105853 0.111229606 0.19612555 -0.044476487 0.008704117
-0.021893632 0.1802814 -0.2170127 0.030996256 0.062450647 0.018265588 0.17248966 -0.016035052
-0.030470561 0.018530848 0.024177745 0.24093704 -0.124442756 0.050539117 -0.08663033 0.0663791
-0.07108143 0.009486446 -0.0075333035 0.0010419807 -0.022550782 -0.0115907425 0.025372444 -0.011114843
0.086789094 -0.02802843 0.042506255 0.11624729 -0.10289369 -0.056557737 -0.011334318 0.058245618
0.06790353 0.18898028 -0.26568118 -0.11616336 -0.06887642 -0.011014759 0.025644338 -0.013328069
-0.008232851 0.06146351 -0.061968308 -0.03430691 -0.015644455 -0.05605158 -0.018116523 -0.013869614

find.2.bias f4 [128]
00000000: d0fa b2bc 93f9 433d 77b1 eebc 0741 91bd
00000010: 26bb 653d 2f46 97bd 0481 db3d f99b f93c
00000020: 84f8 e63c af00 63bc dd67 9a3d 8e2b a73d
00000030: 1ae7 c93d 6986 acbc 7d9e fcbc aaca 843d
00000040: 4d57 e2bc 8e6d c53c 7223 443c 1675 933d
00000050: 6c12 e33c 8441 08bd 8b0e c23d e347 d03c
00000060: 0009 52bc e96e f8bc c930 3cbc 11d3 76bb
00000070: 46d1 933d a806 01bd c91f fb3c 2bdd 743c
00000080: e7b4 00bd 75bc 4d3d 5178 edbc e842 933d
00000090: 3148 2e3d dc8e 473c 9e17 3fbd 592c 803b
000000a0: af89 e33c 319e 5b3d 1f69 20bd 9d64 c63c
000000b0: 7890 113d 72c0 0c3d 41c0 893d f74d 6c3d
000000c0: 8297 4a3d c0a1 1d3d f8f9 4cbd 229e a33d
000000d0: c35a 15bd 57b8 e8bc 7cad f43d 5ed8 84bb
000000e0: b87e 43bd 95a6 a23d ef09 e13d ce94 f139
000000f0: aa65 d13d e0c5 573c ed9c 803c 8118 46bd
00000100: 4976 20bd baa3 98bc 4223 943d 917c 6fbc
00000110: 0e9c 7b3d 0177 c33a a461 473d cb09 e83c
00000120: c48b a0bc 941f 7e3c fe06 f3bc 6458 6cbd
00000130: b4cc e53d 5ac7 3e3d 3b59 05bd ae06 9b3c
00000140: 1195 5f3d bd5b 843d 08a8 4cbd b135 533b
00000150: 5982 143d a658 5fbd 0048 773d a2cb ca3c
00000160: 221a a93d abce d23c f020 853d f963 06bb
00000170: 8dc1 7ebc d82b 7a3d 1594 603d 7458 b33d
00000180: e5a0 bdbb f164 333d 43a6 adbc d11b 723d
00000190: 1c31 023e 49cc 06bd 9891 853c 15ff cb3c
000001a0: 2015 86bd 4e4b d8bc a3b2 8d3d 650b 3dbd
000001b0: c379 60bc 5d48 4c3d 91dd 033e 491e db3d
000001c0: 8f74 ddbd a4f9 bb3c ce82 1fbd f95e 99bc
000001d0: 4d79 69bd 8d5e 953d 4936 6abc 9de2 6fba
000001e0: 4164 a5bb 5d9d 9b3d c84d 0e3d c73e 12bd
000001f0: 0db6 38bd a87b a73d 193b 0fbd 1f73 0f3d
-0.021848112 0.047845434 -0.029137356 -0.07092481 0.05608668 -0.07386433 0.10717967 0.030469881
0.028194673 -0.013855143 0.075393416 0.08162604 0.09858532 -0.021060186 -0.030837292 0.064839676
-0.027629519 0.024100091 0.011971341 0.07200067 0.027718745 -0.033265606 0.0947543 0.025424903
-0.012819529 -0.030326324 -0.011486241 -0.0037662426 0.0721765 -0.03150049 0.030654805 0.014945309
-0.031422522 0.050228555 -0.028988035 0.07190496 0.042549316 0.012180056 -0.046653382 0.0039115367
0.027775614 0.05361766 -0.03916275 0.024217898 0.035538167 0.034363218 0.06726123 0.05769154
0.049460895 0.038484335 -0.050043076 0.07989146 -0.03646351 -0.028408213 0.11947152 -0.0040541133
-0.04772827 0.07941929 0.10988223 0.0004607797 0.10224469 0.013169736 0.015699828 -0.048363212
-0.039175306 -0.018632758 0.072332874 -0.014617101 0.061428122 0.0014912785 0.0486771 0.028324982
-0.019597895 0.0155104585 -0.02966642 -0.057701483 0.11220685 0.046576835 -0.0325558 0.018924084
0.05458552 0.0646281 -0.049964935 0.0032228047 0.03625712 -0.0545279 0.0603714 0.024755303
0.082569376 0.025733313 0.06500423 -0.0020506366 -0.015549076 0.06107697 0.054828722 0.087571055
-0.0057870024 0.043797437 -0.021197444 0.05910856 0.12714046 -0.032909665 0.016304776 0.024901906
-0.06546998 -0.026403096 0.06918838 -0.046153445 -0.013700905 0.0498737 0.1287749 0.10699136
-0.108132474 0.022946186 -0.038943104 -0.018722044 -0.057000447 0.07293425 -0.014295169 -0.00091508945
-0.0050473516 0.07598374 0.034742147 -0.0357044 -0.045095492 0.081778824 -0.03496847 0.035021897

find.4.weight f4 [64, 128]
00000000: eeab 99bc 7e83 343e 10e6 113d f20d 81bd
00000010: 1b64 27bd 0825 043d ce36 5abd 5f5a d33d
00000020: 88e5 7abd 642a 68bd ee3b fabd 7007 5c3e
00000030: eb7f b1bd cf56 103e 877c 6b3b a668 06be
00000040: 6906 9b3c a398 0ebc ba64 1bbd 8026 b63d
00000050: 83e4 493d 9052 2fbc a0eb 14bd ef9a a3bb
00000060: 50f4 54bb b490 0b3e 20e5 183d cb3e 11bd
00000070: b092 d3bd dfb1 8b3c f91c 07bd f193 953c
00000080: 2f84 93bc 5ceb fe3d 3ac7 14bc 3d90 1cbe
00000090: 29d1 8cbd ee32 883b 4df1 5a3d af08 9bbd
000000a0: 28bf 0fbd 3c6b d33c f170 653c 5e82 0dbc
000000b0: 93e8 2fbc 8905 f4bb 0ad4 35bc 16e7 9bbd
000000c0: 1edd 88bd 7023 8a3d 237f 82bd 5508 52bd
000000d0: f9f0 673d c9af 99bc 22d9 3fbd 9efa c53d
000000e0: 5e97 6fbd ff10 17be a094 54be aecf ccbd
000000f0: bdd3 f83d b886 91bd f327 d23d 66e3 1abd
00000100: ae9d 15bd 6bc2 bb3d e5fd d2bd f28f d4bc
00000110: f722 c0bc faae 29bd 811f de3b 1697 013d
00000120: 5bd9 bebc 7d16 6abc 413b 33bd f880 113d
00000130: 14a6 f0bd 2b56 7abb cf6b 32bb a39a 163d
00000140: 2a13 6639 0314 843d dc8d 843b 6903 02be
00000150: daba 71bd deae d53b 8323 033d dad3 813d
00000160: 631c c03d bdba 14bb eb70 ab3c 896a a9bc
00000170: ad12 853c d41e 053e 197b 323d 2132 35bc
00000180: 3528 0dbd 23db 6a3d 6113 973d a9b8 05bd
00000190: 6353 fbbd dbe7 7abc 18e1 ac3d dfd3 87bd
000001a0: 9583 d03c a270 a63c 8898 8abd ad7d 7d3c
000001b0: 6bb4 503e 0baf b0bc d976 ecbd b0bb a1bd
000001c0: 2494 21be 9d73 d33d 4266 0a3c 923b eb3c
000001d0: 2675 2f3c 7d5c 973d 60f6 89bd 1c8a 873d
000001e0: 89fc 1d3e bb88 453e 0375 00be 3d20 773c
000001f0: a792 5e3c a156 20ba 382f 943c b38f dcbc
00000200: 939f 92ba eeeb 6cbd f116 c9bc f176 cf3b
00000210: d488 443d b5c8 023e 8d8d 533d 0ab9 f33d
00000220: 125c 6ebd a003 77bd 3f03 a33d 89dd 553d
00000230: af92 cb3d f5b7 40bd eab9 a23c a7ad aa3d
00000240: 3b14 17bd 6779 4abc 9dae 133e 5e96 03bb
00000250: 73c1 08be f889 be3b ad67 2cbd 44b1 f9bd
00000260: b653 abbc 7152 f2bc c8a8 0a3d 46a2 07bd
00000270: e63c 2d3d eb4e 37bd 8255 523d 7bef 0d39
00000280: 3cfd 9b3b d59f c0bd f1c7 683c a825 5c3d
00000290: e4d8 8e3d 3d9d f13d b3b5 62bc c874 c53d
000002a0: b2cb bf3d dc12 84bb ef64 f0bc 7386 4c3d
000002b0: 5764 123e 217a 823d 30a3 b13b c16e 9d3d
000002c0: ac5c f4bb d9f5 323c 1d29 873d 5814 023d
000002d0: acf2 3cbd c364 7b3b 5fe9 3e3d 1ebf 113e
000002e0: 65fb 0b3d b4e7 f93c 341d c73d c46e c3bc
000002f0: c48f 02bd 65d2 ef3d 536a 123c eab9 78ba
00000300: a921 363c 284e 493d 02fb 8e3d ffd0 033c
00000310: 844c 3f3d af2c 9a3d 5cca f13d b07a a3bd
00000320: d4d9 483d 3953 103d e6de e8bc f0f6 44bb
00000330: 74f6 af3d 0ca2 adbc fcb6 07bd f25e 8abd
00000340: 9229 813d 5a55 2ebd 77fb 22bd 32e1 6ebd
00000350: 30aa 49bc fa04 5b3b 0227 30bd efb3 0b3e
00000360: 6344 a43d d6a8 a03c 262a 6dbd 72f4 1f3d
00000370: 390d a93b 5ad9 933c 0d14 f8bd 0b69 713d
00000380: 0e3b c7bc 660c 063e d64f 483c f4f2 f23c
00000390: 885b 343d a92c 0c3b 7df0 3dbc 68f0 afbc
000003a0: d761 203c c657 b93b f273 1f3d 149c 1e3c
000003b0: e2a2 403d a46e 1a3c 4492 763d f7d8 4cbc
000003c0: fcb4 2e3d 3f83 09bc 59ca 25bb a1f8 0f3d
000003d0: 3386 2abc e242 863b d1db d33c 7494 c4bd
000003e0: 9590 6dbc 9631 b93b 892e 9a3d 383e d7b9
000003f0: 8d11 17bc 980a f3bd dcf2 11bd 17a8 df3c
-0.01875874 0.17628285 0.035619795 -0.06301488 -0.040866952 0.03226188 -0.053274922 0.10319971
-0.061254054 -0.05668105 -0.12218462 0.21487212 -0.086669765 0.14095615 0.0035932378 -0.13125858
0.018923955 -0.008703384 -0.037937857 0.08894062 0.04929019 -0.010700837 -0.036357522 -0.0049928348
-0.0032494254 0.13629419 0.037327886 -0.035460275 -0.10330713 0.017052589 -0.032986615 0.01825902
-0.018007366 0.12447235 -0.009080702 -0.15289398 -0.06875832 0.004156462 0.05345278 -0.07570016
-0.03509441 0.02580797 0.014003978 -0.008637039 -0.010736602 -0.007446949 -0.011097917 -0.076124355
-0.066828 0.067450404 -0.06371906 -0.051277477 0.056626294 -0.018760579 -0.046837933 0.09666942
-0.058493964 -0.14752577 -0.20759821 -0.10000549 0.12149761 -0.07105774 0.10261526 -0.03781452
-0.03652733 0.09167942 -0.10302333 -0.025947545 -0.023454173 -0.041426636 0.006778658 0.031638227
-0.023297003 -0.014287588 -0.04375768 0.035523385 -0.11750427 -0.0038198333 -0.0027224903 0.036768567
0.00021941648 0.064491294 0.0040452313 -0.12696613 -0.059016086 0.00652109 0.03201629 0.063392356
0.09380414 -0.0022694313 0.020927867 -0.020680683 0.016244257 0.13000041 0.043574426 -0.011059315
-0.034462173 0.05733789 0.07376743 -0.03264681 -0.12271764 -0.015314068 0.08441371 -0.06632208
0.025453368 0.02031738 -0.06767374 0.015471858 0.20381324 -0.021567842 -0.11546106 -0.07897127
-0.15779167 0.10324786 0.008447232 0.028714929 0.010709083 0.073906876 -0.067364454 0.06618139
0.15428366 0.1929044 -0.12544636 0.01508337 0.013584769 -0.00061164243 0.018088922 -0.02692399
-0.0011186473 -0.057842188 -0.024547072 0.0063313176 0.047982052 0.12771876 0.051648665 0.11900528
-0.058193274 -0.06030619 0.079596035 0.052213226 0.09940087 -0.047050435 0.019864041 0.08333903
-0.036884528 -0.012358046 0.14422078 -0.002007864 -0.13355045 0.005814787 -0.04209106 -0.12192014
-0.02091394 -0.029580327 0.03385237 -0.03311374 0.042294405 -0.044752996 0.051351078 0.00013536021
0.0047604125 -0.094054855 0.014207826 0.05374685 0.06974962 0.11797569 -0.013837266 0.09641415
0.09365024 -0.0040305685 -0.029345004 0.04993291 0.14296089 0.063709505 0.005421065 0.0768714
-0.0074573364 0.010922872 0.065996386 0.031757683 -0.046129867 0.003835962 0.04660928 0.14233062
0.034175295 0.030505992 0.09722367 -0.023856528 -0.031875387 0.117100514 0.0089364825 -0.00094881526
0.011116424 0.0491468 0.0698147 0.008045434 0.04670383 0.07528054 0.11806175 -0.07982385
0.049035862 0.035235617 -0.028426599 -0.0030054413 0.08591929 -0.021195434 -0.033133492 -0.06756391
0.06306757 -0.042561866 -0.039790597 -0.05832023 -0.012308642 0.0033419714 -0.04300595 0.13642858
0.08020856 0.019611757 -0.057901524 0.03905148 0.005159047 0.018047977 -0.121131994 0.058938067
-0.024320152 0.13090667 0.012226066 0.029656865 0.044032604 0.0021388924 -0.011592981 -0.02147694
0.009788952 0.0056562154 0.038928933 0.009680767 0.047030337 0.009425793 0.060198084 -0.0125029
0.04265307 -0.008393108 -0.002529761 0.03514922 -0.010407972 0.0040973285 0.025861653 -0.09598628
-0.014499803 0.005651663 0.07528407 -0.00041054352 -0.009220493 -0.11867255 -0.035632 0.027301831

find.4.bias f4 [64]
00000000: 237f 873d e7ad 183d 893f e5bd 3697 643c
00000010: 67a1 fd3b 1883 bd3d 25cf 0ebd d3ca 263d
00000020: 8ff9 a7bd eca6 a6bd a4df 2f3d 436e 91bd
00000030: e288 913d dd29 d8bc c9aa 91bc 756d af3d
00000040: 7b42 febc 0517 d3bd f902 973c 43bc 83bd
00000050: 1f9a cabc 769d 573d 808b 32bd 33e0 d63d
00000060: 6e06 d43b c892 7cba e583 3abd 8714 193d
00000070: ad2c f8bd 0837 ac3d 1535 3abc 4513 b73a
00000080: 3c90 62bd 6555 6cbd 65ab 43bd 13c1 c03c
00000090: 11ac a8bd 266e de3d 6625 50bc acdd c03d
000000a0: 83bd cf3b f245 a83d 5d55 6a3d a470 9a3d
000000b0: 9e84 84bd c344 f2bc 7223 d8ba df2a cbbb
000000c0: 6a22 ffbc 2c7c 0ab9 e5a9 17ba 2878 7ebc
000000d0: b517 723d 480f d53c ab29 013e 86a8 f1bc
000000e0: 7e2e d0bd d1c8 f8bc 3250 8c3d 657f e83c
000000f0: bb4e 8239 b278 e73d e9c8 fdbc a2c7 26bd
0.06616046 0.03727522 -0.11193759 0.013952067 0.007740188 0.0925352 -0.034865517 0.040720772
-0.082018964 -0.081373066 0.04293789 -0.07101109 0.071061864 -0.02638715 -0.017781632 0.08565799
-0.03103756 -0.10307125 0.018434035 -0.064323924 -0.024731694 0.0526404 -0.04359007 0.10491981
0.006470493 -0.0009634909 -0.04553594 0.037373092 -0.12117896 0.08408934 -0.011365195 0.0013967535
-0.055313334 -0.057698626 -0.047770876 0.023529565 -0.08235944 0.10860853 -0.012704229 0.094172806
0.00633973 0.08216466 0.057210315 0.07541016 -0.06470607 -0.029573804 -0.0016490056 -0.006200179
-0.03114434 -0.00013206963 -0.0005785509 -0.015531577 0.05910464 0.026008263 0.12613551 -0.029499304
-0.10165118 -0.030369194 0.068512335 0.028381059 0.0002485419 0.11302318 -0.03097959 -0.04071773

find.6.weight f4 [2, 64]
00000000: a028 1dbd a693 84bd 162f e7bb e8ec 28be
00000010: 61c6 e7bd d5b6 4cbd 8d53 53bc 5b62 663d
00000020: 0ac0 02bc 299e 02be 7117 2c3c 4980 8f3a
00000030: e5a7 6fbd cc2e 41bc a102 ea3b 4eba b7bd
00000040: 8f33 173c 3ab3 2ebd 8d1a 063e ca74 c2bc
00000050: 9916 45be 463b d73c 37d6 67bc abd6 0e3e
00000060: 28fd 48bc 503f 10bd defe 2dbd 4632 91bb
00000070: 8152 eebb b8cf 103e dc61 7c3c 87cf 953d
00000080: 46d4 7ebc ae9e 1d3c 88eb edbd 58bf 33bb
00000090: 4218 f63c 3eab 013e e2d1 783c 76c6 383c
000000a0: 3f6b b63d e9db 873d abcd 973d 86df d3bd
000000b0: 2170 d33d 8c93 a3ba 0533 ecbd 32cd 97bd
000000c0: 7806 073d 9be1 533c 5fcd 0b3d 50de cfbd
000000d0: 2d13 7b3d a950 b63d 4c7e 6f3b d1f4 7fbd
000000e0: 079f 3d3d bf66 8cbc 9eb2 763e 49fd 63bd
000000f0: 2a08 eebd 0a80 fe3d c6e7 27bd ee42 bcbd
00000100: 2ac3 37be 7ea4 873d 7747 383d 44fa 533d
00000110: 877b ec3d 5bf2 0c3e b51f 24be d039 813d
00000120: b902 083d 4a25 043e 3df3 50bd 9a5f 513d
00000130: 4bfb 6cbe 476c d23c 5138 f73c 1c36 fb3d
00000140: 5763 493d d433 3b3e 0be2 3e3e 3c4d 213d
00000150: 1b70 153d 881a 713d bb57 bdb9 1e7c 883d
00000160: 8618 a83c 2b75 7abe 4e52 8f3e da15 44be
00000170: 8281 af3d 0272 08be 97e8 7c3d 883e 2f3e
00000180: 781a 55bc 3f9a 18be d224 7b3e 871d cf3d
00000190: 85bb 56bd adaa 3bbe 54d1 a2bc 2050 d73d
000001a0: e465 62be c5d0 1ebe 9e49 9abd be1d 73be
000001b0: 3ac2 823c 86ae b6bc c44b 80be 5c32 56be
000001c0: 4e20 8f3c 2637 85be 2cfa 3ebe 2e71 58be
000001d0: 0d56 9e3d 5344 21be c07b fa3d 98f3 a93d
000001e0: 85ea fc3d 055e 0cbd 2d4b 4e3d ec15 31be
000001f0: 8f23 263e 4b8b 0bbe 1ac9 403e 5083 2fbe
-0.03836882 -0.06473474 -0.0070551736 -0.16496623 -0.11317135 -0.04997905 -0.012898338 0.056246143
-0.007980356 -0.12755646 0.010503636 0.0010948266 -0.058509726 -0.011790942 0.0071414267 -0.08971082
0.009228601 -0.042651393 0.13096066 -0.02373733 -0.19246902 0.026273381 -0.014150194 0.13949077
-0.012267388 -0.03521663 -0.04247939 -0.004431042 -0.007273019 0.14141738 0.015404191 0.07314973
-0.01555354 0.009620352 -0.1161719 -0.0027427282 0.030040864 0.1266298 0.015186759 0.0112777855
0.08907174 0.066337414 0.07412275 -0.10345368 0.10324121 -0.0012479885 -0.11533169 -0.07412185
0.032965153 0.0129322065 0.034131404 -0.101498246 0.061297584 0.089021035 0.0036543785 -0.062489334
0.04629424 -0.017138837 0.24091575 -0.055661473 -0.11622651 0.12426765 -0.04099252 -0.09192453
-0.17945543 0.06623171 0.04499003 0.051752344 0.115469985 0.13764326 -0.1602772 0.06309855
0.03320572 0.1290485 -0.05101322 0.051116563 -0.23142736 0.025686396 0.030178221 0.1226618
0.049167003 0.1828149 0.18640916 0.039380297 0.036483865 0.058863193 -0.00036114253 0.066642985
0.020519506 -0.24458759 0.2799248 -0.1914896 0.085696235 -0.1332474 0.061745252 0.17113698
-0.013006799 -0.1490259 0.24525765 0.10113054 -0.052424926 -0.18326826 -0.019875206 0.105133295
-0.2210918 -0.15509327 -0.075335726 -0.23741814 0.015961755 -0.022300016 -0.25057805 -0.20917648
0.017471459 -0.26018637 -0.1865012 -0.21136925 0.07731257 -0.1574872 0.12230635 0.08298415
0.123494186 -0.03426935 0.050364662 -0.17293519 0.16224502 -0.13627355 0.18826714 -0.17139935

find.6.bias f4 [2]
00000000: 3656 d23d 96b2 1f3d
0.1027035 0.038988672

grapher.0.weight.weight f4 [5, 1]
00000000: d010 d1b9 96a3 0738 cb43 2c39 55b9 1c2f
00000010: 64ad 94bb
-0.00039876113 3.233886e-05 0.00016428453 1.425396e-10 -0.0045372713

grapher.0.weight.bias f4 [5]
00000000: e93f 7cbd f8df 3fba d20c f4ba 7d19 8433
00000010: c1f0 07be
-0.061584387 -0.0007319446 -0.0018619543 6.151365e-08 -0.13275434

grapher.0.reduce.weight f4 [5, 1]
00000000: 1776 28b7 d426 dfae f8d9 ba39 9cd4 06bb
00000010: 7731 0c3c
-1.0041075e-05 -1.0147763e-10 0.00035639084 -0.0020573502 0.008556715

grapher.0.reduce.bias f4 [5]
00000000: 7c29 be3a f3ab 3332 d974 1039 0c40 12bc
00000010: f985 463e
0.0014508213 1.0458268e-08 0.0001377644 -0.008926403 0.19387044

grapher.0.gru.weight_ih f4 [15, 5]
00000000: 8a0d d92e 70e3 a32a 1d3e ae2c 41da 53a7
00000010: 6624 bb30 bb17 562e 757e bead bb5a 00af
00000020: bd3b c3a6 5fc6 a2b2 2e78 2eb5 d6ad 4a34
00000030: d19a 0035 c8c1 1226 fd32 0cb9 7200 6e2f
00000040: 0514 6b2c 0c2e 232a 046e b8a6 c54a 36b1
00000050: 8d7d 4d2f a658 4a2c 1566 212d 2ab1 28a7
00000060: 3a23 d131 548d 27bb 914c 6fb7 cd25 0fb8
00000070: 6424 fc2e 026e 91bb 84b2 eeb9 9666 dfb5
00000080: 8aaf 9fb6 b63e b02d dbfc dbba 7dd0 3dba
00000090: 35d9 d738 f54f ecb8 0676 122d c21e 213a
000000a0: 7269 063b 49fe a736 144f 5a38 6038 9f2e
000000b0: 1118 fe3b 9e39 493b 37ec ac36 7af1 5138
000000c0: ab6c 00af ea10 f23b b30c 46bb 3086 fcb8
000000d0: 2d72 eb37 7c4a a02e a1a2 a53c b7c6 113c
000000e0: 8c76 afb8 c6cd 3cb8 c0e7 192e 2ce5 853c
000000f0: 5b2f b13c 294c 4bbb 92d0 75bc 2ea2 2e30
00000100: 9555 b53d cbc1 78bc 3855 e038 7218 1838
00000110: 2f5f 8fae 69b4 04bd bac6 6ebd 47ee c0bb
00000120: c87d 8dbc 6389 acaf 0a94 bebd
9.8704225e-11 2.9112433e-13 4.9522734e-12 -2.9400448e-15 1.3616386e-09 4.8679043e-11 -2.1656657e-11 -1.1673766e-10
-1.3547035e-15 -1.894949e-08 -6.4994936e-07 1.8875957e-07 4.7909003e-07 5.091655e-16 -0.00013370435 2.1646132e-10
3.3406622e-12 1.4493284e-13 -1.2797385e-15 -2.6526987e-09 1.8689246e-10 2.8755136e-12 9.174457e-12 -2.3410724e-15
6.0867054e-09 -0.0025566416 -1.4263337e-05 -3.412906e-05 1.14660975e-10 -0.004438163 -0.00045527902 -1.6644651e-06
-4.7590047e-06 2.0036733e-11 -0.0016783731 -0.0007240845 0.00010292457 -0.0001126825 8.325346e-12 0.0006146246
0.0020509628 5.0065905e-06 5.2048897e-05 7.240497e-11 0.007754334 0.0030704509 5.1534985e-06 5.0054376e-05
-1.1680139e-10 0.00738727 -0.0030219972 -0.00012041291 2.806735e-05 7.289189e-11 0.020219149 0.008897475
-8.366731e-05 -4.5014334e-05 3.4994008e-11 0.01634463 0.021629026 -0.0031020737 -0.01500334 6.35313e-10
0.08854214 -0.015182923 0.000106970256 3.626239e-05 -6.519795e-11 -0.032398615 -0.05829499 -0.00588778
-0.017271891 -3.1384237e-10 -0.0930558

grapher.0.gru.weight_hh f4 [15, 5]
00000000: 6457 5d2e 075e baa5 e2cc 812d 90d3 2fb0
00000010: 3c8b 77b0 aba7 c22d 3441 bda4 2afc cd2e
00000020: 0808 a7b0 d59a eaaf 92a5 b9ad 8ce0 4325
00000030: 649d 8636 3e68 f534 0676 a433 0012 c52d
00000040: 0796 e4a4 ee38 c3ae fe68 2cb0 feca 3caf
00000050: 610e e02d afc8 6da5 4508 782d 296a 4bb0
00000060: 1008 71ae 55c5 8bb4 382e 722c b821 6738
00000070: 2b72 0e3c bb1e ea3b 724c f0b2 956a 7f2b
00000080: 8f81 c637 6df9 0f3b b66a ea3a ab78 a0b1
00000090: 21c6 a92b 2404 7538 930e 3f3b 8c9e 1b3b
000000a0: d93b 0ab6 5ed7 8a2c 34f4 56ba 403d d4bb
000000b0: 7b9f 9bbb 1709 14b7 1880 faac 11cf 9eb8
000000c0: 06bc 29bc cd7a ffbb 50c1 21b7 4c96 9e2c
000000d0: d6be 9cb9 e35b 73bc fe9f 01bc c6c6 85b4
000000e0: d975 b42c 555c 5eb6 87fd 72bc 69d7 dfbb
000000f0: 3270 95b5 5d80 452c 0df2 ef39 b0b1 56bc
00000100: 6ae6 ecbb 009a ab34 97b7 bbac 81eb 8937
00000110: 4043 bc3c 5861 543c 9819 7b38 4d43 22af
00000120: 036a 0b3a c8da f83c 0527 9d3c
5.03272e-11 -3.2329572e-16 1.4756588e-11 -6.396528e-10 -9.005594e-10 2.2129706e-11 -8.207614e-17 9.367114e-11
-1.2153132e-09 -4.2674367e-10 -2.1105593e-11 1.6989633e-16 4.011834e-06 4.5710652e-07 7.6583135e-08 2.24043e-11
-9.9133394e-17 -8.877686e-11 -6.272244e-10 -1.7170618e-10 2.5472237e-11 -2.0624467e-16 1.4099004e-11 -7.400183e-10
-5.4804217e-11 -2.6034346e-07 3.4415925e-12 5.5106095e-05 0.008694212 0.0071447766 -2.797444e-08 9.074211e-13
2.366377e-05 0.0021968738 0.0017884586 -4.6703312e-09 1.2063164e-12 5.8416408e-05 0.0029152974 0.0023745624
-2.0598438e-06 3.9461065e-12 -0.0008199841 -0.006477028 -0.004749236 -8.823604e-06 -7.1196486e-12 -7.572596e-05
-0.01035977 -0.0077966214 -9.641357e-06 4.5073164e-12 -0.00029896823 -0.0148534505 -0.00791168 -2.4917807e-07
5.1289914e-12 -3.3134322e-06 -0.014830953 -0.006831099 -1.1134018e-06 2.806664e-12 0.00045765974 -0.013103887
-0.007229616 3.1963282e-07 -5.3352422e-12 1.6441338e-05 0.022981286 0.012962662 5.98669e-05 -1.4757724e-10
0.0005318226 0.03037776 0.019183645

grapher.0.gru.bias_ih f4 [15]
00000000: e412 74b2 4c8c 1234 0855 3838 b654 1532
00000010: 91a4 d4b3 6004 193c fe17 9b3c 3043 af3c
00000020: c164 93bd ab38 38bc 63cd 76bd 7dc4 9dbd
00000030: ffb6 6ebd f008 d83d e889 1bbe
-1.42069645e-08 1.364835e-07 4.394821e-05 8.6922025e-09 -9.901954e-08 0.009339422 0.018932339 0.021394342
-0.07196952 -0.011243979 -0.060254466 -0.07703493 -0.058279987 0.1054858 -0.15189326

grapher.0.gru.bias_hh f4 [15]
00000000: fe5c 71b2 c04c 1334 3b15 3638 c42b 2932
00000010: 032c ccb3 c6b1 063d 7569 443c fd26 603c
00000020: cd74 45bd 8328 eb3b 6e34 70bd dfd2 22bd
00000030: 5aa1 eabc b048 5b3d 702d 3bbd
-1.404919e-08 1.3718363e-07 4.3411954e-05 9.847046e-09 -9.507496e-08 0.03288438 0.011988034 0.0136811705
-0.048207093 0.00717646 -0.05864375 -0.039751884 -0.028641392 0.053536117 -0.04569763

grapher.0.gru.ln_resetgate.weight f4 [5]
00000000: 9b9f 2e35 8dc1 4333 1e97 adb6 b0a5 5133
00000010: 0bba cfb4
6.505231e-07 4.557801e-08 -5.173394e-06 4.8812296e-08 -3.869212e-07

grapher.0.gru.ln_resetgate.bias f4 [5]
00000000: 7dc7 9eb8 df5d d9b6 bc37 a6b8 de0e 95b7
00000010: 5075 0aba
-7.571185e-05 -6.478032e-06 -7.925878e-05 -1.7769107e-05 -0.0005281763

grapher.0.gru.ln_inputgate.weight f4 [5]
00000000: d367 e930 cf2f b01d 0c64 60b1 3d97 5d3e
00000010: e210 363d
1.698249e-09 4.6636245e-21 -3.265316e-09 0.21639724 0.044449694

grapher.0.gru.ln_inputgate.bias f4 [5]
00000000: 84a0 96b4 2004 0a1e 4914 50b8 8e7d 87bb
00000010: 6471 1fba
-2.8056468e-07 7.306512e-21 -4.9609956e-05 -0.0041348403 -0.0006082265

grapher.0.gru.ln_newgate.weight f4 [5]
00000000: d37a cf3a 2d59 c02f 32f6 2139 88bc fc3e
00000010: 81f9 bc3b
0.0015829451 3.498796e-10 0.00015445871 0.49362588 0.005767048

grapher.0.gru.ln_newgate.bias f4 [5]
00000000: c929 b4bb 6170 7eb1 024c ebbb 2891 993c
00000010: 483b 173c
-0.0054981452 -3.7025745e-09 -0.0071806917 0.018745974 0.009230442

grapher.1.weight.weight f4 [5, 5]
00000000: 5c8a bebb c9a0 afab 9348 01ba 1d8e 87be
00000010: b466 08be 95ea 3bb9 3c7d 482b 814b 8036
00000020: 721d 2ebe 1343 27bc ff94 1fb8 b6ca c12b
00000030: 017c 2536 69fa b13e bb2e 2c3e eef1 0fbb
00000040: 7ce5 57aa e708 aeb8 b641 adbd de75 c23d
00000050: 03e6 ddb6 4d25 a32a 292f 2d35 565e 883e
00000060: 3b33 41bd
-0.0058148336 -1.2479125e-12 -0.0004931774 -0.2647561 -0.13320428 -0.00017921098 7.122807e-13 3.823487e-06
-0.1700342 -0.010208863 -3.8047318e-05 1.3769738e-12 2.4659096e-06 0.3476136 0.16814701 -0.002196427
-1.9175454e-13 -8.298625e-05 -0.08459799 0.09495138 -6.61309e-06 2.89805e-13 6.451615e-07 0.26634473
-0.047167998

grapher.1.weight.bias f4 [5]
00000000: 81f2 aebe 7594 7b3d 0da9 873e aca3 533e
00000010: d81d 7dbe
-0.3416939 0.061420877 0.26496163 0.20667905 -0.24718416

grapher.1.reduce.weight f4 [5, 5]
00000000: feaa aab0 d490 4aa9 b14d 41b2 0f6f 80bb
00000010: b924 25b7 1d20 b8b3 206d 0ba9 eed1 0333
00000020: be91 32bd a965 96bc 33a4 ff37 7438 8c29
00000030: d3ab 8eb5 d386 a03e 21dd 423c 61b4 6839
00000040: 23c2 df28 be6a 4cb2 840a 5f3e 83eb 59b9
00000050: dde6 5c39 c53f aba8 71da 5bb4 9af8 ab3e
00000060: a2f9 debc
-1.2417727e-09 -4.497863e-14 -1.12517435e-08 -0.003919489 -9.843317e-06 -8.574009e-08 -3.095885e-14 3.0691744e-08
-0.04359602 -0.018359022 3.047483e-05 6.227042e-14 -1.0629832e-06 0.31352863 0.011893542 0.0002219244
2.4842167e-14 -1.1898633e-08 0.21781355 -0.00020782468 0.00021066838 -1.901247e-14 -2.0475433e-07 0.33588105
-0.027218644

grapher.1.reduce.bias f4 [5]
00000000: 3eaf 05bc db2b 1bbd 085e 12bb bf8c 6fbe
00000010: 7a96 2abe
-0.008159457 -0.03788362 -0.002233388 -0.23393534 -0.16658965

grapher.1.gru.weight_ih f4 [15, 5]
00000000: 9711 3d3e 049e cabb 5bde 05be 76f0 2e3d
00000010: 11e3 13bc ab3c bf3d 6643 46ba 1a77 2c3c
00000020: 928b 43bb 4522 2c3b 08ea 383d 6a46 cdb7
00000030: 6f94 893e 2079 febd 3e5e 38bd d3f5 ec3c
00000040: c80a 243c a101 0bbd 36b4 c7bc 5b13 af3c
00000050: 372d 803d 147c 21bc 840a bebd ff41 c9b9
00000060: 97df 743b 7620 a6bc cd6a 123d f4b6 053e
00000070: 9982 61bd 0c83 fa3c 7766 e93d a9b5 e33d
00000080: 236d b83c 7eb7 903e 9687 e6b9 eace c73d
00000090: 22dd 093e 7423 87be 7efc e2bb 3dd9 f9bb
000000a0: ef72 1cbe 8bc0 febd 2115 ac3e 262e 653e
000000b0: ae06 a4ba fa37 94bd fb90 cf3c 10d8 b93d
000000c0: b8f3 6bbe 0097 b83d 58df 593e 75d3 fd3c
000000d0: e4a6 52bd 089f 33bc bbe2 0f3d 52c6 4f3d
000000e0: b6fb 4fbd d1b2 493c 7e67 163e 1387 58be
000000f0: b17f 733d 88e8 b53d 1156 d73e 435c bfbd
00000100: e0e5 0fbe b726 d9be 7e77 133e f524 ae3e
00000110: 62bf 7ebe c84b 9cbd 4f2c 2ebd f8a5 8e3d
00000120: 971e b0be faca 36be a5c0 243d
0.18463741 -0.0061833877 -0.13073103 0.04270979 -0.009026305 0.09337743 -0.0007563144 0.010526443
-0.002983783 0.0026265543 0.045145065 -2.4470693e-05 0.26871058 -0.124254465 -0.04501175 0.028925812
0.010012336 -0.0339371 -0.024377923 0.021371534 0.06258624 -0.009856243 -0.092793494 -0.00038386878
0.0037364715 -0.02027915 0.035746384 0.13058072 -0.05505619 0.030580066 0.11396497 0.11118633
0.022512978 0.28264993 -0.00043970038 0.097562626 0.13463262 -0.26394236 -0.006927072 -0.007624774
-0.15278219 -0.124390684 0.3360987 0.22380885 -0.0012514198 -0.07237239 0.025337687 0.09074414
-0.2304219 0.09013176 0.21276605 0.03098462 -0.05142869 -0.010963209 0.035128336 0.050726242
-0.05077716 0.0123107 0.14687917 -0.21145277 0.059447948 0.088822424 0.4205785 -0.093437694
-0.14052534 -0.4241235 0.14401051 0.3401257 -0.24877694 -0.076316416 -0.042522725 0.0696525
-0.34398338 -0.17850867 0.040222783

grapher.1.gru.weight_hh f4 [15, 5]
00000000: ec59 37be 3527 3b3d 88a1 74bd 7102 1b3d
00000010: 9474 cfbd 6d9c 7f3d 1ca0 e6ba 71fb 3bbc
00000020: 6d17 213c f51c c33a 9107 2f3e 53a6 cd3d
00000030: ec1f 8a3e 3c89 083c ff63 b5bc 27fa 1b3e
00000040: 9068 04bd 7972 5bbc e08c 9fbc c460 a33d
00000050: c365 283c 4c77 4fbd f3d3 b3bc 7124 b03c
00000060: d0b8 713c d9b8 9e3e e5a3 b73c 35b9 37be
00000070: c4a7 9abd 3bf2 58bd aee5 2f3e 2ad3 02be
00000080: 4416 9b3e 77ca 2dbc a697 79bd e86f 0abe
00000090: 5570 01be d319 dcbb 73b3 c4bc 6d73 a13d
000000a0: 3edb 953e 8872 bf3d 4478 94be ec04 183e
000000b0: 06fd 433e 2e53 afbe fb5f 133e 7f63 a83e
000000c0: e18a f0bd 93b8 97bd 1c40 d33d b5c5 b3bd
000000d0: 3359 51be 5249 4bbd 70c8 8f3d 99bb 14be
000000e0: bdaa 913d 2f1e cb3d 2075 27bd 09cd 8a3d
000000f0: 0dcd 533e 6c60 0bbd 4d93 c5be d017 6fbe
00000100: ffe0 0a3e 2f80 e43d 3c59 d43d 40ee 8abe
00000110: 0570 2e3c 2744 dcbd ef4c 2ebd 5e6b c33c
00000120: e89d 25be ac34 11bc 88ea a33d
-0.17905396 0.045691688 -0.05972436 0.037844125 -0.101296574 0.06240504 -0.0017595324 -0.0114735225
0.009832245 0.0014885949 0.1709273 0.100414895 0.2697748 0.0083335005 -0.022142408 0.15232144
-0.03232628 -0.013393992 -0.019476354 0.07977441 0.010278168 -0.05065088 -0.021951651 0.021501752
0.014753535 0.31000403 0.022417018 -0.17941745 -0.0755153 -0.052965384 0.1717746 -0.12775865
0.30290425 -0.010607353 -0.06093564 -0.13519251 -0.12640508 -0.0067169457 -0.02401135 0.07883344
0.2926883 0.09348017 -0.28998005 0.14845628 0.1913949 -0.3424315 0.14392082 0.3288841
-0.11745239 -0.074082516 0.10314962 -0.08777944 -0.20444183 -0.04963047 0.07020652 -0.14524688
0.07112644 0.099178664 -0.040883183 0.067773886 0.2068369 -0.034027502 -0.38588944 -0.23348927
0.13562392 0.111572616 0.103685826 -0.27134895 0.010646825 -0.107551865 -0.04255384 0.023854908
-0.16173518 -0.008862656 0.08003718

grapher.1.gru.bias_ih f4 [15]
00000000: fa16 a9bd 1933 21bd 9d48 0ebe ecee 44be
00000010: 980f e63d ba33 a0be 5636 69be 4390 60bc
00000020: d7af d5bd 078b bb3e a137 c8be dc7e c53d
00000030: 085b 133e f132 8bbe adea b6bd
-0.082563356 -0.03935537 -0.13894887 -0.19231766 0.11233443 -0.31289464 -0.22774634 -0.01370627
-0.104339294 0.36629507 -0.3910494 0.09643337 0.14390194 -0.27187303 -0.089314796

grapher.1.gru.bias_hh f4 [15]
00000000: 9c22 153e faab 903d 2f55 b9bd 0716 67be
00000010: 5f7b 86bd 28be 97be 3b83 df3e 0ae0 073e
00000020: c825 283e 7f9a bebe 3c99 a2be f6a8 99bd
00000030: af64 433d 54b9 a33b 0a69 adbe
0.14563984 0.07064052 -0.090494506 -0.22566997 -0.065665 -0.29637265 0.43654808 0.13269058
0.16420662 -0.37227246 -0.31757534 -0.0750293 0.04770344 0.004996458 -0.338692

grapher.1.gru.ln_resetgate.weight f4 [5]
00000000: 0077 1d3e 84be 8cbc 01bf 213f bda5 263f
00000010: 1e27 713d
0.15377426 -0.017180689 0.63182074 0.65096647 0.058875196

grapher.1.gru.ln_resetgate.bias f4 [5]
00000000: d83c 873d a7f8 d1bc 1631 ba3a 283c ffbc
00000010: 23df 083d
0.06603402 -0.025631262 0.0014205303 -0.031156614 0.033415925

grapher.1.gru.ln_inputgate.weight f4 [5]
00000000: 9ff8 073f 1bad 533f db33 af3d 2045 223f
00000010: e4e7 553e
0.5311374 0.82686013 0.085548125 0.63386726 0.2088924

grapher.1.gru.ln_inputgate.bias f4 [5]
00000000: 1432 8e3b f482 123d ef7d 9aba 7075 0f3d
00000010: b3bc 693b
0.004339466 0.035769418 -0.0011786799 0.035024107 0.0035665452

grapher.1.gru.ln_newgate.weight f4 [5]
00000000: 6806 303f 2ee9 663f 6f1b 543f d507 663f
00000010: f23f d83e
0.68759775 0.90199554 0.8285436 0.898557 0.42236286

grapher.1.gru.ln_newgate.bias f4 [5]
00000000: 199d 7c39 a9ae acbc 003c fc3c 11cc 5d3c
00000010: d084 13bb
0.00024091116 -0.021079378 0.030790329 0.013537423 -0.0022509582

grapher.2.weight.weight f4 [5, 5]
00000000: d259 d0bb 98bd 58be 3b5d 693e e1c0 a1be
00000010: 4fe1 bebb 5589 aebc c3eb 773e a029 27be
00000020: 6e4b 383e eded d8bc 1583 a43b 20ab 893e
00000030: 35b5 903e 1a89 b0be 8d16 233a 2b83 6b3d
00000040: ca8d 6a3d 6f6b b7bc a854 bd3e fad7 383c
00000050: 3126 7a3c d7e0 2abe c659 94bd c4a4 dcbe
00000060: 5444 623c
-0.0063583637 -0.21166074 0.22789471 -0.31592467 -0.0058251987 -0.02130572 0.2421103 -0.16324472
0.17997524 -0.02648064 0.005020509 0.2688837 0.2826325 -0.344796 0.0006221317 0.05749814
0.057264127 -0.022390096 0.3697865 0.011281962 0.015267895 -0.16687332 -0.072436854 -0.43094456
0.013810236

grapher.2.weight.bias f4 [5]
00000000: be48 01be be34 eebc 2dd2 1e3e 0c95 393e
00000010: eac2 01ba
-0.12625405 -0.029077884 0.15509863 0.18123263 -0.0004950004

grapher.2.reduce.weight f4 [5, 5]
00000000: 7c34 38bc faa8 2c3e 6164 503e cedc 30be
00000010: 168c ceba 996d 8a3d 4a55 f83c 78b2 b5be
00000020: 8526 8b3e 3b87 1b3d 933a 393d a208 afbe
00000030: a8cf cfbc 4053 d6be d9e0 55b9 a5cb 8fb7
00000040: 2b51 d9bc 3e0f 74bd 814c 19bd 1a36 2db7
00000050: 3f23 9e3c 3c97 c0bd bc27 b8bd 1a26 d0bc
00000060: 83da c13b
-0.011242982 0.16861334 0.20350792 -0.1727173 -0.0015758302 0.06759185 0.030314106 -0.35487723
0.27177826 0.037970763 0.045221876 -0.34186274 -0.025367573 -0.4186039 -0.00020397025 -1.7141758e-05
-0.026527962 -0.05958485 -0.037426475 -1.03242e-05 0.019303916 -0.09403846 -0.08991954 -0.025408793
0.005915941

grapher.2.reduce.bias f4 [5]
00000000: 1cb3 e93e cb4e 5cbd 04bb bf3e 9f83 3ebe
00000010: 48fe 343d
0.45644462 -0.05378608 0.3744737 -0.18604897 0.044187814

grapher.2.gru.weight_ih f4 [15, 5]
00000000: c3c6 9bbd edd2 203e 02fa b8be 9d43 a6be
00000010: 9d4e 043d 2742 ba3d 2b3f cdbd ba3d 50be
00000020: 0f93 6bbe 5ad5 c1bd 7e8f bbbc f0a6 19be
00000030: 8805 533d 66ef 8d3e c0eb 77be a751 57bc
00000040: 31d7 e43b c8ce 2bbe 7129 df3c de98 aebb
00000050: cd89 cf3d bd3b 7d3c ec5b d43d b133 2a3e
00000060: 738f f3bd 74aa 9d3e 696e 82bd d7a5 bc3e
00000070: 1385 6b3e c4ab 953d d074 79be fbc0 4b3d
00000080: dd4f 8c3d edc6 df3c c188 4dbb 8360 013f
00000090: 8a7f a33e 7cb4 7a3e 0c17 34be 5be9 043f
000000a0: 02d1 7d3e 6017 0b3e 7e3e f7be d445 2f3e
000000b0: bf2b 603e 252c c63d 74b0 19be 03e4 2bbd
000000c0: 8a2c c93e 8045 883d 1243 81be 6143 ce3b
000000d0: 4c9d ca3d 26a1 e73e b22f 343e ddd1 0ebc
000000e0: 87b5 c93e 763e 793e cc42 273e a8ff ccbe
000000f0: 7bf9 123e e02d bd3d 512a 99bd e549 ce3d
00000100: 7df7 f1bd c201 28be 3beb 9f3c b58c 583e
00000110: f2d3 5d3e 8811 11bd 04bd c63e 7d13 2abe
00000120: 23b6 2abc 4cdf 853e 3017 2a3e
-0.0760627 0.15705462 -0.3612824 -0.3247346 0.032301534 0.09094649 -0.10021814 -0.20336047
-0.23005317 -0.09464522 -0.02289557 -0.15005088 0.051518947 0.2772171 -0.24211025 -0.013142026
0.0069836606 -0.167781 0.02724144 -0.005328282 0.10133705 0.015456137 0.10369095 0.16621281
-0.11892595 0.30794108 -0.06368715 0.36845276 0.22999983 0.07308152 -0.24360967 0.049744587
0.0685117 0.027316535 -0.003136203 0.5053789 0.31933242 0.24482912 -0.17586917 0.5191857
0.24786761 0.13583136 -0.48289865 0.17116481 0.21891688 0.09676389 -0.15008718 -0.041965496
0.39291793 0.06653881 -0.25246483 0.0062946533 0.09893283 0.45240134 0.1759632 -0.0087170275
0.39396307 0.24340233 0.16334075 -0.400388 0.14352982 0.092372656 -0.07478774 0.10072688
-0.11814783 -0.1640692 0.019521346 0.21147425 0.21662882 -0.03541711 0.38816082 -0.16608997
-0.010419401 0.26146924 0.16610408

grapher.2.gru.weight_hh f4 [15, 5]
00000000: 3ce8 84be 4b5a 3cbe bdee 263e da62 d73c
00000010: 0c04 2abe 84fa 97be ae7e 39be bd07 583d
00000020: f4fe 073c b1f0 abbd 8968 a13c f334 923d
00000030: 62f5 c63d e078 aabd cd76 4fbe f73e 763c
00000040: f2bb e93c d275 53bd f4f4 bcbc 91df 2b3e
00000050: 33ff 053d f02f a53c 82de 50bd d044 a3bd
00000060: ad8e b83d 3e73 99be 1add 5dbe 947b 6abb
00000070: e66f 87bd 15f6 883e 1efb c33e 41f0 76be
00000080: f737 a63e f485 cd3d 86c3 6dbd 7a79 40be
00000090: 1991 153e e08b 13be 4dc8 ae3e 289d 803e
000000a0: 74cb d9bd 4f46 a33e 19e9 4fbe 87b6 123b
000000b0: 6bd4 3a3e c696 32be 480b 6d3e 67eb c53d
000000c0: af1e 66be 06ca a43d 2105 963e 4989 67bd
000000d0: 2ad8 b0be d381 87be 0a77 e7bd 18c5 e53b
000000e0: ced1 16be 229b 5b3e 7d85 6ebe 0dab 96bd
000000f0: e545 45be fa47 cfbe 0bb5 02bc c64b f73d
00000100: 81b5 6ebd 85b1 0ebe d189 8a3e 6757 ad3c
00000110: 2b1f 1cbe 59ca e5be 5ea7 47be bb6f aebe
00000120: 69cf 9a3c a087 d8bd 987c 84be
-0.2595843 -0.18393819 0.16302009 0.026292253 -0.16603106 -0.29683316 -0.1811473 0.052741755
0.008300532 -0.083955176 0.019703167 0.071390055 0.09714772 -0.08323836 -0.20260163 0.01502966
0.028532002 -0.051626034 -0.023066022 0.16784503 0.03271408 0.02016446 -0.05099345 -0.07972109
0.09011588 -0.29970735 -0.21666375 -0.0035779225 -0.0661314 0.26750246 0.38277525 -0.24115087
0.32464573 0.10035315 -0.058047794 -0.1879634 0.14606132 -0.14408827 0.34137192 0.251199
-0.10634509 0.3188958 -0.20303763 0.0022386627 0.18245094 -0.17440328 0.23148835 0.0966404
-0.22472642 0.080463454 0.29300788 -0.05652741 -0.3453992 -0.26466236 -0.11302002 0.007012021
-0.14728472 0.21445897 -0.23293109 -0.07356844 -0.19264944 -0.404846 -0.007977734 0.120749995
-0.058278564 -0.13934906 0.2705827 0.02115984 -0.15246265 -0.44880942 -0.1949744 -0.3406962
0.018897729 -0.105727434 -0.25876307

grapher.2.gru.bias_ih f4 [15]
00000000: dcf3 a63e 4fcc 95be 7795 85be 659e b6bd
00000010: a909 e03e 2cf3 113d a9cc 003f b643 a9bd
00000020: 75c2 abbd 075b 63be 3d95 80be 089b 053f
00000030: 146f a43e cab2 4f3d 163a 25be
0.32607925 -0.29257438 -0.26090595 -0.0891693 0.4375737 0.035632297 0.50312287 -0.08264868
-0.08386699 -0.22202693 -0.2511386 0.52189684 0.32115996 0.050707616 -0.1613544

grapher.2.gru.bias_hh f4 [15]
00000000: 8afd ecbc 1d76 0a3e abbf 0dbe 6b22 b4be
00000010: 9b0d 47bd 86de 9ebe b3a4 f93d 8781 b53d
00000020: 2c58 1a3d be6e 03be 975f 783e 6623 0f3c
00000030: f471 27be ee1b 1bbe e6d8 25be
-0.02892949 0.13521619 -0.13842647 -0.3518251 -0.04859696 -0.31029147 0.12189617 0.08862596
0.037681744 -0.12835214 0.24255215 0.008736467 -0.16352063 -0.15147373 -0.16196021

grapher.2.gru.ln_resetgate.weight f4 [5]
00000000: c1d6 3d3f 1387 053f 48dd e53e b461 303f
00000010: 4ca9 343f
0.74155813 0.5215923 0.44895387 0.68899083 0.70570827

grapher.2.gru.ln_resetgate.bias f4 [5]
00000000: 8fb0 c23c 9153 24bd ade0 6bbc f3ef 583d
00000010: 3a52 913d
0.02376583 -0.040118758 -0.014396829 0.05296321 0.070957616

grapher.2.gru.ln_inputgate.weight f4 [5]
00000000: 685e 4b3f 22d6 a13f 4e5e 5e3f c020 6e3f
00000010: ebf5 1c3f
0.7944093 1.2643473 0.8686265 0.9301872 0.6131274

grapher.2.gru.ln_inputgate.bias f4 [5]
00000000: 6ee6 143d e606 8c3e 0c9c 853d b9d2 bd3d
00000010: 8123 df3d
0.036352567 0.27349013 0.06523904 0.09268708 0.10895444

grapher.2.gru.ln_newgate.weight f4 [5]
00000000: 8d62 303f 84d1 373f 2dd6 563f 0450 593f
00000010: 3b55 1c3f
0.68900377 0.7180407 0.83920556 0.8488772 0.6106755

grapher.2.gru.ln_newgate.bias f4 [5]
00000000: a73b b5bc 7151 83be 386a b9bd d2af febd
00000010: 78b9 7f3e
-0.022123171 -0.25648072 -0.09053463 -0.12435879 0.24973094

grapher_b.0.weight.weight f4 [5, 1]
00000000: 4b9c d53c fdbb 423b 0d3b 303b 67f6 a0bc
00000010: 6c52 cdba
0.026075503 0.00297141 0.0026890666 -0.019648744 -0.0015664822

grapher_b.0.weight.bias f4 [5]
00000000: d469 c23e a5ea 97bb ffb7 01bb 30b8 ed3d
00000010: 2018 4fbd
0.37971365 -0.004636126 -0.0019793508 0.116073966 -0.050560117

grapher_b.0.reduce.weight f4 [5, 1]
00000000: 4148 21b7 9b02 3531 372b 76b8 0340 873c
00000010: 10db e2bc
-9.613171e-06 2.6340448e-09 -5.8691217e-05 0.016510015 -0.027692348
