scheduler/BaGTI/checkpoints/energy_latencyGNN_GRU128L3_4_Trained_Normal_Original.ckpt (torch, 724895 bytes, 150 tensors)

find.0.weight f4 [128, 240]
000000 cd 0e ec bc 09 4d bb 3d fa db 01 bd 98 97 0e 3d
       -0.028815651 0.09145553 -0.031703927 0.03481254
000010 8e 8d be bc e0 68 4d 3c cf 62 e6 3c 19 8e ec bc
       -0.023260858 0.012537211 0.028123287 -0.028876351
000020 06 82 0e 3d 10 ba d0 bc 3c 67 18 bc 22 5c bb 3c
       0.03479197 -0.025479347 -0.009301957 0.02287108
000030 c1 ce f9 bc 78 9f 1e bd 2d 0e e7 bc e6 c3 9a 3c
       -0.030494096 -0.0387263 -0.028205002 0.01889224
000040 d1 8d 60 3d 2a 6c d0 bc 06 1a 0e 3d 98 44 f5 bc
       0.054822747 -0.025442202 0.034692787 -0.029939935
000050 19 3e e7 3c 71 c9 6b 3d 44 01 fc bc aa b9 1f bd
       0.028227853 0.057565156 -0.030762322 -0.038995422
000060 73 4b 01 bd 7f 54 32 3c c7 52 9a 3c c2 3e 09 bd
       -0.031566095 0.010884403 0.0188383 -0.033507116
000070 3d 22 2f 3d 85 c0 aa bc 95 87 47 bc d4 30 72 3d
       0.04275726 -0.020843754 -0.012178321 0.059128597
000080 22 c3 cb bc 70 12 21 bd 13 46 06 bd 40 a3 7a 3c
       -0.02487332 -0.039324224 -0.03278167 0.015297711
000090 34 8e a2 3c 33 f8 ec bc 44 1b 32 bd ae 09 f4 bc
       0.019843198 -0.028926944 -0.043483034 -0.029789772
0000a0 3c 03 c7 3c 06 40 7c 3c c4 5b de bc ef 0e 2c bd
       0.024293534 0.015396124 -0.027143367 -0.04200643
0000b0 db 51 fd bc 50 13 16 3c b4 ae fd 3c 2e 27 c1 bc
       -0.03092282 0.009159878 0.030967094 -0.023578253
0000c0 58 bc d9 bc 41 d0 02 bd cf 5f 3c 3c fd 82 89 3c
       -0.026579067 -0.031936888 0.011497452 0.016786093
0000d0 2b 91 e6 bc f2 6a fd 3c 43 f6 fd bc 43 99 e9 bb
       -0.028145393 0.030934785 -0.031001216 -0.007128866
0000e0 0f c3 a8 3d c2 9a ea bc c8 94 1d bb 0d 8a f8 bc
       0.082403295 -0.028638247 -0.002404498 -0.030339265
0000f0 9e e4 77 bb 29 03 89 3d 72 c3 fd bc 95 05 0a 3c
       -0.0037825475 0.06690056 -0.030976985 0.008424182
000100 be 29 f4 bc 40 c6 1d bc 14 f7 85 3d fb 96 f8 bc
       -0.02980506 -0.009629786 0.06541267 -0.03034543
000110 64 6a 79 bc dc 83 f6 bc 7f c1 4d 3c f9 69 6f bc
       -0.015223119 -0.030092172 0.01255834 -0.014612668
000120 40 f5 f0 bc dc 26 ef bc de 56 f9 bc 33 56 df 3c
       -0.02941382 -0.029193334 -0.03043693 0.027262783
000130 68 68 88 3d ba 90 e0 bc a2 8b 3a bd f5 0a f9 bc
       0.06660539 -0.027412761 -0.04554332 -0.030400733
000140 3f 2f 36 3c f3 59 62 3d b6 76 e7 bc 88 da 32 bd
       0.011119663 0.055261564 -0.028254848 -0.04366544
000150 50 1f f9 bc 01 b6 06 3d 8a 68 c2 3d 48 88 db bc
       -0.030410439 0.032888416 0.094925955 -0.026798382
000160 57 72 ee ba da 9f f6 bc 3e f3 70 3c 88 80 0d 3d
       -0.0018192035 -0.03010552 0.014706431 0.034546405
000170 eb a8 e9 bc d9 c8 a5 bc 88 3a f7 bc e6 dd bb 3c
       -0.02852293 -0.020237373 -0.030179277 0.022932958
000180 a5 b7 b3 3d cd d7 ea bc fb 37 8b ba 21 4b f7 bc
       0.08775262 -0.028667355 -0.0010621542 -0.030187191
000190 ff 8d 26 3d 26 f5 5c ba 49 ab f2 bc 52 8b 71 bd
       0.04066276 -0.0008428864 -0.02962269 -0.058970757
0001a0 78 a8 fb bc 85 22 df bc 15 b7 60 3d 16 07 08 bd
       -0.03071998 -0.02723814 0.0548621 -0.033209883
0001b0 88 ee 39 3d f3 40 a7 bc e3 bf a5 bc 5a aa 7f 3d
       0.045393497 -0.020416712 -0.0202331 0.06241832
0001c0 8e ba ba bc 14 2c e5 bc 5b 30 00 bd d4 8b 02 3d
       -0.022794034 -0.02797512 -0.031296115 0.03187163
0001d0 ec 31 07 3d e6 05 e9 bc dc c3 dd 3c 18 ae fe bc
       0.033006594 -0.028445195 0.027070932 -0.031088874
0001e0 db 49 00 3e 8e 7e 5b 3d 90 b6 65 3e c5 a0 e2 bc
       0.12528174 0.05358749 0.22432923 -0.027664552
0001f0 54 f5 5d be 0e 2e a6 bd 2b a7 10 3d 48 12 d2 3c
       -0.21675617 -0.08114253 0.035315674 0.025643483
000200 95 65 ca bd f9 dd c9 3d c4 9f 93 3c a7 63 48 be
       -0.098826565 0.09856791 0.018020518 -0.19569264
000210 76 8c 86 3d dd 32 0e 3e 5e 60 af bd 6c 1e 42 bc
       0.065697595 0.1388659 -0.085633025 -0.011848073
000220 46 d4 6a bd 9e 9f 74 bd 16 17 c2 bd b1 f6 b3 bd
       -0.057331346 -0.059722535 -0.094770595 -0.08787287
000230 36 a8 1b bd 7c da a4 bd 6d 8c e7 bd 07 bd 9f bc
       -0.038002215 -0.08049485 -0.11306081 -0.019499315
000240 1f f2 b6 3c b3 fe 68 be 07 4e 8b bd ba 73 6e 3e
       0.02233225 -0.2275341 -0.06801992 0.23286334
000250 19 52 83 be aa d5 87 3c d7 cf 8c 3d 3e ba f7 3d
       -0.25648573 0.016581375 0.0687558 0.1209607
000260 aa f2 f1 3d 81 58 4d 3e a9 1e b0 bd 88 78 d7 bd
       0.118138626 0.20053293 -0.08599598 -0.105210364
000270 62 04 16 3d e1 8b 13 bd 60 93 dd bd f0 e0 ab 3d
       0.036625274 -0.03602207 -0.10819125 0.08392513
000280 3c de 50 3b 1b 8d 8c bd 0e 5d 9c bd f3 80 95 be
       0.0031870743 -0.06862851 -0.07634936 -0.29199943
000290 d9 dc 9d bc b3 6d 6d bd 7e 7d 47 3e 7a b4 bb bd
       -0.019270347 -0.057965945 0.19481465 -0.091652825
0002a0 64 b2 f5 bd 24 51 a6 bd b9 a1 c3 bc 4a 80 81 3a
       -0.11996916 -0.08120945 -0.023880826 0.0009880152
0002b0 90 d0 82 bd e3 e9 1b bd 40 9e 2f be f3 88 59 bd
       -0.063874364 -0.03806485 -0.17150211 -0.05310912
0002c0 1f c4 c5 bc 93 7c e3 3c 18 f9 b8 bd 15 e0 5f 3c
       -0.02414137 0.027769363 -0.09031886 0.013664265
0002d0 2d 03 af bd 8c 49 e3 bc 0e 89 c6 bc fb c2 1b 3c
       -0.085455276 -0.02774503 -0.024235275 0.009506936
0002e0 89 25 d4 3d a1 2d 4c bd 39 ca 34 bd 38 99 13 bd
       0.10358722 -0.049848203 -0.044138167 -0.036034793
0002f0 04 cf 72 80 1f 08 36 bd 62 e8 b3 81 de ae f2 ba
       -1.054351e-38 -0.04444134 -6.608767e-38 -0.0018515249
000300 6e b2 f5 3d 63 20 8d 3d 7d 8c b9 3d 97 cf 19 81
       0.119969234 0.06890943 0.09059999 -2.82506e-38
000310 04 70 4c 00 26 5f 02 3c e2 cf f7 bc 49 19 f3 3c
       7.019681e-39 0.0079572555 -0.030250493 0.029675143
000320 0b b5 17 3d 58 9e bc 80 18 61 2c be 6c 76 c7 80
       0.03703789 -1.7321876e-38 -0.16833913 -1.8317745e-38
000330 71 bc cd 3c d2 9c 82 be 3c 6f 31 01 51 9f 23 3d
       0.02511427 -0.2551027 3.2589572e-38 0.039946858
000340 69 ea 64 81 48 45 fc 00 7c 0f b1 81 60 5a 4e 00
       -4.2045167e-38 2.3167398e-38 -6.504175e-38 7.195589e-39
000350 96 f4 86 81 26 77 b0 01 22 b8 49 81 40 f4 42 00
       -4.957479e-38 6.482316e-38 -3.7049978e-38 6.148763e-39
000360 5e e0 8b 81 56 4e 4a 00 78 af b4 81 10 d3 b2 00
       -5.1382487e-38 6.823928e-39 -6.637334e-38 1.6422433e-38
000370 07 48 8c 01 fa 8c 47 01 49 41 96 81 44 c9 a7 80
       5.153123e-38 3.6651673e-38 -5.519498e-38 -1.5408728e-38
000380 50 e5 64 81 a8 d6 a4 80 c8 b5 80 81 8e 07 4a 80
       -4.204151e-38 -1.5138026e-38 -4.728062e-38 -6.798537e-39
000390 6a 63 98 81 b0 48 8d 00 0c 90 df 00 ac 2a ae 01
       -5.5978634e-38 1.297488e-38 2.053099e-38 6.3978736e-38
0003a0 30 ee a8 80 e6 60 1f 01 30 1e 90 01 fd 83 39 81
       -1.5513809e-38 2.927321e-38 5.294056e-38 -3.407383e-38
0003b0 fc 9f f0 80 56 02 97 81 e2 dc 0a 81 ac e3 5a 80
       -2.209791e-38 -5.547199e-38 -2.5505073e-38 -8.346868e-39
0003c0 b3 b8 04 3b 6a 4d 1f bd 18 b3 ff 3c 85 23 19 3c
       0.002025169 -0.038892187 0.031213328 0.009346847
0003d0 7a 42 6a 3c cb c2 06 3b a3 6a db 3a 44 8c f9 3c
       0.014298076 0.0020562883 0.0016740154 0.030462392
0003e0 ac 8e 03 3c 32 94 78 3c 0c b9 06 3b 97 7e 38 3c
       0.008029621 0.015172051 0.0020557074 0.01126065
0003f0 9c 8e 01 3d 73 26 4f 3c 2a 44 6f 3c c6 68 04 3b
       0.031630144 0.012643444 0.014603654 0.0020204051

find.0.bias f4 [128]
000000 23 c9 7e 3c e9 eb 15 bd 81 16 a7 bd 98 75 b8 3d
       0.015550884 -0.036601935 -0.08158589 0.09006804
000010 1c 80 87 bd 25 af ae bd b2 72 ba bd 7a 31 30 3d
       -0.06616232 -0.085295 -0.09103908 0.043015935
000020 22 91 11 bd f8 bc 14 3d 80 f0 76 3d 9b a5 a5 3d
       -0.0355388 0.036313027 0.060287952 0.08088227
000030 fe 13 87 3c e7 27 9a b9 b3 c3 33 3c 32 4b 13 bc
       0.016489025 -0.00029402899 0.010971951 -0.008990096
000040 33 ad c2 bd d1 49 c1 bd 54 73 e0 bc 72 1a 5f bd
       -0.095056914 -0.094379075 -0.027398743 -0.05446858
000050 8b 3c 8d 3c c8 40 87 bc 98 14 5b bd c6 9b 87 3a
       0.017240783 -0.016510382 -0.053486437 0.0010346107
000060 d8 7f 0a 3e 2f 71 ab 3c fc 74 8e bc df 7b 53 bd
       0.13525331 0.020927994 -0.017389767 -0.051631805
000070 6f 83 91 bd 06 57 04 bd e6 d9 ce 3c b1 53 82 bd
       -0.07105147 -0.032309555 0.025250386 -0.06363619
000080 1d eb 4f bd 9f c3 df 3c 3c 6b b2 3c 3a 43 e6 bc
       -0.05076133 0.02731496 0.021779649 -0.028108228
000090 b2 77 73 bd 52 0d 05 bd ed b6 99 bd 3f fc 77 bc
       -0.059440322 -0.032483406 -0.075055934 -0.015135824
0000a0 58 ca 04 bd ff 20 09 3c 4c 27 c8 bc fe 4e c2 bc
       -0.032419533 0.008369683 -0.0244328 -0.023719307
0000b0 01 6f f5 3d 15 24 5e bd fe ea 88 3c 6d cc a8 3c
       0.11984063 -0.05423363 0.016713616 0.02060529
0000c0 67 ff 44 bd bf 24 54 bd bd e2 90 bb e3 fd 17 3c
       -0.048095133 -0.051792856 -0.0044215606 0.00927684
0000d0 8d 1c d8 bd c5 2e ca ba 2f 3f 91 bd 72 14 31 bc
       -0.10552321 -0.0015425315 -0.070921294 -0.010808097
0000e0 60 26 13 bb 07 36 d2 bd ab 43 a0 3c 96 d4 98 bc
       -0.0022453293 -0.10264211 0.019563517 -0.018656056
0000f0 21 3b ed bc 13 6e e2 3a df e1 3b bd af 02 85 ba
       -0.028958859 0.0017275236 -0.045869704 -0.0010147894
000100 50 ba 6c bc 96 c3 67 bc a9 c0 b9 ba 1e 59 a4 bc
       -0.014448717 -0.014145752 -0.0014171797 -0.020062026
000110 15 52 22 3d 60 8a 67 bd 10 65 3e 3c 1d 80 23 3a
       0.03962906 -0.05652845 0.011620775 0.0006237047
000120 24 33 b3 bc da 9e 29 bd f1 16 51 bd f5 0b 57 bd
       -0.021874972 -0.04141126 -0.05104727 -0.052501637
000130 87 51 b5 3b 15 ce 37 3d ac bb b9 bd da e8 3b bd
       0.0055334005 0.04487427 -0.09068999 -0.04587636
000140 b1 d5 61 bd 84 3a 16 3c 45 f5 00 bd 9b ef 1c 3d
       -0.055135433 0.009169225 -0.031483907 0.038314443
000150 76 71 0b 3d d4 47 8a bd df ba de bc c2 0a 80 3c
       0.03404375 -0.067519814 -0.027188716 0.01563013
000160 81 a5 0e bd ae 66 d1 3c b6 76 95 3d 28 da bb bd
       -0.034825806 0.025561657 0.07298033 -0.091724694
000170 00 b6 ff bb 85 a8 ba bd a4 5b 26 3d 3b 0a 93 bd
       -0.0078036785 -0.09114174 0.04061474 -0.07179686
000180 bf 72 a3 bb b1 0c cc bc 6f 3e 96 bb fd fb 0d 3c
       -0.004988044 -0.024908395 -0.0045850794 0.008666036
000190 5c ca c6 bc 3e 1b 0f bd 1a f8 a4 3d 95 09 8c bd
       -0.024266414 -0.03493809 0.08055134 -0.06837765
0001a0 06 49 85 bd 25 81 b5 bc 7f 78 39 bb 1f 41 39 3c
       -0.06508069 -0.022156307 -0.002830058 0.01130703
0001b0 0c 90 84 3d 6f c7 09 bd bb e2 8e bd 30 21 b5 bb
       0.06472787 -0.03363746 -0.06976839 -0.005527638
0001c0 74 2e 17 3d c6 09 ca bc 8e dc ec bc 55 ab af bd
       0.036909536 -0.024662863 -0.028913762 -0.08577601
0001d0 82 3d 5c bd e9 c1 52 3d 52 2e 3e bd 91 7c d2 3c
       -0.053769596 0.05145446 -0.046430893 0.025694164
0001e0 66 84 d8 bc 49 9e 7f bc c8 0a de 3b dc 76 eb 3c
       -0.02643032 -0.015601703 0.0067761876 0.0287432
0001f0 df 54 7a 3d 24 ac 1a 3d d3 34 3f bc 50 aa a4 3d
       0.061116096 0.037761822 -0.011670309 0.08040297

find.2.weight f4 [128, 128]
000000 7b 2e c1 bd 6c 9e 4c bd c4 30 89 3c c6 fe 3f 3e
       -0.094326936 -0.04995577 0.016746886 0.18749532
000010 23 bf 3d bd 5d ca 39 bd b9 8c af 3d 54 76 6c 3d
       -0.04632486 -0.045359004 0.085717626 0.057730034
000020 4c 72 a0 bd 59 d2 2f be a9 96 70 3c 1f cf 47 3d
       -0.078343004 -0.17170085 0.014684358 0.04878151
000030 fa 76 49 3c e0 d4 e7 b9 79 2b 64 3c c4 70 13 3d
       0.012296433 -0.00044218358 0.01392638 0.035996214
000040 d2 02 e2 3c fb 1f e4 bd d1 b4 bd 3d 81 5a 8c bd
       0.027589235 -0.11138912 0.092630036 -0.068532
000050 b9 b2 d2 bc ec bc 47 bd 37 93 73 3d d5 81 58 3c
       -0.025719987 -0.048764154 0.059466567 0.013214548
000060 31 92 8e 3e 29 56 33 3d 10 09 0e 3d 15 4d 35 3c
       0.2784591 0.04378334 0.03467661 0.011065741
000070 21 55 05 3d e2 8d 1c bd 09 fd 46 3d 19 a5 f2 bd
       0.03255189 -0.038221247 0.048581157 -0.11847896
000080 67 e7 4e 3d 09 8e 4f 3d f0 73 67 3d 32 07 be bd
       0.05051365 0.050672565 0.05650705 -0.09278716
000090 e5 fd 10 3d 49 db dc bd 86 67 c4 3d 40 18 d5 3d
       0.035398383 -0.10784013 0.09590058 0.10405016
0000a0 a5 5d 92 bc 70 df 67 bd 1f b0 0a 3d c4 54 02 be
       -0.017866919 -0.05660957 0.03385937 -0.12727648
0000b0 3d 5b de 3d 9f 9f ac 3d 94 d9 66 3c 70 75 fb 3d
       0.10857246 0.08428883 0.014089961 0.12278259
0000c0 b4 e3 ea 3d c1 a9 d9 bc b4 5c 8f bd 96 9f 06 bb
       0.11469212 -0.026570203 -0.070001036 -0.0020541898
0000d0 74 38 93 3d 5f dc 5d bd 2a 12 d7 bd 1e 1d d4 ba
       0.07188502 -0.05416524 -0.105015114 -0.0016182994
0000e0 dc a6 c1 3d 3b 60 61 3c 68 60 3a be 48 36 6c bd
       0.09455654 0.013755853 -0.18200839 -0.057668954
0000f0 19 51 3f bc 0c c1 de bd 25 f7 c7 bd 07 10 cf 3c
       -0.01167705 -0.108766645 -0.09763936 0.025276197
000100 73 09 0c bc ed ae 03 3d ae 32 2a 3d 05 b3 39 3d
       -0.008547175 0.032149244 0.04155224 0.045336742
000110 2c 69 f3 bc 81 05 55 3d b5 6a 75 3d 5a 2b c2 3a
       -0.029713236 0.052007202 0.059916217 0.0014813945
000120 e1 c2 60 bd 62 1b 1a 3e c7 16 60 3d 17 45 2d bd
       -0.05487335 0.15049508 0.054709222 -0.042302217
000130 25 2a dc 3c c9 82 fa 3d 17 15 80 3c 84 e9 55 3d
       0.026875565 0.122319765 0.015635056 0.05222465
000140 9c 11 7a 3d 15 3f 78 bc 95 e9 0b bd 92 30 9c 3d
       0.06105195 -0.015151759 -0.034158308 0.076264516
000150 3d 60 02 be 91 fa 21 bd 2a bf 52 bc 95 e7 51 3d
       -0.12732024 -0.0395456 -0.01286296 0.051246244
000160 d1 97 d8 3b 1f b5 ec 3c e9 e8 e5 3d 63 82 e8 bc
       0.006609895 0.028894959 0.11226065 -0.028382486
000170 6d c9 05 3e ec 6f 96 bd f6 27 fb 3c 5c c8 a5 3d
       0.13065119 -0.07345566 0.030658703 0.08094856
000180 e8 15 02 3d 2b c7 57 bc fd b4 81 3d 15 45 d9 3c
       0.031759173 -0.013170044 0.06333349 0.026522199
000190 0c 47 e1 3d 4b be 5f bc 49 af 2d bc a0 d6 1d 3d
       0.10999879 -0.013656209 -0.010600873 0.03853476
0001a0 3f 47 34 bd bb a9 d4 bd 88 1d 40 3d f0 bb e8 3d
       -0.044013258 -0.10383936 0.046903163 0.11363971
0001b0 e7 6e 28 3d 4d 59 e2 3c 7f 0d d7 3a 66 8d 13 3d
       0.04112139 0.027630473 0.001640722 0.03602352
0001c0 0c 8a 42 3e f3 d6 3b 3e 5c 06 aa 3d 29 14 ed bc
       0.18997973 0.18343715 0.08301994 -0.028940277
0001d0 3c 10 d9 3b 2a 98 0d be e5 b6 22 bd d0 bb b2 bd
       0.0066242497 -0.13827577 -0.039725203 -0.08727229
0001e0 bf 55 b7 bb 11 47 0f 3d ab 46 da bc 2a ab 72 3d
       -0.0055949385 0.034979884 -0.026645025 0.059245266
0001f0 18 2f 7c 3d 6a ba 4e 3e fa 51 72 3d 0c cb a1 3d
       0.06156835 0.20188299 0.05916021 0.07900056
000200 de 22 40 bc 76 ec 59 bd fa 70 3c 3c 7d 4e 72 bc
       -0.011727063 -0.053204022 0.011501545 -0.014789221
000210 6b 94 b1 3c 50 27 87 3c 9d 53 1c 3d a4 e8 26 bd
       0.021677217 0.016498238 0.038165677 -0.040749207
000220 5b b4 97 39 0e 97 16 3c 16 01 73 bc 54 04 20 bd
       0.0002893534 0.009191288 -0.014831802 -0.039066628
000230 6f 0b 2a 3b 9d a8 d0 3b 81 fb 38 bc f2 d0 86 3c
       0.0025946756 0.0063677565 -0.011290432 0.016457055
000240 76 44 be 3c 1e da c3 3b bd 02 33 bc 10 13 1f bd
       0.023226004 0.0059769293 -0.010925946 -0.03883654
000250 41 9a 84 3c 4d b7 56 bc ec 9e 19 bc c6 c4 83 3b
       0.016186835 -0.013105226 -0.009376269 0.00402126
000260 2c 17 2f bd 93 b5 8f 3c 5a 30 fc 3b de bf 32 3c
       -0.042746708 0.017542636 0.0076961936 0.0109100025
000270 ed 3c 11 bd e2 7b 76 3c 3c 47 08 bc a7 a3 23 3c
       -0.035458494 0.015044184 -0.008317765 0.009987748
000280 2c df 20 bc 91 1d c1 3c 60 d7 80 3a ee 76 00 bd
       -0.009818833 0.023573669 0.0009829812 -0.03136342
000290 92 82 0d bd f9 f6 1d bb fa 49 e1 3b db b2 49 3c
       -0.03454835 -0.0024103506 0.006875274 0.012310709
0002a0 b2 00 9a 3c 97 7a 42 bc 4a 4f 0b bd 05 d7 c2 bb
       0.01879916 -0.011870048 -0.034011163 -0.0059460425
0002b0 e6 ea d0 3b c0 49 a3 bb 83 52 18 bd 77 14 00 bc
       0.0063756583 -0.004983157 -0.037188064 -0.007817379
0002c0 94 e4 5b 3c c7 38 c5 bb 43 95 0a 3c 93 47 2c bd
       0.0134211965 -0.0060187313 0.008458438 -0.042060446
0002d0 a2 96 b2 3c 71 97 57 bd 4a 44 3c 3c 30 2b 77 3c
       0.021800343 -0.05263466 0.011490891 0.01508598
0002e0 cc 68 c3 bc 4d 72 99 bc 72 6f cf bc 62 79 8f 3c
       -0.023853682 -0.01873126 -0.025321696 0.017513935
0002f0 0b 2c 5f 3b 36 44 d1 bc 5e 8d 2f bc 74 7d 61 3c
       0.0034053351 -0.02554522 -0.010714857 0.0137628205
000300 4a 5a 22 bd 69 5a af bc 69 e0 39 3c f8 dd 84 3c
       -0.039636888 -0.021405416 0.011345007 0.016219124
000310 63 11 89 bc c2 72 99 3c d6 50 37 3c d0 15 97 3b
       -0.016731923 0.018731479 0.011188706 0.0046107545
000320 c3 5e 59 3b 22 2f a8 3c 2b 87 40 bd 24 02 36 bb
       0.0033168055 0.020530287 -0.047003906 -0.0027772272
000330 30 7f 97 3c 27 ce e1 3b ff fb 1c 3c ae 1f 11 bd
       0.018493265 0.0068910304 0.009581565 -0.035430603
000340 e5 e7 15 bc 56 ba 75 3c 51 ad b9 bb ae 60 07 bb
       -0.009149526 0.014998039 -0.005666413 -0.002065699
000350 aa 66 b9 bc 80 6b 3e bc 0d 35 8c 3b 4c f1 85 3b
       -0.022631962 -0.01162231 0.004278785 0.0040876027
000360 c1 e5 45 3c 7a eb 15 39 ae 85 17 3c 49 da b5 3c
       0.012078703 0.00014297469 0.00924818 0.022198813
000370 2f ce 80 3b e2 28 1a bd 7e 23 20 bd 99 98 26 3c
       0.003930829 -0.037636645 -0.039096348 0.010168218
000380 c3 d2 b6 39 e0 9e 83 b9 da f8 3d 3c 41 3b 35 bd
       0.00034870775 -0.00025104638 0.011594975 -0.044245962
000390 0c d3 a5 3c 45 7a 64 3c b2 dd be bc 3f 0b 10 3c
       0.020242237 0.013945167 -0.023299072 0.008791744
0003a0 fd 17 af 3b ae 00 97 3c 97 cc 03 3c 55 4b ef bb
       0.005343436 0.018432941 0.0080443835 -0.0073026814
0003b0 4e 7e ae bc fd 47 35 bd df d7 7a 3b 55 a5 96 3c
       -0.021300461 -0.044258106 0.0038275642 0.018389383
0003c0 f4 86 ea bb 08 ab 85 b9 69 fe 9d bb 32 ed b6 3c
       -0.007157201 -0.00025495165 -0.004821588 0.0223299
0003d0 4c 1a b3 bc 50 10 ca bc d4 22 85 3c fd 63 a6 bc
       -0.021863125 -0.024665982 0.016251959 -0.02031135
0003e0 7f ab fc 3a c8 0d c4 3c 96 68 58 b9 b9 3c 49 3c
       0.0019277184 0.023932353 -0.00020638327 0.012282544
0003f0 22 87 94 bb 3f 91 6a bb 6e 6b a1 bc 57 55 a3 bc
       -0.0045327106 -0.003579214 -0.019704547 -0.019938154

find.2.bias f4 [128]
000000 4e d3 86 3d 15 d8 17 bd d9 b1 86 bc 61 44 18 3d
       0.06583272 -0.037071306 -0.016442226 0.037174586
000010 ee c4 7d 3c 5f f6 54 3d 7e 94 d4 3c 6a 84 39 bd
       0.015488846 0.05199277 0.025949713 -0.045292296
000020 3f d5 90 bc 49 4e 80 bb c2 69 19 3d 47 bd 60 bd
       -0.017679809 -0.0039155823 0.037454374 -0.05486801
000030 28 47 08 3c 97 b0 e8 3c 6f 8a 04 3d da 14 33 3d
       0.008317746 0.028404517 0.032358583 0.043721057
000040 b3 f0 90 ba 44 73 3a 3d 9a af 0b 3d 19 e3 32 bd
       -0.0011058062 0.045520082 0.034103014 -0.04367361
000050 db b1 8d bd 7d 8f 5d 3d e6 59 6d ba 65 72 58 bd
       -0.06918689 0.05409192 -0.00090542284 -0.05284347
000060 ec 13 9f 3c 91 aa 42 3c ca e2 05 3d ad 25 a7 bc
       0.01941868 0.0118814865 0.032686986 -0.020403707
000070 55 01 d9 3c 1d 34 99 bc fe 91 9c 3b 6a 78 9f bb
       0.026489893 -0.018701607 0.004778146 -0.0048666494
000080 36 77 02 3d 9a 6a e6 3c bc 78 64 bc f8 ab 92 3d
       0.03185197 0.028127003 -0.013944801 0.07161707
000090 85 9b 23 bc c9 d1 24 bd ed 2c 3d 3c 93 8d 5c 3b
       -0.009985809 -0.04023913 0.011546356 0.003365372
0000a0 de ca 25 3d f8 ee 88 bd db 43 2f 3c d8 9b ff bc
       0.040476672 -0.06686205 0.01069733 -0.031202242
0000b0 7e db 2f 3d b5 8c de 3c 01 0a fd bc 50 21 14 bd
       0.042933933 0.027166704 -0.03088856 -0.03616458
0000c0 ec 79 ef bb fe c0 94 bd b6 70 7b bd fa 83 fd 3c
       -0.0073082354 -0.07263373 -0.061386786 0.03094672
0000d0 97 d6 13 3d f1 87 13 bb a8 9c 5b bd a5 59 95 3c
       0.03609332 -0.0022511447 -0.053616196 0.018231222
0000e0 3e 43 27 3d bd f6 25 bd ce 69 8b bd a8 4a 40 bd
       0.04083561 -0.04051851 -0.0680729 -0.046946198
0000f0 ce 8c 9e 3b e7 b5 f5 bc 1e 94 eb bb ba 27 7c 3d
       0.0048385626 -0.029993964 -0.007189288 0.061561324
000100 03 c4 9e bd f4 c2 57 bd ba 77 f9 3b 80 42 a8 ba
       -0.0775223 -0.052676156 0.0076131495 -0.0012837201
000110 c6 0e 94 3c be 67 a1 bd e9 08 5b bd df 57 bb bb
       0.01807345 -0.078811154 -0.053475294 -0.005717262
000120 2a f8 ad bc ec c7 3b bb 4b 8b 55 3d f3 21 78 3d
       -0.021236498 -0.0028653098 0.052134793 0.06057925
000130 f0 ab 86 3d 43 fc 51 bc da e0 11 bb d5 e7 b4 3d
       0.06575763 -0.012816492 -0.0022259266 0.08833281
000140 64 81 c2 3d a9 d4 e7 bc b0 51 9f 3b 63 4a 1a 3d
       0.094973356 -0.028299646 0.004862033 0.037668597
000150 2b a2 4b bd 24 ef 35 3d 14 c7 81 3d c0 f1 c2 bc
       -0.049715202 0.044417515 0.06336799 -0.023796916
000160 9a d0 ab bd c7 8b c7 bd 05 85 82 3d 3c d9 96 bd
       -0.08389397 -0.09743457 0.06373028 -0.07365653
000170 bd 3b 50 bd 98 30 b8 b9 8a 2a 95 3d 4c e7 2a bd
       -0.05083822 -0.0003513142 0.07283504 -0.04172449
000180 f4 fb 80 3d 27 ad 15 3d 70 22 08 bd b0 81 53 3b
       0.06298056 0.036542084 -0.033235967 0.0032273345
000190 e0 68 65 3d c6 86 33 bd 35 bd a2 3c aa 48 6f bc
       0.05600822 -0.0438297 0.019865612 -0.014604727
0001a0 69 4a 34 3c f1 66 90 3d af 74 ae 3c df bc 4b 3d
       0.011004069 0.070508845 0.021295873 0.04974067
0001b0 e8 c6 7d bd f5 5a b7 bc 3f 9f db 3c cc 7e 6f 3c
       -0.06195727 -0.022382239 0.026809333 0.014617633
0001c0 cb e9 41 3d d1 ff 6b 3d bd cb b5 3d fc 7e a1 3c
       0.047342103 0.057617012 0.088767506 0.019713871
0001d0 64 28 9a 3c fd c3 2b bc 95 6f 48 3d 24 47 f0 bc
       0.018818088 -0.010483739 0.048934538 -0.029330797
0001e0 09 d1 32 bd 5b d2 b4 bd 67 cd 29 ba e9 bf f8 3c
       -0.043656383 -0.088291846 -0.0006477446 0.030364947
0001f0 d5 27 25 bd ec 87 21 3d d1 61 ee bc d5 79 3b 3d
       -0.04032119 0.039436266 -0.029099377 0.045770485

find.4.weight f4 [64, 128]
000000 af 73 70 3d 74 75 bc 3b 5a 0c b9 bc 1a 74 c9 bc
       0.058704074 0.005751306 -0.022588897 -0.024591494
000010 7a 68 8f bc dd dc 7e 3c e4 23 2f 3e bb dc cf bb
       -0.017505873 0.015555588 0.17103535 -0.006343452
000020 89 21 3c 3d 73 d5 96 bc da 90 08 3e 50 93 26 3d
       0.04593042 -0.018412327 0.13336506 0.040667832
000030 d6 49 92 3d 48 ad e0 bc dc 83 49 3e 52 27 1b bd
       0.07142989 -0.027426377 0.19679207 -0.037879296
000040 7d 03 3e 3c be 1f 00 3e 65 8a 00 3e 9a dc 6d bd
       0.011597511 0.12512109 0.12552793 -0.05807171
000050 b7 bf 5d 3d cd c2 76 bd 4d fa 9a 3d 2c 67 79 bb
       0.05413791 -0.06024437 0.07567272 -0.003805588
000060 dd d1 9b 3c d5 d4 0f 3e 1a c9 9c bb 18 1a 2a 39
       0.019020969 0.14046033 -0.0047847154 0.00016222184
000070 6d 54 fc bd 0b 0c 91 3d 83 f2 10 3d f1 37 14 be
       -0.123207904 0.07082375 0.035387527 -0.14474465
000080 c5 e2 d9 3c 07 b7 da bd 85 dc 2f 3e ac 42 6b bd
       0.02659739 -0.10679441 0.17173965 -0.05743663
000090 7a df f8 3d db 8a 2f 3d 15 94 d2 3d c9 aa e9 bb
       0.12152 0.042857032 0.10282151 -0.007130955
0000a0 e4 18 14 3d 33 03 ae bc f5 31 2d bd a6 4c be 3d
       0.03615655 -0.02124176 -0.04228397 0.09291963
0000b0 9e 36 61 3e 2e a6 a2 bd cb 3a 53 3d a1 ba 48 bc
       0.21993491 -0.079418525 0.05156974 -0.012251527
0000c0 89 a4 14 bc 2c cd 95 bc d3 df 1e 3d 31 81 35 3e
       -0.009072431 -0.01828631 0.038787674 0.17725064
0000d0 18 07 24 3e fb 73 3b 3d 0a e8 43 3c 07 f6 72 3d
       0.16018331 0.045764904 0.011957178 0.05931666
0000e0 89 c7 9e 3c e2 a2 9c bc 19 71 e7 3c 51 8e 25 3d
       0.019382255 -0.019120637 0.028252171 0.040418927
0000f0 59 40 49 be b4 43 c5 3c 01 18 12 bd 6f 1a 11 3d
       -0.19653453 0.024080135 -0.035667423 0.0354256
000100 f4 dc 89 3a 19 8d 44 3e 25 42 65 3d fc bf 7f bd
       0.001051812 0.1919445 0.055971283 -0.06243895
000110 c2 6e 03 3e 38 b3 1c 3d 2a 0e 60 3c 1f ec cb bb
       0.1283522 0.038256854 0.013675252 -0.006223216
000120 c4 92 67 3d 82 85 d9 3d 23 4a 94 3d 91 9d b6 bd
       0.05653645 0.10621168 0.07240703 -0.08916772
000130 d0 4c 25 bd c6 b2 fb bb 7f cc 30 3d 2b 3c 1e 3e
       -0.040356457 -0.0076812236 0.043163773 0.1545264
000140 b5 9f dc bd 3d e0 23 3c d4 09 3f 3d bb 6c 0c be
       -0.10772649 0.010002193 0.046640232 -0.13713352
000150 8b 5c 37 3c 8e 0e 3d 3d f9 91 0e 3b 11 20 b8 bc
       0.011191498 0.04615646 0.0021754487 -0.022476228
000160 41 9e fa 3c a7 2f ed 3c 73 fc ad 3c b5 a5 28 3d
       0.03059304 0.028953386 0.021238541 0.041173656
000170 f2 18 22 bc 9a bb f0 3d 3c b0 ca bc d7 92 95 bd
       -0.009893643 0.11754532 -0.024742238 -0.07303398
000180 15 97 64 bd 6e 07 81 bd 01 7b 08 3c d8 01 2a bd
       -0.055808146 -0.06300245 0.008330108 -0.041505665
000190 a6 f4 27 be 40 69 32 3c 87 9b f5 3b 66 f9 09 3e
       -0.1640192 0.010889351 0.007495347 0.13474044
0001a0 74 ad c9 3d 0b d8 dc 3d bb 6e e3 3d e7 df 04 3e
       0.09847537 0.107833944 0.111051045 0.12976037
0001b0 96 a6 eb 3d 47 d2 c2 bc f0 41 d4 3c b6 ab 02 3e
       0.11506383 -0.023781909 0.025910348 0.12760815
0001c0 c8 dd 56 bd d8 fb 34 bd 05 1a 5b bd 17 87 37 bd
       -0.0524576 -0.04418549 -0.05349161 -0.044806566
0001d0 db 22 cb 3d a9 7b af 3b 73 43 80 3d 83 a0 0e 3e
       0.099187575 0.0053553176 0.06262865 0.13928418
0001e0 e4 14 b3 bd 03 f7 54 bd 1a a1 39 3d de f9 91 bc
       -0.08744219 -0.05199338 0.045319654 -0.017819341
0001f0 8f 86 d2 3d f5 58 8c 3b 4f 89 e3 bb 03 6a 9f 3d
       0.10279571 0.0042830654 -0.0069438587 0.07783892
000200 29 0b 8d bb 56 f6 d1 3a 8d 64 2b 3d 51 6b a5 3d
       -0.004304309 0.0016018848 0.04184394 0.080771096
000210 b4 51 8e 3d cc c6 49 bd 2e d0 bd 3c 40 88 ce 3b
       0.069491774 -0.049261853 0.023170557 0.0063028634
000220 ec 37 88 3d cf b6 81 3d ce e7 5f 3d 0f 52 bd bd
       0.06651291 0.06333696 0.054664426 -0.09244167
000230 8f ca f5 bd 17 b2 72 3d 9c b7 9a bc b0 8e 58 3d
       -0.120015256 0.05925187 -0.01888638 0.052870452
000240 98 a2 d9 3c 20 2e 76 bd d4 d5 9e bd ff 8e 4f bc
       0.026566789 -0.060102582 -0.07755628 -0.01266837
000250 2f 1b e8 bd b5 12 85 3d 1d 7c b5 bd 33 3f 38 3c
       -0.1133331 0.06497709 -0.08861563 0.011245537
000260 10 65 e2 3d 33 b5 8e bd 6c ed 71 3d 44 0c 13 3b
       0.110544324 -0.06968155 0.059064314 0.002243773
000270 fe 5e 71 3d 99 02 fd bd ac c9 67 bd 0f 22 74 bd
       0.058928482 -0.12354011 -0.056588814 -0.059602793
000280 6e 09 76 3d 41 8c 11 bd 19 e5 8a bd 1a 76 2d 3d
       0.060067587 -0.035534147 -0.06781978 0.04234896
000290 bf be 37 bd 8d c8 31 bd 20 6b 39 bd 13 2d 14 bd
       -0.044859644 -0.04340415 -0.045268178 -0.0361758
0002a0 ec b8 23 be 84 28 85 3a 2f 57 0a 3d 55 97 09 bd
       -0.15988511 0.0010159169 0.03377455 -0.033591587
0002b0 56 ae 8d bd e4 cd 67 3d be ba 57 bd 3b 8a ee 3c
       -0.069180176 0.056592837 -0.052668326 0.029118648
0002c0 3c 0b 12 3d 03 55 a5 3b 52 1f be ba 9b 04 7f 3d
       0.035655245 0.0050455346 -0.0014505184 0.06226025
0002d0 c2 0b b7 3d b7 2b f0 bd 37 c0 86 bc 47 d1 8b 3d
       0.089377895 -0.11727088 -0.016449077 0.06827026
0002e0 1f c9 ce 3d 9a 13 81 3d 59 f3 f7 bc 0e 65 81 3d
       0.100969546 0.06302567 -0.030267404 0.06318103
0002f0 ff 6e 49 bd e3 2a 3e 3d 81 bf 7b 3d c7 16 6a bd
       -0.04917812 0.04642762 0.06146193 -0.05715063
000300 b8 e9 87 bb d7 6c 67 3d b4 71 35 bd 71 81 89 bc
       -0.0041477345 0.056500282 -0.04429789 -0.016785355
000310 70 e4 b2 bc a9 54 b5 bd 42 7c 5c 3c ff c2 c5 3d
       -0.021837443 -0.08854038 0.01345736 0.09656333
000320 ee e7 2c bd c0 05 c9 bd dc 8c 5d bd d6 14 c7 3c
       -0.042213373 -0.0981555 -0.054089412 0.024301928
000330 7c 78 74 3d 9b 7c 30 bd ad b0 76 3d 5e 6e d1 bc
       0.059685215 -0.043087583 0.060227085 -0.025565322
000340 46 56 05 bb 83 f9 a0 3a cf f3 bb bd 05 66 80 3c
       -0.0020345612 0.0012281392 -0.09177362 0.015673647
000350 b2 d0 4f 3a 9a 0b f1 bd 25 40 b6 3d d8 58 5b 3d
       0.00079275214 -0.11769791 0.08898953 0.053551525
000360 37 66 ae bc a6 64 bb 3a c9 3f 14 bd e7 cd c6 3c
       -0.021288974 0.0014296963 -0.036193643 0.024268104
000370 27 f4 f3 bd e6 76 65 bc aa df 0a bd 4b 50 4c bd
       -0.11911803 -0.014005398 -0.03390471 -0.04988126
000380 0c 48 16 be 1b ea 8f 3d e0 14 06 3b 0e 8a 9f 3d
       -0.14675921 0.07027074 0.002045922 0.07790004
000390 b6 77 2f bb ac 6b 3b 3c d0 5f c6 3c 5f 24 8c 3c
       -0.0026774234 0.011439245 0.024215609 0.017107187
0003a0 d4 95 96 3d 6e 5a 88 bd 3f 0f c8 bd 40 36 45 3d
       0.07352796 -0.06657873 -0.09768533 0.04814744
0003b0 4e a6 b4 bd a1 47 78 3d e5 f4 61 3b 21 3e 3b bd
       -0.088207826 0.060615186 0.0034478244 -0.045713548
0003c0 30 4f 95 3d ed 2d 0b 3c d7 a4 3e 3d 5f 58 48 3d
       0.072904944 0.008494836 0.046543922 0.048912402
0003d0 8d e4 9e bd 70 b0 12 bc fd 3d bb bd 90 3c b5 bc
       -0.07758436 -0.008953199 -0.09142683 -0.022123605
0003e0 7b 70 7b bd 75 6b 85 bc 88 57 f7 bc 48 05 ad 3d
       -0.061386567 -0.016286591 -0.030193105 0.08448273
0003f0 ae ba b5 bd 56 89 2e bc a7 d8 63 3d 94 ab 5e bd
       -0.08873497 -0.010652861 0.055626538 -0.05436285

find.4.bias f4 [64]
000000 25 e6 83 bc f3 6d 87 bb 0d a5 8e bd 62 88 65 bd
       -0.016100952 -0.00413298 -0.06965075 -0.056038268
000010 01 ef 7d bc 2e ba 31 bd 0b a6 df bb 05 d2 8a bd
       -0.0154988775 -0.043390445 -0.006825214 -0.06778339
000020 48 bd 58 bb df b5 1a bc 6d e5 ee 3d 61 0c b5 bc
       -0.0033071805 -0.0094427755 0.11664853 -0.02210063
000030 39 60 9d 3d 4e 59 9c 3d be 67 3a 3e 8a 04 82 bb
       0.07684369 0.07634221 0.18203637 -0.0039678263
000040 e7 a2 04 bd 1c 77 72 3d a1 0a cb bc bd 07 25 bd
       -0.03238192 0.059195623 -0.024785342 -0.040290583
000050 72 92 b6 3d 0f 26 bb bd e8 60 45 bd f2 d1 df 3a
       0.08914651 -0.091381185 -0.04818812 0.0017076118
000060 07 86 2a bd 13 e8 af bc 5e 67 fb 3c 2d 18 cc 3d
       -0.041631725 -0.021472966 0.030688938 0.09965549
000070 ad 1c 8a bd fc 4c d5 3d 56 66 4c bd 2f 6b b5 3c
       -0.06743751 0.10415074 -0.049902283 0.022145836
000080 a9 13 3e 3e 6b 80 40 bc 5d 1e a0 3d 7a 9c 8a bd
       0.18562187 -0.011749367 0.07818291 -0.06768127
000090 79 12 a2 bc db 91 0d 3e cf 6f 37 bd 15 ee 9d 3c
       -0.0197842 0.1382517 -0.044784363 0.019278565
0000a0 f2 bf e6 3c a1 a0 d6 3c b4 df 36 3c f7 8f c6 3d
       0.028167699 0.02619964 0.011161733 0.09695428
0000b0 66 4c 19 bd e8 cd 40 bd af 89 73 bc 5d 9f d7 bd
       -0.037426375 -0.047071368 -0.014864369 -0.10528443
0000c0 d5 bb 2f 3d 41 8e 2b bb de 54 a7 bd 82 b3 99 3d
       0.04290374 -0.002617732 -0.08170484 0.075049415
0000d0 d3 d4 b9 bd d0 2e 62 3c 96 f6 98 bd d6 e7 a0 bd
       -0.09073796 0.013805106 -0.074689075 -0.07856719
0000e0 e7 fe b5 3d da cd e2 bb 1a f3 f8 3d 32 99 a4 3d
       0.088865094 -0.006921512 0.12155743 0.08037032
0000f0 cf 57 42 bd e7 14 3e bd 09 fb 42 bd 2a b5 56 3c
       -0.047447022 -0.046406653 -0.047602687 0.013104716

find.6.weight f4 [2, 64]
000000 e2 ed e1 bc 3a 3c 50 bd e0 59 45 bd 72 3c 98 bc
       -0.027579252 -0.050838687 -0.048181415 -0.01858351
000010 87 f7 3d bb 7e da f8 3c 48 15 5f 3d e5 fa dc bd
       -0.002898665 0.030377623 0.054463655 -0.10790042
000020 66 48 59 3d 83 bb bd 3c 19 9d 45 3d cb b2 32 3d
       0.05304756 0.023160702 0.048245523 0.04362754
000030 93 1e a5 3d 40 2e 20 3e ff 98 98 bc 72 7e a4 3c
       0.08062472 0.15642643 -0.018627642 0.020079825
000040 20 74 bb bd 98 67 78 bd 0d 66 ef 3d 01 69 20 bd
       -0.091530085 -0.06064567 0.116893865 -0.03916264
000050 9e 1a 05 3e b7 8c db bb 67 de 90 3b d2 58 34 3d
       0.12998435 -0.006700124 0.0044210437 0.04403002
000060 c5 bd 8d 3d 6f 63 59 3d df b5 94 bd 16 32 c8 3d
       0.06920961 0.053073343 -0.07261252 0.09775178
000070 8b f6 c7 bd f5 57 5d 3e e3 a4 18 3d 82 a6 f8 bd
       -0.09763821 0.21615584 0.037266623 -0.12141134
000080 c0 a8 c5 3b 28 35 ab bd ee 10 ee 3d e1 b5 d4 bc
       0.0060320795 -0.08359748 0.11624323 -0.025965633
000090 85 44 c9 bd 72 2d 69 3c 76 57 09 bd be f8 67 3d
       -0.09827522 0.014232026 -0.033530675 0.056633703
0000a0 7f 12 ed bd 19 12 e6 bb 3b 20 5c 3d d8 3b fb 3d
       -0.115757935 -0.0070212004 0.053741675 0.12267274
0000b0 5b 58 6e 3d 89 eb a6 bc e3 fd 33 be d2 fd b4 bc
       0.05818973 -0.020375984 -0.17577319 -0.022093687
0000c0 86 4d 5f bd 38 bf f0 ba 6b 43 5e bd 49 df bb bd
       -0.05451729 -0.0018367535 -0.054263514 -0.09173448
0000d0 cf 87 aa bc c6 dd 5c bc d8 ab 7c bd 9e 0a 25 bd
       -0.020816712 -0.013480609 -0.06168732 -0.04029333
0000e0 6f 19 00 bd 49 be fb bc 59 1b 1e 3e 60 dd f0 3c
       -0.031274255 -0.030730383 0.1544012 0.029402435
0000f0 78 1d cf 3d 16 9a b2 3c e3 c6 22 be 92 eb d5 bd
       0.101130426 0.02180199 -0.15896182 -0.10445322
000100 a1 53 84 be 03 87 2e 3e 56 c7 1d 3e 9a be 60 3d
       -0.25845054 0.1704369 0.15408072 0.05486927
000110 54 f1 0a be 52 b9 42 be fd 59 a7 3d fb e9 d4 bd
       -0.13568622 -0.19016007 0.08171461 -0.10396191
000120 a6 f8 94 3d 33 59 ec 3d d2 ea fa 3d 81 95 14 bd
       0.072739884 0.11540451 0.1225182 -0.03627539
000130 f0 a9 6e bc c2 00 c8 3d 4c 52 9e 3d f7 90 f8 3c
       -0.014566883 0.097657695 0.07730541 0.030342562
000140 07 a1 16 3e b6 a1 44 3e 9a e0 15 be e8 dd 7a be
       0.14709865 0.19202313 -0.1463646 -0.24498713
000150 f7 b5 a8 bd c3 d8 66 be 04 a7 bb 3d 97 ee fb 3d
       -0.08237832 -0.22543626 0.09162715 0.12301367
000160 f9 55 41 be 90 24 6b bc c0 56 5e 3d b1 0e ee bc
       -0.18880452 -0.014351979 0.05428195 -0.02905974
000170 a4 eb 46 bc 37 2d bf 3c 65 24 18 be a5 26 78 3c
       -0.012141142 0.02333699 -0.14857633 0.015145932
000180 2d c4 2b 3e 8c 68 77 be 1f 8e b2 bd 4d 6e 5c be
       0.16774054 -0.24160975 -0.08718514 -0.21526451
000190 ba f7 80 be d3 8d 10 3e a9 be 2e 3b 32 fa 83 3d
       -0.25189 0.14116602 0.0026663935 0.06444205
0001a0 5d 71 60 be 22 fa 35 be 3d 55 41 bc ee b5 e1 bd
       -0.21918245 -0.177712 -0.011800108 -0.110210285
0001b0 2b 19 1b bc e3 33 48 be 8b 2f d0 3d 3d d3 7e be
       -0.00946645 -0.19551043 0.10165318 -0.24885269
0001c0 0d 56 ae 3d 37 c7 7c be 59 84 90 3d ff 5b 1d be
       0.08512507 -0.2468537 0.07056493 -0.15367125
0001d0 de 3d 02 3d 59 dc 34 3e cb 1e 98 be 7b f6 61 3e
       0.031797282 0.17662181 -0.29710993 0.22066681
0001e0 8e e4 08 3e 43 d4 e7 3b 34 20 f9 bd 01 93 39 3e
       0.13368437 0.007074864 -0.121643454 0.18122484
0001f0 7d ce f9 bd d8 c7 07 be 9c ff ca bb 26 07 83 be
       -0.12197588 -0.13259828 -0.006195022 -0.2559139

find.6.bias f4 [2]
000000 48 5c 91 bc 1e f9 96 bd
       -0.017744198 -0.07371734

grapher.0.weight.weight f4 [5, 1]
000000 44 17 1b bd 89 d9 38 be e3 07 73 3e d1 45 aa 3d
       -0.037863985 -0.18051733 0.23733477 0.08314098
000010 c1 da 0e be
       -0.13950635

grapher.0.weight.bias f4 [5]
000000 79 83 59 3b ff 39 ed be d8 4a 46 3e b3 71 c8 3e
       0.0033189936 -0.4633331 0.19364488 0.39149246
000010 8d aa b5 3e
       0.35481682

grapher.0.reduce.weight f4 [5, 1]
000000 48 ae 7a bd c6 16 16 be c1 98 d2 3e 67 9b 46 bb
       -0.061201364 -0.14657125 0.41132167 -0.003030503
000010 b8 8e a7 3e
       0.32726073

grapher.0.reduce.bias f4 [5]
000000 a5 3d 07 3e cb c6 03 3f 5b cb 4d be b7 0a 74 bc
       0.1320711 0.5147521 -0.20097105 -0.014895133
000010 3c 13 f8 3c
       0.03028261

grapher.0.gru.weight_ih f4 [15, 5]
000000 50 3c 87 39 66 bb e7 3c 83 e5 8c bc e2 ff 8c bc
       0.00025794143 0.0282876 -0.017199283 -0.017211858
000010 23 a8 79 bc ac 10 b7 b5 ba f9 ac bc 4f e6 fd 3c
       -0.015237841 -1.3639415e-06 -0.021115173 0.030993609
000020 d4 7b 34 3d 65 6b f4 3c 49 ea f9 37 13 76 58 3c
       0.044063404 0.029836366 2.979221e-05 0.013211745
000030 61 dc 05 bd 59 12 11 bd 2f b5 c7 bc 53 af 95 bb
       -0.032680873 -0.03541789 -0.024378387 -0.0045680194
000040 57 07 ac bc 50 bd 9e 3c d9 da a6 3c ce 36 64 3c
       -0.020999594 0.01937738 0.020368027 0.013929082
000050 22 63 08 39 5e 19 9b 3c f4 d5 a6 bc 2c 7e bb bc
       0.000130069 0.018932994 -0.020365693 -0.022887312
000060 9e a1 89 bc 63 20 01 3c 57 93 ba bc 3b 55 e9 bc
       -0.016800698 0.007881257 -0.022775335 -0.028483024
000070 fd 23 41 bc 67 da 1b bd 75 6b f2 b8 e3 04 a7 bd
       -0.011788365 -0.03805008 -0.00011559475 -0.08155229
000080 11 94 27 3d 62 79 73 3d a8 4a f1 3c ec 7b aa bc
       0.04091269 0.05944193 0.029454544 -0.020811044
000090 85 73 89 be 52 5a a4 bd f3 3e 30 be 4b 39 80 bd
       -0.26845947 -0.0802504 -0.17211513 -0.06260928
0000a0 c9 f7 68 bc c9 18 93 bc b9 f3 df 3c b7 b3 89 3c
       -0.014219233 -0.017956154 0.027337896 0.016809328
0000b0 f7 e9 9b 3b 44 12 82 35 0b 65 a4 bb f8 9f b5 bd
       0.0047581154 9.691071e-07 -0.005016928 -0.08868402
0000c0 fd a9 5d 3b 71 21 9d 3c 86 ee 3e 3d f3 0b a4 3e
       0.0033823245 0.019180985 0.046614192 0.32040367
0000d0 5d e0 36 be 7c 28 ae bd 7c 81 ca bd 48 34 51 bd
       -0.17859025 -0.085038155 -0.098879784 -0.05107525
0000e0 32 4b 4a 3b df aa 4a bd 37 3a fb 3c 53 a2 1c be
       0.0030867574 -0.04947936 0.030667407 -0.15296297
0000f0 a8 13 4f bc 94 1b f9 bd 80 16 a9 be da c1 15 3e
       -0.012638964 -0.12163463 -0.3302498 0.1462473
000100 29 94 31 3e 34 a9 89 3b 40 a7 5f bd ea 3e 87 be
       0.17341675 0.004201079 -0.05460286 -0.26415187
000110 4c c1 d8 3d 76 76 93 bd 98 a8 19 bb bb 1a 3f 3e
       0.105837435 -0.07200329 -0.0023446437 0.1866254
000120 f3 1a af 3d a5 09 28 3e ae ac d4 bd
       0.08550062 0.16409929 -0.103844985

grapher.0.gru.weight_hh f4 [15, 5]
000000 82 2c 51 3a c4 8b ac bc f5 43 eb bb ef 0a 67 bc
       0.00079793495 -0.02106274 -0.007179732 -0.014101728
000010 2d 8c c0 bb 90 08 be 3b ce c3 e2 3c db 13 fb 3c
       -0.0058760853 0.0057993606 0.027681258 0.030649116
000020 28 c6 be 3c 84 3c d4 3c 2a d5 a9 ba 78 f3 ce bc
       0.023287848 0.025907762 -0.0012957205 -0.02526258
000030 16 9f e0 bc 72 53 da bc be 58 b7 bc 3a fa be bb
       -0.027419608 -0.026651118 -0.022381183 -0.005828169
000040 9e 5f 92 3c e5 d6 26 3c 7e 86 70 3c d5 1d 72 3c
       0.01786786 0.010183071 0.014680503 0.01477762
000050 68 d8 4b 3a e3 df b8 bc 4e 16 f8 bb 8b 3b 81 bc
       0.00077760825 -0.022567695 -0.0075710183 -0.015775463
000060 97 8f c6 bb 48 62 08 3c f3 3d 23 bd dd a8 96 bc
       -0.0060595977 0.008324213 -0.039854 -0.018391067
000070 bc ba b7 bc d2 b3 48 bc 90 70 09 3d 32 05 6d 3c
       -0.02242791 -0.012249904 0.033554614 0.014466571
000080 3f f9 29 3d 55 3c 96 3c 39 23 76 3d 42 55 69 bc
       0.041497465 0.018339315 0.060092185 -0.014241518
000090 0e 78 02 3d eb 2e 0b 3d 65 1a 83 3c d6 7f b0 3c
       0.031852774 0.03398029 0.016003797 0.021545332
0000a0 9b a7 2d bc 21 03 e8 3b 3c 39 66 3c 5a f7 49 3c
       -0.010599042 0.007080451 0.014051732 0.01232704
0000b0 23 72 1d 3d d2 bf 62 bc 5c 01 9b 3d 3a d3 36 bd
       0.038438927 -0.013839679 0.07568619 -0.044635035
0000c0 0c 7e 2b bc 20 64 9b bd 8f 4e 9e 3a 79 29 0c bd
       -0.010467064 -0.07587457 0.0012077856 -0.03421924
0000d0 e1 d7 87 bd bd 30 78 bd 0b 84 cd bd 89 9c 69 bd
       -0.066329725 -0.060593355 -0.10034951 -0.05703405
0000e0 46 30 3b 3d c0 9f 6e bc 4a 2b b8 bd 51 fb c5 bd
       0.045700334 -0.014564455 -0.08992632 -0.096670754
0000f0 6b 32 ec 3d 4b 51 e0 3d 78 81 bc 3d a8 a5 55 3d
       0.11533054 0.109530054 0.09204382 0.052159935
000100 b2 d1 2b be 72 b5 bd bc bb 63 c2 39 78 e9 82 3c
       -0.16779211 -0.023157809 0.00037076868 0.015980467
000110 da c3 1e bb 2b 86 1f 3d e7 c7 8d bd 27 42 d9 bd
       -0.0024225623 0.038946312 -0.06922894 -0.10608321
000120 80 5d 48 3d b5 d4 3d bd a5 b5 92 3d
       0.048917294 -0.04634543 0.07163552

grapher.0.gru.bias_ih f4 [15]
000000 c4 9a d1 bc 7f 0e 64 3d 62 ff 02 bc 62 a0 55 3c
       -0.025586493 0.055677887 -0.007995458 0.0130387265
000010 77 d9 17 bd 20 56 d3 bd 4a 63 cd 3d 36 03 ec 3d
       -0.037072625 -0.103191614 0.100287035 0.1152405
000020 bf 5f 17 3b 52 b0 a4 3d a5 56 bf be 58 f1 21 be
       0.002309784 0.08041443 -0.37370792 -0.15814722
000030 7d 2e 19 3e f7 76 ba 3e 98 f9 73 3c
       0.1495914 0.36418888 0.014891051

grapher.0.gru.bias_hh f4 [15]
000000 37 41 47 bd ff 46 5e 3d 97 01 f3 bc 40 73 46 bc
       -0.048646178 0.054266926 -0.029663844 -0.012112439
000010 b7 1f 1b bd 26 0d 6f bd 3f 43 fb 3d 91 11 80 3e
       -0.037872043 -0.05836215 0.122686855 0.25013402
000020 16 62 ad 3a b7 92 a1 3d b2 d9 2e 3d ee e4 8b 3e
       0.0013228084 0.07889312 0.04268808 0.27323097
000030 9d d2 48 bd fe 9d 2e be bb 0e 98 be
       -0.04902898 -0.17052457 -0.29698738

grapher.0.gru.ln_resetgate.weight f4 [5]
000000 45 f0 b5 3b 8a 37 24 3e ad 3b 25 3b 7f 58 2c 3e
       0.005552324 0.16036811 0.0025212571 0.16830634
000010 46 99 16 bc
       -0.009191817

grapher.0.gru.ln_resetgate.bias f4 [5]
000000 e7 59 05 bd cd 16 4e 3b e7 07 17 bd d0 7c 46 bc
       -0.03255644 0.0031446696 -0.03687277 -0.012114719
000010 2d f2 29 3d
       0.041490722

grapher.0.gru.ln_inputgate.weight f4 [5]
000000 77 61 21 3d 6e da 10 3f 20 95 cc 3e 40 ce 22 3e
       0.03939959 0.565833 0.39957523 0.1589899
000010 c1 c6 dd 3a
       0.0016920195

grapher.0.gru.ln_inputgate.bias f4 [5]
000000 c6 20 14 3c aa da af 3c b0 9c a2 3c fb ba 59 bc
       0.009041017 0.021466572 0.019850105 -0.0132892085
000010 15 35 ae bc
       -0.021265546

grapher.0.gru.ln_newgate.weight f4 [5]
000000 d3 f0 de 3d a9 ca b5 3e ad c2 38 3f 2a 4d 31 3f
       0.10885777 0.3550618 0.7217205 0.6925837
000010 8c 4f b8 3e
       0.3599819

grapher.0.gru.ln_newgate.bias f4 [5]
000000 37 3f 11 bc 0d 5e 15 3d f5 fd a1 bc 0e 99 04 3d
       -0.008865169 0.036466647 -0.019774416 0.032372527
000010 21 61 eb ba
       -0.0017958024

grapher.1.weight.weight f4 [5, 5]
000000 60 f6 29 3c 79 0b 84 bd 95 e0 17 be 9b 12 83 be
       0.010373682 -0.06447501 -0.14831765 -0.25600132
000010 c0 0e 77 3e 39 63 60 bc ef ef 8a be 45 71 27 3e
       0.2412672 -0.0136955315 -0.2713618 0.16351803
000020 65 24 db bd c5 cc 58 3e 52 23 4f 3c 17 68 84 3e
       -0.10700301 0.21171863 0.012642698 0.25860664
000030 52 84 aa be 86 4f 4f 3d 58 2b 38 be 56 aa ec b8
       -0.33304077 0.05061295 -0.17985284 -0.000112850845
000040 59 98 0f 3d 51 44 db 3d 17 2a 8a bd ef 08 35 3e
       0.0350574 0.1070639 -0.06746309 0.17679189
000050 8c ff 48 3c 33 99 02 3e 06 52 8a be 48 25 13 be
       0.012267958 0.12753753 -0.27015704 -0.1436969
000060 56 da 4d be
       -0.2010282

grapher.1.weight.bias f4 [5]
000000 2c fd b8 3e 0e c7 a7 be b2 cd 9b 3e f8 88 5b 3e
       0.36130655 -0.32769054 0.3043037 0.21438968
000010 e8 71 10 bc
       -0.00881622

grapher.1.reduce.weight f4 [5, 5]
000000 bb 34 8f b7 fd dc 73 3b ec 19 90 bd 52 c9 3a 3d
       -1.7071483e-05 0.0037210577 -0.07036194 0.04560215
000010 f7 2b 52 bd c4 70 54 36 f8 e3 a0 3a 53 95 c2 bc
       -0.05131146 3.16561e-06 0.0012274971 -0.023752844
000020 66 ca 40 bc bd b5 f4 bb 09 7a 43 3c 65 87 d7 3c
       -0.011767006 -0.007467954 0.011930951 0.026309678
000030 38 c1 43 3e 07 a9 b4 3e 54 9e 86 3e 8c 3e 1f ba
       0.19116676 0.35285208 0.2629267 -0.0006074689
000040 c5 1e 80 3e 15 f2 be 3d 20 e7 7a 3e e2 03 ef 3d
       0.25023475 0.09323517 0.2450223 0.116706625
000050 25 4b e9 34 88 f6 c9 bc fe 32 e4 bc 30 6a a1 bc
       4.3454307e-07 -0.024653688 -0.027856346 -0.019703954
000060 60 8e 99 bc
       -0.018744648

grapher.1.reduce.bias f4 [5]
000000 dc 18 bb 3d 1a 3e 87 bc 7c 43 05 3d 26 37 44 3b
       0.09135601 -0.016509105 0.03253506 0.0029940098
000010 39 52 b7 bc
       -0.022378074

grapher.1.gru.weight_ih f4 [15, 5]
000000 29 10 87 bd b9 6b 83 3d 03 80 6a bd b5 50 84 bd
       -0.06594879 0.06417031 -0.057250988 -0.06460706
000010 1e 12 27 3d db 9a 03 bd 1f c4 9c bd bf e2 9c 3c
       0.040788762 -0.032130104 -0.07654595 0.01915109
000020 2b f6 4d 3d 5a 78 ec 3d ea 82 a2 3c 62 13 6d bd
       0.050283592 0.11546393 0.019837815 -0.057879813
000030 fa 9f 7e 3b f2 45 c8 3c e1 0e 86 bd bb 16 7b 3a
       0.0038852678 0.024447415 -0.06545807 0.0009578277
000040 4e f6 47 bc 3c d9 19 3c fc 7b 1b bb a5 7d c7 3c
       -0.01220472 0.009390172 -0.0023725023 0.024351904
000050 9b cb 29 bd 6f fd 37 3d 67 bc 28 bd c7 55 2a bd
       -0.04145394 0.044919427 -0.0411953 -0.04158571
000060 4f 6f 09 3d 81 c0 9b 3d c8 b2 8c 3e 74 60 16 bc
       0.033553418 0.076050766 0.2748015 -0.00917827
000070 c7 0d 14 be 7a 98 30 3e a5 ff 33 be 34 98 8f be
       -0.1445838 0.17245665 -0.1757799 -0.2804581
000080 8b 69 86 be 2c 3e fe bd 1c 22 23 be 9c 97 17 3d
       -0.26252398 -0.12414202 -0.1593098 0.03700982
000090 18 7e 99 3e c3 f2 5c 3e c2 45 9e bd a7 22 c1 bd
       0.29979014 0.21576981 -0.07728149 -0.094304375
0000a0 aa 38 0a be bb d1 f5 3d f6 bf 1f be cd f1 d4 bd
       -0.13498178 0.120028935 -0.15600571 -0.10397682
0000b0 19 c3 50 3e 4c 75 b1 3d b2 2f 1c 38 fd 5c ef 3d
       0.20386924 0.08664951 3.7237718e-05 0.11687658
0000c0 10 3a 8f 3e 68 43 50 3e c6 fd c8 bc 53 b6 b4 3d
       0.27973986 0.20338213 -0.024535071 0.08823838
0000d0 77 fd fa bc 6b 8a e8 bd 0c 91 70 3e 77 59 22 be
       -0.03063844 -0.11354526 0.23492831 -0.1585444
0000e0 47 20 16 3e 9b 5e b4 be 14 c9 81 3e b4 c1 97 be
       0.1466075 -0.35228428 0.25348723 -0.2963997
0000f0 b6 b1 9b 3d 4b 6d c2 bd 7b ca bf 3d 1b ff db 3e
       0.07602255 -0.09493502 0.09364792 0.42968068
000100 45 e4 04 3e 65 49 58 bd ee 1d ab 3e f8 4b f2 bd
       0.12977703 -0.05280437 0.33421272 -0.11830896
000110 ec 98 93 bd 65 24 82 bd 6c f8 52 be 0c 47 8d 3e
       -0.07206902 -0.06354598 -0.20602578 0.27593267
000120 f1 1e 82 be cb 6d d6 bd 93 39 41 be
       -0.2541423 -0.1047016 -0.18869619

grapher.1.gru.weight_hh f4 [15, 5]
000000 e6 ac a6 bc d0 54 8a bd 1a c2 96 bd e6 81 6a 3c
       -0.020346116 -0.06754458 -0.07361241 0.014313197
000010 a5 ed 8a 3b e8 3f f1 3b f5 84 0b be 22 7e 1a be
       0.004239755 0.0073623545 -0.13624938 -0.15087178
000020 02 39 17 3e 01 d9 64 3b 89 d4 88 3c 42 3e 06 3d
       0.1476784 0.0034919383 0.016702907 0.032774217
000030 6a 66 2d 3d e9 0c 35 bc c6 b0 c5 bc a7 26 cc ba
       0.042333998 -0.011050441 -0.024132144 -0.0015575484
000040 c7 1a ce bc cf 19 ad bc f1 c4 4a b9 9f cf 21 3b
       -0.025159253 -0.02113047 -0.00019337588 0.0024690402
000050 65 ca 58 bc 3b fa 54 bd 7e be 94 bd 35 32 44 bd
       -0.013231848 -0.05199645 -0.07262896 -0.047899444
000060 18 b3 bb 3b a7 64 f7 bc 07 cd 38 be 5e ec 34 3d
       0.0057281367 -0.030199362 -0.18046962 0.04417073
000070 5a 32 2a bd 4b 30 89 bb 3b 69 f0 bd bc cd 53 be
       -0.041551925 -0.004186665 -0.11738821 -0.2068395
000080 6b 02 a3 be 28 63 28 be ed dd 4b be 24 53 4c be
       -0.31837782 -0.16444075 -0.19908877 -0.1995359
000090 44 4d b9 3d 28 27 80 be 79 06 ea 3d 64 d9 b6 bd
       0.090479404 -0.25029874 0.11427016 -0.08928183
0000a0 82 31 88 bd 96 08 ae bd 3f 6f 81 be e1 5b 6d bc
       -0.06650068 -0.084977314 -0.25280187 -0.014487238
0000b0 0f 4a e0 3c 16 33 7e bd 14 bf 5d 3d 01 0a 63 be
       0.027379064 -0.062060438 0.054137304 -0.22171785
0000c0 58 99 49 3d b1 8d 8f bc d0 1c 97 bd c0 37 dd bd
       0.049218506 -0.017523618 -0.073785424 -0.10801649
0000d0 39 8c a6 3c 93 53 ac 3c 6f f2 1d 3d 00 52 09 3e
       0.020330535 0.021035945 0.03856128 0.13410187
0000e0 0b 48 53 3e 8b 0c e5 3d f6 e2 01 be 88 bd 9a bc
       0.20632951 0.11184033 -0.12684235 -0.018889204
0000f0 7e c7 ba bc 77 e6 22 3e 82 e5 59 be a1 bf 32 3d
       -0.022800203 0.15908228 -0.21278957 0.043639783
000100 00 b3 89 3d 26 82 6a bd 3e f1 a0 bd 30 28 10 be
       0.06723595 -0.057253025 -0.07858513 -0.1407783
000110 5e 6a 6a 3d d3 d1 0a 3d e1 af 2f bd e5 18 cb bd
       0.057230346 0.03389151 -0.04289234 -0.09916858
000120 f2 96 af bd c4 90 4d 3d 15 ca f3 3c
       -0.085737124 0.050186887 0.029759446

grapher.1.gru.bias_ih f4 [15]
000000 9c 4b a7 bd 11 9f 15 3e de 04 b9 bb 34 90 18 3c
       -0.08168718 0.1461146 -0.005646332 0.009311724
000010 cf 43 a1 3c f0 ab af 3e 7f 73 66 be 88 53 45 3e
       0.019685654 0.34310865 -0.22504996 0.19270146
000020 4b 43 a4 be ea dd 9c 3e e7 a2 f5 bd ee e4 b5 3e
       -0.3208259 0.30638057 -0.11993962 0.35526222
000030 17 3c 0c 3e d2 85 0c bd 76 1b 82 bd
       0.13694797 -0.03430731 -0.06352894

grapher.1.gru.bias_hh f4 [15]
000000 e1 e8 78 bd 24 48 7c 3e 64 8d 55 3e 51 c4 59 bc
       -0.060768966 0.24636894 0.20854717 -0.013291434
000010 57 83 dd bd f3 d5 8d be c2 ac 43 ba d2 ff a3 3c
       -0.10816067 -0.27702293 -0.00074644026 0.020019446
000020 13 76 cd be 35 7e bf bd 00 90 85 be a0 ed d2 3c
       -0.40129146 -0.09350244 -0.26086426 0.025748074
000030 d6 58 46 3e 9f 47 88 be 7e 36 63 be
       0.19369826 -0.26617143 -0.22188756

grapher.1.gru.ln_resetgate.weight f4 [5]
000000 14 54 89 bd f6 c5 5c 3d 21 f3 e2 3e 10 16 cc 3c
       -0.0670549 0.053899728 0.44326118 0.024912864
000010 cc db d9 bc
       -0.026594065

grapher.1.gru.ln_resetgate.bias f4 [5]
000000 b9 e7 88 3d 7f 9a 84 bc e2 5c ad 3c 9a a6 89 3d
       0.066848226 -0.01618695 0.021162454 0.0672123
000010 41 b9 94 3d
       0.07261897

grapher.1.gru.ln_inputgate.weight f4 [5]
000000 20 93 98 bb 71 cb 3e 3f c3 46 58 3f 5c 38 cf 3e
       -0.0046562105 0.74529177 0.84482974 0.40472686
000010 60 57 94 3c
       0.01810807

grapher.1.gru.ln_inputgate.bias f4 [5]
000000 1b 03 32 bc f5 7a e8 bc 16 87 45 bd 00 4b 81 3c
       -0.010864998 -0.028378943 -0.04822453 0.015782833
000010 ea c1 a3 39
       0.0003123426

grapher.1.gru.ln_newgate.weight f4 [5]
000000 07 21 01 3e 4f 32 75 3f c5 ee 7d 3f 01 a9 07 3f
       0.12610255 0.9577989 0.9919246 0.52992254
000010 9a 60 07 3e
       0.13220444

grapher.1.gru.ln_newgate.bias f4 [5]
000000 45 ea 1f bc 0d 7d b2 3c be 4d a9 3d b7 5a 1c 3d
       -0.009760444 0.021788144 0.08266781 0.03817245
000010 e2 85 a3 3c
       0.019961301

grapher.2.weight.weight f4 [5, 5]
000000 06 4a ef 3b 12 1c 79 3e dd 0e 80 3e 26 02 e7 3d
       0.0073025255 0.24327114 0.2501134 0.11279707
000010 54 3c 92 3d 75 fc 3b bc fc 6f d7 3e e1 b9 e8 3e
       0.07140413 -0.011473765 0.42077625 0.45454314
000020 40 96 9a bc aa 9f ff bc 39 3e 1c bd 1b 7a a4 3d
       -0.018870473 -0.031204063 -0.038145278 0.08031102
000030 f4 d5 dc be 23 0d 89 bd 1e 7f 9d bc f2 5d e3 ba
       -0.43131983 -0.06691959 -0.019225653 -0.0017346723
000040 af 0b d9 be 4f c3 49 3d 15 cb 5a bd 9f 15 b6 3b
       -0.42391726 0.049258526 -0.05341633 0.0055567767
000050 2e 0b 25 bd f4 13 b2 3e c2 29 51 3e 7c 51 df bd
       -0.040293865 0.34780848 0.20426086 -0.10904214
000060 15 3f 5b bd
       -0.053526957

grapher.2.weight.bias f4 [5]
000000 21 9c 42 3d 04 58 08 3d ca d0 b0 bd 7a b6 68 be
       0.047512177 0.033287063 -0.08633573 -0.2272586
000010 b4 91 39 3e
       0.18121988

grapher.2.reduce.weight f4 [5, 5]
000000 aa e2 24 36 ae 0b 3e bd 74 04 97 bc 97 cd 3a 37
       2.456984e-06 -0.046397857 -0.01843474 1.11343315e-05
000010 9f ff 00 36 db c3 79 3b 92 f0 68 be 80 27 c7 be
       1.9222277e-06 0.0038111124 -0.2274802 -0.38897324
000020 df 39 13 3d df f0 4b 3c 73 c0 b3 3b bb 34 37 be
       0.035943862 0.012447565 0.005485588 -0.17891209
000030 7d 6f a8 bc cd 81 94 3b d0 a7 f6 3b b7 dc 45 b8
       -0.020560974 0.004532075 0.007527329 -4.7174017e-05
000040 2c 90 b6 bd ca aa 45 be 07 43 67 bc 57 72 8a 3d
       -0.08914217 -0.19303432 -0.014115102 0.0676009
000050 12 46 f5 3a 89 b6 bb bd 8e eb e7 be ce db af 3c
       0.0018712899 -0.09165675 -0.452969 0.021467116
000060 e5 a5 46 3b
       0.0030311283

grapher.2.reduce.bias f4 [5]
000000 c9 ba 03 be cd b5 74 be 2c c2 06 3e 06 61 2b 3e
       -0.12864222 -0.23897476 0.13160008 0.1673623
000010 44 3b ae 3e
       0.3402959
