scheduler/BaGTI/checkpoints/energy_latencyGNN_GRU128L3_4_Trained.ckpt (torch, 724895 bytes, 150 tensors)

find.0.weight f4 [128, 240]
00000000: ccd2 d2ba 7aa9 0dbd dad3 39bc cc77 81bc
00000010: 65fb 22bd ced1 593b c157 9c3b 62ba 23bc
00000020: 59b8 b73c ca02 23bd ac72 7b3a 1bf0 9fbc
00000030: 6f8e 26bc 1198 98bc f993 1bbd 0748 a53a
00000040: 75f1 9e3c 6d68 43bc a8cf 6bbc 8df1 22bd
00000050: 0ab2 feba c4c8 61bd 8abd 34bc e1f3 523c
00000060: 796c 1fbd 07c5 96ba 2d40 07bc fe8a 3bbc
00000070: 4e71 3c3c 2662 1ebd 3ad3 f839 43c3 e6bc
00000080: 37bf 26bc 64e2 1e3c 54c5 1ebd 33ad b4ba
00000090: ae06 dfbc d859 46bc 6dcf 683c 16e9 20bd
000000a0: ca94 d83a ad5b e13b cc70 5abc 2df7 ae3b
000000b0: f0b1 1dbd b020 173b 010e 8fba 489f 51bc
000000c0: 9a12 cb38 42bf 23bd 739e 8038 a662 3fbd
000000d0: d6f6 5bbc f554 28bc 0567 22bd 5acb e5b8
000000e0: a056 1a3d 73f5 57bc 5b8c d33a a5b0 20bd
000000f0: 26a0 4eba ca2b afbb fe36 58bc 05b2 19bc
00000100: 2c6b 22bd 7a6f 0c3b 13c8 0d3d 7550 56bc
00000110: b874 633c 0f2b 24bd a38a dd3a ff12 1bbc
00000120: 9b13 5abc fd11 e6bb f4be 23bd 0b61 06bb
00000130: fa03 2e3b 91a9 56bc 2fc1 b73c b26a 1ebd
00000140: 4f3b 1fbb 2b3d 433d 27f1 57bc 13ce 403c
00000150: fef4 1ebd ba22 ceb9 2de6 1ebd 676f 5abc
00000160: 82f4 c43c d654 21bd 7c56 ecba 7b00 89bb
00000170: 8994 5bbc 1b98 b13c 3d7a 23bd 3240 cbba
00000180: 396e 883c 5f90 57bc 9c9d 9a3c 42a7 22bd
00000190: f272 293b 7f30 4038 1827 34bc 3f5f c83c
000001a0: 3f44 21bd 8e94 613b ac58 fe3c ee48 3abc
000001b0: 013d 9d3c 0ff5 1abd 09aa 053b ac2c 3b3d
000001c0: cfe3 21bc 1a0d 89bc a9e2 1fbd 1049 b63a
000001d0: 06d7 c0bc 9ffe 40bc ad1c 93ba 907d 22bd
000001e0: ce98 28bd f19d 12bd c8df 70bd cb55 67bc
000001f0: bd34 d4bd 8234 1dbd ef40 5cbc b360 aebc
00000200: fcdc c93c 3f38 efbc b9a6 1d3c 70b1 a2bb
00000210: b8c7 91bd ed1c ce3d 7e22 4fbc 0b4e f9bc
00000220: 9245 e23d 4752 583b fcc5 be3d c8c2 813b
00000230: 54c0 cc3d e327 f83d 98d3 023e bbcf 13bd
00000240: d8be 213c 882f 463e 44f5 ca3d 7833 3d3d
00000250: 4801 383e cf9a 15bd 6649 49bd 31a9 873c
00000260: 19d8 e43b 9a49 0abe 5f95 523d 377a 893d
00000270: c3bf 94bd b375 b4bd f946 3c3d caf2 a0bd
00000280: 9913 453c 042e 17bc 189b d33c 7d3f 4a3d
00000290: c54e 323d 5e12 b4bd 78b9 d0bd baf8 fc3d
000002a0: a0c4 aabb a0c1 dbbc cd2c f23d 7695 373d
000002b0: ebc6 c83c d3bc 27bd 9d5f 96bc edb1 f3bc
000002c0: 22d7 163e 0c07 cbbd b9ae 12bd 762d 20bd
000002d0: 42f7 243e b2f9 40bc c773 5b3e 8f15 3f3c
000002e0: d46f 743d 4c67 3bbd 5c84 00bd 8862 5ebb
000002f0: 6e18 8501 9eff 78bc 8edb 6080 fd71 0abd
00000300: abc6 8bbc 7d46 65bc dca6 54bd acd3 7801
00000310: 1389 1e01 6738 ab3b bca8 55bb 64ba 0a3b
00000320: 0bbf 2bbd cc18 5b00 b98a d63d 9461 5680
00000330: fecb 773b 71cf cf3d 5c01 7601 7954 83bd
00000340: e02d 8280 5a64 0081 f896 7f01 88cb 6081
00000350: 2a1e 6181 bce1 e780 3ee5 4e80 cce7 9380
00000360: 0e73 e880 3a9f 9581 ae6b 0d00 285b 5681
00000370: b337 2301 40db b980 445e b580 6402 8000
00000380: da6f 8001 4621 4e81 88bb 8681 800c 9b00
00000390: 7369 8781 f45b 3301 c49a 7180 48da 8f01
000003a0: e0d2 8780 5aad 0001 a2b5 1301 0c2a 2881
000003b0: d0b1 3601 a060 9301 3dbb 7d01 6635 a881
000003c0: 6c10 4b3c 8697 3d3c a634 aa3d 23fe f6ba
000003d0: 5fb6 9c3b 099b 353c 849f a5bd a662 a53d
000003e0: ccf2 05bc c631 e73b 5583 203c 68bf 48bd
000003f0: be3c a53d 2949 2fbc 59d3 a23b ef1a 5d3c
-0.0016084551 -0.034585454 -0.011342013 -0.015804194 -0.03979053 0.0033236626 0.0047712033 -0.009993168
0.022426771 -0.03979758 0.00095919776 -0.01952367 -0.010165795 -0.018627198 -0.037982915 0.0012609967
0.019402245 -0.0119267525 -0.014392771 -0.039781142 -0.0019431722 -0.055123106 -0.011031518 0.012875528
-0.038921807 -0.001150281 -0.008255047 -0.011446713 0.011501623 -0.03866782 0.00047459622 -0.02816928
-0.010177425 0.00969753 -0.038762406 -0.0013784528 -0.027224865 -0.012106381 0.01420961 -0.039284788
0.0016523835 0.0068773837 -0.013332557 0.0053395242 -0.038499773 0.0023060255 -0.0010914208 -0.012794323
9.683259e-05 -0.03997732 6.133029e-05 -0.046724938 -0.0134255495 -0.010274162 -0.03964903 -0.00010957448
0.03768027 -0.013181078 0.0016139852 -0.03923096 -0.00078821403 -0.0053457962 -0.013196705 -0.009380822
-0.03965299 0.002142875 0.034614634 -0.013080706 0.013882808 -0.040080126 0.0016902279 -0.009464978
-0.013310338 -0.0070211873 -0.03997703 -0.002050462 0.0026552663 -0.013101951 0.022430984 -0.03867597
-0.0024296825 0.047665756 -0.013180054 0.011767882 -0.03880786 -0.00039317255 -0.03879373 -0.013332224
0.024042372 -0.039387546 -0.0018031145 -0.0041809655 -0.013402113 0.021678975 -0.039911497 -0.0015506803
0.01665412 -0.013156979 0.018873982 -0.03971029 0.0025855866 4.5821533e-05 -0.010995649 0.02445948
-0.039371725 0.003442082 0.031048141 -0.011369927 0.019194128 -0.037831362 0.0020395538 0.0456969
-0.009880974 -0.01672988 -0.03903452 0.0013907272 -0.023540031 -0.011779456 -0.0011223756 -0.039670527
-0.04116135 -0.035795156 -0.058807164 -0.014119576 -0.103616215 -0.038380153 -0.013443216 -0.021286344
0.024641506 -0.029201625 0.009622269 -0.004965 -0.071181715 0.10064111 -0.012642501 -0.030432722
0.11048426 0.0033008025 0.09315106 0.0039599873 0.09997621 0.12116983 0.12776029 -0.03608678
0.009872161 0.19354069 0.09910062 0.046191663 0.17969239 -0.03652459 -0.049142264 0.016560169
0.0069837687 -0.1350464 0.051411983 0.06712764 -0.07263138 -0.08811512 0.045966122 -0.07858808
0.012028598 -0.00922728 0.02583079 0.049376953 0.04353215 -0.08792566 -0.10191625 0.12352128
-0.005211428 -0.026825726 0.11824951 0.04482027 0.024508914 -0.04095156 -0.018356139 -0.029747928
0.14730504 -0.099134535 -0.03581116 -0.039105855 0.16109946 -0.011778282 0.21430884 0.011662855
0.05967696 -0.04575281 -0.031376228 -0.003393324 4.889154e-38 -0.015197663 -8.894969e-39 -0.033800114
-0.017062506 -0.0139938565 -0.051916942 4.5702273e-38 2.9118363e-38 0.0052252295 -0.0032601794 0.0021168226
-0.04193024 8.365926e-39 0.10475678 -7.932857e-39 0.0037810798 0.10146988 4.518404e-38 -0.06412596
-1.1955071e-38 -2.3581886e-38 4.6944418e-38 -4.128833e-38 -4.1347615e-38 -2.1294978e-38 -7.245405e-39 -1.3582971e-38
-2.1347109e-38 -5.4962435e-38 1.23249e-39 -3.9370994e-38 2.9978334e-38 -1.7068219e-38 -1.6656041e-38 1.1755801e-38
4.7180273e-38 -3.7860097e-38 -4.949292e-38 1.4238986e-38 -4.974248e-38 3.294308e-38 -1.043293e-38 5.284312e-38
-1.247344e-38 2.363426e-38 2.712995e-38 -3.0886894e-38 3.3555695e-38 5.413792e-38 4.6603098e-38 -6.1790076e-38
0.012394052 0.0115717705 0.08310823 -0.0018844049 0.0047824825 0.011084327 -0.08087066 0.08075456
-0.008175563 0.007055494 0.009796937 -0.049010664 0.08068226 -0.010698595 0.0049690423 0.013495191

find.0.bias f4 [128]
00000000: d8d3 aebc aa4a 80bd b2ca 9fbd 956e 073c
00000010: ecd7 953d 22df c93d b8d2 4fbd 1af2 a7bc
00000020: c855 863d a292 16bd 28a8 8fbb 2d6d 5fbd
00000030: 4805 bcbc e2b1 7ebd 0d4c 17bd f3c8 73bd
00000040: 66a4 a93c 5aa5 bebd 6fa7 193d 6ee9 9e3d
00000050: 48ea 13bd 1261 70bc b3a8 4e3c 27ef 38bd
00000060: 4e68 8fbc 61c3 ff3d 8fc6 d43a a69c 1b3d
00000070: de12 76bc d95a 89bd 5ed1 f2bd 4c8a bebc
00000080: 3370 6cbc acb6 2a3d a3a3 7abd 5226 ba3d
00000090: 7132 20bc 17b6 a0bd bd1f 8b3c 445f e13d
000000a0: fc88 fdbc e4b2 a3bd 7e87 94bd 8dd7 383d
000000b0: e5e3 49bc 16e6 863d bde4 933d cf52 a63c
000000c0: 4553 003e 18bb 5bbd c52e 033e cbc8 d4bd
000000d0: cef5 993d 240c 44bc dcb7 903c bc5f 73bd
000000e0: 2a71 c8bd ea60 66bd 3a3a a1bd 62d6 b4bd
000000f0: 8c7e 68bd 8635 10bc 98f9 2c3c adab 80bd
00000100: 4c90 5b3d b3d4 de3d 44d0 103d 355d 893d
00000110: 7d97 113d 57b4 ac3d af2e 09bd da99 11bd
00000120: d524 01bd 13ca c33c b23d bebd e301 f13c
00000130: f9f8 e73a eace 29bd e38f d13c 815f 013d
00000140: f5b9 003d 5c2d eabc 98bc 76bd 2ced 1ebd
00000150: b7e2 09bd 3327 933c ac0c c0bd 43bf 2ebd
00000160: c82d 1bbb 1164 333b caee 5c3c 8743 91bc
00000170: 9de2 ee3d c155 bebd f7c3 f63c 7f79 903d
00000180: 350e b2bc 654e b03c 5267 813c ec40 a3bc
00000190: 34cc 8dbd 1d6b 99bd 4767 6f3c 7a26 0f3d
000001a0: 79e8 21bb 8777 87bc 0a2d 103d f412 2cbd
000001b0: cb9b b83d ec46 6b3d a9fb 3b3d 4031 83bc
000001c0: f5f6 05bd 6cae 003b cab6 85bb 4a8a 83bd
000001d0: 1a8a 63bd 3757 4b3d e9d8 e93b 090d afbd
000001e0: 1d99 fa3c e9d7 2bbd 6cb4 9dbd b846 903d
000001f0: cd18 26bd f128 3a3c cd91 c23c 9ddc b9bb
-0.02134125 -0.06264241 -0.07802333 0.008266111 0.073165745 0.09857012 -0.050738066 -0.020501185
0.0655933 -0.036760934 -0.0043840595 -0.054547478 -0.022951737 -0.06218136 -0.036937762 -0.059517812
0.020708274 -0.09308882 0.037513193 0.07759367 -0.0361121 -0.014671581 0.012613463 -0.04514995
-0.017505791 0.124884374 0.0016233491 0.03799119 -0.015019147 -0.06706781 -0.1185634 -0.023259304
-0.014431047 0.041678116 -0.061191212 0.0908934 -0.009777651 -0.07847231 0.016982907 0.110044986
-0.030949108 -0.07993105 -0.072524056 0.04512744 -0.012322401 0.06586854 0.07221363 0.020303158
0.12531765 -0.053645223 0.1281081 -0.10389861 0.07517587 -0.011965785 0.017665796 -0.05941747
-0.09787209 -0.05624477 -0.07872434 -0.08829953 -0.05676131 -0.0088018235 0.010557555 -0.062827446
0.05360441 0.10880413 0.035354868 0.06707231 0.03554486 0.084328346 -0.033491787 -0.035547115
-0.031529266 0.023900067 -0.09289111 0.029419845 0.0017698101 -0.041457094 0.025581306 0.03158522
0.031427342 -0.028586082 -0.06023845 -0.038800403 -0.033663478 0.017963028 -0.09377417 -0.04266287
-0.002367841 0.0027372877 0.013484666 -0.017732395 0.11664317 -0.092937 0.03012274 0.070544235
-0.02173529 0.021521756 0.015796337 -0.019928418 -0.06923714 -0.07491133 0.014612026 0.034948803
-0.0024705215 -0.016536487 0.035199203 -0.042010263 0.0901409 0.057440683 0.0458943 -0.016014695
-0.03270622 0.0019635214 -0.004080628 -0.06422861 -0.055551626 0.04964372 0.0071364534 -0.08547408
0.030590588 -0.041953955 -0.07700428 0.070447385 -0.040550996 0.0113623 0.023751164 -0.005672051

find.2.weight f4 [128, 128]
00000000: 3de4 80bd d8b4 2c3c 2769 cb3b 6ea5 6a3d
00000010: 2fb5 ce3c e221 94bd 54d8 973d ff5f a5bd
00000020: 5479 3f3d f525 163c 6b26 8fbd 4fc2 143c
00000030: 2327 8c3d 097c 0a3e efd8 9ebb 756b a6bc
00000040: 8deb 1d3d 7467 ae3c ba9c 053d 6b50 533e
00000050: 2df4 45ba 96a8 843d 9af9 94bc 3649 4abd
00000060: 9d62 d13d 67ee 3d3d b219 5a3e a6e3 083e
00000070: d35e 303c 7600 993c e23a 8e3b ac60 733d
00000080: 12aa 73bd 5603 45bd ab18 18bc b043 02ba
00000090: 598b c6bb 463d 523d 00df 3bbc 971b c5bc
000000a0: f7e4 2f3e 64de 09bc 0f0c 22bd 7932 9cbd
000000b0: 304b 6d3b c72c 533e addd 5e3d 51fe 453c
000000c0: f527 c1bc af26 b9bb 3987 8dbd 7d80 043b
000000d0: 72d0 17bd da76 aabb c5f6 abbd 84ef f83b
000000e0: 2127 27be 1416 8dbc 9428 0e3d 6657 ca3d
000000f0: 2490 6cbd d7af bf3d b58b f83c da62 c23c
00000100: ed30 76bd f33c 163d cb82 83bd e947 d03c
00000110: 3119 3ebd 13cb 85bd 2a08 523d d76d e7bd
00000120: a87a 033d 3977 ba3d 4417 1f3d 99c4 d53c
00000130: f47a 883c 451a 243d fe9b a0bc 98a3 89bd
00000140: 7029 b13d 9216 563b a077 5d3c 663b 8fbc
00000150: 7d56 60bd b1cc 46bc 99bd cfbc 773b c63d
00000160: 2ea1 b73d d72d 39b9 5683 39bd 4601 333c
00000170: fca4 f63d 6ce8 e4bc 5481 763e b154 25be
00000180: fbc8 473d af1e a03d fcde ae3d d5af e6bb
00000190: 11be 09bc 0b31 a03c 35f9 0e3d 3ff1 503d
000001a0: 389b 57bc 0820 b23d 533a d83c 211d b2bc
000001b0: f10e ca3d 54ed 1d3d 93d6 d13d 405d cabd
000001c0: c27c 373d 1723 10be b615 f73a d9b2 233d
000001d0: e4df b03d d03e 333b bb8b b33d 52b0 2d3d
000001e0: 6f36 cb3d ad41 a43c 3549 eebb c65f 75bc
000001f0: 09eb be3c 2c45 48ba ae97 00bd c370 ce3d
00000200: 1512 54bd 6a75 f4bc 986d 9837 953f a63c
00000210: eecd 39bd ce21 af3c 0f9b 3c3b 7532 e2b9
00000220: 2fa9 7b3c 42ea 5b39 5821 183d 1ca4 393a
00000230: 433f ddbb dc55 c6bc 36ae 67ba 4595 99bb
00000240: f298 19bd 50b1 473c 6349 77bd 8f88 fdbd
00000250: 040d f5b6 6520 cebc f733 f4bb f7fb 8839
00000260: 5dea 3439 d03b 15bd 3b4e 51bd d5a0 fbbd
00000270: 3fa2 c2bc 0c87 81bd 585b b4ba 658b c03c
00000280: d439 b23b cc12 42bb fd77 d4bc 3228 0c3d
00000290: 70dc 043c 41ef 0abd 1fc8 4abd b221 fcbc
000002a0: 500e bdbc af50 64b9 0285 a23c cd36 7cbd
000002b0: 2ca0 e5bc bc70 94bc 3953 573c 46bd b83c
000002c0: 17b5 6d3d 194e aeb9 a910 35bb c00a ab3b
000002d0: 2a86 653c 24d2 84bc 0e19 593c 2e70 c8bb
000002e0: 2957 8dbc 1642 97bd cdc9 0b3d cff8 bcbd
000002f0: 666b d0bb 56c1 0bbc b2aa d1bc e42f 98b8
00000300: ed54 493d b33e adbd 99a2 20bd 3f5a 8bbd
00000310: 858a 00bd 84cb be3d 8315 47bd 5a0b 48bc
00000320: a358 e6bc c663 cf3b 969a d43c d873 8ebd
00000330: 8b14 db3b 32b2 16b9 99a7 2abd 4dfd 253b
00000340: d230 00bd 20c9 3c3d 101b 493c d208 e83c
00000350: 42a6 513d 24c2 0b39 4d60 47ba 8a0a 933c
00000360: 1189 16bd d030 0cb9 74e6 53bd 36fe a1bd
00000370: 5ee9 e2bd bb87 1f3c 3b7f 02bd 75b9 ba3d
00000380: 5519 b63c d9da 81bc c63b c73b a01c 02bc
00000390: 0123 25bb b449 8dbc 895c 49bd 76c8 c4bc
000003a0: 50a4 78bc fe1c 9fbb 7c80 a93c 0ccc a9b9
000003b0: 6ece 28bd a78e 9cbd 4ae4 e23c 29bc c93c
000003c0: f984 12bc ba2c 3f3b 2b45 98bc 53c8 55bd
000003d0: 7cb8 763c b598 07bc 7902 47bd fe6e a43c
000003e0: 6960 1ebd 12f5 07b9 d63e 883c 2d99 edbc
000003f0: 8d3c 1e3d fea0 cdbc da76 0a3d 10dc e0bc
-0.06293533 0.010541163 0.0062076035 0.057286672 0.02523288 -0.07233025 0.07414308 -0.080749504
0.046746567 0.009164323 -0.069897495 0.00907953 0.06843402 0.13523878 -0.004847638 -0.020314911
0.038554717 0.021289565 0.03262017 0.20636146 -0.00075513386 0.06477468 -0.018185426 -0.049386226
0.10223887 0.046369936 0.21298864 0.13368091 0.010764795 0.018676978 0.0043405155 0.059418365
-0.059488364 -0.048098885 -0.009283225 -0.00049691927 -0.006059092 0.051327966 -0.011466742 -0.024061007
0.17177187 -0.008414838 -0.03956228 -0.076268144 0.0036208145 0.2062255 0.054410625 0.01208456
-0.023578623 -0.0056503634 -0.06910557 0.0020218187 -0.037064023 -0.0052021565 -0.08396677 0.007596912
-0.1632352 -0.017222442 0.034706667 0.09879951 -0.05775465 0.09359711 0.030340055 0.023728777
-0.060105253 0.03667922 -0.06421431 0.025424914 -0.046410743 -0.06532874 0.051277317 -0.11300247
0.032099396 0.09104771 0.038840547 0.026094722 0.016660191 0.040064115 -0.019605633 -0.06720656
0.08650482 0.0032667262 0.01351729 -0.017484378 -0.05476998 -0.012133763 -0.025358962 0.09679311
0.089662895 -0.00017660052 -0.045291267 0.010925597 0.12043187 -0.027942859 0.24072772 -0.16145588
0.048775654 0.078183524 0.08538625 -0.007040004 -0.008407132 0.019554636 0.03490563 0.05101132
-0.013159566 0.08697516 0.026394999 -0.021742405 0.09866131 0.03855641 0.10246005 -0.09881067
0.044796713 -0.14075886 0.0018851075 0.039965484 0.08636454 0.0027350672 0.08766886 0.04240448
0.09922492 0.020050848 -0.0072719106 -0.014976447 0.023305433 -0.0007639702 -0.031394653 0.10080101
-0.051775057 -0.029841144 1.8170846e-05 0.02029399 -0.045362405 0.021378424 0.0028778946 -0.00043143673
0.015360161 0.00020972735 0.037141174 0.0007081644 -0.006751926 -0.024210863 -0.000883791 -0.004686984
-0.037499376 0.012188271 -0.06037272 -0.12379562 -7.303084e-06 -0.025161931 -0.0074524838 0.0002612767
0.00017253445 -0.036433995 -0.051099997 -0.12286536 -0.023759006 -0.06324586 -0.0013760133 0.023503968
0.0054390226 -0.0029613255 -0.025936121 0.03421802 0.008109197 -0.033919577 -0.049507257 -0.030777786
-0.023078114 -0.00021773831 0.019838814 -0.0615757 -0.028030477 -0.018120162 0.0131424 0.02255119
0.05803403 -0.00033246053 -0.0027628338 0.0052197874 0.014009038 -0.016213484 0.013250602 -0.0061168885
-0.017253475 -0.07385652 0.034128 -0.09227144 -0.006360459 -0.008529982 -0.02559409 -7.256845e-05
0.049153257 -0.084592246 -0.039217565 -0.068043225 -0.031382103 0.09316161 -0.0486045 -0.012209738
-0.028118437 0.0063290326 0.025952619 -0.06955689 0.0066857985 -0.00014371498 -0.04166374 0.002532798
-0.03129656 0.046090245 0.012274519 0.028324518 0.051183946 0.00013328396 -0.00076055975 0.017949361
-0.03675181 -0.00013369625 -0.05173345 -0.07909815 -0.110796675 0.0097369505 -0.031859618 0.09117404
0.022228876 -0.015851425 0.0060801236 -0.007941395 -0.0025197866 -0.017247058 -0.049160514 -0.024021368
-0.015175894 -0.004855751 0.020691149 -0.0003238622 -0.04121249 -0.07644396 0.027696747 0.024625855
-0.008942836 0.0029170946 -0.01858767 -0.052192997 0.015058633 -0.008276154 -0.048586342 0.020072456
-0.038666163 -0.00012965899 0.016631525 -0.029003704 0.038631964 -0.025101181 0.033804752 -0.027448684

find.2.bias f4 [128]
00000000: 8583 b33a 409e f73c 797d a1bd bfe1 093e
00000010: 778d 303d 63e2 cdbd ffbd 343d c653 b8bb
00000020: 65b5 f1bc e6bf 843c 36ce 0e3d 9d1d 1c3b
00000030: 209c 9b3c 6898 043d e2ff 543b 9267 aa3b
00000040: 2c77 3dbd c6ff bb3c ff7a 1fbc 84c2 fc3c
00000050: b2fd f03b 0918 5c3d 76b2 933d 56ca 523d
00000060: 604e 34bc c8d9 cf3c 8201 923c 1865 e63c
00000070: c2d1 f73c 1a16 2e3d cdd1 d03c 0eb3 9dbd
00000080: 90b4 87bd acac a63d 72ed 243b 8a49 193d
00000090: d39d 543d 7062 4c3c 5f25 833c 7f2f e0bb
000000a0: 3aa3 01bc 6542 b03c 65a7 973d d217 8a3d
000000b0: 21a3 92ba 2b1d 413d dd57 e83d f427 533c
000000c0: c9b4 62bd 90ea 88bd f5a0 3a3b 61bf 63bb
000000d0: 1f59 cc3c 537f 7a3d 5da8 69bc 460a cbbb
000000e0: 5ef3 e33d c706 123e be9e bb3d 058c a6bc
000000f0: 397e 893d 7983 3cbb 0961 8fbd 6fee 663d
00000100: 4010 5cbd e344 663d 97d9 993d 9ef0 2fbb
00000110: b277 83bc f5f6 b4bc 3906 7cbd 719b 68bb
00000120: fe43 ed3b 3a8d c0bc 79f1 a73d 399e 22bd
00000130: c8ac 403c a044 973d 3102 3abb cc63 c23c
00000140: 34c0 113c ed16 9f3d a619 d43c c3be 23bd
00000150: b4df 363c 511a 143d a26a 3ebd 6a9d 8ebc
00000160: e60a 5dbc e6ab b6bc fe32 1abd 3a97 38bc
00000170: e1e1 f8bc 6edc babc c05b 9cbc 3187 67bd
00000180: 4f34 413c 8c72 80bc 3c0c 5bbb b424 1bbd
00000190: f561 1e3c fc1c e63b fdc6 80bd 0c73 29bd
000001a0: 1e68 123d 4d57 78bd e2ab 1a3d f8ef dd3c
000001b0: b261 2fbd e3bf 643c 0f18 c53c 4ab3 a53d
000001c0: 179a 98bc bbbe 3a3d a8f6 603d dfc7 243d
000001d0: 9e02 fe3d b1b1 713d eed9 b13c 83c6 173d
000001e0: bde1 f73c 089a 133d ec49 db3c ce53 c3bc
000001f0: ea6a b0bc 61b0 86bd 0e04 8bbc b119 d3bc
0.0013695812 0.030226827 -0.0788526 0.13465022 0.04310366 -0.100529455 0.044126507 -0.005625221
-0.029505441 0.016204786 0.034864627 0.0023821362 0.018995345 0.03237191 0.003250115 0.005200335
-0.04625623 0.02294911 -0.009733914 0.030854471 0.0073544616 0.05373386 0.07211773 0.051462494
-0.011005014 0.0253724 0.017822985 0.028124377 0.030251388 0.042501546 0.025490666 -0.077001676
-0.066262364 0.08138403 0.0025165942 0.037423648 0.051908325 0.012474641 0.01600903 -0.0068415995
-0.007912451 0.021516034 0.07404975 0.067428246 -0.0011187532 0.047146957 0.113448836 0.012887944
-0.05534819 -0.06685364 0.0028477286 -0.0034751522 0.02494484 0.061156582 -0.014261332 -0.006196293
0.11130403 0.14260398 0.09161137 -0.020330438 0.06713528 -0.0028764887 -0.0700093 0.05637973
-0.053726435 0.05621804 0.07512205 -0.00268463 -0.016048286 -0.022090415 -0.061529372 -0.003549304
0.0072407713 -0.023504842 0.08200354 -0.039701674 0.011759944 0.07386136 -0.0028382654 0.023729227
0.008895922 0.077680446 0.025891136 -0.039976846 0.011161733 0.03615791 -0.04648841 -0.017409045
-0.013491368 -0.022298764 -0.037646286 -0.011266524 -0.030381145 -0.022810187 -0.019086719 -0.056525413
0.0117922565 -0.01567962 -0.003342404 -0.0378768 0.009666909 0.007022498 -0.06287954 -0.041369483
0.035743825 -0.06063013 0.037761576 0.027091965 -0.04281778 0.013961765 0.024059324 0.08090837
-0.018628163 0.04559205 0.05492273 0.040229674 0.12402843 0.05900735 0.021710362 0.03705455
0.030259008 0.036035568 0.026768647 -0.023843672 -0.021535356 -0.0657661 -0.016969707 -0.025769087

find.4.weight f4 [64, 128]
00000000: 1219 e03d 643a 4f3d 25dc 383d dd92 20be
00000010: b18e 2e3e 4b8f ed3c fabb 32be e6e4 0eba
00000020: a131 7ebc b8e4 3c3d c015 963d c502 4fbc
00000030: 5106 06bd 6b2e b13b f987 4cbc add4 8b3a
00000040: 01d8 043c 867e 693c 7913 34bd 1535 4cbd
00000050: c5f6 093e 6596 1e3e 4747 8bbd b8c9 a13d
00000060: 6464 dfbc f64c 1ebe d5a8 893d 8145 fe3c
00000070: 03a3 56bd 2cab 173e 66c5 213e be24 043d
00000080: 8fda e03d fb9e 27be 5abf bfbc fbae c23d
00000090: 532c 033e a86d f03d d2f6 f53d 1b04 0d3e
000000a0: 950c 5abb 24c7 3bbd 7f78 fbbd da78 1cbc
000000b0: c17c 903d 060b e53d 69f6 dd3d 64af 323e
000000c0: 77e1 bbbc a9f5 373b dde3 c03c 392a 9e3c
000000d0: 6cc8 f4bc a419 e4bd a12a 1d3e 8d71 c2bc
000000e0: 6194 2ebe 6115 3bbe 87c7 173e 57fe d0bd
000000f0: d846 af3d 2b5c bb3d 08e3 e5bb 3ed1 193d
00000100: 0619 8bbb c305 293e bcb3 273e 96f0 f5bd
00000110: bcae 683c 5ab1 12ba ac42 863d ffd4 ef3a
00000120: 00a2 13bd 3603 003e e90d d5bd be54 f73b
00000130: 6214 68bd 93d2 62bd 5bb4 213d c9d4 d03d
00000140: 8d92 173e 6298 c9bd 037f 2b3e fbe5 bd3b
00000150: 7bc3 ac3d f0a2 403e 4211 fc3d f254 f7bc
00000160: 3049 003e 238e b7bd b52d f63d ae5e ba3d
00000170: 2b5f 94bc a30c bc3b ca71 3b3e d052 d93d
00000180: a65a d63d 8b70 aabc 9b17 bc3d 351a 213c
00000190: bbbd 0a3e 1a00 03be 3b04 863b fed6 b93a
000001a0: 8fa8 efbd bb3d 8c3b 5597 683a 21f4 ebba
000001b0: 05be c1ba 7bbb e53d 66b2 143e afec 34bd
000001c0: af5c 363e 9bfc cb3b 4739 c2bd 0704 e43d
000001d0: 2d4e 1fbe 3057 cc3d 394a c53d 2c20 24be
000001e0: f0b9 b73d 6cc9 3b3d 76df 6b3d 54a7 433d
000001f0: 7582 67bd 126a be3d a77a a93d ed19 7ebd
00000200: e2fd f3bc 96e1 5fbd 8ce0 84bd d9c0 f6bd
00000210: b504 c43d 5ade 38bd 0710 0fbe 4896 a039
00000220: 4962 ab3c 7a7a 423d ba90 4fb8 2bf6 de3d
00000230: 3098 143e 5ae4 073e 2b25 1abd 87b8 2dbb
00000240: 7312 93bc 9509 703b 6b73 193b da68 7e3d
00000250: 6463 9f3d 5efc a13d ddd7 89bc 5570 013e
00000260: cea3 82bd 666d 8ebd d844 db3d 43e0 833d
00000270: 530f 48bc b47a da3d 0683 783c 0125 8ebc
00000280: d8e7 4dbd 8dfd 10be b2eb 2dbd 8850 53bd
00000290: 5375 423d a70d 203d 2864 043e 26b2 af3d
000002a0: 20d4 903d e378 b3bd fa6c 9fbd 21cc 3b3d
000002b0: b0e9 bd3d 62d2 1d3e 1ebc b53d 5c8d 0a3d
000002c0: f334 79bd 6c70 23bb 18b2 09bc d8c4 99bc
000002d0: c618 d63b 1e9b dcbd 92a9 213e 8b27 a2bc
000002e0: eded 84bd a29a 95bd ef5d 023e 7d33 a9bd
000002f0: 0a57 bdbd 1932 46bc 0625 51bd 0381 cfbc
00000300: fd6c 8ebb 2384 903d bdf3 203e 4ec1 b5bd
00000310: 971e 95bc 5f5d 82ba b1e4 033a 8117 14b9
00000320: 27c8 78bd 97e6 d43d 5072 b8bd fe1e 0b3d
00000330: 9a25 51bd 5f02 c3bb f844 773d c127 293e
00000340: 8371 b23d 4f47 f9bd 70cb aa3d 34ab 8bbd
00000350: 15ee 2b3e 0b4f 293e 3770 9f3d 5289 153d
00000360: 1348 f73d 7f21 3f3d fe60 39bd bbf0 223d
00000370: 5a7c 79bc 5474 ceba cae5 b53d fadd 8ebb
00000380: a5c7 e63d ea56 463b c585 a53c db69 cfb9
00000390: c822 e93d 2a83 aabc efc4 51bb 25f6 b63b
000003a0: 7ee9 2fbe 9727 77bd f0ae c6bd 4818 8cbc
000003b0: 30bf 903c a746 073e dd2d 1f3e e3a6 0cbe
000003c0: ca4d 9a3c b888 53bd 62cb 9ebd fc05 0dba
000003d0: c79f cebd 2714 c73d 378d ad3d 2f74 03be
000003e0: 651a 8a3d 0056 9e3d ddfe 0fbd 42f7 15bd
000003f0: f260 d1bd 4868 47bd a84a 003e 60c4 16bd
0.10942282 0.050592795 0.04513182 -0.15681024 0.1704662 0.028998991 -0.1745452 -0.00054509786
-0.015514762 0.04611656 0.07328367 -0.012634938 -0.032720868 0.005407145 -0.01248359 0.0010668241
0.00810814 0.014251357 -0.043963883 -0.04985531 0.13473041 0.15487058 -0.068007044 0.07899803
-0.02726955 -0.15459046 0.06721655 0.031039001 -0.052401554 0.1481139 0.15797958 0.032261603
0.10979187 -0.1636924 -0.023406673 0.09506031 0.12809877 0.11739665 0.12009968 0.13771097
-0.003327166 -0.045844212 -0.12278842 -0.009550298 0.07055045 0.11183743 0.10838015 0.17449719
-0.022934658 0.002807001 0.023546154 0.019307243 -0.029880725 -0.11137703 0.15348293 -0.023735786
-0.1704879 -0.18269874 0.14822207 -0.102047615 0.08558434 0.09148439 -0.0070155896 0.037553065
-0.0042449264 0.16506104 0.16377157 -0.12008779 0.014201816 -0.00055958855 0.065556854 0.0018297731
-0.036043167 0.12501225 -0.10403044 0.007547944 -0.056660064 -0.0553766 0.03947864 0.101968355
0.14801998 -0.09843518 0.1674767 0.005795238 0.084357224 0.18812156 0.12307979 -0.030191872
0.12527919 -0.08962657 0.12020437 0.0910009 -0.018111786 0.005738811 0.18305126 0.10611498
0.104665086 -0.020805618 0.0918419 0.009832908 0.13548939 -0.12793007 0.00408986 0.0014178453
-0.11702072 0.00427982 0.0008872648 -0.0018001833 -0.0014781362 0.112174 0.14521179 -0.04417103
0.17808793 0.0062251813 -0.09483581 0.11133581 -0.15557165 0.09977567 0.096332975 -0.16027898
0.08971012 0.045846388 0.057586156 0.047767 -0.056520898 0.09297575 0.08275347 -0.062036444
-0.029784147 -0.054658495 -0.064881414 -0.120485015 0.0957121 -0.045133926 -0.13970958 0.00030629546
0.02092089 0.047480084 -4.9487433e-05 0.108867966 0.1451118 0.13270703 -0.037633102 -0.0026507692
-0.017953133 0.0036626805 0.0023414742 0.062111713 0.07782629 0.07909463 -0.016826564 0.12640508
-0.063788995 -0.0695446 0.1070649 0.06439259 -0.012210685 0.10667935 0.015167957 -0.01735163
-0.05026993 -0.14159222 -0.042461105 -0.051590472 0.04747517 0.03907552 0.12928832 0.08578901
0.0707171 -0.08763292 -0.077844575 0.04584897 0.09273088 0.15412286 0.08873771 0.033826217
-0.060841512 -0.0024938835 -0.008404277 -0.01877062 0.006533715 -0.10771774 0.15787342 -0.019794246
-0.06490693 -0.073048845 0.12731145 -0.08261774 -0.09245117 -0.012096905 -0.0510607 -0.025330072
-0.0043464885 0.07056453 0.15717979 -0.088747606 -0.018203063 -0.000994604 0.0005031331 -0.00014123136
-0.060737755 0.10395544 -0.090061784 0.033965103 -0.05106125 -0.0059512104 0.060368508 0.16519071
0.08713057 -0.12171804 0.08339584 -0.06819764 0.1679004 0.16534059 0.07785075 0.036507912
0.12074294 0.046662804 -0.045258515 0.03978036 -0.015227402 -0.0015751221 0.088817194 -0.0043599578
0.11268548 0.0030264207 0.020205388 -0.00039560985 0.11383587 -0.020814497 -0.003200825 0.005583542
-0.17178914 -0.06034049 -0.097013354 -0.017101422 0.01766929 0.13210545 0.15544839 -0.13735537
0.01883592 -0.051644057 -0.07753636 -0.0005379615 -0.10089069 0.09720641 0.084742 -0.1283729
0.067433156 0.07731247 -0.035155166 -0.036612757 -0.10223569 -0.048683435 0.12528479 -0.03680837

find.4.bias f4 [64]
00000000: 62d3 35bd 105c c83d fbce 72bd f242 dcba
00000010: 5046 27bc fe81 903c 4359 dbbc 3512 e3bd
00000020: d4f2 88bc 2ea5 b9bc 9f89 7ebd 5e49 c0bc
00000030: 6b37 77bd a21e d3ba a992 dc3c 6442 193e
00000040: 1bc1 823d c9d9 74bd e676 19bd 5a54 20bc
00000050: a9bd d3bc ed54 da3d 084b f63c 845b 1dbd
00000060: a02c cf3c 5894 f0bb 3442 debc b9ac 3d3e
00000070: b65d abbc 19f7 06bd 442c 703d 80c4 db3d
00000080: 125c a2bd a2cd 603d e092 503c 7f1f ab3c
00000090: 7a87 78bc 60d3 56bd 070b 9f3d bf3c cabc
000000a0: f43f 3f3d f7fa cebc 9623 9fbd 8fe3 8e3d
000000b0: 0d37 0e3e 0561 df3d fb91 233d 380c ed3d
000000c0: 9d4c 2c3d 2f79 16bd 89dc 7ebd 1b84 ce3d
000000d0: bc85 7dbd c073 993b f178 c73d 2c75 043c
000000e0: 22b8 14bd eb33 213e 2b67 b73d 139a 86bd
000000f0: cedb 81bd 83e9 c0bc 3b46 78bd 69cd 0ebd
-0.044391043 0.097831845 -0.059279423 -0.0016804619 -0.010209635 0.01764011 -0.026775962 -0.11087457
-0.016717352 -0.022661772 -0.062142964 -0.023472484 -0.060355585 -0.0016107152 0.026925402 0.14966732
0.06384488 -0.05977801 -0.037466906 -0.009785736 -0.025847273 0.106607296 0.030065075 -0.038417354
0.025289834 -0.0073419027 -0.027131177 0.1852292 -0.020918708 -0.032950494 0.058635965 0.10730839
-0.07927717 0.054883607 0.01273033 0.020889042 -0.015169019 -0.052447677 0.07765775 -0.02468717
0.04669185 -0.025266154 -0.07770459 0.06976997 0.13888188 0.10907177 0.03993414 0.11574596
0.04206525 -0.036736663 -0.062222037 0.10083791 -0.061895117 0.004682988 0.097398646 0.008084577
-0.036308415 0.15742461 0.089552246 -0.06572356 -0.063407525 -0.023548847 -0.060613852 -0.034863863

find.6.weight f4 [2, 64]
00000000: 1453 f53c 655b 9dbd 6bb8 ab3c 9608 073c
00000010: 0eba eebc c0b2 21be 3266 0cbc 0cd4 38be
00000020: 5160 453d 2637 5abd 3e89 9e3c 7d57 16b9
00000030: f3d9 ab3d 7b3c 12be 5888 0bbd 4f50 6ebd
00000040: 4f4b 8fbb 255f af3b 6e00 6b3c a536 a8bb
00000050: f2ce 11be adbe 88bc bffa 973d 740a 763b
00000060: 5ecc 6dbd fd0e c33d 8015 a3bd 1420 4f3e
00000070: 872a 363c 5180 aabc d432 0a3e be47 113e
00000080: b25f 923c a426 ffbb e9ef 003c 643d b6bd
00000090: 7069 e83d d4ba 1abc 9994 033e 46d8 1ebd
000000a0: 08f3 32be d87d e83b 2e82 61bd ada0 acbd
000000b0: 15cc b03d 40c5 d1bd aa4c d63d fcaf e3bd
000000c0: d534 303e 31a0 49bb 9ce8 7dbb 9040 463c
000000d0: 2e97 ee3c 74c2 523c 140e ba3d a5e0 a2bd
000000e0: 4897 383d 8ace e8bd 00a2 84bd cad8 ff3b
000000f0: 9b16 f73c 4e3f 18bd e2b3 463d e944 d0bc
00000100: c0f7 7dbe f1ad 73be ab93 623e cf32 aa3c
00000110: 602e b4bb 5ea0 823d a045 24be 7e62 2fbe
00000120: afcc 29be 0db1 54be 5efc 8d3d c841 a2bb
00000130: 5676 eebd 371e fdbc aeef a03d 4587 0b3e
00000140: 0cf9 f13c d79b 693d aace 403e 2483 233e
00000150: 8065 1bbe a636 38be 136e e13c ebfa a93b
00000160: d965 8ebe 4457 4dbd e327 7fbe 519d 763d
00000170: 9859 17bc 13f1 aa3d 87f6 86bd a0b5 a93d
00000180: fb9d 32be ffb9 41be dec9 ad3d c332 9c3d
00000190: 44f5 0ebe 277b a93c d94b c3bd 0176 493c
000001a0: d286 483e 0a4d 7cbb 2975 6cbe 6a2e 6abe
000001b0: 7833 3f3d d360 483e 3c72 98bd 59ab 833d
000001c0: 8ea1 043e 46db 703d c45c 33be 6763 e73d
000001d0: a6f5 703e b80a ce3d 6334 123d 3f06 61be
000001e0: bf2d 863d 7e04 003e a97d 503e b624 c33d
000001f0: 5690 81bd 5dae 5c3e 5164 0fbe 69af 513e
0.029946841 -0.07683448 0.02096196 0.008241793 -0.029141452 -0.15790844 -0.008569287 -0.1804964
0.048187558 -0.05327525 0.019352552 -0.00014337707 0.0839118 -0.14280884 -0.034065574 -0.058182057
-0.004372991 0.0053519183 0.014343364 -0.0051334673 -0.142391 -0.016692484 0.07420873 0.0037542852
-0.058056228 0.09524343 -0.07963085 0.2022708 0.011118538 -0.02081314 0.13495952 0.14187524
0.017867897 -0.0077865887 0.007869699 -0.08898428 0.113482356 -0.009443957 0.12849654 -0.038780473
-0.17475522 0.00709508 -0.05505579 -0.08429084 0.086326756 -0.102427006 0.10463841 -0.11117551
0.17207654 -0.0030765648 -0.0038743382 0.012100354 0.029124822 0.012863744 0.090847164 -0.07953004
0.045066148 -0.11367519 -0.064762115 0.0078078257 0.030162146 -0.037169747 0.048511393 -0.025423484
-0.2480154 -0.23796822 0.22126643 0.02077618 -0.0054986924 0.06378244 -0.16042185 -0.17127416
-0.16581987 -0.20770665 0.06932901 -0.0049516894 -0.116436645 -0.030898197 0.07858215 0.1362582
0.0295377 0.057033386 0.18828836 0.15967995 -0.15175438 -0.17989597 0.027518308 0.0051873825
-0.2781208 -0.05013205 -0.2491756 0.060208622 -0.009237669 0.083467625 -0.0658999 0.08286595
-0.17443077 -0.18918608 0.08485769 0.076268695 -0.13960749 0.020688606 -0.09535951 0.012296201
0.1958268 -0.0038498067 -0.23091568 -0.22869268 0.046679944 0.19568186 -0.074436635 0.06429166
0.12952253 0.058802865 -0.17515856 0.11298256 0.23531207 0.10060638 0.03569449 -0.21975039
0.06551694 0.12501714 0.20360436 0.095284864 -0.06326358 0.2155089 -0.14003111 0.2047707

find.6.bias f4 [2]
00000000: 9d12 153d ef08 70bd
0.036394704 -0.05860227

grapher.0.weight.weight f4 [5, 1]
00000000: ea4d 28bb c30a 18bb adc0 dabd a999 b5bd
00000010: 1e72 92bd
-0.0025681206 -0.0023199774 -0.10681281 -0.08867199 -0.071506724

grapher.0.weight.bias f4 [5]
00000000: 267d 503c bd6c a73d 4b3a 023e 3ad8 4cbe
00000010: c34e 8cbe
0.01272515 0.08175037 0.1271755 -0.20004359 -0.2740384

grapher.0.reduce.weight f4 [5, 1]
00000000: 2b53 7a3d 1549 5dbd d059 74ba b96f 86be
00000010: 82b0 233e
0.06111447 -0.054024775 -0.00093212444 -0.26257113 0.15985301

grapher.0.reduce.bias f4 [5]
00000000: 4d6f ac3d d520 253d 8a49 87bb 98ae 453f
00000010: 435b 2d3e
0.084196664 0.040314514 -0.0041286396 0.77219534 0.16929345

grapher.0.gru.weight_ih f4 [15, 5]
00000000: 0e7f 2d33 68de 9534 e817 8c32 11bf 9c35
00000010: b80c 9937 90be a7b5 29d0 0ab7 9cca 6eb6
00000020: ace1 ae36 f4e2 9536 a589 28b6 3c90 90b7
00000030: 631a 40b6 9ea1 0137 2e63 7937 cb45 40b4
00000040: 6533 c0b5 f24d 9639 40f3 c8b9 8860 d1ba
00000050: ad4b 5a36 93f6 ef37 1a46 d136 29e8 85b7
00000060: bc80 15b6 a644 1eba 0da3 6139 046a 6abc
00000070: 42c9 b03c 8192 1b3d d447 c43a e53c ca3b
00000080: 65fb da3c 9a23 d4bc 9651 22bd 4a94 8e3a
00000090: fb4d 073c c88f 1c3d 379d dabc dfba 14bd
000000a0: b5ab c839 b2a2 c93b af9f 00bd 1a36 903d
000000b0: 277b bfbb b3f1 153b 9632 8bbb 8a44 ab3c
000000c0: 114b 92bc e205 1c3d 605e cabc 244e 3d3d
000000d0: 5a38 35bd c144 e3bd 8274 5a3d 7f11 213d
000000e0: bb7c 9f3d 9163 d13d b82c 3ebe 3e38 2abe
000000f0: 41f2 113b 49c4 113c 321d c53c 30b9 22bd
00000100: 2a26 18bd e786 71bc 68d4 dbbc 980b 403d
00000110: c067 cd3c 1e83 4f3e b9e1 343c fcf8 5f3d
00000120: 6f37 843d 77c8 93bd 9840 b6bd
4.0395257e-08 2.7915235e-07 1.6309016e-08 1.1678513e-06 1.8244944e-05 -1.2497931e-06 -8.273907e-06 -3.5582698e-06
5.2118758e-06 4.466967e-06 -2.511407e-06 -1.7233302e-05 -2.8625589e-06 7.726629e-06 1.4864649e-05 -1.7906784e-07
-1.4320073e-06 0.00028668303 -0.00038328208 -0.0015974203 3.252858e-06 2.860584e-05 6.2368463e-06 -1.5962944e-05
-2.2277663e-06 -0.0006037451 0.00021518413 -0.014307503 0.021580342 0.037981514 0.001497502 0.00617181
0.026731202 -0.025895882 -0.039628588 0.0010877934 0.008258338 0.038223058 -0.026686294 -0.036311027
0.00038274904 0.006153428 -0.031402286 0.07041569 -0.0058435383 0.002287966 -0.0042479737 0.020906705
-0.01785806 0.038091548 -0.024703205 0.0462171 -0.044243194 -0.11097098 0.053333767 0.039323326
0.07787462 0.10224069 -0.18571746 -0.16623017 0.0022269639 0.008896896 0.024061773 -0.03972739
-0.03714577 -0.014741636 -0.026834682 0.046886057 0.025073886 0.20264861 0.011040145 0.05468081
0.064558856 -0.0721597 -0.08899039

grapher.0.gru.weight_hh f4 [15, 5]
00000000: 3883 0f34 3c06 49ba eddb 03b4 a5ca 95ba
00000010: b51a 7a35 cf81 0cb7 a230 1bba a707 dc35
00000020: ad2a eab8 7a29 53b7 30d3 c8b7 2fdb 0438
00000030: c612 3a36 a2c0 68bb 1f3d 29b8 7ccf d2b5
00000040: acb4 ff3b 7d91 7134 72f4 903c e973 18b7
00000050: 1a6f 1838 0fee 11ba 7742 87b6 f9fb 8eba
00000060: 8b61 f738 3c83 79bc 28eb c3bc b4ac c938
00000070: 95cc 083d e5ac 64bd 93bd 0b3d d2a3 833c
00000080: 4123 6a39 20e3 bf3d 86ce d03d 1760 253b
00000090: 8ceb 1d3d e21f a6b7 7b7c ab3d 7b99 333c
000000a0: c678 8ebc ce47 2cbd 1cec 01b9 60f3 bdbc
000000b0: bc7d a1bd fd01 f83a e69f dd3c 0775 4237
000000c0: 0392 f63a db91 213c 6e87 633c 0c63 04be
000000d0: ef5f 4438 789d ebbd 5f19 e33d 85f6 253d
000000e0: d107 30bd d935 6dbc ef6d 293d 826a f43d
000000f0: fc06 573d 9bd2 093d b7d0 85bb c1e7 c13c
00000100: 388c 073e 814a 95bd 3762 8c3d 0be2 e03c
00000110: 96ef 39be 93a7 28be b450 3f3d 701b 8b3d
00000120: bc28 34bc 1a31 683d 98b5 043e
1.336565e-07 -0.00076684705 -1.2280334e-07 -0.0011428191 9.317112e-07 -8.374874e-06 -0.00059200276 1.6393504e-06
-0.000111659385 -1.2586237e-05 -2.39402e-05 3.1675383e-05 2.7727087e-06 -0.0035515209 -4.0349663e-05 -1.5706605e-06
0.00780352 2.2497802e-07 0.017694686 -9.086893e-06 3.6343095e-05 -0.00055667845 -4.031051e-06 -0.0010908834
0.000117960466 -0.015229043 -0.023915842 9.616595e-05 0.03339823 -0.055828948 0.03411634 0.016069327
0.00022329112 0.093694925 0.10195641 0.0025234276 0.038554713 -1.9803589e-05 0.08373352 0.010961886
-0.017391574 -0.042060666 -0.00012390356 -0.02318734 -0.0788531 0.0018921491 0.027053785 1.1590549e-05
0.0018811825 0.009861435 0.013887269 -0.12928408 4.6819387e-05 -0.11504644 0.110888235 0.040518302
-0.042976204 -0.01447817 0.041364606 0.11934377 0.052496895 0.033648115 -0.0040837186 0.02367008
0.13237083 -0.07289601 0.068546705 0.027451536 -0.18157801 -0.16470174 0.046707824 0.06792343
-0.01099604 0.056687452 0.12959898

grapher.0.gru.bias_ih f4 [15]
00000000: 2d21 84bb a16a 46bb 51a9 a1bb a9e4 bf3c
00000010: 8fd4 4cbb cf00 243d fd3d febd 980c ed3d
00000020: ab4d d2bd 2a1b db3d 66d9 933d 11a9 a43e
00000030: bf68 623c aedc d83d 2ec2 5abd
-0.004032275 -0.0030275958 -0.004933514 0.023424463 -0.0031254624 0.040039834 -0.12414167 0.11574668
-0.1026872 0.106985405 0.072192 0.32160237 0.013818919 0.10588966 -0.05340784

grapher.0.gru.bias_hh f4 [15]
00000000: 5e02 84bb 8a10 46bb 54ae a1bb 6ce7 d03c
00000010: e5b5 4bbb 14f8 07be fdd5 133c 8488 a43d
00000020: f4f1 0a3d f709 1f3e c13b 0e3e f27c b43d
00000030: cc64 173d b1a7 1c3e 70bc 563d
-0.0040286025 -0.003022226 -0.0049341116 0.025500976 -0.003108376 -0.13278228 0.009023187 0.08033851
0.03392215 0.15531145 0.13889982 0.08812894 0.03696136 0.15298344 0.0524258

grapher.0.gru.ln_resetgate.weight f4 [5]
00000000: d4ee 15b8 9227 ee3c 19de 6abb 26c2 8ebd
00000010: 675a 03bb
-3.5746794e-05 0.029071603 -0.0035837947 -0.069706246 -0.0020042898

grapher.0.gru.ln_resetgate.bias f4 [5]
00000000: 65ee 233a 1601 aa3b b897 0fbc 57fd 69bd
00000010: e32c a03c
0.000625348 0.0051881177 -0.0087642 -0.05712637 0.019552654

grapher.0.gru.ln_inputgate.weight f4 [5]
00000000: 63b0 0bbb aa55 0c3f 87ad 8136 6c25 1f3e
00000010: c4f2 91b7
-0.0021314851 0.54818213 3.864701e-06 0.15541619 -1.7398394e-05

grapher.0.gru.ln_inputgate.bias f4 [5]
00000000: 1b61 efbc ca15 43bc a9ab 2d36 ad33 5fbd
00000010: 3af1 2cb8
-0.029221108 -0.01190705 2.5878928e-06 -0.05449264 -4.1232655e-05

grapher.0.gru.ln_newgate.weight f4 [5]
00000000: 18af c6bd 895f 693f 30b3 a23c 72ec 513f
00000010: e01a 18be
-0.09701365 0.911614 0.019860834 0.8200141 -0.14854002

grapher.0.gru.ln_newgate.bias f4 [5]
00000000: 5ee0 aa3d ea4b ba3d f177 c0bc 7fba 893d
00000010: 17d1 233e
0.08343576 0.09096511 -0.023494693 0.067250244 0.1599773

grapher.1.weight.weight f4 [5, 5]
00000000: 322f 6abd ee92 7ebe 9e5d f5b5 7991 0cbe
00000010: b63e 9abd 9465 66bc e6b2 d7be cd90 8437
00000020: d701 e03d 6516 95bd fb9b a9bc 9f2f 8f3d
00000030: 1321 2137 1053 6dbe 55ab d6bd 6124 353c
00000040: 6474 2ebe 8b51 5db8 5f62 82be 31fb b63d
00000050: 8e8e 9dbc a5a0 073d 48a9 2a37 a0aa d73e
00000060: 6f90 09be
-0.057173915 -0.24860737 -1.8281169e-06 -0.13727368 -0.075314924 -0.014062304 -0.42128676 1.5803054e-05
0.10937851 -0.07279662 -0.02070426 0.06991505 9.6040485e-06 -0.23176217 -0.10481898 0.011056037
-0.17036587 -5.276645e-05 -0.25465676 0.0893463 -0.019233014 0.033112187 1.01722035e-05 0.42122364
-0.13434003

grapher.1.weight.bias f4 [5]
00000000: 1540 afbe da91 6f3d cfa8 d73d 1d19 a13e
00000010: 3d9a ee3d
-0.34228578 0.058488704 0.105302446 0.31464472 0.11650512

grapher.1.reduce.weight f4 [5, 5]
00000000: c596 cdb7 2031 55bc 6119 3eb5 bf48 0cbb
00000010: 9a66 a1b9 ef69 013a af7f 52be 9ba1 b436
00000020: 349a a3bd 2151 893b d6b2 c3bd d431 213d
00000030: dd95 0c36 6202 b93e f96c 22be 82b0 4e3d
00000040: 506e 6e3e 3a35 81b5 9edb a6bc a47b b53d
00000050: b057 ccbd 824a b53e c2ea 893c bcfd 933e
00000060: 74ba 19be
-2.4508112e-05 -0.013012201 -7.0817447e-07 -0.0021405665 -0.00030784757 0.0004936745 -0.2055652 5.3832314e-06
-0.07988396 0.0041905795 -0.095555946 0.03935416 2.0948858e-06 0.3613463 -0.15861882 0.0504613
0.23284268 -9.62674e-07 -0.020368394 0.08861473 -0.099776626 0.35408407 0.016835574 0.2890452
-0.15012532

grapher.1.reduce.bias f4 [5]
00000000: 1f26 81bc ad46 423e 9760 3f3c b9d5 ba3d
00000010: 580f cc3e
-0.015765248 0.18972273 0.011680744 0.091227956 0.39855456

grapher.1.gru.weight_ih f4 [15, 5]
00000000: 780b e03d b8c2 093d f6f2 dcbb ee5f debc
00000010: a565 3ebd 7864 d53d c22a c33c f6bc 8dbb
00000020: b44e acbc bc98 63bc 0640 203d a822 51bd
00000030: 87e0 75bc ba97 a1bc ceea e83d ca8b 9b3d
00000040: 5a4e cebd 1958 8c3c 7b8a 5e3c e515 4cbe
00000050: 587a 0fbe cc17 90bb 40b4 db3b 4a15 843c
00000060: 692a 303e baa0 5cbe 8cd7 9abd 4217 c2ba
00000070: 89dd 183d 0eb8 a53c f15a 023e f249 f23c
00000080: ea03 d93b 7556 1d3d f06e 6cbe eec9 03bd
00000090: b51a 28bd 81db 083d d9b7 a03c 3faa 293e
000000a0: 0c08 5c3e 398b 303c 2c01 80bd 7c3b 38bd
000000b0: b680 0ebe ecc5 343e a942 663d 45e4 a4bd
000000c0: 3926 a7bd 1524 c6bd 5f31 cebd aad2 003e
000000d0: 92fa 1dbd f742 d0bc a7b7 abbe 9407 1abe
000000e0: 1762 6abe 52c6 703d 3ff3 6a3d 2b4d 9fbe
000000f0: aa43 bbbe 71a5 a0bd 4171 db3d 23fb babd
00000100: 04b9 3c3e 320b c53e 5a7a 543e 6fb2 acbd
00000110: 22a4 02bd f5d4 17be c237 f0bd 3269 afbe
00000120: cf76 373c cc1a 13bd 3797 d03e
0.109396875 0.033632964 -0.0067428304 -0.027145352 -0.046483655 0.104195535 0.0238241 -0.0043255044
-0.021033622 -0.013891395 0.039123558 -0.05105844 -0.015007145 -0.01972567 0.113729104 0.07595022
-0.10073538 0.017131852 0.013582821 -0.19930227 -0.14011514 -0.004397368 0.006704837 0.016123433
0.17203678 -0.21545687 -0.075606436 -0.0014807957 0.037320647 0.020229366 0.12730004 0.029576275
0.006622781 0.03841253 -0.23089194 -0.032174997 -0.041041095 0.03341246 0.019618915 0.1656885
0.21487445 0.010775381 -0.062502235 -0.044978604 -0.13916287 0.17653626 0.056215916 -0.080513515
-0.08161587 -0.09674851 -0.100680105 0.12580362 -0.03856904 -0.025422556 -0.33538553 -0.15041953
-0.22888981 0.058782883 0.057360884 -0.31113562 -0.3657506 -0.078440554 0.10714961 -0.09129932
0.18429953 0.38485104 0.20749798 -0.08432471 -0.03189481 -0.1482733 -0.11729385 -0.34259945
0.01119776 -0.035914227 0.40740368

grapher.1.gru.weight_hh f4 [15, 5]
00000000: 692d 22bc 64f4 c83b a2ef fb3c 19ca 7c3d
00000010: 17e8 21be cc78 c3bb f6cd 9539 0330 4d3d
00000020: e5c0 26bd 3c53 a0be 2e19 3a3d e9be 0dbd
00000030: 975a 07bd 4092 433e c82d 23bc 3ea9 40bd
00000040: 1fa3 f2bc 74f6 4abe ef30 d63d 983b a33e
00000050: 917f 653b eead a2bc e628 08be f28f 54be
00000060: 5bfd 2dbe 3d4a 103b 5540 53bc 1877 cb3d
00000070: 3ba4 dcbd 8979 04be 3076 83bb 896d e7bb
00000080: daed a13d 8876 8fbb 0568 083d 22a7 bbbc
00000090: e10e 563a e6a4 823e e148 dfbc 7552 49be
000000a0: e96c ba3c 8090 a5ba cefe 563d a083 2bbd
000000b0: 2763 abbe 28c7 72bb f70d 6c3b 3951 a83e
000000c0: 1d28 0cbd 9b0a a43d 2598 4fbe 621f 953c
000000d0: afab 853d 8ba0 3ebd 5cce a3be 080d 8c3c
000000e0: 37f9 20bd 76ab 1e3e 051a 3f3d 8441 bfbd
000000f0: 8148 8e3d 8102 d73c 2c7e 0d3e 1735 ee3d
00000100: e47d 993d 0863 6b3d 8400 ca3b b79e 60be
00000110: d07b 74bd 1cdb 9fbe 8adf 7ebd a812 5bbe
00000120: 4b94 c63e 7761 b6be 2734 d6bd
-0.009898522 0.0061326493 0.030753914 0.061716173 -0.15811191 -0.005965328 0.00028572947 0.050094616
-0.040711302 -0.31313503 0.04543417 -0.034605894 -0.033045378 0.19098759 -0.009959646 -0.047036402
-0.029618798 -0.19820577 0.10458552 0.31881404 0.0035018662 -0.019858327 -0.13296852 -0.20758036
-0.16991179 0.0022016906 -0.012893756 0.09934825 -0.10773512 -0.12936987 -0.004011892 -0.007062618
0.07906695 -0.0043781437 0.033302326 -0.022906844 0.0008165669 0.25516433 -0.027256431 -0.19660361
0.02275701 -0.0012631565 0.052489094 -0.041873574 -0.33474085 -0.0037044976 0.0036019066 0.32874468
-0.034217943 0.08009835 -0.20272882 0.018203441 0.06526887 -0.046539824 -0.31993377 0.017096058
-0.03930017 0.15495095 0.046655674 -0.09338668 0.06947423 0.026246311 0.13817662 0.1163122
0.07494715 0.05746749 0.0061646122 -0.21935545 -0.05968839 -0.31221855 -0.062224902 -0.21393836
0.38785014 -0.35621235 -0.10459166

grapher.1.gru.bias_ih f4 [15]
00000000: 31fd f33d 4c50 40be 3242 443e 2c25 5bbe
00000010: 9df3 6e3e 7865 de3d 69d3 a23e 7cbc 0a3e
00000020: c46d a6bd 7e14 8f3e 3cc0 7ebd 3c7b b9be
00000030: 04b5 45bb 4af7 94be e843 9ebe
0.11913527 -0.18780631 0.19165877 -0.21400899 0.23335119 0.108591974 0.31801918 0.13548464
-0.08126405 0.27945322 -0.062195048 -0.36226833 -0.0030167708 -0.29094917 -0.30911183

grapher.1.gru.bias_hh f4 [15]
00000000: 92c9 39be f766 303e f9d9 6fbe c243 2e3e
00000010: 5733 213e 0800 103e d756 643e d1aa 89be
00000020: e119 903e a06e 643e 2d2f 613e a87b a03e
00000030: 1e90 9c3e f5f4 a1be 9504 733e
-0.18143299 0.17226778 -0.23422994 0.17018035 0.15742241 0.14062512 0.22298752 -0.26888135
0.28144744 0.22307825 0.21990652 0.31344342 0.30578703 -0.316322 0.23732217

grapher.1.gru.ln_resetgate.weight f4 [5]
00000000: 9afa 903d 16f3 80bc 5780 8b3e a44c 973e
00000010: 4523 343f
0.070790485 -0.015740912 0.27246353 0.2955066 0.7036632

grapher.1.gru.ln_resetgate.bias f4 [5]
00000000: 690c 80bd 9e9e 863d 0c28 f4bc 051b 113d
00000010: 847b 9f3d
-0.06252367 0.065732226 -0.029804252 0.03542616 0.077872306

grapher.1.gru.ln_inputgate.weight f4 [5]
00000000: 3a88 b63c e425 903b e640 103f 1793 0c3f
00000010: 49e1 713f
0.022281755 0.004399048 0.5634903 0.5491194 0.9448438

grapher.1.gru.ln_inputgate.bias f4 [5]
00000000: 2bad 563d b779 50bc 1d40 303d c58a 83bd
00000010: 812a 3f3d
0.05241124 -0.012724332 0.043029893 -0.064229526 0.046671394

grapher.1.gru.ln_newgate.weight f4 [5]
00000000: 5e8a 3c3f f53b 2c3e 590c 613f 19e7 1a3f
00000010: 6738 6b3f
0.7364863 0.16819747 0.87909466 0.6050888 0.9188294

grapher.1.gru.ln_newgate.bias f4 [5]
00000000: 833d 73bd c727 9fbd 030b 22bd ed7f 75bd
00000010: 0b24 263d
-0.059384834 -0.07771259 -0.039561283 -0.059936453 0.040561717

grapher.2.weight.weight f4 [5, 5]
00000000: 8e29 633e bc7c 373d c7ab ab3c 2e16 42be
00000010: 7aac ed3e c83b 89be 0dfb 873a 51d8 423e
00000020: 97b4 e0bc 2306 e63d 9894 e13d 763d ee3c
00000030: 804d 973a 5262 9e3d cef5 a2bd 7a82 55be
00000040: 664d 9fbc 3dce 493e abeb cbbb 4b85 60be
00000050: 6561 36be 1c91 d7bb 0bdd 83be 42c3 e03d
00000060: 7c2c 59be
0.2218382 0.04479669 0.020955933 -0.18953773 0.46420652 -0.26803422 0.0010374502 0.1902783
-0.027429862 0.11231639 0.1101467 0.029082041 0.0011543483 0.07733597 -0.0795704 -0.20850554
-0.019446086 0.1970758 -0.006223162 -0.21925847 -0.1781059 -0.0065785777 -0.2575458 0.109747425
-0.21208376

grapher.2.weight.bias f4 [5]
00000000: 9d97 1a3e 6373 923e 6207 1e3e 1a69 e93c
00000010: 53e6 883d
0.15096898 0.28603658 0.15432504 0.0284925 0.06684556

grapher.2.reduce.weight f4 [5, 5]
00000000: e8da d43b ab3f b536 7cd8 ba3d 98e6 4839
00000010: fae4 75bc b190 2d3e 941a 003a 5aa1 0e3e
00000020: 6aea 3a3c fa51 d3bd 7669 d33d bff4 f8ba
00000030: 15f5 bd3e f85d 0ebd c4c7 b53e 8e81 93b8
00000040: b13a eeb7 c19e e5bd c37a 9db9 4154 07bd
00000050: 21df 973b 2860 38b6 82f0 703b 1e4d 1839
00000060: 3b77 1abe
0.006495822 5.4016323e-06 0.09123322 0.00019159389 -0.015008206 0.16949727 0.0004886773 0.13928738
0.011408428 -0.1031837 0.103228495 -0.0018993838 0.37101045 -0.034757584 0.35503972 -7.033638e-05
-2.8399141e-05 -0.112119205 -0.00030036838 -0.033039335 0.0046347533 -2.7474107e-06 0.0036764448 0.00014524578
-0.15084545

grapher.2.reduce.bias f4 [5]
00000000: 6178 03be 0b8b bebe b57a 903e fcd5 873c
00000010: df16 2b3d
-0.1283889 -0.37215456 0.28218618 0.016581528 0.04176986

grapher.2.gru.weight_ih f4 [15, 5]
00000000: 5b45 93be fdcc 9c3e 9ad9 513d 68ce d83c
00000010: a1b1 28be 6bc0 0cbe 8c16 463e 2515 183e
00000020: fd2b ad3c 4636 afbe 6557 e73e 6ee1 90be
00000030: ee80 ad3e b875 10be 2f52 97be 7f2e 7dbe
00000040: 19dd 943e 5bd4 4b3e 7ee8 603c 54e6 be3e
00000050: ab7d 26be 86b3 a9be 4f31 64be e272 aa3d
00000060: e628 d43d 69f3 963d 62d4 ba3e a00b a6be
00000070: 7118 adbd f449 913e 8677 fb3e 6acd 063f
00000080: 1773 993e 03b7 19be e6fe 9abe 7619 a2bd
00000090: 5691 d4bb d273 873e d9f1 0cbe 284c 243e
000000a0: 029f 733e 891c 4b3d af2e 623e f7d4 7fbe
000000b0: 618a 0cbe 5942 67be 0e58 87be 7f42 abbe
000000c0: f1d7 b53e c13d 4c3e 6ffb 853e bea9 643e
000000d0: add8 e9be dbb9 62bd 2490 94be b45b 483e
000000e0: c9ee ecbd 89d2 b23e 44b3 10be 7213 79bd
000000f0: 09d5 003f 4a27 8e3d 0b4e cf3e 421b 223e
00000100: 3e90 f43d daa6 563c 66ae 933d ad81 583e
00000110: 41ee a23e 200b cc3d a131 b2bd 8078 553e
00000120: 72f4 e83d 8287 c8bd f2af f7bd
-0.28763852 0.30625144 0.05123291 0.02646561 -0.1647401 -0.13745277 0.19344538 0.14851816
0.02113914 -0.34221095 0.45183864 -0.2829699 0.33887428 -0.14107406 -0.2955489 -0.24724768
0.29074934 0.19905226 0.013727305 0.372851 -0.16258876 -0.33144778 -0.22284435 0.083226934
0.10359363 0.073706456 0.3649016 -0.32430744 -0.084519275 0.28376734 0.49114627 0.52657187
0.2997062 -0.1501122 -0.30272597 -0.079150125 -0.006487052 0.2645555 -0.13764133 0.16044676
0.23791125 0.04958776 0.22088121 -0.24983583 -0.13724662 -0.22583903 -0.26434368 -0.3344917
0.35516313 0.19945432 0.2616839 0.22330377 -0.45673123 -0.055353027 -0.2901622 0.19566232
-0.11568982 0.3492625 -0.14130884 -0.06080956 0.50325066 0.069410875 0.4048923 0.1583071
0.119415745 0.013101304 0.07210998 0.21143217 0.31822398 0.099630594 -0.08700872 0.20846748
0.11374749 -0.09791471 -0.12094106

grapher.2.gru.weight_hh f4 [15, 5]
00000000: 2255 073e 5cb0 a33e de67 3f3e d0ab 833e
00000010: be40 3cbe 37fd 87be 46d8 663d 27ea 93bd
00000020: 8178 513e d0e1 d53d 437e ba3e e359 a33e
00000030: f391 a33e 6b24 6bbc 65df 603d 7001 873e
00000040: 0a39 a8be 453a bd3d 61af 22be 3b35 fa3d
00000050: 88c0 b4be 46f7 453e 92fa 41be 5c67 5c3e
00000060: d51f 48be 5947 703b 2e26 b13d 2c9e 86bd
00000070: 001a 73be d302 163d ed9e 02be e2f7 3fbe
00000080: b847 6f3d 9b74 8d3e e61c f53e fa8b 0b3c
00000090: f480 3ebe c72e 80be 4510 32be 545d ddbb
000000a0: 82c0 c53e 27d6 0a3c fede 8abc 8923 6cbe
000000b0: 8bc4 0dbf 740a 7cbe 9eff ad3e f1d5 ad3e
000000c0: bbcd 89be 41b3 633e b30e 18be eaed bd3e
000000d0: d5d7 a3be 8934 293e f213 8bbd 0e0b acbe
000000e0: f128 2dbd 5c0b 93be e377 923e 949b c33e
000000f0: 0a9a 4bbe f6f2 c03e cc7b cebe d02e 193d
00000100: aeb3 5a3e 65fc 4dbc 38d2 993c fe37 2a3e
00000110: a909 6ebe 69cd 78be d5d5 743d 1399 483e
00000120: 7f6d dc3e 0a40 a8bd 72fc 8e3e
0.1321607 0.3197049 0.18691966 0.2571702 -0.18384072 -0.26560375 0.0563586 -0.072223954
0.20456125 0.10443461 0.36424455 0.31904516 0.31947288 -0.014351944 0.054900546 0.26368284
-0.32856017 0.0923963 -0.15887214 0.12217184 -0.3530314 0.19332609 -0.18943241 0.21523803
-0.19543393 0.003666362 0.0864986 -0.06573138 -0.23740387 0.036623787 -0.12755938 -0.18746904
0.058418006 0.27628025 0.4787361 0.00851726 -0.18603879 -0.25035688 -0.17389019 -0.0067555103
0.38623434 0.008473909 -0.016952034 -0.2306043 -0.55378026 -0.24613363 0.33984083 0.33952287
-0.26914772 0.22236349 -0.14849357 0.37095577 -0.32000604 0.16523947 -0.06790914 -0.33602184
-0.042275373 -0.28719604 0.2860709 0.38204634 -0.1988298 0.37685364 -0.40328825 0.03739816
0.21357605 -0.012572383 0.018776998 0.16622922 -0.23245873 -0.24297108 0.05977424 0.19589643
0.4305229 -0.082153395 0.27926975

grapher.2.gru.bias_ih f4 [15]
00000000: 83e4 97be 816e d83d 8e22 9abe f22d e1be
00000010: becd 823e 5056 9dbc 391e c73c 2148 233e
00000020: 3fdc 0cba 2efb 3fbd 176b 72be 6be9 b63e
00000030: 5dcd 80be 5bde 963d d651 933e
-0.29666528 0.10567952 -0.30104488 -0.43980366 0.25547594 -0.019206196 0.024306403 0.15945484
-0.00053733954 -0.046870403 -0.23673664 0.3572496 -0.2515668 0.0736663 0.28773373

grapher.2.gru.bias_hh f4 [15]
00000000: 3290 90be d0af 89be dd27 2d3d aea3 f23d
00000010: ac1c f4be 9972 79be e32a 6c3e 191d 063e
00000020: 01e3 ca3d e248 473e c44f 0ebe 95ad c33d
00000030: 5b6d 3bbe c1d3 ce3e 167b aabe
-0.28235012 -0.26891947 0.042274345 0.11847626 -0.47678125 -0.24360122 0.23063235 0.13097037
0.09906579 0.19461396 -0.13897616 0.095545925 -0.18303435 0.4039593 -0.33297032

grapher.2.gru.ln_resetgate.weight f4 [5]
00000000: 55ec 383f f88d 6c3f 0bcf 603f 19ea 6d3f
00000010: 4a18 383f
0.72235614 0.9240413 0.8781592 0.9293533 0.7191206

grapher.2.gru.ln_resetgate.bias f4 [5]
00000000: 5915 463c f8a5 563e 9ee7 313e d399 023a
00000010: a03f 76bd
0.012090051 0.2096175 0.17373511 0.0004982028 -0.06011927

grapher.2.gru.ln_inputgate.weight f4 [5]
00000000: 6a25 883f 1886 983f 8f23 633f c12f 7b3f
00000010: acd3 4a3f
1.0636418 1.1915922 0.88726133 0.9811974 0.79229236

grapher.2.gru.ln_inputgate.bias f4 [5]
00000000: 9189 3bbe e6c1 6c3e 95fe f6bc cee7 ddbb
00000010: 33ae 763c
-0.18314196 0.23120841 -0.030150691 -0.006772018 0.015056181

grapher.2.gru.ln_newgate.weight f4 [5]
00000000: 3d97 833f 5ffc 423f 132c 6c3f 9888 693f
00000010: a1c0 543f
1.0280529 0.7616634 0.9225475 0.9122405 0.8310643

grapher.2.gru.ln_newgate.bias f4 [5]
00000000: 3f25 8ebd 0ded 70be 2fa3 bab9 74d7 b0bd
00000010: ad80 843b
-0.06940698 -0.23527928 -0.00035598266 -0.086348444 0.0040436597
