scheduler/BaGTI/checkpoints/energy_latencyCNN_4_Trained_V3_Tested.ckpt (torch, 782543 bytes, 36 tensors)

find.0.weight f4 [10, 1, 6, 6]
0	0x3db73e75	0.089474596
1	0xbe16750b	-0.14693086
2	0xbe366cbe	-0.1781492
3	0x3ddddee0	0.10833526
4	0x3a4df629	0.000785681
5	0xbe107b72	-0.1410959
6	0x3dc4fef8	0.09618944
7	0xbb9484fd	-0.004532455
8	0xbd677411	-0.056507174
9	0xbe089a51	-0.13340117
10	0xbda0322a	-0.07822068
11	0xbe959b2c	-0.2921995
12	0xbd1b80c2	-0.03796459
13	0xbe5a94f7	-0.21345888
14	0x3dd6effc	0.10494992
15	0x3db0e971	0.086382754
16	0xbd60c78b	-0.0548778
17	0xbea8a337	-0.32937023
18	0x3e2ae85b	0.16690199
19	0x3e85e677	0.26152393
20	0xbeab86a7	-0.3350117
21	0x3c20db83	0.009817961
22	0x3da7e618	0.08198184
23	0xbdb2ab4c	-0.087240785
24	0x3e43d02c	0.1912238
25	0xbd47575f	-0.048667308
26	0xbc826fd1	-0.015922459
27	0x3e07f7d2	0.1327813
28	0x3db12056	0.08648746
29	0xbdb5d858	-0.08879155
30	0xbe53a26e	-0.20667431
31	0x3da7c471	0.08191765
32	0x3d82031b	0.063482486
33	0x3d70ce0f	0.058790263
34	0xbc81fbb7	-0.015867097
35	0x3de17e17	0.11010378
36	0xbdc479dc	-0.09593555
37	0xbd16ce65	-0.036817927
38	0x3c03ca50	0.0080438405
39	0xbdf4226a	-0.119206265
40	0xbe441c39	-0.19151391
41	0xbd0b8141	-0.034058813
42	0xbe11e4be	-0.14247414
43	0x3e5a858b	0.21340005
44	0x3e81606b	0.25268874
45	0xbe0a6921	-0.13516666
46	0x3dab4e41	0.08364535
47	0xbe09f8a5	-0.13473757
48	0xbdc70ecb	-0.097196184
49	0xbd0b70c3	-0.034043085
50	0xbe82cc75	-0.25546613
51	0x3d2866bf	0.04111361
52	0x3e09be63	0.13451533
53	0x3d2f8e04	0.042860046
54	0xbdd81cb5	-0.105523504
55	0x3d1eae8a	0.038740672
56	0x3de3ea2a	0.111286476
57	0xbe835e9c	-0.2565812
58	0xbd8239a5	-0.06358651
59	0xbe12b1be	-0.14325616
60	0x3d90fb52	0.070791855
61	0xbd8221c5	-0.06354097
62	0xbe2ac15d	-0.16675325
63	0x3cec3a0b	0.02883627
64	0xbe911913	-0.28339443
65	0xbead6a1e	-0.33870023
66	0xbe58ada5	-0.2115999
67	0x3d3ccf98	0.046096414
68	0x3dd72706	0.1050549
69	0x3c79b187	0.01524008
70	0xbe51d3f0	-0.20491004
71	0xbcba53ed	-0.022745097
72	0xbeda090b	-0.42585024
73	0xbe9a6062	-0.3015166
74	0xbe051b26	-0.12998638
75	0xbe5bcc7a	-0.2146472
76	0xbe1cde7b	-0.15319245
77	0xbce05c6a	-0.027387816
78	0xbe372b5d	-0.17887636
79	0xbe743916	-0.23849902
80	0x3e20cd8f	0.15703414
81	0xbe4e1f8c	-0.20129222
82	0x3e97b5bf	0.2963085
83	0x3d9d0ecb	0.07668837
84	0x3c0fbe67	0.008773423
85	0xbedb0ec5	-0.42784706
86	0x3c766909	0.015039691
87	0x3b9e0c4a	0.0048232423
88	0xbdba438d	-0.090949155
89	0x3dce43ee	0.1007155
90	0x3e46a758	0.19399774
91	0xbc6c43d0	-0.014420465
92	0xbe854c3f	-0.26034734
93	0xbe13307a	-0.14373961
94	0xbe346718	-0.17617452
95	0xbe2229de	-0.15836284
96	0x3df4ed67	0.119593434
97	0xbeb72833	-0.35772857
98	0x3e77aeb7	0.24187742
99	0xbbc18b37	-0.0059064883
100	0xbc3875d5	-0.011258562
101	0x3daa3170	0.08310211
102	0xbe7e46dd	-0.2483172
103	0x3e074959	0.13211574
104	0x3e83db36	0.25753182
105	0xbd230beb	-0.039806288
106	0xbdd00374	-0.10156909
107	0xbe7a2296	-0.24427256
108	0xbe8f134e	-0.27944416
109	0x3e1338f8	0.143772
110	0xbe01ae42	-0.1266413
111	0x3d8b82e1	0.068120725
112	0x3d1a67b6	0.037696563
113	0x3d915aaf	0.07097375
114	0xbd754df7	-0.059888806
115	0xbe2757b8	-0.16342056
116	0xbe4b3fe9	-0.19848599
117	0xbc932b33	-0.017964935
118	0xbe1795c3	-0.14803223
119	0xbec8ff6d	-0.39257374
120	0x3d60c180	0.054872036
121	0x3b79c9b7	0.0038114616
122	0xbe2ea995	-0.17056878
123	0xbd45e904	-0.048317924
124	0xbe9e9217	-0.30970833
125	0xbd35887a	-0.044319607
126	0x3e45b435	0.19307025
127	0xbce4eb0c	-0.02794411
128	0xbe7be200	-0.24597931
129	0xbe29a8a6	-0.1656824
130	0xbe693035	-0.22772296
131	0xbdc068e7	-0.093950085
132	0xbe75bba1	-0.23997356
133	0xbe2f6d39	-0.17131509
134	0x3ea7168d	0.32634392
135	0xbe149e31	-0.1451347
136	0x3d2a50d5	0.041580994
137	0xbe1ad15a	-0.15118924
138	0xbe2eb11d	-0.17059751
139	0xbdbb7cba	-0.09154649
140	0xbdcefb1e	-0.101064906
141	0x3beab965	0.007163214
142	0x3e2f62b9	0.17127503
143	0x3e2bb219	0.16767158
144	0x3d8e7a56	0.069569275
145	0x3c4dcd1e	0.012561111
146	0x3d897c1b	0.06713124
147	0xbe13fdfb	-0.14452355
148	0x3c739b75	0.014868607
149	0xbeb2685a	-0.3484524
150	0xbe6d357c	-0.23164934
151	0x3df1826d	0.11792455
152	0xbe27221d	-0.16321607
153	0xbe986e65	-0.29771724
154	0x3c675cd3	0.014121252
155	0xbd2f7c96	-0.042843424
156	0xbe4853be	-0.19563195
157	0x3dffda14	0.12492767
158	0x3e2f2892	0.1710532
159	0xbc1d920c	-0.00961734
160	0xbcff9085	-0.031196842
161	0xbeaccad5	-0.337485
162	0x3e121039	0.14264001
163	0xbddd9a53	-0.10820451
164	0xbdf73fb1	-0.12072695
165	0xbe834f35	-0.25646368
166	0xbdd536fc	-0.10410878
167	0x3e954df4	0.29161036
168	0xbd271424	-0.040790692
169	0xbdce327a	-0.100682214
170	0x3ddff2c2	0.10934974
171	0xbd0ab0cf	-0.033860024
172	0x3d0b7ec0	0.034056425
173	0x3cb1f346	0.021722447
174	0x3d3d3ab6	0.04619857
175	0xbdbe5f24	-0.092954904
176	0xbe8b434e	-0.27199787
177	0x3cdf6070	0.027267665
178	0x3e8d00bd	0.27539626
179	0xbd331dc9	-0.043729577
180	0xbbab13b5	-0.005220855
181	0xbe652598	-0.22377622
182	0xbe5a27fb	-0.21304314
183	0xbc359613	-0.011083144
184	0x3e12a5dd	0.14321084
185	0xbe2860fd	-0.16443248
186	0xbe02708e	-0.12738249
187	0x3c430e54	0.011905272
188	0xbd15124c	-0.036394402
189	0x3e1177c5	0.14205845
190	0x3d92eac4	0.07173684
191	0xbe165815	-0.14682038
192	0x3e2c8089	0.16845907
193	0xbd9a16d0	-0.075238824
194	0x3e3bb74c	0.18331641
195	0x3e55d942	0.20883659
196	0xbda72866	-0.08162002
197	0xbdca2462	-0.09870221
198	0xbe90ccdc	-0.28281295
199	0xbe14a39b	-0.14515536
200	0x3de6632c	0.11249384
201	0x3d92ae3a	0.07162137
202	0x3e2223d2	0.15833977
203	0x3d1a2fa0	0.037643075
204	0xbe4fc36f	-0.20289396
205	0x3c4f6b66	0.012659883
206	0xbe45fc32	-0.19334486
207	0x3d81c1eb	0.06335815
208	0xbd9f4fb7	-0.07778876
209	0xbcee981c	-0.029125266
210	0xbdbeda28	-0.09318954
211	0xbd80d8bb	-0.06291338
212	0xbe811e63	-0.25218496
213	0x3e5a15f5	0.21297438
214	0xbe0403d5	-0.12892087
215	0xbe282861	-0.16421653
216	0xbe7198b6	-0.23593411
217	0xbe665981	-0.2249508
218	0xbd89d1ed	-0.06729493
219	0xbe1cfa49	-0.15329851
220	0x3d2d6062	0.042328246
221	0x3d86e3d4	0.065864235
222	0xbd9b4fa5	-0.0758355
223	0xbec6ab99	-0.38802794
224	0x3e92a895	0.28644243
225	0xbdd10bbf	-0.102073185
226	0x3e23656c	0.15956658
227	0xbbfaf443	-0.007658513
228	0xbe135990	-0.14389634
229	0x3e1fe42b	0.15614383
230	0xbda352f5	-0.07974807
231	0x3e155397	0.14582668
232	0x3e4133e2	0.18867448
233	0x3d5f86c4	0.054571882
234	0xbc7461df	-0.014915912
235	0xbdc9403a	-0.09826703
236	0xbe0980a2	-0.13427976
237	0xbe9c349c	-0.30508888
238	0x3c82687b	0.01591896
239	0x3e0811ea	0.13288084
240	0xbdbee955	-0.09321848
241	0x3db04adb	0.086080275
242	0xbe9d7ccf	-0.30759284
243	0xbbfe6904	-0.0077639837
244	0xbe5a9570	-0.21346068
245	0xbe0db902	-0.13840106
246	0xbeae0bb0	-0.33993292
247	0x3d670e1a	0.056409933
248	0x3e6bd8e9	0.23031963
249	0x3e49ff9c	0.19726413
250	0xbd2d5a4a	-0.042322434
251	0x3e712734	0.23550111
252	0x3dba7a6f	0.091053836
253	0xbe1ec048	-0.15503037
254	0xbd0e08b4	-0.03467627
255	0xbd559dbc	-0.05215238

find.0.bias f4 [10]
0	0xbe0d98aa	-0.13827768
1	0xb7c580c0	-2.3544184e-05
2	0xbbd5d4cd	-0.006525612
3	0x3c59cea6	0.013293898
4	0x3d9a65aa	0.07538922
5	0x3dde4cf6	0.10854523
6	0x3e172d86	0.1476346
7	0xbe304aec	-0.1721608
8	0xbcbd9456	-0.023142021
9	0xbe0759f2	-0.13217905

find.2.weight f4 [20, 10, 5, 5]
0	0xbeb27a20	-0.348588
1	0xbd4b93fa	-0.04970167
2	0xbe21e100	-0.15808487
3	0xbcfca329	-0.03083952
4	0x3cb1076b	0.021609982
5	0x3e1cee7c	0.1532535
6	0xbd4f1e34	-0.050565913
7	0xbe54a8d8	-0.20767534
8	0xbda3d0c1	-0.07998801
9	0xbdcdfeaf	-0.10058343
10	0x3e1cec5d	0.1532454
11	0x3e280295	0.16407235
12	0xbd9a30ae	-0.07528816
13	0xbdf34cd3	-0.118798874
14	0x3de298cb	0.11064299
15	0xbd94e193	-0.07269587
16	0xbdc06993	-0.09395137
17	0x3d9a20bf	0.07525777
18	0xbd896d23	-0.06710269
19	0x3d80bf27	0.062864594
20	0x3cded739	0.027202236
21	0x3cbcaff9	0.023033129
22	0xbd9a3608	-0.07529837
23	0xbe2eba08	-0.17063153
24	0x3ab2fd20	0.0013655759
25	0x3cb2f172	0.021843646
26	0xbd18e877	-0.03733107
27	0x3d2129b2	0.039346404
28	0xbd8463ef	-0.06464373
29	0xbe09d750	-0.13461041
30	0xbd902232	-0.07037772
31	0xbca29de5	-0.01985068
32	0xbea2076f	-0.31646296
33	0x3dc5f659	0.09666128
34	0x3bc92a3c	0.006139068
35	0xbd30f0ff	-0.04319858
36	0xbd95811d	-0.07300017
37	0xbb8b977a	-0.004260001
38	0xbdd31b8c	-0.103079885
39	0xbeab3729	-0.3344052
40	0xbcba0b53	-0.022710478
41	0xbd3a4c40	-0.045482874
42	0xbd9fa732	-0.07795562
43	0xbd1410ed	-0.036148954
44	0xbeb45602	-0.3522187
45	0x3d7f284c	0.06229429
46	0x3dfbdbf3	0.12297811
47	0x3e48ea08	0.19620526
48	0x3e181e84	0.14855391
49	0x3e3907a0	0.18069315
50	0xbd969e33	-0.07354393
51	0xbe5f0e1b	-0.21782725
52	0x3b9b1be4	0.0047335494
53	0xbd952ee6	-0.07284336
54	0x3cef3de3	0.029204315
55	0x3e23c7f5	0.15994246
56	0x3de69b6c	0.11260113
57	0x3a5f67ad	0.0008522224
58	0xbeabae3d	-0.3353137
59	0xbe4f06fb	-0.20217507
60	0xbd369951	-0.044579808
61	0x3c07b274	0.008282293
62	0xbde9b487	-0.11411386
63	0xbdacd6f9	-0.0843944
64	0x3d526d50	0.05137378
65	0xbddeb894	-0.10875049
66	0xbccb32cd	-0.024804497
67	0x3e139d60	0.14415503
68	0xbcba8326	-0.022767615
69	0xbee3a083	-0.44458398
70	0x3e3d8fe9	0.18511929
71	0x3b4f18ca	0.0031600469
72	0x3dfbb7ca	0.12290914
73	0xbdeec03f	-0.11657762
74	0xbbbc550b	-0.0057474426
75	0xbe440ebe	-0.19146249
76	0xbe819da3	-0.2531558
77	0xbdcd7ccc	-0.10033569
78	0x3d39e3c1	0.04538322
79	0x3cc3d68c	0.023906015
80	0x3e40c9c4	0.18826967
81	0x3e8a1a9a	0.2697342
82	0x3e8f108f	0.2794232
83	0xbe4ac006	-0.19799814
84	0xbe3025ff	-0.17201994
85	0xbde707fe	-0.11280821
86	0xbd57fc4d	-0.052730847
87	0xbe3e7df3	-0.18602733
88	0xbd3ed280	-0.046587467
89	0x3c074bdd	0.008257833
90	0x3d6f06bc	0.05835603
91	0x3c45e8f9	0.012079471
92	0x3dabb024	0.083832055
93	0xbb3a955c	-0.0028470373
94	0xbdb9b09e	-0.0906689
95	0xbd1fec50	-0.039043725
96	0x3d3c898b	0.04602961
97	0x3e4aed93	0.1981719
98	0xbc806e88	-0.015677705
99	0xbdd7c888	-0.10536295
100	0xbe548483	-0.20753674
101	0xbe262b2c	-0.16227406
102	0xbde360ca	-0.111024454
103	0x3d1ab9f2	0.037774988
104	0xbc32821d	-0.010895279
105	0xbe7f6515	-0.24940903
106	0x3de53b82	0.11192991
107	0x3cca2762	0.024676982
108	0xbe901bab	-0.2814611
109	0x3e11e34a	0.1424686
110	0x3dfbcd4c	0.12295017
111	0xbdd3715b	-0.10324355
112	0xbe07d117	-0.13263355
113	0xbcaadc80	-0.020857096
114	0xbddd12c2	-0.107945934
115	0xbcbba457	-0.022905512
116	0xbd444624	-0.047918454
117	0xbd94c7b9	-0.072646566
118	0x3e48d95a	0.19614163
119	0x3c8988c8	0.016788855
120	0x3da88c9b	0.08229943
121	0x3cfae747	0.03062786
122	0x3d1eb2e6	0.03874483
123	0xba9091a9	-0.0011029738
124	0x3d9c7451	0.07639373
125	0xbe71c9ac	-0.23612088
126	0xbe4b79c9	-0.19870676
127	0xbe1b92c0	-0.151927
128	0xbe26cde6	-0.16289482
129	0xbe2329c1	-0.15933897
130	0x3d9ef79e	0.07762073
131	0x3df217f1	0.11820973
132	0x3dc2a63b	0.09504362
133	0x3dd6d608	0.10490042
134	0xbbf2defa	-0.007411835
135	0x3d073815	0.03301247
136	0x3d0323ee	0.032016687
137	0x3da1074d	0.07862721
138	0xbd3f268a	-0.046667613
139	0xbd9e15ca	-0.07719
140	0xbd10e3f4	-0.035373643
141	0x3e04a28f	0.12952636
142	0x3b7c0c06	0.0038459315
143	0x3bc16cd8	0.0059028678
144	0x3d2a7baa	0.04162184
145	0x3d14b56e	0.036305837
146	0xbd305f98	-0.043059915
147	0x3db3b1db	0.087741576
148	0x3c9dd07c	0.019264452
149	0x3defc2bc	0.117070645
150	0xbeb93829	-0.3617566
151	0xbe2bb28b	-0.16767327
152	0xbe521404	-0.20515448
153	0x3d931d86	0.071833655
154	0x3c79ca55	0.015245994
155	0x3e169963	0.1470695
156	0x3d706f0f	0.058699664
157	0x3d9d639c	0.076850146
158	0x3e22d43c	0.15901273
159	0xbd18c607	-0.03729823
160	0xbde95a48	-0.11394173
161	0xbcef9b87	-0.029248966
162	0xbde086bf	-0.10963201
163	0xbd5adb4d	-0.053431798
164	0xbe1de77c	-0.15420336
165	0xbb42a496	-0.0029700152
166	0xbcfc42f4	-0.030793644
167	0x3dbb1bdc	0.09136173
168	0x3e229c00	0.15879822
169	0x3dae921a	0.085239604
170	0x3b23d7e6	0.0025000512
171	0x3d2ada50	0.041712105
172	0x3e4509b6	0.19241986
173	0xbeb0046e	-0.3437838
174	0xbd8334ad	-0.064065315
175	0xbe7653f6	-0.24055466
176	0xbe59b3e4	-0.21260029
177	0xbe39d129	-0.18146195
178	0xbd4a4426	-0.049381398
179	0x3d3988e4	0.045296565
180	0xbe1643b0	-0.14674258
181	0xbdf5ccb1	-0.120019324
182	0xbd5b50af	-0.053543743
183	0x3de0c5c2	0.10975219
184	0xbd9a1081	-0.07522679
185	0xbe255240	-0.16144657
186	0x3d953eb5	0.07287351
187	0xbd98b77f	-0.07456874
188	0xbe058f3e	-0.13042924
189	0x3bf0e076	0.0073509766
190	0x3cce50da	0.025185037
191	0x3bec12fe	0.0072044125
192	0xbce1ed82	-0.027579073
193	0x3e63f8ea	0.22262922
194	0xbe0cdb45	-0.1375552
195	0xbcec260c	-0.028826736
196	0xbe88de7e	-0.26732248
197	0x3ddbf4b2	0.10740031
198	0xbd815529	-0.06315071
199	0xbd7f5627	-0.06233802
200	0x3dad1d61	0.08452869
201	0xbe261cbb	-0.16221897
202	0xbca5722a	-0.02019604
203	0xbe254fdf	-0.1614375
204	0xbc8ed598	-0.017435834
205	0xbe9a777c	-0.30169284
206	0xbd9c1a1a	-0.07622166
207	0x3cc8a865	0.02449436
208	0xbe0dd4fa	-0.13850775
209	0xbd84dc0c	-0.06487283
210	0x3e7e76c1	0.24849989
211	0x3d8c6bd7	0.06856506
212	0xbc9f5e6d	-0.019454205
213	0xbeb640f9	-0.35596445
214	0xbded981b	-0.116012774
215	0xbe6e6509	-0.2328073
216	0xbe3061bd	-0.17224784
217	0x3dafc647	0.0858274
218	0x3e2ed8c6	0.1707488
219	0x3c993c31	0.01870546
220	0x3dc50aba	0.096211866
221	0x3def7f43	0.11694195
222	0xbddd93f5	-0.10819236
223	0xbdabd0b1	-0.08389414
224	0x3dcfa9bf	0.101397984
225	0x3df3d71a	0.11906262
226	0x3d2d30e8	0.04228297
227	0x3d155e69	0.03646699
228	0xbe80f070	-0.2518344
229	0xbdeb32a2	-0.11484267
230	0xbe9e82c1	-0.30959132
231	0xbe16cae6	-0.14725837
232	0xbe199ccb	-0.15001218
233	0xbea5f519	-0.32413557
234	0xbe8c34d8	-0.27384067
235	0x3e032dd0	0.12810445
236	0x3e117c29	0.1420752
237	0x3df63032	0.12020911
238	0x3b1d5972	0.0024009612
239	0xbd0a4f7e	-0.033767216
240	0xbd117ce3	-0.035519492
241	0xbe23c15d	-0.15991731
242	0xbd1fbd23	-0.038998734
243	0x3d2d6587	0.042333152
244	0xbe57f83f	-0.21090792
245	0xbd584a76	-0.052805386
246	0x3cc5c449	0.024141448
247	0x3defbe16	0.11706178
248	0xbd4b30bf	-0.049607035
249	0xbe9b2bbf	-0.30306813
250	0xaa456e48	-1.7535376e-13
251	0xa2c89be1	-5.437515e-18
252	0xae0fbd5f	-3.268263e-11
253	0xb2c5f2b2	-2.3044183e-08
254	0xa410e622	-3.1419953e-17
255	0x366ff2d4	3.575512e-06

find.2.bias f4 [20]
0	0x3db0752e	0.086161
1	0xbcae4bfd	-0.021276468
2	0x3dc30717	0.09522837
3	0xbd52e391	-0.051486555
4	0x3cbf8930	0.023380846
5	0xbbc1f2a5	-0.005918818
6	0xbde648bb	-0.11244341
7	0xb791a2da	-1.736118e-05
8	0x3d9352a8	0.071935
9	0x3d096b51	0.03354961
10	0x3d2f7033	0.04283161
11	0xbd866e19	-0.06563968
12	0xbc5d5410	-0.013508812
13	0x3e010947	0.12601195
14	0x3e523711	0.20528819
15	0xbb861f95	-0.0040931203
16	0xbd8dac43	-0.06917622
17	0x3dc85441	0.09781695
18	0xbe18b640	-0.14913273
19	0x3d7f8363	0.06238116

find.4.weight f4 [30, 20, 4, 4]
0	0xbc07068d	-0.008241308
1	0xbc851d63	-0.016249364
2	0xbcf767ce	-0.030200865
3	0xbcac4b1e	-0.021031912
4	0xbd0c316e	-0.034226827
5	0xbcf84307	-0.030305399
6	0xbceea622	-0.029131953
7	0xbc4ed1c2	-0.012623252
8	0xbd6e8e74	-0.058241323
9	0xbd4d4110	-0.050110877
10	0xbd0c9ebf	-0.03433108
11	0xbce5db84	-0.028058775
12	0xbd017fce	-0.031616025
13	0xbcd25887	-0.025676979
14	0x3a39cab7	0.0007087397
15	0xbbb35aea	-0.0054734843
16	0x8fa9f87e	-1.6760402e-29
17	0x29da9762	9.7074055e-14
18	0xacf9f3fa	-7.1040925e-12
19	0x98711d6a	-3.116337e-24
20	0x0e082201	1.6779667e-30
21	0x0d8c5bdb	8.65028e-31
22	0x114dd10a	1.6236064e-28
23	0x0e996824	3.7817696e-30
24	0x805bacd8	-8.419035e-39
25	0x0efc3794	6.2176316e-30
26	0x0e6a6e3a	2.8895799e-30
27	0x112ca067	1.3617835e-28
28	0x8f81ab56	-1.2786378e-29
29	0x8ef0bdc0	-5.934729e-30
30	0x8f852a7a	-1.3131174e-29
31	0x8ef6236a	-6.0677785e-30
32	0xbc290646	-0.010316437
33	0xbca52dcc	-0.02016344
34	0xbcb9fa99	-0.022702502
35	0xbc743d87	-0.014907247
36	0xbc863e3b	-0.016387096
37	0xbc8e2545	-0.017351756
38	0xbc9634cc	-0.018335722
39	0xbc3b65d8	-0.011437856
40	0xbc28b1dc	-0.010296311
41	0xbcbf9516	-0.02338652
42	0xbd152c0c	-0.03641896
43	0xbd057ce2	-0.0325898
44	0x3c9cc3c3	0.019136315
45	0x3c03e7eb	0.008050899
46	0x3c6ccf32	0.014453696
47	0xbcf5c4d4	-0.030001082
48	0xbd36d7d8	-0.04463944
49	0xbcda17e4	-0.02662272
50	0xbc66c2de	-0.014084546
51	0x3cc07a09	0.02349569
52	0xbd69eecb	-0.057112496
53	0xbd56eb0d	-0.052470256
54	0xbc4a1640	-0.012334406
55	0xbc379684	-0.011205319
56	0xbd39d4ff	-0.045369145
57	0xbcb08a61	-0.02155036
58	0x3b03420e	0.0020028385
59	0x3b025c27	0.0019891353
60	0xbd04cc6c	-0.032421514
61	0xbd0138d0	-0.03154832
62	0x3cf8ffd1	0.03039542
63	0x3c8ce3e4	0.01719851
64	0x3c1330d4	0.0089838095
65	0xbc7749ec	-0.015093308
66	0xbb876d21	-0.004132882
67	0x3b5a9816	0.003335481
68	0x3c84a8c1	0.01619375
69	0xbba1007f	-0.004913389
70	0x3b40bb41	0.0029408487
71	0x3c10dcf5	0.008841743
72	0x3a359c65	0.00069279067
73	0xbcfd2821	-0.030902924
74	0xbc85f382	-0.016351465
75	0x3cb8252b	0.02247866
76	0xbc6a1ab0	-0.014288589
77	0xbced31eb	-0.028954467
78	0x3c8b4414	0.017000236
79	0x3c623be1	0.013808222
80	0x80a4ba38	-1.5127824e-38
81	0x817254ce	-4.4509225e-38
82	0x009cc394	1.4396498e-38
83	0x00ead0d1	2.1564415e-38
84	0x008a1fe9	1.2684746e-38
85	0x004ac9bb	6.868194e-39
86	0x0037c293	5.120752e-39
87	0x81483944	-3.6775285e-38
88	0x019d6e1f	5.783071e-38
89	0x803e9aef	-5.74938e-39
90	0x802e90f5	-4.276434e-39
91	0x012006f6	2.9392353e-38
92	0x01131a34	2.7018436e-38
93	0x811c7c45	-2.8741834e-38
94	0x013708e6	3.3618176e-38
95	0x819b135c	-5.6965787e-38
96	0x3c2a44ba	0.010392362
97	0xbc65639e	-0.014000801
98	0x3bf93fbd	0.007606475
99	0xbc30650d	-0.01076628
100	0x3c1679bb	0.009184296
101	0x3bf6bcbc	0.007529823
102	0xba4765b6	-0.00076064037
103	0x3cb9ff24	0.022704668
104	0x3c181635	0.009282638
105	0x3c750052	0.01495369
106	0x3cf49dd8	0.029860422
107	0x3b18ae9d	0.0023297437
108	0xbbdd0346	-0.006744775
109	0xbc9683a1	-0.018373312
110	0xbbdbec07	-0.0067114863
111	0xbc2e9a22	-0.010656865
112	0x8146ef20	-3.653842e-38
113	0x802d8a29	-4.18216e-39
114	0x80ab633d	-1.573947e-38
115	0x806d4596	-1.0035032e-38
116	0x002e657d	4.26084e-39
117	0x80aee760	-1.6062378e-38
118	0x80d0960f	-1.9155614e-38
119	0x006616df	9.375425e-39
120	0x800e6cba	-1.3247e-39
121	0x80650892	-9.27846e-39
122	0x0096ed6f	1.38605e-38
123	0x80381c2e	-5.152897e-39
124	0x812bcae3	-3.1553304e-38
125	0x8021e190	-3.111488e-39
126	0x0063ebb7	9.176273e-39
127	0x80a4d05b	-1.5135765e-38
128	0xbd302ca2	-0.043011315
129	0xbd1e692d	-0.038674522
130	0xbd48067e	-0.048834316
131	0xbca1b470	-0.01973936
132	0xbc88c7a2	-0.016696755
133	0xbca386ad	-0.01996168
134	0xbc91a319	-0.017777966
135	0x3b307d54	0.002693017
136	0xbd0ed54e	-0.034871392
137	0xbcbb4edb	-0.02286475
138	0xbd3066cc	-0.043066785
139	0xbcdb423d	-0.026764983
140	0xbc3f59b7	-0.0116791045
141	0xbc146254	-0.009056646
142	0x3aae32c4	0.0013290276
143	0xbd03367c	-0.032034382
144	0x3cf768b1	0.030201288
145	0x3cfe3289	0.031029956
146	0x3bd5880f	0.0065164636
147	0x3bdd071f	0.0067452337
148	0xbc4eaf5d	-0.012615052
149	0xbaa46cbb	-0.0012544611
150	0xbb85565d	-0.004069133
151	0x3ab0bb9e	0.0013483649
152	0x3b826b0c	0.003980046
153	0x3ba38781	0.0049905186
154	0xbb705fa7	-0.0036678107
155	0xbc109c95	-0.008826395
156	0x3c43003d	0.011901912
157	0x3cdba7a2	0.026813332
158	0xbbbbdc8d	-0.005733079
159	0x3bbc432e	0.005745313
160	0xbcd90db0	-0.026495785
161	0xbd2164ac	-0.03940265
162	0xbc534da9	-0.012896934
163	0xbcc65403	-0.024209982
164	0xbc7c44ec	-0.015397292
165	0xbd1bd5cf	-0.0380457
166	0xbd330e6b	-0.043714922
167	0xbd1ad359	-0.037799213
168	0x3c4459ef	0.011984332
169	0x3be214cf	0.0068994532
170	0x3cbec109	0.023285406
171	0xbbb7bdac	-0.0056073274
172	0xbce876aa	-0.028376896
173	0xbd250d64	-0.040295973
174	0xbd0a2476	-0.033726178
175	0xbd3076fe	-0.04308223
176	0x3b87c253	0.0041430383
177	0xbc656a3c	-0.014002379
178	0xbd0cead1	-0.034403626
179	0xbd8071a9	-0.06271679
180	0xbcea6407	-0.02861215
181	0xbcefb528	-0.029261187
182	0xbd6e3a8a	-0.058161296
183	0xbcc82c7b	-0.024435272
184	0xbcabb9b1	-0.020962568
185	0xbbd5592b	-0.006510874
186	0xbc8dcde0	-0.017310083
187	0x3b5d5443	0.0033772148
188	0xbcb9fc8f	-0.022703437
189	0xbc8178dd	-0.015804702
190	0xbcd025d2	-0.02540866
191	0xbaccd8df	-0.0015628597
192	0x3bf76e9f	0.007551029
193	0x3b805171	0.0039159586
194	0x3bbe4513	0.005806574
195	0x3b266680	0.0025390685
196	0x3c61f07c	0.013790246
197	0x3ce19377	0.027536137
198	0xb9b0ad35	-0.00033698385
199	0x3c16a285	0.009194021
200	0x3b8a91e4	0.0042288173
201	0xbc612d1e	-0.013743667
202	0xbc03afa0	-0.008037478
203	0x399cf3a7	0.00029936174
204	0x3c8aede0	0.01695913
205	0xbb82d231	-0.003992342
206	0xbcefae1a	-0.029257823
207	0xbc7d47cf	-0.015459015
208	0xbd216819	-0.039405916
209	0xbb8c1155	-0.004274527
210	0x3cac4387	0.021028293
211	0x3cd82704	0.026385792
212	0xbd1fbffd	-0.039001454
213	0xbd074dfd	-0.03303336
214	0xbd29db8b	-0.041469138
215	0xbc6e29d8	-0.0145363435
216	0xbd063cd0	-0.03277284
217	0xbd0083bf	-0.031375643
218	0xbc9579d6	-0.018246572
219	0xbcbb68cf	-0.022877125
220	0xbd135db6	-0.03597804
221	0xbd1ddaee	-0.038538866
222	0xbd053b45	-0.032527227
223	0xbbb8a350	-0.0056347027
224	0x3d0af664	0.033926383
225	0x3c897d26	0.016783308
226	0x3cc6777a	0.024226893
227	0x3bc7a66f	0.0060928385
228	0x3c890f8e	0.01673105
229	0x3b2abb2c	0.0026051505
230	0x3be41f53	0.006961742
231	0xbc27f93b	-0.010252292
232	0xbcc5f7ae	-0.024165954
233	0xbcb23dcc	-0.021757983
234	0xbccb7c81	-0.024839642
235	0xbcb1a51c	-0.021685176
236	0x3d33cec0	0.043898344
237	0x3d3350e2	0.043778308
238	0x3c06d053	0.008228379
239	0xbc88be2c	-0.016692244
240	0xbc2dbc5a	-0.010603989
241	0xbc2fb212	-0.010723608
242	0xbd6eda39	-0.058313582
243	0xbd479db9	-0.0487344
244	0x3a1848e4	0.00058092014
245	0x3c088db8	0.00833457
246	0xbd780e45	-0.060560483
247	0xbd62ed3c	-0.055402026
248	0x3dbb2f83	0.091399215
249	0x3cc038a6	0.023464512
250	0xbd112274	-0.035433248
251	0xbd35669c	-0.04428731
252	0xbb79b86a	-0.0038104304
253	0x3c73510f	0.014850869
254	0xbd1c77cc	-0.038200185
255	0xbd349abf	-0.04409289

find.4.bias f4 [30]
0	0xbd1e9293	-0.038714003
1	0xbd05223a	-0.032503344
2	0xbd08b356	-0.033374153
3	0x3d80858e	0.062754735
4	0x95a1ca9a	-6.534703e-26
5	0xbc470f17	-0.012149594
6	0xbdcc15b7	-0.09965079
7	0xbccdae8e	-0.025107648
8	0xbc22723a	-0.009914929
9	0xbe0c19ef	-0.13681768
10	0x3e03a98b	0.12857644
11	0xbdacec20	-0.08443475
12	0xb50d5455	-5.264931e-07
13	0xbdae7239	-0.0851788
14	0xbdc3cb2e	-0.09560238
15	0x3df0b2ea	0.11752875
16	0x3da34098	0.07971305
17	0xbe098652	-0.13430145
18	0xbda6890e	-0.0813161
19	0xbd9c9a7c	-0.07646653
20	0xbd99e2cd	-0.07513962
21	0xab9b6b7d	-1.1043246e-12
22	0xbd6d38bd	-0.057915438
23	0xbdc00611	-0.09376157
24	0xbd67ddba	-0.05660794
25	0xbc39f3bc	-0.011349615
26	0xbd3ae596	-0.045629106
27	0x3dccbf4e	0.09997426
28	0xbe2dc9a0	-0.16971445
29	0xb3493da7	-4.6855032e-08

find.6.weight f4 [40, 30, 3, 3]
0	0x8009894b	-8.75771e-40
1	0x01843282	4.8561617e-38
2	0x0146efac	3.6538813e-38
3	0x00d67c58	1.9697402e-38
4	0x814b8d5b	-3.738663e-38
5	0x000a9315	9.71118e-40
6	0x01969263	5.531135e-38
7	0x81162fbc	-2.7584897e-38
8	0x0052fd9e	7.621491e-39
9	0x811e05b0	-2.9024097e-38
10	0x015b0271	4.02257e-38
11	0x80582ce4	-8.097627e-39
12	0x017e85fe	4.6748567e-38
13	0x00617762	8.95087e-39
14	0x005c4870	8.474851e-39
15	0x8051881c	-7.487502e-39
16	0x013cca3c	3.4675243e-38
17	0x014566aa	3.6256843e-38
18	0x8117e85c	-2.790103e-38
19	0x805cfc17	-8.539298e-39
20	0x0120c9d8	2.9532175e-38
21	0x81bfd062	-7.0461334e-38
22	0x812e522b	-3.2017705e-38
23	0x809d07c1	-1.4420954e-38
24	0x816abdc8	-4.3115174e-38
25	0x81970407	-5.547442e-38
26	0x81037fc3	-2.4152565e-38
27	0x8158e6dc	-3.9838568e-38
28	0x009d457b	1.4443098e-38
29	0x812ce528	-3.1755822e-38
30	0x80235a62	-3.246666e-39
31	0x801f169e	-2.855014e-39
32	0x806e2466	-1.0114962e-38
33	0x000edd92	1.365181e-39
34	0x00b7a247	1.686411e-38
35	0x809a5c20	-1.4175715e-38
36	0x80173655	-2.131707e-39
37	0x8033f0c7	-4.769985e-39
38	0x008bcf5f	1.2839525e-38
39	0x8099d70c	-1.4127975e-38
40	0x010d4a66	2.5950988e-38
41	0x004f6c3f	7.293836e-39
42	0x81240612	-3.0126398e-38
43	0x01927c77	5.381053e-38
44	0x011b6fd6	2.8549242e-38
45	0x8118ba29	-2.8051554e-38
46	0x80e03320	-2.0589491e-38
47	0x81370d38	-3.3621276e-38
48	0x805f7084	-8.764735e-39
49	0x002d0781	4.135289e-39
50	0x80b63ccf	-1.6735874e-38
51	0x80f32010	-2.2327527e-38
52	0x0067db91	9.537822e-39
53	0x8020d598	-3.015359e-39
54	0x81b3e897	-6.6087965e-38
55	0x00594e62	8.201478e-39
56	0x8137f516	-3.3787632e-38
57	0x805bb26e	-8.421039e-39
58	0x009b5a3a	1.4266869e-38
59	0x00d89d88	1.9892979e-38
60	0x8035d6d1	-4.944343e-39
61	0x80256a9e	-3.43616e-39
62	0x00a256f7	1.4908547e-38
63	0x01281bff	3.0876813e-38
64	0x01305992	3.2390358e-38
65	0x817b15fa	-4.6117186e-38
66	0x00b23e25	1.6369012e-38
67	0x8028db75	-3.752146e-39
68	0x81003bed	-2.3552882e-38
69	0x011cc7f0	2.8796123e-38
70	0x00b57cd1	1.6667e-38
71	0x810ce1a2	-2.5875823e-38
72	0x00c7f51a	1.836319e-38
73	0x81819bfe	-4.7610954e-38
74	0x803b1f03	-5.429419e-39
75	0x812fd786	-3.2297054e-38
76	0x002a8970	3.906394e-39
77	0x8082abd7	-1.2000259e-38
78	0x007d0046	1.1479535e-38
79	0x816a050e	-4.298264e-38
80	0x81338952	-3.297563e-38
81	0x80a4b5de	-1.5126263e-38
82	0x8068b2a4	-9.614976e-39
83	0x00cf8822	1.9058783e-38
84	0x80cbbf39	-1.8711203e-38
85	0x8037b2c2	-5.115079e-39
86	0x810f3432	-2.63024e-38
87	0x80e1e1a8	-2.0743937e-38
88	0x00f9b447	2.293171e-38
89	0x001c1b6d	2.581232e-39
90	0x000f9d8d	1.434051e-39
91	0x000ea20b	1.343827e-39
92	0x80047dd0	-4.12475e-40
93	0x81754a0e	-4.5052525e-38
94	0x8046f7f8	-6.517439e-39
95	0x8012141d	-1.660254e-39
96	0x80920157	-1.3408463e-38
97	0x001bf681	2.567987e-39
98	0x805e166f	-8.640584e-39
99	0x81ae0b4d	-6.393372e-38
100	0x8011e3fd	-1.64299e-39
101	0x8094a88a	-1.3652114e-38
102	0x809fee58	-1.4687346e-38
103	0x00acdbee	1.5874601e-38
104	0x014099a7	3.537507e-38
105	0x004f127e	7.261638e-39
106	0x807298f2	-1.0524113e-38
107	0x8109a562	-2.5281582e-38
108	0x810e5f8b	-2.614983e-38
109	0x808c0014	-1.2856997e-38
110	0x00fa2bea	2.2974627e-38
111	0x81852c23	-4.8919817e-38
112	0x014bcd5f	3.7432558e-38
113	0x80748dad	-1.0703741e-38
114	0x011df2b5	2.901048e-38
115	0x81056c82	-2.4506093e-38
116	0x005f2242	8.736662e-39
117	0x818cfe4b	-5.179277e-38
118	0x818f083c	-5.254172e-38
119	0x00e27e16	2.0800053e-38
120	0x8040a48d	-5.936501e-39
121	0x811504f0	-2.737052e-38
122	0x00e5cdb5	2.1104122e-38
123	0x0158a45c	3.9790856e-38
124	0x00052a25	4.74296e-40
125	0x010013c8	2.352408e-38
126	0x81b9c6c9	-6.824351e-38
127	0x80cee061	-1.8998604e-38
128	0x81b0feba	-6.5017704e-38
129	0x000af4d4	1.006183e-39
130	0x011db058	2.8962866e-38
131	0x8044877e	-6.293419e-39
132	0x80dabe69	-2.0088444e-38
133	0x001f4972	2.873248e-39
134	0x801861e4	-2.239168e-39
135	0x8074dfa5	-1.0733146e-38
136	0x80b8ac69	-1.695958e-38
137	0x0040de55	5.95723e-39
138	0x8087c98e	-1.2470096e-38
139	0x00f8093b	2.2778514e-38
140	0x809455e9	-1.3622472e-38
141	0x8171f0e1	-4.443753e-38
142	0x000d2dff	1.210362e-39
143	0x80387b0a	-5.186926e-39
144	0x8039c9da	-5.307034e-39
145	0x00520ce6	7.535138e-39
146	0x807dc2e6	-1.1549353e-38
147	0x80487f31	-6.657783e-39
148	0x805ed5c3	-8.70922e-39
149	0x8001952b	-1.45347e-40
150	0x81147580	-2.726761e-38
151	0x805be28e	-8.438303e-39
152	0x8042be6d	-6.129455e-39
153	0x81b63e2c	-6.6945453e-38
154	0x801efd03	-2.845828e-39
155	0x00ad065c	1.5889822e-38
156	0x8133b118	-3.3004166e-38
157	0x00d0a96d	1.9162562e-38
158	0x807310c5	-1.0567098e-38
159	0x01b10f1a	6.50412e-38
160	0x815524cc	-3.9148322e-38
161	0x00b6d1ab	1.6789275e-38
162	0x010b115e	2.5542728e-38
163	0x8128f6fa	-3.1033924e-38
164	0x00eaf3d5	2.1576977e-38
165	0x8180ecf2	-4.7359774e-38
166	0x00c4a060	1.8057289e-38
167	0x80da507c	-2.004901e-38
168	0x006e68fd	1.0139567e-38
169	0x00050eb9	4.64459e-40
170	0x003a69f8	5.364473e-39
171	0x0087d7b6	1.2475174e-38
172	0x01ba0155	6.832752e-38
173	0x00da1e43	2.0030994e-38
174	0x00e421d4	2.0950628e-38
175	0x0175545e	4.5059924e-38
176	0x0133af57	3.3002908e-38
177	0x0047a4cc	6.579438e-39
178	0x0128db74	3.1014177e-38
179	0x81b7a0f1	-6.745452e-38
180	0x00d17723	1.9236357e-38
181	0x0056d319	7.97358e-39
182	0x01915233	5.338254e-38
183	0x810bffd1	-2.5713807e-38
184	0x81003142	-2.3545228e-38
185	0x81210ada	-2.9578815e-38
186	0x81031f48	-2.4083343e-38
187	0x01a4c879	6.053175e-38
188	0x81b6a45a	-6.7092074e-38
189	0x80fc9af8	-2.3198137e-38
190	0x80d6ec1b	-1.9737495e-38
191	0x81346846	-3.313559e-38
192	0x8105afbe	-2.455433e-38
193	0x808b7477	-1.2806914e-38
194	0x0173042a	4.463504e-38
195	0x011ace4e	2.843335e-38
196	0x8101ead0	-2.3862028e-38
197	0x8113c360	-2.713981e-38
198	0x80a5e0fb	-1.5233565e-38
199	0x802a4219	-3.880802e-39
200	0x0046ef9e	6.514443e-39
201	0x803e9836	-5.748404e-39
202	0x80559445	-7.859206e-39
203	0x000ac01c	9.87271e-40
204	0x008ea930	1.3101333e-38
205	0x804fc003	-7.323885e-39
206	0x80ba5393	-1.7111383e-38
207	0x015927f1	3.9885262e-38
208	0x805d1d51	-8.551218e-39
209	0x802400d6	-3.306378e-39
210	0x009efa59	1.4599816e-38
211	0x00728c3a	1.051955e-38
212	0x0095133b	1.3690388e-38
213	0x01ad1eb0	6.35942e-38
214	0x011ecc44	2.916657e-38
215	0x00917faf	1.3361951e-38
216	0x006ee470	1.0183853e-38
217	0x808a934a	-1.2726136e-38
218	0x80d4c61c	-1.9540193e-38
219	0x802fcf27	-4.39058e-39
220	0x802dace5	-4.19462e-39
221	0x004eb705	7.228824e-39
222	0x800175a1	-1.34033e-40
223	0x80500440	-7.348364e-39
224	0x808cc42f	-1.2927347e-38
225	0x804bf08d	-6.973956e-39
226	0x81459e56	-3.6296786e-38
227	0x80f775fc	-2.2725692e-38
228	0x011be37b	2.8632213e-38
229	0x811e77f2	-2.9106073e-38
230	0x0198411c	5.592941e-38
231	0x815bf466	-4.0399295e-38
232	0x0193b198	5.4254106e-38
233	0x819ac2ea	-5.6850354e-38
234	0x00253d7c	3.41997e-39
235	0x8013cf3d	-1.819218e-39
236	0x811669de	-2.7626605e-38
237	0x805f56ab	-8.755463e-39
238	0x8029fc2d	-3.855719e-39
239	0x80ff69d8	-2.3456021e-38
240	0x80ab579e	-1.5735301e-38
241	0x801c524c	-2.600916e-39
242	0x005edf88	8.712725e-39
243	0x8015e425	-2.010388e-39
244	0x00561737	7.90618e-39
245	0x001b327d	2.49767e-39
246	0x0109e92b	2.5330216e-38
247	0x80f56358	-2.2535334e-38
248	0x8110dc29	-2.660658e-38
249	0x00d44285	1.9492988e-38
250	0x80b99e72	-1.7046406e-38
251	0x005b0d27	8.361748e-39
252	0x81114fbe	-2.6689506e-38
253	0x811f7dde	-2.9293993e-38
254	0x8152db9a	-3.8728465e-38
255	0x00e96b59	2.143618e-38

find.6.bias f4 [40]
0	0x8a9dbc17	-1.5189302e-32
1	0xba830076	-0.0009994644
2	0x3e02454a	0.12721744
3	0x9d72bc28	-3.2125708e-21
4	0xbd69a383	-0.057040703
5	0xbd4c974b	-0.04994897
6	0xbd7b0d85	-0.06129219
7	0xbd3621c3	-0.04446579
8	0x3cac1028	0.021003798
9	0x3ca33288	0.019921556
10	0xb966b9c2	-0.0002200371
11	0x9b2096fe	-1.3283678e-22
12	0x3dd2b243	0.10287907
13	0x9fa63999	-7.039902e-20
14	0xbd57860e	-0.05261808
15	0xb997437e	-0.0002885125
16	0xbb6e32c0	-0.0036346167
17	0xa235ccc4	-2.4638476e-18
18	0xbcf5bad5	-0.029996315
19	0xb0c061a8	-1.3997594e-09
20	0xaa91039e	-2.5759684e-13
21	0xbc381bc7	-0.011237091
22	0xb9ab9df7	-0.00032733355
23	0xbe0c96e3	-0.13729434
24	0xbc9230eb	-0.017845592
25	0xa2327d1c	-2.418973e-18
26	0x3c2e0b95	0.010622879
27	0xbd2c3120	-0.042039037
28	0xbdb794cd	-0.08963928
29	0xbd9f4320	-0.07776475
30	0xbcc92251	-0.024552496
31	0xbd8c3058	-0.06845158
32	0x3e430925	0.19046457
33	0x3d800e59	0.062527366
34	0xbc42fe19	-0.011901402
35	0xad0ddee3	-8.064413e-12
36	0x3af596a9	0.0018736917
37	0xbd82cac5	-0.063863315
38	0xb50f0cbb	-5.3290177e-07
39	0xbe0153a0	-0.12629557

find.8.weight f4 [50, 40, 2, 2]
0	0x006f48bc	1.0219832e-38
1	0x800202b8	-1.84646e-40
2	0x01b837c4	6.7670945e-38
3	0x012e3418	3.1996128e-38
4	0x809f7ab3	-1.464586e-38
5	0x8000f55c	-8.8018e-41
6	0x80996558	-1.4087186e-38
7	0x808c4f2f	-1.2885375e-38
8	0x0037511e	5.080052e-39
9	0x80c6bd43	-1.8251323e-38
10	0x807dcf15	-1.1553724e-38
11	0x8070a3ed	-1.0344381e-38
12	0x01b46a2e	6.627392e-38
13	0x006ffb4d	1.028389e-38
14	0x80b74e5a	-1.6834003e-38
15	0x010ad7ee	2.550152e-38
16	0x000882aa	7.81557e-40
17	0x819d274c	-5.772908e-38
18	0x815f0a5d	-4.0966067e-38
19	0x80fb057f	-2.3052681e-38
20	0x00036370	3.11178e-40
21	0x8181b67c	-4.764897e-38
22	0x00850cf2	1.2218765e-38
23	0x0118cd68	2.8065363e-38
24	0x013fc6be	3.522375e-38
25	0x0187ea86	4.992769e-38
26	0x000bec93	1.095057e-39
27	0x818fbf53	-5.280444e-38
28	0x8003627c	-3.10836e-40
29	0x801dbf0f	-2.731768e-39
30	0x00145869	1.868426e-39
31	0x806ac6c7	-9.80587e-39
32	0x80761f24	-1.084776e-38
33	0x800068eb	-3.7637e-41
34	0x808d754d	-1.2990885e-38
35	0x00159b70	1.984306e-39
36	0x8185a25e	-4.908947e-38
37	0x0181d199	4.7687874e-38
38	0x80a1fb78	-1.4875725e-38
39	0x80d40a2e	-1.9472777e-38
40	0x818f21ca	-5.257839e-38
41	0x81ba023c	-6.8328815e-38
42	0x81a63250	-6.1050964e-38
43	0x81ab4712	-6.291746e-38
44	0x006ed80a	1.0179405e-38
45	0x01450e14	3.6193286e-38
46	0x8099409b	-1.4074007e-38
47	0x81069890	-2.472137e-38
48	0x00dde9a7	2.0379463e-38
49	0x807921da	-1.1124239e-38
50	0x0050782c	7.389949e-39
51	0x00ae36f0	1.5999084e-38
52	0x815e6a49	-4.0851216e-38
53	0x01abcc52	6.3108665e-38
54	0x80eebb34	-2.1924004e-38
55	0x019ea6a4	5.827915e-38
56	0x01173953	2.7775448e-38
57	0x803b9c16	-5.474287e-39
58	0x802b5359	-3.978826e-39
59	0x8041edf1	-6.054665e-39
60	0x000d14fe	1.201392e-39
61	0x00d55cac	1.9594205e-38
62	0x801a06a7	-2.39011e-39
63	0x801e2b24	-2.770541e-39
64	0x80c485f6	-1.8047813e-38
65	0x81251a24	-3.032447e-38
66	0x8104adba	-2.4369214e-38
67	0x80b6cd9a	-1.6787816e-38
68	0x80097e8a	-8.71913e-40
69	0x8113a73e	-2.7119626e-38
70	0x0113e3e4	2.716314e-38
71	0x8084b045	-1.2185519e-38
72	0x01388d2e	3.3896754e-38
73	0x8076e118	-1.0917337e-38
74	0x0006db28	6.29631e-40
75	0x8066fb5a	-9.457389e-39
76	0x005f42d9	8.748353e-39
77	0x00417c12	6.013815e-39
78	0x80c80c87	-1.8371593e-38
79	0x80b8e21a	-1.6978841e-38
80	0x00cde9c8	1.8910142e-38
81	0x80603658	-8.835702e-39
82	0x80b32194	-1.64506e-38
83	0x0194b8ce	5.4631795e-38
84	0x002ce2b6	4.12209e-39
85	0x804de44b	-7.153229e-39
86	0x0057fa50	8.079483e-39
87	0x003ac877	5.398372e-39
88	0x80ad694d	-1.5925316e-38
89	0x801576bf	-1.971143e-39
90	0x803206d3	-4.594223e-39
91	0x00087731	7.77442e-40
92	0x0021c97c	3.10285e-39
93	0x804b0e30	-6.892752e-39
94	0x010711bc	2.4808308e-38
95	0x81009a06	-2.3620393e-38
96	0x802ed878	-4.302087e-39
97	0x01787c06	4.5639389e-38
98	0x80b87c54	-1.6942332e-38
99	0x80995f20	-1.4084955e-38
100	0x007e675c	1.1608351e-38
101	0x01a10ba5	5.915877e-38
102	0x010b8df9	2.5632128e-38
103	0x00f03cac	2.2062284e-38
104	0x80a26ea0	-1.4917035e-38
105	0x009c073b	1.4328931e-38
106	0x802ac32d	-3.927107e-39
107	0x80082de6	-7.51149e-40
108	0x808506d9	-1.2216577e-38
109	0x813e1728	-3.4914102e-38
110	0x01953b66	5.481919e-38
111	0x8109c995	-2.5307554e-38
112	0x80a4ffbc	-1.5152762e-38
113	0x000c5f67	1.13625e-39
114	0x001a198f	2.396892e-39
115	0x004f38c0	7.275362e-39
116	0x00ee94ef	2.1910275e-38
117	0x800df8c2	-1.283099e-39
118	0x80ddfad9	-2.0385632e-38
119	0x8003d728	-3.5269e-40
120	0x81565eb0	-3.9373527e-38
121	0x810f7cee	-2.6354585e-38
122	0x8083dfe1	-1.2110763e-38
123	0x80d0dba1	-1.9180571e-38
124	0x801dad62	-2.725427e-39
125	0x0024e333	3.387582e-39
126	0x8069a6ff	-9.702634e-39
127	0x00ba7f5c	1.712709e-38
128	0x002172f7	3.071813e-39
129	0x002b7b51	3.993164e-39
130	0x0033bd48	4.751512e-39
131	0x807cd295	-1.1463144e-38
132	0x00412f24	5.986218e-39
133	0x813524e2	-3.3270912e-38
134	0x8055b83f	-7.872112e-39
135	0x80c6d89f	-1.8261137e-38
136	0x01881c76	4.999935e-38
137	0x00a1660e	1.4822125e-38
138	0x008ccde4	1.2930829e-38
139	0x8182b94c	-4.8020346e-38
140	0x01989fd3	5.606532e-38
141	0x818e8264	-5.2349663e-38
142	0x81539890	-3.8864038e-38
143	0x80d372d1	-1.9418478e-38
144	0x00b2de9c	1.6426576e-38
145	0x80188e5e	-2.255124e-39
146	0x8070ecbf	-1.0370504e-38
147	0x8026356b	-3.508912e-39
148	0x801018a9	-1.478214e-39
149	0x80047490	-4.09157e-40
150	0x8029221b	-3.77749e-39
151	0x00360c6e	4.963576e-39
152	0x8111f386	-2.6807013e-38
153	0x80990544	-1.405272e-38
154	0x81051dfc	-2.4449755e-38
155	0x80a75ad9	-1.5369118e-38
156	0x00cce983	1.881821e-38
157	0x000343fa	2.99892e-40
158	0x805108a2	-7.441772e-39
159	0x809abc26	-1.4210161e-38
160	0x00f9b6a9	2.2932565e-38
161	0x8072940c	-1.0522356e-38
162	0x81921af0	-5.3670583e-38
163	0x0172ed2f	4.461855e-38
164	0x26e1174c	1.5618826e-15
165	0xa49277a3	-6.352008e-17
166	0x22eee69c	6.4754196e-18
167	0x9ff8bbe7	-1.05342944e-19
168	0x36a981bf	5.051697e-06
169	0x367f9cff	3.8089345e-06
170	0x36a55954	4.9277824e-06
171	0x36660b2d	3.4279176e-06
172	0x80ac4246	-1.581948e-38
173	0x80b9529b	-1.70192e-38
174	0x80c61bed	-1.8193446e-38
175	0x808802ec	-1.2490676e-38
176	0x809b6676	-1.4271258e-38
177	0x80d4fcb7	-1.9559782e-38
178	0x00b58f3e	1.667361e-38
179	0x80cd518b	-1.8855529e-38
180	0x00924e21	1.343601e-38
181	0x0100183f	2.3527283e-38
182	0x017c1572	4.6300476e-38
183	0x81a5b3de	-6.0869524e-38
184	0x80620370	-9.001112e-39
185	0x003110bc	4.505942e-39
186	0x0135b66a	3.3375325e-38
187	0x010d8a0e	2.599666e-38
188	0xa45c51a2	-4.777404e-17
189	0xa30fbc90	-7.791975e-18
190	0x24afa4eb	7.6173534e-17
191	0xa2590be9	-2.941529e-18
192	0x9a915641	-6.0109945e-23
193	0x99d50263	-2.2024648e-23
194	0xa371da57	-1.31108714e-17
195	0x9fd3a64b	-8.9637085e-20
196	0x02443caf	1.4417221e-37
197	0x009fd274	1.467734e-38
198	0x000affda	1.010137e-39
199	0x0026ea1b	3.57373e-39
200	0x810f3ed8	-2.631004e-38
201	0x00f11588	2.2140079e-38
202	0x007c7370	1.1429013e-38
203	0x006296ec	9.054019e-39
204	0x00ef45a9	2.1973673e-38
205	0x00c686ae	1.8231742e-38
206	0x0122807e	2.984689e-38
207	0x80c1282c	-1.7738662e-38
208	0x00746d61	1.0692155e-38
209	0x00056e9f	4.98861e-40
210	0x8049670c	-6.740957e-39
211	0x00177dba	2.157319e-39
212	0x00b46c6e	1.6569287e-38
213	0x00e96b18	2.1436089e-38
214	0x00d7c9bc	1.9817e-38
215	0x00d69919	1.9707717e-38
216	0xa31b10b8	-8.406107e-18
217	0xa200cadb	-1.7454626e-18
218	0xa286ce61	-3.6539285e-18
219	0xa2377143	-2.4861085e-18
220	0x00d898f3	1.9891335e-38
221	0x00ba60b0	1.7116087e-38
222	0x00784865	1.104623e-38
223	0x0088dfc5	1.2569901e-38
224	0x80f549b0	-2.252613e-38
225	0x80d2d6af	-1.9362468e-38
226	0x80c51b09	-1.8101291e-38
227	0x80d9e650	-2.0010923e-38
228	0x80d45303	-1.9498904e-38
229	0x80b1eba4	-1.6339415e-38
230	0x0083b5d3	1.2095676e-38
231	0x00c62d60	1.8199706e-38
232	0x013643ee	3.3476858e-38
233	0x0126f37a	3.066407e-38
234	0x0127b9f5	3.0806473e-38
235	0x0115b116	2.749403e-38
236	0x002962f8	3.800759e-39
237	0x002c4e65	4.068884e-39
238	0x004ce155	7.060332e-39
239	0x003f5937	5.81764e-39
240	0x80a7f794	-1.5425342e-38
241	0x8088f563	-1.2577656e-38
242	0x80a2f1ef	-1.496414e-38
243	0x809135ec	-1.333549e-38
244	0x018d9ebb	5.2022987e-38
245	0x03daccc0	1.2859897e-36
246	0x8e06a941	-1.6598268e-30
247	0x85534420	-9.933685e-36
248	0x0123cbbf	3.0084552e-38
249	0x00f5bbd7	2.2567081e-38
250	0x80d8011a	-1.9836862e-38
251	0x80e7e97b	-2.1297757e-38
252	0x00f55240	2.2529202e-38
253	0x00fd2f2e	2.3251305e-38
254	0x80ead42d	-2.156562e-38
255	0x81080572	-2.4983162e-38

find.8.bias f4 [50]
0	0xb2c4062f	-2.2820215e-08
1	0xbbab7d1d	-0.0052334205
2	0x9facd30e	-7.3193994e-20
3	0xbc463aa0	-0.012098938
4	0xbc5bd765	-0.013418053
5	0xbd0c7268	-0.034288794
6	0xbd3f87f6	-0.04676052
7	0xba36afca	-0.00069689436
8	0xbb825a5d	-0.0039780573
9	0xbcbd0441	-0.023073317
10	0xbd5b502d	-0.05354326
11	0xba830c2c	-0.0009998134
12	0xbd2eabb0	-0.042644203
13	0xbd345621	-0.04402745
14	0xa7ca00a5	-5.606696e-15
15	0xbcf5e0a4	-0.030014344
16	0xa72488d5	-2.2833749e-15
17	0xbce5a1b3	-0.028031206
18	0xbbc72d8a	-0.0060784267
19	0x3d344141	0.044007543
20	0xbccc5e71	-0.024947377
21	0x9927f4a7	-8.683105e-24
22	0xbd05828e	-0.03259521
23	0xb99d2079	-0.00029969568
24	0xb989d804	-0.0002629162
25	0xa0f9f531	-4.2344495e-19
26	0xbc825870	-0.01591131
27	0xbcd84e49	-0.026404517
28	0xbb29b46d	-0.0025894896
29	0xba8c9f70	-0.0010728668
30	0xbc373567	-0.011182166
31	0xbd604674	-0.05475469
32	0xbdb0fb80	-0.0864172
33	0xb4f13c07	-4.4933424e-07
34	0x3bc7cd77	0.0060974914
35	0xbc6129ad	-0.013742846
36	0xbca6e44a	-0.020372529
37	0xbba10aef	-0.0049146335
38	0x3c44f54f	0.012021377
39	0xbc1351a6	-0.0089916345
40	0xbc92d957	-0.017925901
41	0xbb2c1d67	-0.0026262642
42	0x3c4f274d	0.012643647
43	0xbc943e59	-0.018096136
44	0xbb94dee0	-0.0045431703
45	0xbce65a8c	-0.028119348
46	0xbd1db6bd	-0.03850435
47	0xbcf879fd	-0.030331606
48	0xba303dd7	-0.0006723082
49	0xbc78a3c7	-0.015175766

find.11.weight f4 [2, 15000]
0	0x01531990	3.877292e-38
1	0x80dc5f08	-2.02379e-38
2	0x0006fce8	6.41739e-40
3	0x000d9f40	1.25099e-39
4	0x8005c5f8	-5.30195e-40
5	0x81bd0a56	-6.9442466e-38
6	0x009473d8	1.363321e-38
7	0x01a12e4b	5.9208487e-38
8	0x80333c08	-4.705145e-39
9	0x80f8c808	-2.2846961e-38
10	0x80fc6230	-2.3177768e-38
11	0x01101ddc	2.6470046e-38
12	0x80435718	-6.184222e-39
13	0x80d47178	-1.950983e-38
14	0x013c2b0c	3.456103e-38
15	0x818b3e4e	-5.114994e-38
16	0x816a49a8	-4.3031858e-38
17	0x0115fabc	2.754687e-38
18	0x80ae4dc0	-1.6007268e-38
19	0x800779a8	-6.8649e-40
20	0x807302f0	-1.0562136e-38
21	0x8169a10c	-4.2910887e-38
22	0x81778ce2	-4.5467814e-38
23	0x005776ea	8.032346e-39
24	0x80d5b349	-1.9625276e-38
25	0x80a6528f	-1.5274309e-38
26	0x0100da4a	2.3666502e-38
27	0x00b58035	1.6668217e-38
28	0x00e2b522	2.08198e-38
29	0x804bd6c7	-6.96471e-39
30	0x005f0b8c	8.728514e-39
31	0x80959452	-1.3736696e-38
32	0x0063f111	9.178192e-39
33	0x00a95232	1.5549685e-38
34	0x80cdf321	-1.8913495e-38
35	0x00eba35f	2.1639948e-38
36	0x811828d8	-2.7947295e-38
37	0x00744dec	1.068087e-38
38	0x803b3c83	-5.440002e-39
39	0x8188d52e	-5.026441e-38
40	0x00d8cd20	1.9910052e-38
41	0x00dece22	2.0461427e-38
42	0x014a30ec	3.713664e-38
43	0x01b840c4	6.768386e-38
44	0x809a4fbf	-1.4171274e-38
45	0x80ed5194	-2.1794277e-38
46	0x80f194c5	-2.2185723e-38
47	0x00b69d6d	1.6770534e-38
48	0x0092ad48	1.3470144e-38
49	0x0086a82f	1.236629e-38
50	0x00db3477	2.0130794e-38
51	0x80f6f937	-2.2680933e-38
52	0x00dde3f3	2.0377417e-38
53	0x80dfa7a8	-2.053946e-38
54	0x00df6b92	2.0517905e-38
55	0x0115d1b4	2.7517432e-38
56	0x81058f70	-2.4531153e-38
57	0x00fa1100	2.2964972e-38
58	0x007f1bf6	1.1673139e-38
59	0x80898460	-1.262895e-38
60	0x006d47d8	1.0035842e-38
61	0x805fbbc4	-8.79173e-39
62	0x804f3c60	-7.276663e-39
63	0x80146e60	-1.876305e-39
64	0x00946cd8	1.3630699e-38
65	0x00c7c0cb	1.8344425e-38
66	0x009556f7	1.3714686e-38
67	0x00c4ae9a	1.8062392e-38
68	0x8e0c2f4b	-1.7279103e-30
69	0x00b94dc6	1.7017467e-38
70	0x00750109	1.0745124e-38
71	0x80d25e98	-1.9319388e-38
72	0x81029165	-2.3981544e-38
73	0x80cec511	-1.8988806e-38
74	0x81084285	-2.502698e-38
75	0x014ab761	3.7233108e-38
76	0x814191a0	-3.5552982e-38
77	0x00ce8d1d	1.8968734e-38
78	0x009d4e11	1.4446178e-38
79	0x81508f8c	-3.8306556e-38
80	0x012a33f0	3.1261332e-38
81	0x801be188	-2.560464e-39
82	0x80a09a08	-1.4748935e-38
83	0x814673cc	-3.6449937e-38
84	0x00e1f104	2.0749447e-38
85	0x809bd87b	-1.431216e-38
86	0x00dd82b5	2.0342533e-38
87	0x011192eb	2.6737702e-38
88	0x999306bb	-1.5202162e-23
89	0x979e3f83	-1.0226543e-24
90	0x00c38a8a	1.795762e-38
91	0x00a6fdab	1.5335691e-38
92	0x80c6e13a	-1.8264224e-38
93	0x80a3e744	-1.5052148e-38
94	0x80f8bd00	-2.2843003e-38
95	0x012f6195	3.2212435e-38
96	0x80f62b75	-2.2607122e-38
97	0x00a35401	1.4999321e-38
98	0x00c8a3cd	1.842586e-38
99	0x81a0abd6	-5.902129e-38
100	0x818ad93e	-5.100492e-38
101	0x013c431c	3.4578295e-38
102	0x8037c0e0	-5.120143e-39
103	0x8194795d	-5.454076e-38
104	0x80fabd06	-2.3026683e-38
105	0x00606629	8.852856e-39
106	0x0104c0b2	2.4382823e-38
107	0x009627d7	1.3789616e-38
108	0x99c43017	-2.0285348e-23
109	0x9bcce99e	-3.389994e-22
110	0x0454a77f	2.499739e-36
111	0x009e44e7	1.4534726e-38
112	0x809f9899	-1.4656586e-38
113	0x80ae1d5f	-1.5989913e-38
114	0x80d60798	-1.965552e-38
115	0x8120322e	-2.942336e-38
116	0x8105286a	-2.4457238e-38
117	0x011dfcd7	2.901775e-38
118	0x01068546	2.4707532e-38
119	0x00647370	9.224961e-39
120	0x013aae24	3.4287744e-38
121	0x813afec8	-3.43456e-38
122	0x00245e9b	3.340016e-39
123	0x8165d2c6	-4.221188e-38
124	0x00f7692e	2.2721099e-38
125	0x80f71688	-2.269145e-38
126	0x0111c8dc	2.6776403e-38
127	0x0066257e	9.38067e-39
128	0x00f80390	2.2776481e-38
129	0x0225f94a	1.2193828e-37
130	0x0120c0b8	2.9525628e-38
131	0x00b1813e	1.6301246e-38
132	0x0098a55c	1.4018315e-38
133	0x808dcd0a	-1.3022359e-38
134	0x805ec917	-8.704674e-39
135	0x812d6b08	-3.1851873e-38
136	0x00ea3bd4	2.1510968e-38
137	0x00d034fd	1.9120792e-38
138	0x810711c4	-2.480833e-38
139	0x8029c4f8	-3.835914e-39
140	0x00ba8c80	1.7131804e-38
141	0x001c75d8	2.613668e-39
142	0x80e70828	-2.1216926e-38
143	0x80f71153	-2.2689582e-38
144	0x00ba7d0e	1.7126263e-38
145	0x812bab36	-3.1530578e-38
146	0x81322d0e	-3.2725762e-38
147	0x00a5f16e	1.5239466e-38
148	0x00ddd886	2.0373319e-38
149	0x00cd1cc9	1.8836603e-38
150	0x00b24b21	1.637367e-38
151	0x0098b772	1.4024803e-38
152	0x00b29ce4	1.6403e-38
153	0x002cffda	4.132544e-39
154	0x809042c9	-1.324827e-38
155	0x00b9821c	1.7036241e-38
156	0x00c9206e	1.8470568e-38
157	0x00ca5aaf	1.8583301e-38
158	0x011592a4	2.7472187e-38
159	0x0189d0ea	5.062563e-38
160	0x813acda8	-3.4310356e-38
161	0x813e5b70	-3.4963092e-38
162	0x809f6670	-1.4638592e-38
163	0x00a7de18	1.54162e-38
164	0x00ba9ae5	1.7136968e-38
165	0x01536548	3.8827245e-38
166	0x01bb73d2	6.8859145e-38
167	0x0139bad4	3.4113176e-38
168	0x00a98d26	1.5570833e-38
169	0x00cbc226	1.8712253e-38
170	0x00d2c15f	1.9354823e-38
171	0x00f3cb1f	2.2388892e-38
172	0x81040b68	-2.4252755e-38
173	0x8109dab6	-2.5319843e-38
174	0x010535be	2.44668e-38
175	0x010b3ac7	2.557244e-38
176	0x80e68eb1	-2.1173352e-38
177	0x80a893af	-1.5481342e-38
178	0x80367aef	-5.003217e-39
179	0x816ec95c	-4.3858164e-38
180	0x80d0d3a8	-1.9177711e-38
181	0x812f5a54	-3.220723e-38
182	0x80f25858	-2.2255882e-38
183	0x01136920	2.707506e-38
184	0x019666d8	5.524887e-38
185	0x81bc2b46	-6.912239e-38
186	0x018c8d46	5.1630595e-38
187	0x80141cae	-1.846998e-39
188	0x00f764da	2.2719546e-38
189	0x00c9ddf1	1.8538552e-38
190	0x80e4f63f	-2.102683e-38
191	0x8111cce8	-2.6779307e-38
192	0x00a10d59	1.4790303e-38
193	0x80bf10ff	-1.7546677e-38
194	0x80e1a0bd	-2.0720649e-38
195	0x80fa1386	-2.2965878e-38
196	0x80ded596	-2.04641e-38
197	0x007f670e	1.1700077e-38
198	0x008812b5	1.2496338e-38
199	0x019567de	5.4883e-38
200	0x818386de	-4.8315325e-38
201	0x005a0fec	8.270906e-39
202	0x00b91ea5	1.700056e-38
203	0x007e578d	1.160268e-38
204	0x801362f8	-1.780378e-39
205	0x01b707e4	6.7234906e-38
206	0x010aae04	2.5471447e-38
207	0x81428820	-3.5729837e-38
208	0x004611b8	6.434841e-39
209	0x0046d840	6.50606e-39
210	0x007b5a1c	1.1328091e-38
211	0x00853794	1.2234059e-38
212	0x00816bce	1.1885452e-38
213	0x00d294b6	1.9338802e-38
214	0x00e843ec	2.1330201e-38
215	0x8115b21e	-2.749477e-38
216	0x80e569aa	-2.1068234e-38
217	0x0079eef6	1.1197818e-38
218	0x010fb28c	2.6393053e-38
219	0x810dbe6c	-2.603423e-38
220	0x818d42d0	-5.189109e-38
221	0x0049fc8f	6.794592e-39
222	0x00e81e03	2.1316601e-38
223	0x005ede7f	8.712353e-39
224	0x81b05e1e	-6.478724e-38
225	0x81a94042	-6.2173e-38
226	0x80484f97	-6.640707e-39
227	0x006da5c8	1.006954e-38
228	0x811572b4	-2.7449273e-38
229	0x80f90c1b	-2.2871381e-38
230	0x0123d772	3.0092946e-38
231	0x0117f7c0	2.7912072e-38
232	0x000bda16	1.088425e-39
233	0x80e85e2e	-2.133962e-38
234	0x012401fe	3.0123472e-38
235	0x00f5d8a0	2.2577407e-38
236	0x00d812ff	1.9843282e-38
237	0x8198d6cd	-5.6144206e-38
238	0x808d303a	-1.2966105e-38
239	0x81977f98	-5.565173e-38
240	0x00067698	5.93556e-40
241	0x00ab79fe	1.5747632e-38
242	0x00d28941	1.9334692e-38
243	0x00a31c9a	1.4979446e-38
244	0x0102f500	2.4053008e-38
245	0x8193843e	-5.418903e-38
246	0x0042ca50	6.133719e-39
247	0x800452d5	-3.97057e-40
248	0x010b67a2	2.560462e-38
249	0x013a4af6	3.4216586e-38
250	0x80209ab8	-2.994239e-39
251	0x812051a1	-2.9445925e-38
252	0x00d57140	1.9601587e-38
253	0x010c2f90	2.5748063e-38
254	0x0030d1a6	4.483312e-39
255	0x00aee000	1.6059732e-38

find.11.bias f4 [2]
0	0x3cd3fd42	0.025877599
1	0xbd179c86	-0.037014507
