scheduler/BaGTI/checkpoints/energy_latencyGNN_BiGRU128L3_4_Trained_I_Have_No_Idea.ckpt (torch, 955343 bytes, 276 tensors)

find.0.weight f4 [128, 360]
0	0xbd2b0a7b	-0.04175804
1	0xbb51102d	-0.003190051
2	0x3a4d4e8b	0.0007831833
3	0x3b3e2833	0.002901566
4	0xbc137d6c	-0.009002071
5	0xbd4c5132	-0.04988212
6	0x3bfb721e	0.007673516
7	0x3c7e3374	0.015515197
8	0x3b424954	0.0029645758
9	0x3b09929a	0.0020991922
10	0x3a8166b7	0.000987253
11	0xbc072043	-0.008247438
12	0x3abac292	0.001424866
13	0x3b47e3ed	0.0030500845
14	0xbcb09cf6	-0.02155922
15	0x3b5ad376	0.00333902
16	0xbcdb4940	-0.026768327
17	0x3c02a7f1	0.007974611
18	0x3b46fc0f	0.003036264
19	0xbc8f9779	-0.017528282
20	0xbce40a47	-0.027836932
21	0xbbc0378c	-0.0058659967
22	0xbbe46ee1	-0.0069712256
23	0x3b480281	0.003051907
24	0xbc554ba9	-0.013018527
25	0xbd551723	-0.052024018
26	0x3b24cdc8	0.002514707
27	0xbb70d411	-0.0036747495
28	0x3b41ae2f	0.0029553284
29	0xbb0266c8	-0.0019897688
30	0x3d16ffe7	0.03686514
31	0xbb0bba15	-0.002132063
32	0x3aa19061	0.0012326353
33	0x3b48bfdc	0.0030631935
34	0xbbd5bd1d	-0.006522788
35	0xbd22ab4e	-0.03971415
36	0xbc1b64d1	-0.009484486
37	0xba8c9fda	-0.0010728792
38	0x3b4921f1	0.0030690397
39	0xbc37cbfb	-0.011218066
40	0xbc3f25e1	-0.011666746
41	0x3c61d017	0.013782523
42	0x3c4d24f0	0.012521014
43	0x3b4f5c83	0.0031640835
44	0xbc2e05e9	-0.010621526
45	0xbd2173f9	-0.03941724
46	0xbcd7be0d	-0.02633574
47	0xba714e17	-0.00092050567
48	0x3b4d05f0	0.0031284057
49	0xbcc3143c	-0.02381336
50	0xbd11c8a0	-0.03559172
51	0xbc21bf1b	-0.009872223
52	0x3c25dcf7	0.010123483
53	0x3b53c385	0.0032312584
54	0xbb05145b	-0.0020306322
55	0x3d11f82f	0.035637077
56	0xbc93fda5	-0.018065283
57	0x3c13eb14	0.009028215
58	0x3b52bc96	0.0032155863
59	0xbc8c176f	-0.017101018
60	0x3c942abc	0.018086784
61	0xbbdc84bb	-0.00672969
62	0x3b447783	0.002997846
63	0x3b4fa2c6	0.0031682714
64	0xbc66ae85	-0.014079695
65	0x3b8e149a	0.004335952
66	0xbc46de41	-0.01213795
67	0x3b2a04e1	0.002594285
68	0x3b4ddd95	0.003141259
69	0xbcad7140	-0.021172166
70	0xbce9aae6	-0.028523874
71	0x3bae3d4f	0.005317367
72	0xba0ba587	-0.00053270947
73	0x3b4fae47	0.003168957
74	0xbc9cf307	-0.019158853
75	0xbcfe49eb	-0.031041106
76	0x3c4e9023	0.012607607
77	0x3c3a895b	0.011385287
78	0x3b5123bc	0.0031912168
79	0x37cc4382	2.435013e-05
80	0x3d0af340	0.033923388
81	0x3c25f151	0.010128335
82	0x3c34c541	0.011033357
83	0x3b527c86	0.0032117679
84	0xba82d4cd	-0.0009981632
85	0xbd0a968a	-0.03383497
86	0xbcc0bdfc	-0.023528092
87	0xbb9a561c	-0.004709972
88	0x3b518c1c	0.003197438
89	0xbcc30360	-0.02380532
90	0x3be4b14d	0.0069791437
91	0xbb7befc3	-0.003844247
92	0xbb97a48a	-0.004627769
93	0x3b52a60d	0.003214243
94	0xbb3f52bc	-0.00291936
95	0x3ce01187	0.027352108
96	0xbc9fb718	-0.019496486
97	0x3c152581	0.00910318
98	0x3b518e6f	0.0031975766
99	0x3a991437	0.0011678998
100	0x3d02ff81	0.03198195
101	0x3c4905e1	0.012269468
102	0x3bbdb224	0.0057890583
103	0x3b4e6db8	0.0031498503
104	0xbcda0b2f	-0.02661666
105	0xbc811808	-0.01575853
106	0x3b49be66	0.0030783652
107	0xbb511070	-0.0031900667
108	0x3b418b42	0.0029532467
109	0xbcbd47f7	-0.023105605
110	0x3cc7421f	0.024323521
111	0xbcd89c6d	-0.026441777
112	0x3c24a913	0.010050076
113	0x3b489f79	0.0030612631
114	0xbcaacafd	-0.020848745
115	0x3c3be7bf	0.011468827
116	0x3c3cdcc0	0.01152724
117	0x3c2b39c0	0.01045078
118	0x3b49982d	0.003076087
119	0xbc963b35	-0.018338779
120	0xbc382455	-0.011239131
121	0x3ca2b4e5	0.019861648
122	0x39a3c07c	0.00031233195
123	0x3b18e15c	0.0023327684
124	0xbcc19ec0	-0.023635268
125	0xbc3a7121	-0.011379511
126	0x3ca3e125	0.020004818
127	0x39a4337f	0.00031318885
128	0x3b1899c4	0.002328501
129	0xbd0ce23e	-0.03439545
130	0xbc42758c	-0.011868846
131	0xb9519923	-0.00019988841
132	0x39a48fbf	0.00031387617
133	0x3b18b125	0.0023298946
134	0xbce65eb1	-0.028121324
135	0xbc483d55	-0.012221654
136	0xbc2b3a17	-0.010450861
137	0x39a128c6	0.00030738692
138	0x3b189b89	0.0023286066
139	0x3cfe6267	0.031052781
140	0xbc339bde	-0.010962455
141	0x3c01b3e7	0.007916427
142	0x39a44b19	0.0003133647
143	0x3b18dfcf	0.002332676
144	0xbd45fcf6	-0.048336945
145	0xbc51ea42	-0.012812199
146	0x3c5f2d35	0.013621618
147	0x39a504ff	0.00031474975
148	0x3b189979	0.0023284836
149	0x3c6079c3	0.013700905
150	0xbc331ded	-0.010932428
151	0x3c9c9767	0.019115163
152	0x39a27570	0.00030986546
153	0x3b18c843	0.0023312725
154	0xbd70a4c8	-0.058750898
155	0xbc3b5492	-0.011433737
156	0x3bad167e	0.0052822223
157	0x39a2fcd9	0.00031087434
158	0x3b18fff9	0.002334593
159	0x3cfe87cc	0.031070612
160	0xbc217845	-0.009855335
161	0x3c9df871	0.019283505
162	0x39a3a8f0	0.0003121565
163	0x3b18e0dd	0.0023327388
164	0xbd3ff68d	-0.04686599
165	0xbc4654d4	-0.012105186
166	0x3a8b05e1	0.001060661
167	0x39a39b64	0.00031205558
168	0x3b19103f	0.002335563
169	0xbd350cc0	-0.044201612
170	0xbc4031f7	-0.011730663
171	0x3be135bc	0.0068728607
172	0x39a2026c	0.00030900852
173	0x3b18cac6	0.0023314222
174	0xbc41feae	-0.0118405055
175	0xbc15fc31	-0.009154365
176	0xbc01480e	-0.007890714
177	0x39a3a036	0.0003120915
178	0x3b18b4e9	0.002330119
179	0xbd4e0b99	-0.05030403
180	0xbc472228	-0.01215414
181	0xbc0b4761	-0.008500905
182	0x39a4f570	0.00031463383
183	0x3b18f188	0.0023337323
184	0x3c4bdeab	0.012443225
185	0xbc40ae9f	-0.011760383
186	0x3c3d2390	0.011544123
187	0x39a308df	0.00031096392
188	0x3b193549	0.0023377708
189	0x3c39f5b6	0.011350086
190	0xbc28e654	-0.010308821
191	0xbb245c0d	-0.002507928
192	0x39a386da	0.00031190255
193	0x3b18e8a3	0.0023332022
194	0x3d026198	0.031831354
195	0xbc174ca7	-0.009234584
196	0x3bae19a7	0.0053131166
197	0x39a2d661	0.00031058773
198	0x3b191d9a	0.0023363591
199	0xbbdb2102	-0.0066872844
200	0xbc4c2374	-0.012459625
201	0xbc18f2ca	-0.009335229
202	0x39a22afb	0.0003093107
203	0x3b18fec7	0.0023345219
204	0xbbc430b0	-0.0059872493
205	0xbc5a4571	-0.01332222
206	0xbb40d4f4	-0.0029423805
207	0x39a40061	0.000312808
208	0x3b18d499	0.0023320077
209	0x3c81b18d	0.015831733
210	0xbc67fa5c	-0.014158811
211	0x3c2f7190	0.010708228
212	0x39a26941	0.00030977468
213	0x3b190bc2	0.0023352955
214	0x3cb52d70	0.022116393
215	0xbc24c12f	-0.010055824
216	0x3c4e7a31	0.012602375
217	0x39a2d1af	0.00031055274
218	0x3b18deb8	0.002332611
219	0xbd1c91f3	-0.038225126
220	0xbc5cb9d1	-0.013472036
221	0xbc1b02dc	-0.009461131
222	0x39a446e7	0.00031333344
223	0x3b1895b2	0.0023282585
224	0xbd514830	-0.051094234
225	0xbc29ef12	-0.01037194
226	0x3c9d6c71	0.019216748
227	0x39a225c7	0.00030927194
228	0x3b18a5fa	0.002329229
229	0x3b818761	0.003952906
230	0xbc3aa48c	-0.01139177
231	0x3b76df1a	0.00376696
232	0x39a1ebfd	0.00030884138
233	0x3b19351b	0.00233776
234	0xbd4382c0	-0.047732115
235	0xbc323b43	-0.010878387
236	0xbb4aa65c	-0.0030921912
237	0x39a15c1c	0.0003077694
238	0x3b18f35e	0.0023338418
239	0x3d069ce4	0.032864466
240	0xbd5cdc26	-0.053920887
241	0xbccce90b	-0.025013467
242	0xbd2c054f	-0.04199725
243	0x3c6184db	0.013764585
244	0xbd739a67	-0.05947342
245	0x3e046564	0.12929302
246	0xbd78ff01	-0.060790066
247	0xbd4564e5	-0.048191924
248	0x3d157708	0.03649047
249	0xbdaae47e	-0.08344363
250	0x3c7abca3	0.015303764
251	0x3e1ea645	0.15493114
252	0xbcf40181	-0.029785873
253	0x3d376e6c	0.04478304
254	0xbccc340a	-0.024927158
255	0xbdb88b00	-0.09010887

find.0.bias f4 [128]
0	0xbd4a2223	-0.04934896
1	0xbcba5bfd	-0.022748942
2	0xbca082ec	-0.019593678
3	0xbc986cd1	-0.018606575
4	0xbccd920d	-0.025094057
5	0xbc953cec	-0.018217526
6	0xbbdc7d61	-0.0067288135
7	0x3c534740	0.012895405
8	0xbc9e1aeb	-0.019299945
9	0xbd2899a5	-0.04116215
10	0x3d58d8ee	0.052941255
11	0xbd5052f1	-0.05086035
12	0xbc268ec9	-0.010165879
13	0xbd1bf96c	-0.038079664
14	0x3aba4abc	0.0014212946
15	0xbd85d1c7	-0.065341525
16	0x3d5b26ff	0.053503986
17	0xbd22da97	-0.039759245
18	0x3dc9a259	0.098454185
19	0xbdb06426	-0.08612852
20	0xbd2690e1	-0.04066551
21	0xbcaae1b8	-0.020859584
22	0xbd2493c1	-0.04017997
23	0xbc9b9b7e	-0.018995043
24	0x3c8428ac	0.016132675
25	0x3b6f070a	0.0036472701
26	0xbcba44a9	-0.022737818
27	0xbd042ce2	-0.032269366
28	0xbb2741a5	-0.0025521305
29	0x3d851191	0.06497491
30	0xbcd75e48	-0.026290074
31	0x3a61ac9e	0.0008608791
32	0x3bbac952	0.005700269
33	0xbc9daacc	-0.019246481
34	0x3d01f3ad	0.031726528
35	0x3d2eb6ae	0.042654686
36	0xbbba084a	-0.0056772577
37	0xbc4d960b	-0.01254798
38	0xbd77a8c3	-0.060463678
39	0xbcd3a94d	-0.025837565
40	0xbcff96f1	-0.031199904
41	0x3ae28364	0.0017281589
42	0xbc2c92f2	-0.010533081
43	0xbd0b8f32	-0.03407211
44	0xbd5a960f	-0.053365763
45	0xbd1fe912	-0.039040633
46	0xbd31e8f7	-0.043435063
47	0xbb8260b2	-0.003978812
48	0xbcbeb355	-0.023278872
49	0x3c31aefb	0.010844941
50	0xbbe73461	-0.0070558046
51	0xbb807477	-0.0039201337
52	0xbd824ade	-0.06361936
53	0x3d6e763c	0.058218226
54	0xbd3d1c39	-0.046169493
55	0xbd86b938	-0.065782964
56	0xbccc73fa	-0.024957646
57	0x3d7a70d9	0.061142776
58	0xbcc3f016	-0.023918193
59	0xbc0952a4	-0.0083815195
60	0xbd5c7328	-0.05382076
61	0xbd4cdcf0	-0.05001539
62	0xbc73cdb8	-0.01488059
63	0xbd8051ed	-0.06265626
64	0xbd62f0ec	-0.055405542
65	0xbd1ee770	-0.038794935
66	0xbc71a162	-0.014747949
67	0xbd306861	-0.043068293
68	0xbb22df95	-0.0024852504
69	0xbd186387	-0.03720429
70	0xbd811b52	-0.06304039
71	0x3c87d042	0.016578797
72	0x3c54d83f	0.01299101
73	0x3d8df327	0.06931143
74	0xbd26bcd8	-0.04070744
75	0x3ce54db2	0.02799115
76	0x3a877cb6	0.0010336849
77	0xbc07cef9	-0.008289092
78	0xbd20131e	-0.03908073
79	0xbcaa073d	-0.020755405
80	0x3d855745	0.06510786
81	0xbcb4e4f6	-0.022081833
82	0xbcf06265	-0.029343793
83	0x3da7b3d5	0.08188597
84	0xbc25f403	-0.010128978
85	0xbb8f0ac0	-0.004365295
86	0x3d8341be	0.06409024
87	0xbce552b0	-0.02799353
88	0xba79f3df	-0.0009534936
89	0xbd3285f7	-0.04358479
90	0xbd56687b	-0.052345734
91	0x3d2d440b	0.04230122
92	0xbcbbd2ee	-0.022927728
93	0x3deac008	0.11462408
94	0xbcc133fa	-0.023584355
95	0xbbb386ba	-0.005478707
96	0xbcc85ff4	-0.024459817
97	0xbcbb3dac	-0.022856556
98	0xbd1f77dd	-0.03893267
99	0xbcd6288e	-0.026142385
100	0x3d756ed5	0.05992015
101	0xbbc09cb5	-0.005878056
102	0xbbb73ee7	-0.0055922153
103	0x3d75faa4	0.060053483
104	0xbc76ab36	-0.015055468
105	0xbcda391a	-0.026638556
106	0xbcbf10e2	-0.02332348
107	0xbc673ccd	-0.014113617
108	0xbd91c033	-0.07116737
109	0xbd20d7e1	-0.03926838
110	0x3c40dfc4	0.0117721
111	0xbd6bf678	-0.057608098
112	0xbd844c66	-0.06459884
113	0xbc7e7617	-0.0155310845
114	0xbc06373c	-0.00819188
115	0xbcb070ab	-0.0215381
116	0xbc0831a7	-0.008312619
117	0xbd04295f	-0.032266017
118	0xbd14c3c9	-0.036319528
119	0xbca4ad46	-0.020102154
120	0xbc37d40a	-0.011219988
121	0x3b10c4b9	0.0022089912
122	0xbd776bec	-0.060405657
123	0xbcaa31aa	-0.020775635
124	0xba966bfc	-0.0011476274
125	0x3cc98ac0	0.024602294
126	0xbd6ac86d	-0.057320047
127	0x3c995b9b	0.018720439

find.2.weight f4 [128, 128]
0	0x3c335024	0.0109444
1	0xbbf4ced9	-0.007470947
2	0x39e93c2c	0.00044486055
3	0xbad05588	-0.0015894631
4	0xbaa10f71	-0.0012287927
5	0x3960e22e	0.00021446563
6	0xba0b2359	-0.00053076964
7	0x3d95e180	0.07318401
8	0x384dafd0	4.9039547e-05
9	0xbd3b2563	-0.04568995
10	0x3bd33dd8	0.0064465813
11	0xba0f301b	-0.00054621854
12	0xbd12e635	-0.035864074
13	0x3da616af	0.08109795
14	0xbd8bb2cf	-0.068212144
15	0xbbc34b18	-0.0059598796
16	0xbcecf55d	-0.028925592
17	0x3a14e46b	0.0005679789
18	0xbd2565ab	-0.04038016
19	0x3c8f2e3c	0.017478101
20	0xbdf033a5	-0.117286004
21	0x3abea17b	0.0014543975
22	0x3c733c26	0.0148458835
23	0x3c40d219	0.011768841
24	0xbd5ba38d	-0.05362277
25	0xbd377c98	-0.044796556
26	0xbdf14b98	-0.117819965
27	0x3be0ad4b	0.0068565956
28	0xb8ff5f82	-0.00012177137
29	0xbd0627a4	-0.032752648
30	0x3c0be5c7	0.00853867
31	0x3d671a29	0.056421433
32	0xbdfbfdc8	-0.12304264
33	0x39f66b95	0.0004700093
34	0xbdb1df85	-0.08685211
35	0xbc9a2feb	-0.018821677
36	0xbd079a1f	-0.033105966
37	0xbd23e927	-0.040017273
38	0xbdcd2cee	-0.10018335
39	0xbe058a52	-0.13041046
40	0x3a8594c9	0.0010191436
41	0x3e82aa7e	0.255207
42	0x394f73f0	0.00019784248
43	0x3a7b3fae	0.0009584379
44	0xbe25ad7c	-0.1617946
45	0xbe005e6a	-0.12536016
46	0xbe0fcc10	-0.14042687
47	0x3da76e89	0.0817538
48	0xbc2bec8d	-0.01049341
49	0x3c9ead8d	0.019369865
50	0xb8932419	-7.01623e-05
51	0xb9ea833c	-0.00044729735
52	0xbd4ea61f	-0.050451394
53	0x3e77ca8d	0.2419836
54	0xbc73c5c0	-0.01487869
55	0xbc6039b1	-0.01368563
56	0xbb3caa5b	-0.0028788063
57	0xbd999a25	-0.07500104
58	0xbe6e4251	-0.23267485
59	0x38c9e142	9.6263844e-05
60	0xbc881381	-0.016610863
61	0x38808817	6.128864e-05
62	0xbd9be8d6	-0.07612769
63	0xbdc54581	-0.096323974
64	0x3ae52a72	0.0017483963
65	0x3bc71c5f	0.00607638
66	0x3e02ffe8	0.12792933
67	0xbcb451a5	-0.022011587
68	0xbe1737b7	-0.14767347
69	0xbdb45a3c	-0.08806273
70	0xbd1e0fa5	-0.03858914
71	0xbe846545	-0.25858513
72	0xbe3bbc24	-0.18333489
73	0xbc1d8600	-0.009614468
74	0x3acdbf55	0.001569728
75	0x3ca3e76f	0.020007817
76	0x3ae9b0e8	0.0017829211
77	0xb802cd6c	-3.118573e-05
78	0x3d09f6d2	0.03368265
79	0x39f47321	0.00046625084
80	0x3d88e3ba	0.066840604
81	0x3de054da	0.10953684
82	0xbc18827d	-0.009308455
83	0xbd8e071f	-0.06934952
84	0xbb2b8190	-0.0026169755
85	0xb9c38524	-0.00037292496
86	0x3de99b53	0.11406579
87	0x3b567847	0.00327255
88	0x3df6bca8	0.12047702
89	0x39cd6e68	0.00039182906
90	0x3b803e2c	0.0039136615
91	0xbcc6ec8f	-0.024282722
92	0x3c12d0c8	0.00896091
93	0x3e0483f3	0.1294096
94	0x39bd1f75	0.00036072326
95	0x3dbc054e	0.09180699
96	0xbb04accf	-0.0020244604
97	0xbb77ea6f	-0.0037828942
98	0x3af39861	0.0018584841
99	0x3ab8f643	0.0014111478
100	0x3c076386	0.008263474
101	0x39295424	0.00016148441
102	0xbb07035c	-0.0020601368
103	0x3dae7123	0.08517673
104	0x38b117f9	8.444483e-05
105	0x39bdca0a	0.0003619942
106	0xbc5a9185	-0.013340359
107	0xb9302123	-0.00016797012
108	0xbdc3b70a	-0.09556396
109	0xbd3a0f8e	-0.04542499
110	0xbcf2b65b	-0.02962797
111	0xbdd0ed30	-0.1020149
112	0xbcf5a953	-0.029987967
113	0x3a543f50	0.00080965925
114	0x390770dd	0.00012916648
115	0x3cc2b48f	0.023767738
116	0xbcbacea1	-0.022803606
117	0xbd43ca9c	-0.047800645
118	0xbcc440b4	-0.023956634
119	0x3cfd1c83	0.030897385
120	0x396f88b7	0.00022843746
121	0xba3dc117	-0.00072385505
122	0xbdeab8dd	-0.11461041
123	0xbd7c6668	-0.0616211
124	0x391b2bea	0.00014798311
125	0xbc342cfc	-0.010997053
126	0xbb8d12bc	-0.004305212
127	0x3dc2f20c	0.09518823
128	0x391725ae	0.00014414519
129	0xb826fb96	-3.981179e-05
130	0x381834bb	3.6288733e-05
131	0xb71d6da3	-9.383456e-06
132	0xb6a91b52	-5.039773e-06
133	0x35b1e8e2	1.3255305e-06
134	0x3820de42	3.8353966e-05
135	0x3acb2351	0.0015498196
136	0x371bea0d	9.293214e-06
137	0x39450b8b	0.00018791684
138	0xba971f07	-0.0011529633
139	0x3a281af5	0.00064127083
140	0xb9a35b2e	-0.00031157717
141	0x399cc3bb	0.0002990047
142	0xb9b38de3	-0.00034247254
143	0x39369741	0.00017413219
144	0x3a0b8bce	0.0005323262
145	0x387441de	5.8235477e-05
146	0xbc7c3348	-0.015393086
147	0xba10c654	-0.0005522717
148	0x39b41606	0.00034348684
149	0x37e5e63b	2.7406137e-05
150	0xb84cbce1	-4.8813297e-05
151	0xbb255328	-0.0025226567
152	0xb6b52118	-5.398073e-06
153	0xbc82f1c6	-0.015984427
154	0xb91fd46f	-0.0001524256
155	0x3845e066	4.7177447e-05
156	0xb6a2c0b2	-4.850409e-06
157	0xba222631	-0.00061855005
158	0xba7ff33c	-0.0009763723
159	0x36e6dbe3	6.8801323e-06
160	0xbbe55009	-0.0069980663
161	0xbae46200	-0.0017424226
162	0xb624c51d	-2.455264e-06
163	0xb96044ed	-0.00021387982
164	0x39bbc081	0.00035810846
165	0xbc9aa7ff	-0.018878935
166	0x39301da1	0.00016795706
167	0x389b7c3f	7.4141186e-05
168	0x3828774a	4.0165418e-05
169	0x39c0b15e	0.00036753243
170	0x34e718d0	4.3045156e-07
171	0x38a6be73	7.950971e-05
172	0xbbf7a0ad	-0.007556996
173	0xbaf9b892	-0.0019052199
174	0x3a79eaa1	0.00095335586
175	0xb88c2de5	-6.684269e-05
176	0xba36d167	-0.00069739524
177	0xbac2c574	-0.0014859871
178	0x35f70dce	1.8406952e-06
179	0x380ae190	3.3111835e-05
180	0xbb4d1de5	-0.0031298336
181	0xbc577001	-0.013149262
182	0xb9a8dfc4	-0.00032210175
183	0xba5f4741	-0.00085173926
184	0x380e0ba1	3.386627e-05
185	0x39882326	0.0002596613
186	0xbc591a60	-0.013250917
187	0xb6cac302	-6.042771e-06
188	0x3b1158af	0.0022178104
189	0x38bed223	9.099047e-05
190	0xb8bda4c4	-9.042912e-05
191	0xbc550fb3	-0.013004231
192	0x389c76da	7.4607975e-05
193	0xb9106f8d	-0.00013774466
194	0x3d19a353	0.037509274
195	0x3a9e8c93	0.0012096338
196	0xbc741bfa	-0.014899248
197	0xb9e2418d	-0.00043154918
198	0xbaabe6b0	-0.0013115015
199	0xbc6cb00f	-0.0144462725
200	0x37544422	1.2652048e-05
201	0xbb7b06f9	-0.0038303717
202	0x378854e5	1.6251995e-05
203	0xbb1cc997	-0.0023923868
204	0x3933d22a	0.00017149062
205	0x35af3b88	1.3055842e-06
206	0xbc9c96a0	-0.019114792
207	0x37db58ac	2.6148125e-05
208	0xb79ea6ee	-1.89128e-05
209	0x3a00e7cf	0.00049173547
210	0xbae12bf4	-0.0017179237
211	0xba20dccc	-0.0006136417
212	0xb7abd3e6	-2.0483461e-05
213	0x3855af3a	5.094635e-05
214	0x3ac289fd	0.0014842149
215	0x39795a94	0.00023780233
216	0x3ca2abfd	0.019857401
217	0xb811fca4	-3.4805984e-05
218	0xbb156c99	-0.0022800325
219	0xbd2546e9	-0.04035083
220	0x37e1bf38	2.6911133e-05
221	0xbc073e30	-0.008254573
222	0xb6ad3d86	-5.162964e-06
223	0xbb836d97	-0.004010867
224	0x3ab815cc	0.0014044582
225	0x39080b35	0.00012974146
226	0xb89cbd12	-7.473877e-05
227	0xb8fe234a	-0.00012118237
228	0x393f7dd1	0.0001826205
229	0x366af69e	3.5012267e-06
230	0xbabe01c3	-0.0014496375
231	0x3a9ce4cd	0.0011970043
232	0xb6fcaef9	-7.5305547e-06
233	0xb67e86ed	-3.7927487e-06
234	0xb90b6965	-0.00013295336
235	0x37b63113	2.1718943e-05
236	0xbb9661f6	-0.0045893146
237	0xbc8bf3ad	-0.017083967
238	0xbb1082f8	-0.002205072
239	0xba4fd2f4	-0.0007927858
240	0xb902cc16	-0.00012473794
241	0x371d68cc	9.382329e-06
242	0x363f479a	2.8502895e-06
243	0x3a072644	0.00051555433
244	0xb9c82cb5	-0.00038180282
245	0xba0ee90e	-0.0005451598
246	0xb9afc24f	-0.00033523372
247	0x3d4ab48a	0.04948858
248	0x358cb82a	1.0484412e-06
249	0xb5ac77fb	-1.2849918e-06
250	0xba0e34a5	-0.0005424715
251	0x38df1915	0.000106381405
252	0xb4f8d8fb	-4.6351474e-07
253	0x3953398a	0.00020143963
254	0x38a2106b	7.72782e-05
255	0xbce88cf5	-0.028387526

find.2.bias f4 [128]
0	0x3dfc48f9	0.12318606
1	0xbc418fef	-0.011814102
2	0x3c3e3745	0.011609857
3	0x3bb35bfd	0.0054736123
4	0xbc269e70	-0.01016961
5	0x3c71731e	0.014736919
6	0x3e12351f	0.14278077
7	0xbb38a341	-0.0028173479
8	0xbca4189d	-0.020031268
9	0xbbe059d6	-0.006846647
10	0x3e03cbae	0.12870666
11	0x3badf7ee	0.0053090965
12	0x3dd3e745	0.103468455
13	0xbcf31676	-0.029673796
14	0x3d8951c1	0.067050464
15	0x3dc98e07	0.09841543
16	0x3e1faacd	0.15592499
17	0xbc5edf83	-0.013603094
18	0xbc66e5d3	-0.01409288
19	0x3d89bf24	0.0672591
20	0xbdc26514	-0.09491935
21	0xbd16a0ed	-0.036774565
22	0x3da8d7b1	0.08244265
23	0x3bc5f97a	0.006041703
24	0xbda5e9b5	-0.08101217
25	0xbc040015	-0.00805666
26	0x3d9a086f	0.0752114
27	0x3ccfa98d	0.025349403
28	0x3d4fcd0c	0.050732657
29	0x3dc35348	0.09537369
30	0x3c380063	0.011230561
31	0xbcc81f6f	-0.024429051
32	0xbc8cf4ce	-0.017206576
33	0x3d4cf8c4	0.05004193
34	0x3d4e37f0	0.050346315
35	0xbae2bbc6	-0.0017298392
36	0x3a17dbe4	0.0005792959
37	0xbd3704be	-0.044682257
38	0xbc58ce6a	-0.013232807
39	0x3cc6bc78	0.02425979
40	0x3babc317	0.0052417624
41	0xbd0eb0cd	-0.03483658
42	0x3d9581d9	0.07300157
43	0xbc293f2f	-0.010330006
44	0x3d053f7c	0.032531247
45	0x3c8ff619	0.017573403
46	0x39657b56	0.00021885088
47	0x3e2a3f16	0.16625628
48	0xbd664580	-0.056218624
49	0x3c9030b8	0.017601356
50	0xbd47ef92	-0.048812456
51	0x3e0f3f4f	0.13988994
52	0x3b86e19a	0.0041162493
53	0x3d1f0c59	0.038830135
54	0x3d870aed	0.06593881
55	0xbc6fad4d	-0.0146287205
56	0x3e0fcd98	0.14043272
57	0x3a3d5ba9	0.0007223436
58	0xbdb5307f	-0.088471405
59	0x3ca9262f	0.02064809
60	0xbc3a997a	-0.011389131
61	0xbc54dbfa	-0.0129919
62	0xbc06cc88	-0.008227475
63	0x3d8d6b0d	0.06905184
64	0x3b907ebe	0.00440964
65	0xbcb3da52	-0.02195469
66	0xbcdcfb33	-0.02697525
67	0x3e274922	0.16336492
68	0x3d067e43	0.032835256
69	0x3d050280	0.032473087
70	0x3d07e64f	0.033178624
71	0xbd192034	-0.037384227
72	0x3c3f2288	0.011665948
73	0xbbd34c9d	-0.006448342
74	0x3d89e84b	0.067337595
75	0x3ca7648b	0.020433685
76	0xbd2ae40c	-0.04172139
77	0x3b10b038	0.002207769
78	0x3ca6fb89	0.020383613
79	0x3c93e9b0	0.018055767
80	0xbd02a01d	-0.031890977
81	0x3d9887f3	0.07447805
82	0x3d2f14bf	0.042744394
83	0xbbef77ae	-0.007307968
84	0xbd29f9e1	-0.04149807
85	0x3d7a4998	0.06110534
86	0xbb5e627b	-0.003393321
87	0xbc644137	-0.013931564
88	0xbd372160	-0.044709563
89	0xbc3f3789	-0.011670955
90	0x3c82b3a6	0.015954804
91	0xbd0c3940	-0.034234285
92	0xbc4ada98	-0.012381218
93	0x3d855526	0.065103814
94	0x3dcccb43	0.099997066
95	0x3cb3bec2	0.021941546
96	0x3e05b049	0.13055529
97	0xbd5229e5	-0.051309485
98	0x3d1c782e	0.03820055
99	0xbd1ca6d9	-0.038245056
100	0xbcc2ce1b	-0.02377992
101	0x3d407820	0.04698956
102	0x3d2de67d	0.04245614
103	0x3d11eb9c	0.035625085
104	0xbd35c7cc	-0.044379994
105	0xbda1dbc6	-0.079032466
106	0x3dbc71e7	0.09201413
107	0x3d739a01	0.05947304
108	0x3d0584d1	0.032597367
109	0xbb96b56d	-0.0045992644
110	0x3c54a355	0.0129783945
111	0xbd0fe471	-0.035129968
112	0x3dab3828	0.0836032
113	0x3cf1f475	0.029535512
114	0x3d343c57	0.044002857
115	0x3d4d2fda	0.050094463
116	0x3d611d4c	0.05495958
117	0xbd4a848f	-0.049442824
118	0x3b1e8de7	0.0024193467
119	0x3b5eb951	0.003398497
120	0x3db2cad9	0.08730096
121	0xbdb7b7ef	-0.089706294
122	0x3cbbe62f	0.022936909
123	0x3c079cee	0.008277161
124	0x3d95879a	0.073012546
125	0xbd6f66e4	-0.058447734
126	0xbc4a0a3b	-0.012331541
127	0xbcb79ab9	-0.022412645

find.4.weight f4 [64, 128]
0	0xbda19022	-0.07888819
1	0xbbabc5c2	-0.0052420804
2	0xbafc4a73	-0.0019248262
3	0x3cc962d7	0.024583263
4	0x3d2e21c6	0.042512678
5	0xbd3033f6	-0.043018304
6	0xbd2b2aa1	-0.0417887
7	0x3d0da4ce	0.034580998
8	0x3cc13fd5	0.023590008
9	0xb9c97da9	-0.00038431332
10	0xbcb79188	-0.022408262
11	0x3c254d6f	0.010089262
12	0x3dccad14	0.099939495
13	0xba1ec4fa	-0.00060565735
14	0xbd8e5695	-0.06950108
15	0x3e6167f4	0.22012311
16	0x3ccad725	0.024760792
17	0x3c053b1f	0.008131771
18	0xb720b06a	-9.577818e-06
19	0xbdd72db3	-0.10506763
20	0x3cfb9926	0.030712675
21	0xbaf32869	-0.0018551472
22	0x3c61787f	0.013761639
23	0xbbc576fc	-0.006026147
24	0x3dcc3bc0	0.09972334
25	0x3d35ee40	0.044416666
26	0x3d91b83b	0.07115217
27	0xbcb257b0	-0.021770328
28	0xbd39352b	-0.04521672
29	0x3bd037c5	0.0063543045
30	0xbdb36976	-0.087603495
31	0xb8c48b39	-9.3719405e-05
32	0x3d7b52f8	0.061358422
33	0xbd4be9b1	-0.049783412
34	0x3decb0dd	0.115571715
35	0x3c3a7ffc	0.011383053
36	0x3d598bf1	0.053111974
37	0x3db271a1	0.08713079
38	0xbc5b8eb1	-0.0134007195
39	0x3d1d3b7f	0.038386818
40	0x3de2caad	0.110738136
41	0x3dee36be	0.11631535
42	0x3b7479ba	0.0037304
43	0x3d47cc7d	0.048779
44	0x3d98ea0f	0.07466518
45	0xbca48d8f	-0.020087032
46	0xbdb3d621	-0.08781076
47	0x3b9fe85c	0.0048799943
48	0x38eac564	0.000111947564
49	0x3ddbedac	0.10738692
50	0x3c50f6a2	0.012754114
51	0xbccf977e	-0.025340792
52	0x3d5c5f14	0.05380161
53	0x3d9bf3ac	0.07614836
54	0x3e0d63c3	0.13807587
55	0x3c7e4db2	0.015521454
56	0xbdf1920a	-0.11795433
57	0xbcce5ad7	-0.0251898
58	0x3d6260d5	0.055268127
59	0xbbaa739e	-0.005201771
60	0x3d99f5a7	0.075175576
61	0x3c12cbcd	0.008959723
62	0xb8e2cdef	-0.00010814878
63	0x3ca007b2	0.01953492
64	0xbdf5baab	-0.11998495
65	0xbac98e52	-0.0015377498
66	0x3e1450dc	0.1448397
67	0xbcc3fc27	-0.023923947
68	0x3d8857ac	0.06657347
69	0x3de2415b	0.11047622
70	0xbc83c82c	-0.01608666
71	0x3a84ecc9	0.0010141368
72	0x3b8c37aa	0.0042790966
73	0xb910d59c	-0.00013812486
74	0xbd475d94	-0.048673227
75	0x3e02d908	0.12778103
76	0x3b34842a	0.0027544596
77	0x3d816cea	0.06319602
78	0xbbdd480f	-0.006752975
79	0xbd0cdef0	-0.034392297
80	0xbcce1b10	-0.025159389
81	0xbd50e555	-0.050999958
82	0xbd208b0e	-0.039195113
83	0xb91795b8	-0.00014456257
84	0x3e1efaa6	0.15525302
85	0xba888474	-0.0010415451
86	0xbc444fe1	-0.011981935
87	0x3db5f3e9	0.08884413
88	0xba2a2834	-0.0006490976
89	0x3e8dffc0	0.27734184
90	0x3c9e3b2b	0.019315323
91	0x3dc2baa3	0.095082544
92	0x39337191	0.00017113077
93	0x3d729f6d	0.05923407
94	0xbe0c198e	-0.13681623
95	0x3c140e43	0.009036603
96	0x3d7bf2be	0.061510794
97	0xbcb2c919	-0.021824406
98	0x3d0cce88	0.03437665
99	0xbd55afb9	-0.052169535
100	0xba8640ed	-0.0010242738
101	0xbd9b8101	-0.07592965
102	0x3cc7024d	0.02429309
103	0xbd93e109	-0.072206564
104	0x3c0a02f7	0.008423558
105	0x3dc1d4a5	0.09464387
106	0xbdde5889	-0.108567305
107	0x3d9e428d	0.07727537
108	0xbc39fb0b	-0.011351357
109	0xbbf1fcda	-0.0073848786
110	0xbd13a1e0	-0.036043048
111	0x3c883a11	0.01662925
112	0x3ced9759	0.029002832
113	0xbcc6fb31	-0.0242897
114	0x3d4373da	0.047717907
115	0xbcb251eb	-0.021767577
116	0x3cb77e9c	0.02239924
117	0xbbd5e29c	-0.006527258
118	0x3c1c29a5	0.009531413
119	0x3d820aa0	0.06349683
120	0x3d9b1090	0.075715184
121	0x3d8a38b1	0.06749094
122	0x3da97e40	0.082760334
123	0xbca6c87f	-0.020359276
124	0xbdb186cb	-0.08668288
125	0x3df0ee7e	0.11764239
126	0xbc4dbff3	-0.012557971
127	0xbccf4e60	-0.025305927
128	0xbd408cc6	-0.047009252
129	0x3a6adaa3	0.0008958971
130	0x3c279616	0.010228654
131	0x3d820f84	0.063506156
132	0x3d19c4e6	0.037541293
133	0xbd4169d9	-0.047220085
134	0xbd82028f	-0.06348144
135	0x3af6f175	0.001884027
136	0x39959aa2	0.00028534705
137	0x39b373a6	0.00034227705
138	0xbdea6920	-0.11445832
139	0xbb7a2c77	-0.0038173476
140	0xbd568a6c	-0.052378103
141	0x3a1eb708	0.00060544955
142	0xbd38dfaa	-0.045135178
143	0x3da58891	0.080826886
144	0xbc391a99	-0.011297845
145	0x3db89aa6	0.09013872
146	0x3928bb77	0.00016091565
147	0xbdab8fdd	-0.08377049
148	0x3d73fc39	0.05956671
149	0x3a448099	0.0007495969
150	0xbd42a8f6	-0.047524415
151	0x3de1f867	0.11033707
152	0x3bda7ed4	0.006667951
153	0x3d143940	0.03618741
154	0x3d857a3c	0.06517455
155	0x3d90d196	0.07071225
156	0xbcdbee89	-0.02684714
157	0xbcc4e7d1	-0.02403632
158	0xbca3b341	-0.019982936
159	0x397172fc	0.00023026386
160	0x3ce1c107	0.027557863
161	0xbd7fb9bc	-0.06243299
162	0x3d74e82a	0.05979172
163	0xbc1b5161	-0.009479851
164	0x3c3d08db	0.011537756
165	0xbc4c73be	-0.012478767
166	0xbb8ca3ab	-0.0042919717
167	0xbd36595a	-0.044518806
168	0x3bb595c6	0.005541536
169	0x3db4b0ea	0.08822806
170	0xbce9bed5	-0.028533379
171	0xbb99b196	-0.0046903593
172	0x3bfa2dd2	0.0076348567
173	0x3aea5b56	0.0017880003
174	0xbc133ff2	-0.008987414
175	0xbb382627	-0.0028098912
176	0xba7aa045	-0.0009560625
177	0x3d0781d6	0.033082806
178	0x3cebf512	0.028803382
179	0xbdd911ed	-0.10599122
180	0x3ceac459	0.028658079
181	0x3cda73bf	0.02666652
182	0x3daf02c1	0.08545447
183	0xbce5ea93	-0.028065955
184	0xbd7dd60b	-0.061971705
185	0x3dbd58d7	0.092454605
186	0x3ce85fc2	0.028365973
187	0x3ce3959a	0.027781297
188	0x3b95de29	0.0045736027
189	0x3adec45f	0.0016995779
190	0x397d9bb0	0.00024185958
191	0xbc83d683	-0.016093498
192	0xbd74a5b2	-0.059728332
193	0x39685584	0.00022157101
194	0x3c74e930	0.014948174
195	0xbc50bfb4	-0.012741018
196	0x3c278599	0.010224723
197	0x3d6c85a8	0.057744652
198	0x3c315741	0.010824026
199	0x38ebecdd	0.000112497924
200	0xbbbb09bc	-0.0057079475
201	0x37e42275	2.7195763e-05
202	0xbd6754db	-0.05647741
203	0x3de74601	0.11292649
204	0x3bb3e101	0.005489469
205	0x3cfe7ce1	0.031065406
206	0xbc187c3c	-0.0093069635
207	0xbcb6d454	-0.022318043
208	0xbb33648b	-0.002737316
209	0xbd135fce	-0.03598004
210	0x3d07296f	0.0329985
211	0x383cc558	4.5006484e-05
212	0x3ddafe88	0.10693079
213	0x3c8eb18a	0.017418642
214	0x3863f5d0	5.434995e-05
215	0x3de43b34	0.111441046
216	0x39316fd8	0.000169217
217	0x3b890354	0.004181305
218	0x3dc742b4	0.097295195
219	0x3d9df19e	0.077121004
220	0xbb4cff64	-0.0031280154
221	0xbc9b0695	-0.018924037
222	0xbd99f0a7	-0.07516604
223	0xbc98497d	-0.01858973
224	0xbce70b2b	-0.028203567
225	0xbc2f77d3	-0.010709721
226	0x3d4bb3bf	0.049731966
227	0xbd0f6c57	-0.03501543
228	0x3db6ea23	0.08931377
229	0xbdc0ff3f	-0.09423684
230	0xbbd34689	-0.0064476174
231	0xbd0deec7	-0.034651544
232	0x3dea3b93	0.11437144
233	0x3dc2899a	0.09498902
234	0xbda3cf19	-0.07998485
235	0x3cd98a39	0.026555168
236	0xbb507d76	-0.0031813062
237	0xba8ef6d8	-0.0010907305
238	0x3d1e8697	0.038702574
239	0x3b2e3f14	0.002658789
240	0x3d809384	0.062781364
241	0x3adbe587	0.0016776779
242	0xbd391ef6	-0.045195542
243	0x3b3d98b7	0.0028930136
244	0xbd2b93da	-0.04188905
245	0x3b5c808c	0.0033645956
246	0x3d01aab2	0.03165693
247	0x3ac8c6cb	0.0015318034
248	0x3c316332	0.010826873
249	0x3d8e1fd7	0.06939667
250	0xbc90a901	-0.017658712
251	0x3d98f416	0.07468431
252	0xbd787fcf	-0.060668763
253	0x3d9e9815	0.07743851
254	0x3c505a91	0.012716905
255	0xbc3172c3	-0.010830584

find.4.bias f4 [64]
0	0x3de2c162	0.11072041
1	0x3ced3946	0.028957974
2	0x3dc333e4	0.09531382
3	0xbd9bad51	-0.07601417
4	0xbc9efbdb	-0.019407203
5	0x3d0b59f3	0.03402133
6	0xbbe4a573	-0.006977731
7	0x3c4cd566	0.01250205
8	0xbd4f35ae	-0.050588302
9	0xbcb4dca4	-0.022077866
10	0x3d387be5	0.04504003
11	0x3d6f94db	0.05849157
12	0xbd75d8a5	-0.06002106
13	0x3e108cfd	0.14116283
14	0x3d8d835b	0.0690982
15	0x3db72ba9	0.089438744
16	0x3cd81650	0.026377827
17	0x3d2e4eff	0.042555805
18	0x3d3083e1	0.04309452
19	0x3dccdab4	0.10002652
20	0xbdd7ac84	-0.105309516
21	0xbc46b22d	-0.012127441
22	0xbd2930fc	-0.04130648
23	0xba6e6dc0	-0.00090953335
24	0x3cc1ae0d	0.023642564
25	0x3dcccf27	0.10000449
26	0xbd1e76e6	-0.03868761
27	0x3d1b16db	0.037863594
28	0x3d9bc7d1	0.07606471
29	0x3db98b19	0.09059734
30	0xbbb9adf9	-0.005666491
31	0x3c3b0803	0.011415484
32	0xbc6ddc8e	-0.014517916
33	0x3d665186	0.05623009
34	0x3de11540	0.10990381
35	0xbb627dbf	-0.0034559814
36	0xbbdf10ba	-0.006807414
37	0x3c80cf74	0.015723921
38	0x3d34286e	0.04398387
39	0x3db3e012	0.087829724
40	0x3cbed746	0.02329601
41	0x3dba6386	0.09101014
42	0x3cb953db	0.022622993
43	0x3da5b398	0.080908954
44	0x3da9cd17	0.08291071
45	0xbd00fbdd	-0.031490196
46	0x3c4394fc	0.011937376
47	0x3c1e0237	0.009644083
48	0x3b951ee9	0.004550804
49	0xbcba1de8	-0.022719339
50	0x3b1f1ae4	0.0024277503
51	0xbdbab10d	-0.09115801
52	0x3d355c2d	0.04427736
53	0x3d0dd5c4	0.03462769
54	0xbce7b20b	-0.02828314
55	0x3d924e64	0.07143858
56	0xbc33a29b	-0.010964061
57	0x3cb00720	0.021487772
58	0x3cc4cf0b	0.024024507
59	0xbcada6d6	-0.021197718
60	0xbd3a51df	-0.045488235
61	0x3db63844	0.088974506
62	0x3c755c12	0.014975565
63	0x3d546a61	0.051859263

find.6.weight f4 [2, 64]
0	0x3e026282	0.1273289
1	0x3d3dce20	0.046339154
2	0xbd48c57c	-0.04901646
3	0x3d0ee77b	0.034888726
4	0xba1deded	-0.00060245284
5	0x3dd70a35	0.10499994
6	0xbbd9162e	-0.0066249585
7	0x3c62f98e	0.013853444
8	0x3a0873dd	0.0005205253
9	0x3d28e2e8	0.04123202
10	0x3d033ef9	0.032042477
11	0x3d32ed2a	0.04368321
12	0xbcefa2ca	-0.029252429
13	0x3d5103af	0.051028904
14	0xbd71de3b	-0.059049826
15	0x3dd2cbe9	0.10292799
16	0x3d6ed4a5	0.058308262
17	0x3d511557	0.051045742
18	0xbdd2b9a0	-0.102893114
19	0x3d1eb047	0.03874233
20	0x3a8da243	0.0010805804
21	0xbba04b05	-0.0048917555
22	0x3d06a7fc	0.032875046
23	0xbd47c285	-0.048769493
24	0xbd15eb09	-0.0366011
25	0xba9fd460	-0.001219403
26	0xbd987794	-0.07444683
27	0x3d49b614	0.04924591
28	0xbdc7a3f0	-0.097480655
29	0xbc7b469b	-0.015336658
30	0xbb7bb1ff	-0.0038405654
31	0x3de1982c	0.110153526
32	0xbe466456	-0.19374213
33	0x3ce156b8	0.027507171
34	0x3dd8a263	0.10577848
35	0xbd017230	-0.03160304
36	0x3c1a9b83	0.009436491
37	0x3ddbecc1	0.107385166
38	0xbe4d7fa1	-0.20068218
39	0xbd3c4a21	-0.045969132
40	0x3b8d9f0a	0.0043219374
41	0x3e2a49ec	0.16629761
42	0x3cef74e9	0.029230552
43	0xbd22cbef	-0.039745267
44	0xbb519549	-0.003197985
45	0x3ce33e47	0.027739657
46	0x3e13a05d	0.14416642
47	0xbcee539c	-0.029092602
48	0xbcff67d1	-0.031177433
49	0x3d68f584	0.056874767
50	0x3c00d7ab	0.007863919
51	0x3dc19977	0.09453099
52	0x3dfebcf1	0.124383815
53	0x3d4fc5c2	0.050725706
54	0xbc1d117b	-0.009586687
55	0xbdba8886	-0.09108071
56	0xbc6455b6	-0.013936451
57	0x3da5bdcd	0.08092842
58	0x3b5fd0e0	0.0034151599
59	0xbd0d74c3	-0.03453518
60	0xbbb8eda3	-0.005643563
61	0xbd6fdf64	-0.05856265
62	0xbd42bb10	-0.047541678
63	0x3e226b17	0.15861164
64	0xbc4ac030	-0.012374923
65	0xbd470838	-0.048591822
66	0x3d787ef5	0.06066795
67	0x3d71a2d6	0.058993183
68	0x3c876e67	0.016532136
69	0x3d325c5a	0.043545105
70	0x3a996081	0.0011701734
71	0xbe7255f3	-0.236656
72	0x3d593740	0.053031206
73	0x3d8ea167	0.06964379
74	0xbe1898fa	-0.14902106
75	0xbe3110f4	-0.17291623
76	0xbc80dfc2	-0.015731696
77	0x3e41fe70	0.18944716
78	0x3e5f4e07	0.21807109
79	0xbd573ee7	-0.052550223
80	0xbe0d97b0	-0.13827395
81	0x3cd168e8	0.025562719
82	0xbe920003	-0.28515634
83	0x3e456049	0.19275011
84	0x3e930a92	0.28719002
85	0x3ce52b7e	0.02797484
86	0xbc9df06e	-0.019279685
87	0xbe7605dc	-0.24025673
88	0xbe388b2e	-0.18021843
89	0x3e35cd66	0.17754135
90	0x3e922d1f	0.2855005
91	0x3e243285	0.16034897
92	0xbe69c737	-0.228299
93	0xbe16856c	-0.14699334
94	0x3c036b90	0.00802125
95	0x3ce053fb	0.027383795
96	0xbdb7dc54	-0.08977571
97	0x3df4f018	0.11959857
98	0xbd587f23	-0.052855622
99	0xbe717f41	-0.235837
100	0xba638cd3	-0.0008680347
101	0xbe2c2ec0	-0.16814709
102	0x3d89489b	0.067033015
103	0xbe3b05be	-0.18263909
104	0xbdf426c8	-0.119214594
105	0x3d4de5ff	0.05026817
106	0x3db63c21	0.088981874
107	0x3e0f5016	0.13995394
108	0xbe4ed94c	-0.2020008
109	0xbcac7669	-0.021052556
110	0x3c864fe2	0.016395513
111	0xbe69bc68	-0.22825778
112	0xbe88ef4f	-0.26745078
113	0xbbab35cb	-0.0052249185
114	0xbe71d491	-0.23616244
115	0xbe013956	-0.12619528
116	0xbc44d63b	-0.012013967
117	0xbd0bf939	-0.034173224
118	0xbc857ebf	-0.016295789
119	0xbe71c05a	-0.23608533
120	0xbe694091	-0.22778536
121	0x3d0866c9	0.03330115
122	0xbde3638c	-0.111029714
123	0xbe83ccdd	-0.25742236
124	0xbe3133c4	-0.17304903
125	0x3e156d07	0.14592372
126	0x3e4097f1	0.18807961
127	0xbd1528b6	-0.036415778

find.6.bias f4 [2]
0	0xbcf60518	-0.030031726
1	0x3d854362	0.06506993

grapher.0.weight.weight f4 [5, 1]
0	0x3eb5ad65	0.35483852
1	0xba20a71c	-0.0006128417
2	0x3e5e20f3	0.21692257
3	0xbdc7983c	-0.09745833
4	0xbd10f3e1	-0.03538883

grapher.0.weight.bias f4 [5]
0	0xbe138bca	-0.14408794
1	0x3b3b8c97	0.0028617734
2	0x3f2dea28	0.6793542
3	0xbf1209b3	-0.5704605
4	0xbe5dc7c9	-0.21658243

grapher.0.reduce.weight f4 [5, 1]
0	0xba97e135	-0.0011587503
1	0xb60347a8	-1.956223e-06
2	0x3ea5d8b7	0.32391903
3	0xbb646c83	-0.0034854717
4	0x3a571959	0.0008205376

grapher.0.reduce.bias f4 [5]
0	0xbc561976	-0.013067594
1	0xb61186de	-2.1685187e-06
2	0xbd4786c4	-0.048712507
3	0xbbc8421b	-0.006111396
4	0x3e4c53db	0.19953863

grapher.0.gru.weight_ih f4 [15, 5]
0	0xb66cf230	-3.5307712e-06
1	0xb3fb83f2	-1.1712099e-07
2	0xb7e9fff2	-2.7894948e-05
3	0x37c6b92b	2.3689665e-05
4	0x370513b5	7.932006e-06
5	0xb6a33501	-4.863949e-06
6	0xb3ab758b	-7.984189e-08
7	0x3abce062	0.0014410133
8	0xba57813f	-0.0008220858
9	0xb7bf88de	-2.2832708e-05
10	0xb58f3ad3	-1.067145e-06
11	0x306f3c72	8.703359e-10
12	0x3d042674	0.032263234
13	0xb9ff1d84	-0.0004865938
14	0x3b07cdc1	0.0020722004
15	0x372b2b71	1.0202509e-05
16	0x3528a718	6.282803e-07
17	0xb575e850	-9.160767e-07
18	0xb6f33982	-7.248659e-06
19	0xb6ad9f25	-5.1743286e-06
20	0xb6301aa5	-2.6241553e-06
21	0xb436ee5a	-1.7036783e-07
22	0xb7f667e0	-2.9373856e-05
23	0x37b7d22b	2.1913167e-05
24	0x36f0c306	7.175261e-06
25	0x3aa0b187	0.0012259939
26	0xb856ec70	-5.1241776e-05
27	0xbd21ad57	-0.03947195
28	0x39d198b2	0.00039977353
29	0xbb28e100	-0.0025768876
30	0xb96ebaaf	-0.00022766994
31	0x381e7597	3.777965e-05
32	0x3cdaba1c	0.026700072
33	0x3c0886ed	0.00833295
34	0x3a24a1fe	0.0006280242
35	0x3aa53d8d	0.0012606845
36	0xb8424998	-4.6321744e-05
37	0x3c9fdb96	0.019513886
38	0xbcda8a44	-0.026677258
39	0xbbb840c0	-0.005622953
40	0x3b2acbb8	0.0026061367
41	0x37e0968f	2.677299e-05
42	0x3cc673ca	0.024225134
43	0xbd9ef30a	-0.077612
44	0x3d4b07cd	0.049567986
45	0xb92ce580	-0.00016488694
46	0x381af001	3.6939982e-05
47	0xbc95a815	-0.018268624
48	0xbc2506e4	-0.010072444
49	0xb9fa89d8	-0.00047786417
50	0xbdbaa24b	-0.09112986
51	0xb8cf230d	-9.877058e-05
52	0xbd977919	-0.073961444
53	0xbe4c02fe	-0.19923016
54	0xbd8c9a61	-0.06865383
55	0xbba2911c	-0.004961146
56	0xb88a3280	-6.589759e-05
57	0xbe46b700	-0.19405746
58	0xbe1b2b83	-0.15153317
59	0x3de05361	0.10953403
60	0xbca81ac3	-0.020520573
61	0xb6e45cdf	-6.805741e-06
62	0xbdcadd7d	-0.09905527
63	0xbe486eca	-0.19573513
64	0x3d4027a0	0.04691279
65	0x3e34e69e	0.17666098
66	0x3b0b157c	0.0021222522
67	0x3e98af96	0.2982146
68	0x3e2df134	0.16986543
69	0xbde66a7c	-0.11250779
70	0xbbf739e4	-0.007544743
71	0x38135525	3.5126828e-05
72	0xbe01a110	-0.12659097
73	0xbd474ea3	-0.04865898
74	0xbd782836	-0.060585223

grapher.0.gru.weight_hh f4 [15, 5]
0	0xb716d2e0	-8.989795e-06
1	0x2eb35785	8.155524e-11
2	0xb637861f	-2.7347194e-06
3	0xb50ad2fa	-5.171602e-07
4	0xb65babbf	-3.2733512e-06
5	0x39a0781c	0.00030607067
6	0x2f0c7722	1.277525e-10
7	0xb4ae3e63	-3.2455418e-07
8	0xb5ac3f22	-1.2833373e-06
9	0x36475c60	2.970708e-06
10	0xbbb683d5	-0.005569915
11	0x2ecf7aef	9.4351076e-11
12	0xb494bf7a	-2.7706466e-07
13	0xb499bc9c	-2.8635702e-07
14	0x352c1905	6.41114e-07
15	0xb4e20d12	-4.210529e-07
16	0xaf3eb381	-1.7344172e-10
17	0x36b4d97b	5.389736e-06
18	0x3582ad44	9.736182e-07
19	0x36ab6004	5.107375e-06
20	0xb71b636f	-9.261871e-06
21	0x2ea09dac	7.303966e-11
22	0xb640eaf6	-2.8746995e-06
23	0xb52be226	-6.4031553e-07
24	0xb647d979	-2.9779897e-06
25	0xbb45ddf0	-0.00301921
26	0xb3810bc3	-6.00917e-08
27	0xba69063d	-0.0008889174
28	0x3991ef10	0.0002783467
29	0xbb193673	-0.0023378402
30	0x3acbf753	0.0015561379
31	0x336d08b7	5.518879e-08
32	0x3a07c1d5	0.00051787245
33	0xb9863291	-0.00025596147
34	0x3a92a391	0.0011187663
35	0x3aaa3fd2	0.0012988991
36	0xb386d956	-6.2793944e-08
37	0xb9d6f250	-0.00040997798
38	0x391d7567	0.00015016423
39	0x3a87f592	0.0010372868
40	0x3c314dcd	0.010821772
41	0x34aaa98e	3.1788335e-07
42	0xbb8d2ae7	-0.004308093
43	0xb9965485	-0.000286732
44	0x38a4373b	7.830417e-05
45	0x3ae0f3a9	0.001716246
46	0x334653e8	4.617678e-08
47	0x3a14dfbd	0.00056790916
48	0xb9490fcb	-0.00019174737
49	0x39b1a783	0.00033884877
50	0xbd5edaed	-0.054408003
51	0xb8611d23	-5.3671316e-05
52	0xbaf04ba2	-0.0018333087
53	0xb90e5c07	-0.00013576458
54	0x3be22133	0.0069009303
55	0x3ca4b845	0.020107398
56	0xb5283cac	-6.2673166e-07
57	0xbaa1aa59	-0.0012334093
58	0xb849c604	-4.810655e-05
59	0xba4efdc0	-0.0007896088
60	0x3d8f451d	0.06995604
61	0xb7f57c7f	-2.9264249e-05
62	0xb89882ce	-7.272289e-05
63	0xb8e647f0	-0.00010980654
64	0x3cfdd77b	0.030986538
65	0x3c9e3909	0.019314306
66	0x3a3df963	0.00072469393
67	0x3ba5909a	0.0050526382
68	0xba1001e7	-0.00054934475
69	0xbd80fba6	-0.06297998
70	0xba8f0cb2	-0.0010913818
71	0x336a9c4c	5.4624522e-08
72	0x3984d51c	0.0002533578
73	0xb9648b28	-0.00021795614
74	0xb9829c4f	-0.0002491199

grapher.0.gru.bias_ih f4 [15]
0	0xb8252387	-3.9372153e-05
1	0xbb3608a0	-0.0027776137
2	0xbca20753	-0.019778883
3	0xb73b2738	-1.11552e-05
4	0xb81116cb	-3.459192e-05
5	0xbc4d7339	-0.012539678
6	0xbc060e87	-0.0081821745
7	0x3ab9b36e	0.0014167854
8	0xbddb7bf6	-0.10717003
9	0x3ccfa90f	0.025349168
10	0x3e32c109	0.1745645
11	0x3dec2040	0.11529589
12	0xbe4592fb	-0.1929435
13	0xbe6d10cf	-0.23150943
14	0xbe2385a7	-0.15968953

grapher.0.gru.bias_hh f4 [15]
0	0xb82597be	-3.9480386e-05
1	0xbaea4689	-0.0017873804
2	0x3c890a66	0.016728591
3	0xb79503ba	-1.776392e-05
4	0xb81372d9	-3.515449e-05
5	0xbcdadcef	-0.026716677
6	0x3c8ac9c0	0.016941905
7	0x3d5f4580	0.05450964
8	0x3d87f507	0.06638532
9	0x3c03db08	0.008047827
10	0x3cd2191a	0.025646735
11	0xbdc1c5d1	-0.094615586
12	0x3d80f92b	0.06297525
13	0x3dacd7a9	0.084395714
14	0x3ce2a2bd	0.02766549

grapher.0.gru.ln_resetgate.weight f4 [5]
0	0xb711516b	-8.66163e-06
1	0xb9d22957	-0.00040085122
2	0x39bc0a6b	0.00035865916
3	0x3ac0e16a	0.0014715616
4	0xb85abbe8	-5.215025e-05

grapher.0.gru.ln_resetgate.bias f4 [5]
0	0x371b2a70	9.248601e-06
1	0x3a265f27	0.0006346576
2	0x38e34de0	0.00010838709
3	0x3930e37d	0.00016869414
4	0x38e7c0f6	0.0001105088

grapher.0.gru.ln_inputgate.weight f4 [5]
0	0x3e58e441	0.21180822
1	0xac38dbba	-2.6269945e-12
2	0x3e51c868	0.20486605
3	0x3c4b59cd	0.012411547
4	0x3a4a466f	0.0007716184

grapher.0.gru.ln_inputgate.bias f4 [5]
0	0x39966cfe	0.00028691435
1	0x2e1b67bd	3.5335058e-11
2	0x3c295212	0.0103345085
3	0xbc2a657b	-0.010400171
4	0xb8657f7f	-5.4716595e-05

grapher.0.gru.ln_newgate.weight f4 [5]
0	0x3f001d04	0.50044274
1	0x3927ad62	0.00015990951
2	0x3d5397f3	0.051658582
3	0x3edc7c75	0.43063703
4	0x3cd13043	0.025535708

grapher.0.gru.ln_newgate.bias f4 [5]
0	0x3cae7af0	0.021298856
1	0xb70e451a	-8.4799485e-06
2	0x3c2147de	0.009843795
3	0x3d06cf9f	0.032912847
4	0xbbe0cbca	-0.006860231

grapher.1.weight.weight f4 [5, 5]
0	0xbd88a91d	-0.06672881
1	0xb5843bdc	-9.852188e-07
2	0xbd897010	-0.06710827
3	0xbdaae8af	-0.08345162
4	0xba8f4ea9	-0.0010933477
5	0x3bdaf3fe	0.006681918
6	0xb582897a	-9.725766e-07
7	0x3da784e8	0.08179647
8	0xbd2d66f7	-0.042334523
9	0xba4ddf7e	-0.00078534323
10	0x3eab080c	0.33404577
11	0x349fb2ae	2.9746064e-07
12	0x3dd3b8ae	0.10337959
13	0x3ea7e754	0.32793677
14	0x391ecb7e	0.00015143861
15	0x3e4d32e6	0.20038947
16	0xb2441771	-1.14140315e-08
17	0xbcd1a322	-0.025590483
18	0x3e595e8a	0.2122747
19	0xb94097fe	-0.00018367168
20	0xbe402f6a	-0.18768087
21	0xb4569086	-1.998288e-07
22	0xbcb21de1	-0.021742763
23	0x3d345ecb	0.044035714
24	0xb9cd9bf4	-0.0003921684

grapher.1.weight.bias f4 [5]
0	0x3e9b1027	0.3028576
1	0xbd88eaaf	-0.06685387
2	0x3e8abb25	0.27095905
3	0x3ed9b4ce	0.42520756
4	0x3e2e1327	0.16999494

grapher.1.reduce.weight f4 [5, 5]
0	0xbc8cbf1c	-0.017180972
1	0x335763e6	5.0149445e-08
2	0xb9418c8e	-0.00018458275
3	0xbb9051f1	-0.0044042994
4	0xb9a5b789	-0.00031607997
5	0x3eb0216a	0.34400493
6	0x354c38e7	7.6078726e-07
7	0xbc9f8992	-0.019474778
8	0x3e0d597a	0.13803664
9	0x3a4703f7	0.00075918384
10	0x3e8bef7b	0.27331147
11	0x34333404	1.6689597e-07
12	0x3de68a65	0.112568654
13	0x3d25cd4b	0.040478986
14	0x39a3855c	0.00031189143
15	0x3eba31da	0.3636616
16	0x365ed2f8	3.3203378e-06
17	0x3dabd6b4	0.08390561
18	0x3ea96297	0.3308303
19	0xb9d549f8	-0.00040681637
20	0xbdd7d82a	-0.10539277
21	0x33bd5cb8	8.817864e-08
22	0x3abd8063	0.0014457818
23	0x3dbe5930	0.09294355
24	0x39061294	0.00012786157

grapher.1.reduce.bias f4 [5]
0	0xbc8401a6	-0.016114067
1	0x3dc3c8a7	0.09559756
2	0xbc00c7e4	-0.007860158
3	0x3e66da03	0.22544102
4	0x3e73bf77	0.23803507

grapher.1.gru.weight_ih f4 [15, 5]
0	0xbd2dd29b	-0.042437177
1	0xba24f139	-0.00062920485
2	0xbdb88548	-0.090097964
3	0xbe425026	-0.18975887
4	0x3a1a496a	0.00058855733
5	0xba60d6ba	-0.00085769186
6	0x388e9ce8	6.800314e-05
7	0x3d49e551	0.04929096
8	0x3d41331b	0.04716788
9	0xb878d201	-5.932339e-05
10	0x3ce1434d	0.027497912
11	0xb99d94c7	-0.0003005622
12	0xbd3e26d6	-0.046423756
13	0x3e2a3c9c	0.16624683
14	0xb904921a	-0.00012642928
15	0x3ceea6e2	0.02913231
16	0x39951b0c	0.00028439646
17	0xbe46e6ee	-0.1942403
18	0x3d62126d	0.055193353
19	0xbb36f6eb	-0.002791817
20	0x3ceee2da	0.029160906
21	0x39df7eea	0.00042628433
22	0x3be64e00	0.0070283413
23	0x3c5ba944	0.013407055
24	0xb9d98391	-0.0004148749
25	0x3e146fc4	0.1449576
26	0xbc7402c9	-0.014893242
27	0x3e8fd0ce	0.28088993
28	0xbdd47b3c	-0.103750676
29	0xbe05d509	-0.13069548
30	0x3e4f3b4b	0.20237462
31	0x3b136333	0.0022489547
32	0xbe308432	-0.17237929
33	0xbbd1bd62	-0.00640075
34	0x3c6f296d	0.014597279
35	0xbe444e8e	-0.19170591
36	0x3c34aa3a	0.011026913
37	0xbd5bd2df	-0.0536679
38	0x3d7a9c1e	0.06118404
39	0x3c5afc02	0.013365747
40	0xbe2f2ab8	-0.1710614
41	0x3d03e732	0.032202907
42	0xbd1a2d9d	-0.037641156
43	0xbe047790	-0.12936234
44	0xbc881bb0	-0.016614765
45	0x3c9ed088	0.019386545
46	0x3ab6fb94	0.0013960474
47	0xbe6ead6c	-0.23308343
48	0xbe1600d6	-0.14648756
49	0xb982fa4a	-0.00024982012
50	0xbc81cec0	-0.015845656
51	0xbd890060	-0.06689525
52	0x3dd57219	0.10422153
53	0xbe24b8b4	-0.16086084
54	0xbddf820a	-0.10913475
55	0x3db7c558	0.08973187
56	0x3c83d25d	0.01609152
57	0xbe1f4ee5	-0.1555744
58	0x3e564fcb	0.20928876
59	0x3e0594b4	0.13045007
60	0xbe18f8de	-0.14938685
61	0xbd6fcebd	-0.05854677
62	0x3e3e4895	0.18582375
63	0xbe6ef14e	-0.23334238
64	0xbd96b731	-0.0735916
65	0xbd4f48f4	-0.050606683
66	0xbe6ffa73	-0.23435383
67	0x3ee32485	0.443638
68	0x3e3c13d3	0.18366937
69	0x3e4a17ea	0.19735685
70	0x3decc065	0.11560134
71	0x3e823580	0.25431442
72	0x3d2cadde	0.042158
73	0xbecb0566	-0.39652556
74	0xbcab07b2	-0.020877693

grapher.1.gru.weight_hh f4 [15, 5]
0	0xbb28b063	-0.00257399
1	0xbd838201	-0.06421281
2	0x3ba80d43	0.005128534
3	0xbe101a68	-0.14072573
4	0x3a86b128	0.0010276185
5	0x3b909fba	0.004413572
6	0xbc855fd9	-0.016281055
7	0xbc11616c	-0.008873325
8	0xbcd92a98	-0.026509568
9	0xbcbf260d	-0.023333574
10	0xba96bae0	-0.0011499785
11	0xbd8f7d2e	-0.07006298
12	0xbc738780	-0.014863849
13	0x3e2a2ee7	0.16619454
14	0xbbcafdec	-0.0061948206
15	0xb9d94109	-0.0004143792
16	0x3c85a0f6	0.016312104
17	0xbc1f5b95	-0.009726425
18	0x3d9622b9	0.073308416
19	0x3cdb7404	0.026788719
20	0xba1266f6	-0.00055848004
21	0x3d340345	0.04394843
22	0xb9e4a27c	-0.0004360861
23	0xbd86e958	-0.065874755
24	0xb8ab1cec	-8.1593025e-05
25	0x3e2a5fa1	0.16638042
26	0xbe7c6585	-0.24648102
27	0xbe89c70f	-0.26909682
28	0xbe760a74	-0.24027425
29	0xbce1d74d	-0.027568484
30	0xbba29f3d	-0.0049628303
31	0x3d6a4382	0.057193287
32	0xbd42dd07	-0.04757407
33	0xbd175da5	-0.03695454
34	0xbd558b1b	-0.052134614
35	0x3d094b93	0.03351934
36	0x3d5b4e5e	0.053541534
37	0x3e1f0ff6	0.15533432
38	0x3dfa0422	0.122078195
39	0x3cd60b58	0.026128456
40	0xbdb1de59	-0.086849876
41	0xbcf8ad63	-0.030356115
42	0x3d96f51e	0.07370971
43	0x3d2b7d82	0.04186774
44	0xbd47f391	-0.048816267
45	0xbb8d2c5b	-0.004308266
46	0x3e0a258a	0.13490883
47	0xbc805689	-0.015666263
48	0xbe6652ce	-0.22492525
49	0x3c773c46	0.015090054
50	0xbd6e8e54	-0.058241203
51	0x3e926d49	0.28599003
52	0x3e376a89	0.17911734
53	0xbe96b568	-0.29435277
54	0xbd3a44ee	-0.045475893
55	0xbd2113a9	-0.03932539
56	0xbeac367f	-0.33635327
57	0x3e9a321f	0.30116364
58	0xbdb235ab	-0.087016426
59	0x3e056733	0.13027649
60	0x3d49dc11	0.049282137
61	0xbea91a28	-0.33027768
62	0xbccb0791	-0.024783881
63	0x3e07f11e	0.13275573
64	0x3cce823e	0.025208589
65	0xbdccf4cf	-0.10007631
66	0x3ecaa909	0.3958209
67	0x3cb8f4b1	0.022577615
68	0xbe75527c	-0.23957247
69	0x3e395c18	0.18101537
70	0x3dc70f40	0.097197056
71	0xbd547090	-0.05186516
72	0x3d132951	0.035928074
73	0x3d32ab46	0.04362037
74	0x3cf38495	0.029726306

grapher.1.gru.bias_ih f4 [15]
0	0x3cfe6dc8	0.031058207
1	0xbcc8400e	-0.024444606
2	0xbe32aedd	-0.17449518
3	0x3da94403	0.08264925
4	0xbe38edeb	-0.18059509
5	0x3eae4075	0.34033552
6	0xbe5f972d	-0.21835013
7	0x3ea58af5	0.32332578
8	0x3de92adc	0.11385128
9	0xbe90c471	-0.28274873
10	0x3ed04c9b	0.40683445
11	0x3dacb949	0.08433778
12	0xbe37002a	-0.17871156
13	0x3e963eae	0.29344696
14	0x3ec2a0e8	0.38013387

grapher.1.gru.bias_hh f4 [15]
0	0xbdedb701	-0.11607171
1	0xbcb8d573	-0.022562718
2	0x3e48ef33	0.19622497
3	0xbe468597	-0.19386898
4	0xbdcd012f	-0.100099914
5	0xbe5cceae	-0.21563217
6	0x3e7edf8e	0.24889967
7	0xbe7cd156	-0.2468923
8	0xbe25136f	-0.16120695
9	0xbdcb2075	-0.099183
10	0x3eb333ac	0.3500036
11	0x3d7bcda9	0.06147543
12	0xbe1f5728	-0.15560591
13	0x3e3215cb	0.17391126
14	0xbe81cdda	-0.25352365

grapher.1.gru.ln_resetgate.weight f4 [5]
0	0x3f39787d	0.72449476
1	0x3d1a7bad	0.037715603
2	0x3eb06a46	0.3445608
3	0x3c311847	0.010809011
4	0x3e8cb939	0.27485064

grapher.1.gru.ln_resetgate.bias f4 [5]
0	0x3cbe240d	0.02321055
1	0x3c54c4f6	0.012986412
2	0xbc02816d	-0.007965428
3	0x3c08a1cd	0.008339358
4	0x3c6faa93	0.01462807

grapher.1.gru.ln_inputgate.weight f4 [5]
0	0x3f244d24	0.6418021
1	0x3f0b544f	0.5442552
2	0x3f2a4194	0.66506314
3	0x3e61e92e	0.22061607
4	0x3e5aca05	0.21366127

grapher.1.gru.ln_inputgate.bias f4 [5]
0	0xbd126ece	-0.035750203
1	0xbc54e3ba	-0.012993747
2	0xbc114d41	-0.008868516
3	0xbca40b2c	-0.020024858
4	0x3b067d2d	0.0020521388

grapher.1.gru.ln_newgate.weight f4 [5]
0	0x3f72250e	0.9458779
1	0x3f56b9d5	0.8387731
2	0x3ec2e152	0.3806253
3	0x3f7ade4c	0.9799545
4	0x3f216b60	0.63054466

grapher.1.gru.ln_newgate.bias f4 [5]
0	0x3d77189b	0.0603262
1	0xbc94a23e	-0.01814377
2	0xbc71210a	-0.01471735
3	0x3d1c26f5	0.03812309
4	0xbcecef1c	-0.02892261

grapher.2.weight.weight f4 [5, 5]
0	0x3de74700	0.11292839
1	0x3e570f48	0.21001923
2	0x3bc201ff	0.005920648
3	0xbecd35c9	-0.40080097
4	0x3dfbdb1f	0.122976534
5	0xbe6d4ead	-0.23174544
6	0xbdbf3865	-0.09336928
7	0x39a3917b	0.00031198174
8	0xbe202f33	-0.15643005
9	0xbe17e67b	-0.14834015
10	0x3e09bb99	0.13450469
11	0xbec2b1da	-0.38026315
12	0x3b8fdf14	0.0043906067
13	0x3dd57923	0.104234956
14	0xbe1f1c2b	-0.15538089
15	0xbed3e5d9	-0.41386297
16	0xbecac6c3	-0.39604768
17	0x3a25f496	0.00063306966
18	0x3e41bdc1	0.18920042
19	0x3e99f6da	0.30071145
20	0x3df71b88	0.12065798
21	0xbdb9ea78	-0.090779245
22	0xbba750a6	-0.0051060496
23	0x3ef910b0	0.48645544
24	0x3e1e9901	0.15488054

grapher.2.weight.bias f4 [5]
0	0x3db37d5f	0.08764147
1	0x3e8b618f	0.2722287
2	0x3e36d157	0.17853294
3	0xbe229d01	-0.15880205
4	0x3ef36f65	0.47545925

grapher.2.reduce.weight f4 [5, 5]
0	0xbdcb3def	-0.09923922
1	0xbe3ae164	-0.18250042
2	0x3ab3c9ee	0.0013716796
3	0xbecdabc6	-0.40170115
4	0x3a5340f4	0.000805869
5	0x3a6bd85b	0.0008996778
6	0x38ef902d	0.00011423263
7	0xb81bc635	-3.7139474e-05
8	0x39b1a005	0.00033879295
9	0xb7504a1f	-1.2415024e-05
10	0xbde156b1	-0.11002863
11	0x3db680aa	0.089112595
12	0x3aa242ac	0.0012379489
13	0x3ede0cd4	0.43369162
14	0xbdd1954c	-0.10233554
15	0xbe043d97	-0.1291412
16	0x3d87f17f	0.066378586
17	0xb60caaa6	-2.0960956e-06
18	0xbd9a0ee8	-0.075223744
19	0x3e0f3310	0.13984323
20	0xbea073e4	-0.31338418
21	0x3e5e0d16	0.2168468
22	0x36483115	2.9830892e-06
23	0xbec613a8	-0.38686872
24	0x3de8e874	0.11372462

grapher.2.reduce.bias f4 [5]
0	0xbec285f1	-0.37992814
1	0xbc0a7bfd	-0.008452413
2	0x3dcce6fb	0.100049935
3	0x3cae13ad	0.021249617
4	0x3e8338ba	0.25629216

grapher.2.gru.weight_ih f4 [15, 5]
0	0x3d3e7209	0.04649547
1	0xbaecf870	-0.0018079411
2	0x3bbd02b2	0.0057681436
3	0x3c683ee5	0.0141751515
4	0xbe075168	-0.13214648
5	0xbb941fa1	-0.004520372
6	0x3a78b76d	0.0009487782
7	0x3c9af617	0.018916173
8	0x3bda29fa	0.006657836
9	0x3e73f783	0.23824887
10	0xbdd0abcd	-0.101890184
11	0x3cdeb875	0.027187565
12	0x3d830bd1	0.06398738
13	0x3e56cefd	0.20977397
14	0xbe3d15d1	-0.18465354
15	0x3d8493fd	0.06473539
16	0x3caba82a	0.02095421
17	0x3dba9d59	0.09112043
18	0x3d6330a1	0.055466298
19	0x3e42490a	0.18973175
20	0x3c84cb6c	0.01621028
21	0x3bb66d4f	0.00556723
22	0xbd0e4302	-0.034731872
23	0xbe0f1ca4	-0.1397577
24	0xbe8d5692	-0.2760511
25	0x3e6e7cc8	0.23289788
26	0x3e4c6b83	0.19962887
27	0x3e32cc50	0.17460752
28	0xbebb1df2	-0.36546284
29	0x3e89da6d	0.26924458
30	0xbd70bd3d	-0.05877422
31	0xbe55cafa	-0.2087821
32	0x3ec8821a	0.3916176
33	0x3ebb879d	0.36626902
34	0xbc847ab8	-0.016171798
35	0x3eb3e7fe	0.35137933
36	0x3e447c95	0.1918815
37	0x3dacda60	0.08440089
38	0x3e025b40	0.12730122
39	0x3e05e4c8	0.13075554
40	0x3dadfe09	0.08495719
41	0x3d096481	0.033543114
42	0xbe848c9e	-0.25888532
43	0x3d02e536	0.031956874
44	0xbee80575	-0.45316663
45	0x3eac6247	0.3366873
46	0xbeb03cab	-0.34421286
47	0xbe424ebe	-0.1897535
48	0xbe1d7ff6	-0.15380844
49	0xbec1b551	-0.37833646
50	0xbee08719	-0.4385307
51	0xbd219d3b	-0.039456587
52	0xbe4b41e2	-0.19849351
53	0xbefcd71b	-0.49382862
54	0xbdc115b7	-0.0942797
55	0x3e30f4f5	0.17280944
56	0x3d38885d	0.04505192
57	0x3dc2c1e0	0.09509635
58	0xbe589de1	-0.21153976
59	0xbeac6350	-0.3366952
60	0xbeba1f1c	-0.3635186
61	0xbde0cd25	-0.10976628
62	0x3d17f62f	0.037100013
63	0x3ebab21b	0.3646401
64	0xbea62e5f	-0.32457253
65	0x3eac1ea9	0.33617142
66	0x3ca8dc33	0.020612812
67	0xbe0efbb3	-0.13963203
68	0xbdea1df4	-0.11431494
69	0xbc0db067	-0.008648015
70	0xbb1d62ab	-0.002401511
71	0xbdd3af7b	-0.103362046
72	0xbe18655c	-0.14882416
73	0xbdab3dfd	-0.08361433
74	0x3eb623b2	0.35574108
