scheduler/BaGTI/checkpoints/energy_latencyGNN_10_Trained.ckpt (torch, 891983 bytes, 276 tensors)

find.0.weight f4 [128, 320]
00000000: 3a53 563d 9e07 133b ef57 353c 78f9 ec3c
00000010: e93c 043c 4e8f 00bd 2b1a 133b deff 303c
00000020: b2f6 4bbb fc23 f43b 8635 14bc 7b32 0c3b
00000030: 6318 223c 6009 aa3c 66d8 033c 28f9 34bb
00000040: 27bb 123b daaa 2b3c 9b36 06bd b959 143c
00000050: 5503 13bb 3380 133b 1df0 2c3c 242c 8b3c
00000060: 0704 093c 1a32 1d3c 84b2 133b 4733 213c
00000070: f449 94bd 7d42 103c 00a9 0ebd 1a25 133b
00000080: 230f 103c 269d 853c 064e 103c 4a6a 853c
00000090: f28b 133b 6ce0 133c 9b84 58bd e06f 083c
000000a0: 7d24 8e3c fa1e 133b bd15 133c 67f6 85bc
000000b0: c220 0a3c 6348 043d e263 133b f2f4 2e3c
000000c0: 1b4a 94bd ac71 143c 136c 4fbc 936e 133b
000000d0: 6217 0e3c a790 84bd 9a65 133c 4ca2 8bbb
000000e0: 7686 0d3b 32aa 2b3c d419 bb3c 49ee 133c
000000f0: e459 cd3c 20d7 123b be9b 363c 2658 46bb
00000100: 36f9 fb3b f3e8 3e3d fcb0 123b b3ed 0e3c
00000110: b7e1 90bd 9adc 023c d8d5 14bd dddf 113b
00000120: 6e24 2b3c 820d 5dbc aad3 0c3c 43da a13c
00000130: 617d 0d3b 7e85 1d3c 26f5 c23a 0ed7 fe3b
00000140: 96c8 0f3d d7be 0c3b 45a0 263c ab6a 01bc
00000150: 93d5 133c 29fa 033d 33e6 123b 9521 373c
00000160: d8c5 9ebb 0a0f 163c 2c37 16bd 5582 133b
00000170: d1a4 283c 06ee bf3c abf2 0b3c d1a2 163d
00000180: 7c01 143b 61f4 193c 8df4 97bd 7eaf 023c
00000190: 8525 123c 1939 f9bc c193 653c c998 533c
000001a0: d71e c93b 862a 1b3c c38f 2c3d 2acd 84bc
000001b0: 4550 503c 94bc c83b 8c63 183c 0a0c 44bd
000001c0: 72e4 92bb 67e7 533c beca c93b 0ba0 0c3c
000001d0: 13f2 483b 22b6 c9bc 3e59 533c e803 cb3b
000001e0: 2ef3 1b3c 2421 953c 7253 6cbb a5e2 523c
000001f0: 8bed c83b a294 133c 89e6 fcbc 482c 513c
00000200: 45e5 553c a706 cb3b 4735 1d3c bd76 2dbd
00000210: 7a4f adbc d0ed 533c 074b d33b 675b 1e3c
00000220: e7ef 5a3b 22f1 93bb e21f 563c 45cf c83b
00000230: d4f1 173c caf2 053d b4eb 80bd 0754 563c
00000240: 63f4 c83b 832b 123c 0231 6abc 3a36 2b3c
00000250: 8286 543c a14f ca3b 0423 0e3c 7225 24bc
00000260: dc3d 4abc f580 4f3c 0b33 d53b ae76 133c
00000270: 6c71 c2bc 3c81 5dbd 84e2 523c 7e59 d33b
00000280: d117 1f3c 7530 a1bb 83be e2bc f8ff 513c
00000290: 5316 ca3b a768 173c 6401 34bd 0f83 69bd
000002a0: b18e 543c 3575 d33b 0e42 0e3c 792f 033d
000002b0: 2ef6 81bd 3c96 543c c837 d73b d8ce 1c3c
000002c0: 1425 30bd 7772 6fbd 2fe0 533c 3628 cd3b
000002d0: 8093 1c3c 1015 b1bb 9bc0 e5bc b1de 543c
000002e0: aa64 d63b 6e23 173c 9c12 d4bc b97e 5dbd
000002f0: 40fa 513c 2feb c93b d598 213c 5302 c1bc
00000300: 13ac 88bd 6ad3 513c 6ee2 d13b 9f30 0d3c
00000310: 8df0 a8bb f6da b93b ffdc 533c 2477 c83b
00000320: 3069 253c d051 873d ca70 b8bb d3cc 2fbd
00000330: 8820 043d ae4a 983d 9137 e4bc 2930 90bc
00000340: 86f1 af3d b6b4 c2bc 3299 37bd 2b5a 8f3d
00000350: 664d 603d a156 393b a208 803d dff5 8fbb
00000360: a421 853d 1d0b 54bd f633 173c 4f71 31bd
00000370: 99c0 713d 1e8b 27bd ceb6 cfbd 1770 ce3c
00000380: 1080 26bd 58ab a23d f309 8b3d bfae a63c
00000390: 6f38 63bd b48b 773d 1c9d 9d3c 46cb 933d
000003a0: b1f2 06bd a456 12bd 749a 1a3d dbe1 ddbd
000003b0: 059c ffbc d05d 363d 0573 9f3d 08fb 883c
000003c0: b040 b93c 733a 863d b783 36bc e122 e03b
000003d0: 9597 b73b 5829 4f3b beb4 e4bd da54 833d
000003e0: 12e8 2abd 5f6a 7aba f840 9abc 869d 7bbb
000003f0: a431 54bd 38b0 c93c 7edf 7f3c ff06 91bc
0.052325465 0.002243496 0.011068328 0.02892755 0.008071163 -0.031386666 0.0022446017 0.010803191
-0.0031122384 0.0074505787 -0.009045964 0.0021392393 0.00989351 0.020756423 0.008047199 -0.002761433
0.0022389384 0.010477746 -0.03276692 0.009054595 -0.0022432406 0.0022506833 0.010555294 0.016988821
0.008362777 0.009594465 0.0022536824 0.009838886 -0.07240668 0.008804915 -0.03482914 0.0022452534
0.008792671 0.016310286 0.008807665 0.016286034 0.0022513834 0.009025674 -0.052860837 0.008327454
0.017351383 0.0022448883 0.008977351 -0.016352845 0.008430662 0.032295596 0.0022489955 0.010678517
-0.07240697 0.009060305 -0.012660044 0.0022496327 0.008672567 -0.06472903 0.008996392 -0.0042612907
0.0021595038 0.010477589 0.022839464 0.00902898 0.025067277 0.0022406057 0.01114553 -0.0030264943
0.0076896204 0.046608876 0.0022383323 0.008723664 -0.07074302 0.007987166 -0.03633675 0.0022258677
0.010445697 -0.01349199 0.0085953865 0.019757396 0.0021589624 0.009614347 0.0014874085 0.0077771014
0.035103403 0.0021476054 0.010170047 -0.007898967 0.009023088 0.032220993 0.0022415041 0.01117744
-0.004845362 0.009158859 -0.03667371 0.0022508104 0.010293202 0.023428928 0.008541743 0.036776368
0.0022583893 0.009396643 -0.07419691 0.007976411 0.008920078 -0.030422734 0.014012278 0.012914845
0.0061377096 0.009470588 0.04212929 -0.016211111 0.01271445 0.006125996 0.009301078 -0.047863044
-0.004482799 0.012933589 0.006158202 0.008583079 0.0030661866 -0.02462298 0.012899695 0.006195534
0.009518428 0.01820428 -0.003606048 0.012871419 0.006131833 0.009007605 -0.030871646 0.012766905
0.01305515 0.0061958614 0.009595222 -0.042349566 -0.021156061 0.012935117 0.006448153 0.009665347
0.0033407153 -0.0045148293 0.013069125 0.006128224 0.009273965 0.032702245 -0.06294957 0.013081557
0.006132649 0.008921507 -0.014293911 0.01044994 0.012971522 0.0061740433 0.008675341 -0.010018693
-0.01234385 0.012665023 0.006506329 0.009000463 -0.023735724 -0.054078326 0.012871388 0.0064498773
0.009710268 -0.0049191066 -0.027678734 0.012817375 0.006167212 0.00924126 -0.04394664 -0.057009753
0.012973473 0.006453181 0.008682741 0.032027695 -0.06345783 0.012975272 0.006567929 0.0095708
-0.04300411 -0.05845877 0.0129318675 0.006260897 0.009556651 -0.005404122 -0.028045943 0.012992547
0.006542762 0.009224756 -0.02588778 -0.05407593 0.012816012 0.0061620693 0.009863098 -0.023560679
-0.066734456 0.012806753 0.0064051664 0.008617549 -0.005155629 0.005671854 0.012931108 0.0061177183
0.010095879 0.06607401 -0.00562868 -0.042919945 0.032257587 0.07436119 -0.027858527 -0.01760109
0.08590989 -0.02376781 -0.044823833 0.0699962 0.054761313 0.0028280395 0.062516466 -0.004393324
0.06500557 -0.05176841 0.009228697 -0.04332095 0.059021566 -0.040904157 -0.10142289 0.025199933
-0.040649474 0.079428375 0.06789007 0.020346997 -0.05547374 0.060435966 0.019239955 0.07216506
-0.032946292 -0.03572716 0.037744954 -0.10834094 -0.031202326 0.04452306 0.0778561 0.016721264
0.022613853 0.06554117 -0.011139802 0.0068400954 0.005602787 0.0031610336 -0.11167286 0.064126685
-0.041725226 -0.00095525937 -0.018829808 -0.0038393452 -0.051805153 0.02462016 0.0156172495 -0.017703531

find.0.bias f4 [128]
00000000: 24cc 413c 09c0 c5bc 7083 18bd 6fa6 4bbd
00000010: 3b34 2fbd 0461 c53c b445 0bbd d379 94bd
00000020: 8929 f9bc df92 fcbb 4fc8 503d 186f 5abc
00000030: 6b21 ad3c 2fa1 c03c 0aba 2abd f0db 103c
00000040: 971b 0dbd 821f 6fbc 170a 0a3c c2f9 0d3c
00000050: 1fa5 42bd 70a6 013d c5fc bebc 0fd6 233d
00000060: 8d67 d43c 43ec d43c 62da cabc 138a 093d
00000070: 48ee da3c b25f 1abd 34d5 ddbc 4a91 eb3c
00000080: 8f33 af3d b092 f9bc d967 ce3c f8a7 9e3d
00000090: f464 aabc 1dde 1fbd 94f8 5eba 3c20 333c
000000a0: ff55 1dbd 1834 4dbd 178d 9b3b 5bb0 aa3d
000000b0: d08b 8f3c ef74 ee3c c766 85bd f790 8c3d
000000c0: 2419 1cbd 3253 97bc 9e30 3bbd f7f6 313d
000000d0: 6665 3fbd 28a5 94bc 5462 db3c 4178 b0ba
000000e0: e4ef 94bd 4052 7a3d 7a2b 7d3d 8542 27bc
000000f0: b6d4 3a3d 9f58 663d e6cd 783c a054 563d
00000100: 862f e93c 1ebb b5bc 27e2 27bd 2d0f f23b
00000110: 464f bcbc a7c3 f53c 284e ef3c 5120 8dbc
00000120: 2a72 043c 708b 62bc c383 843b 9fbd 7ebd
00000130: 6dc9 1dbc 10d9 86bc 8b99 4b3d 0dc9 e0bb
00000140: 04ec 68b9 4194 f23b ed7d 993d 5ade 0f3c
00000150: 4318 923a c863 58bc 942f 3fbd 41db fb3b
00000160: ea3b 473c 160a 0ebd 6e7b b3b9 4b08 c8bc
00000170: d439 1fbd ffd1 4cbd b202 c83a ab25 433c
00000180: bab0 9e3c 47bf 363c 7cf0 90bc 5275 edbb
00000190: b9d5 55bd cf7f a53c f08a 323d bd63 823c
000001a0: a672 c83b ee7f 8f3c a7e3 4a3c 19f8 903d
000001b0: 4da3 5f3c 0484 c13c 4bac 193c e5c1 893b
000001c0: 5b8d dbbc 62e7 42bd 6d70 1dbc bfca 1dbd
000001d0: 9dbe bcbc 8f3b 483c a2b2 fa3c 1103 43bc
000001e0: f893 3d3c 5f91 1c3c 7ddf bd39 a127 be3b
000001f0: fa3f 5fbd d540 083a eeee 6f3c 2edb 303d
0.011828456 -0.024139421 -0.037234724 -0.04971927 -0.04277442 0.024094112 -0.03400202 -0.072497986
-0.030415313 -0.007707938 0.05097228 -0.013332151 0.021134099 0.023514358 -0.041681327 0.0088415
-0.03445014 -0.014594914 0.008425257 0.008665504 -0.047520753 0.031652868 -0.02331389 0.039999064
0.025928283 0.025991565 -0.024762336 0.033578943 0.02672495 -0.03768892 -0.027079202 0.028755803
0.08554756 -0.030465454 0.025196003 0.07746881 -0.020800091 -0.039030183 -0.0008505669 0.010932978
-0.03841209 -0.05009851 0.004747044 0.083344184 0.017522722 0.029108493 -0.06513744 0.06863587
-0.038109913 -0.018472288 -0.04570066 0.043448415 -0.04672756 -0.018145159 0.026780285 -0.0013463573
-0.07272318 0.061113596 0.06180904 -0.010208731 0.045613013 0.05623686 0.015185809 0.0523268
0.028465044 -0.022183951 -0.04098716 0.007387063 -0.02298702 0.03000052 0.029212072 -0.017227324
0.008083859 -0.01382719 0.0040440275 -0.062192556 -0.009630543 -0.016460925 0.049706977 -0.0068599046
-0.00022213167 0.007402927 0.074947216 0.00878104 0.0011146147 -0.013207383 -0.046676233 0.007686049
0.012160281 -0.034677587 -0.00034233503 -0.024418017 -0.03887351 -0.050004955 0.0015259592 0.011910836
0.01937138 0.0111540025 -0.017692797 -0.0072466517 -0.052205775 0.020202545 0.043589532 0.0159167
0.006117183 0.017517056 0.012383378 0.07078571 0.013649774 0.02362252 0.009379457 0.004204022
-0.026800802 -0.047583945 -0.009609324 -0.038523432 -0.02304011 0.012221231 0.030602757 -0.011902587
0.011570923 0.009556144 0.000362154 0.005803064 -0.054504372 0.0005197649 0.014644368 0.043177776

find.2.weight f4 [128, 128]
00000000: 0cea 263a f42b 063b e117 22bb 2605 ad39
00000010: 9591 a1b9 9ab5 9bbc 81ae 683a daca 583b
00000020: 6a4a 3f3b 467b 3ab9 8adc b9bb 2689 1aba
00000030: 6633 ffba 9c2a db3b af42 cbba a8e8 24ba
00000040: 37ff 39ba 916f 02bb f166 63bb b197 8b39
00000050: 784a a63b b5a8 56bb f059 70ba 4a5b b2ba
00000060: cc35 023b 9c70 fbb9 f933 813c 9326 83ba
00000070: db3f 93ba f5e2 b5b9 26c1 893b 0db0 aa3b
00000080: 1423 63bb 1a9d 20bb c1e3 883b d299 863a
00000090: 6f59 46bb 846e 4dba fb59 1abb 8efb 3db9
000000a0: 09f0 a33b 88ab ed37 e091 083a b973 88bb
000000b0: 86a5 173b 34cd d738 100b 1e3c aabb 3cbc
000000c0: 13d5 543a 586e 5b3b 3b40 5eba 6655 af3b
000000d0: 8c35 8bba b283 98b9 4eaa 8cbc 54ea 293b
000000e0: b9a8 483b 7261 913a 5069 f03b 3491 7fba
000000f0: 2bbd 2539 9bdb babb a306 e2b9 bda7 22b9
00000100: f7f7 63ba 4883 3dba fdd9 9ab9 3a21 95b9
00000110: 3aff 65b9 2a93 d137 88a6 29bb 5839 2cb9
00000120: 5e26 8fb9 80d5 8fb8 db36 1f3c fbf8 893b
00000130: e4c9 d03a 34f8 c339 4d08 af39 d855 e4b9
00000140: 18c3 12bb b3f8 ed3b afe7 90bb af0e bc3b
00000150: 3368 f1b9 5efb 7aba 87c1 6dbc d3a9 773b
00000160: f36d e7ba 8b92 06bb 6555 be3b db24 303b
00000170: 9dbf 42ba 5bd5 92b9 faf8 ce3a 14b3 7e3b
00000180: b004 b23b a75c 4c3c 4807 32b9 770d 2f3c
00000190: f3eb a0b9 aa17 453b 53b2 b43b a658 51bc
000001a0: a160 bbba b01b 073c 0bdb b2b8 96c5 23bc
000001b0: 72e7 2eb9 1f8d acb9 76b1 2dba 5d60 0439
000001c0: de74 8eba 485f 01ba 17a6 293c 179b cbb9
000001d0: 4381 f1b8 f03a 8eb9 d35c 12ba b387 47ba
000001e0: 7367 9cb9 c938 223c fbf0 a93a a4a2 5e3b
000001f0: 504e 1bbb 3b7d 083b c0f5 99ba 138a a4bb
00000200: a51a 47bd 9171 853d 544b ed3b 1118 b73d
00000210: fc40 dabc 71fe a73d 4c46 c83d a3a3 8b3d
00000220: 3ab1 03bc 1d21 b53b 2eb9 5f3d 9784 c53b
00000230: 641d db3d 085c 6e3d 087c 9a39 2443 26bc
00000240: 83ff 613b ed10 703c 3851 d43d 676c f6bc
00000250: ec1b b13d c6b6 fa3c c21e b63b 528e 713d
00000260: 64f3 64bc 4914 133b de04 14bd edf9 563d
00000270: d7d8 9e3d 785b bb3b 8812 12bd 7e89 8abd
00000280: 5c72 de3d b4f4 933d f601 95b8 f6a1 6f3d
00000290: c463 86bb 56e3 35bc 0208 3bbd 3e60 e4bb
000002a0: dc89 54bd 522a 60bd 92ec b7bb 6bdb d5bb
000002b0: f697 8b3d 5c9f a83d 2361 65bd cbb1 b53d
000002c0: cc29 36bd 7689 4e3d 974e d83b faf5 ec3c
000002d0: 6d16 96bc a664 b93c 5559 633d 40d8 5fbd
000002e0: 933c 13bd 77c3 893d 571c b23d 31e4 00bd
000002f0: 4250 013c a213 c23d fee5 463d 0d7d 7c3d
00000300: 6892 c03b 00a5 9a3c 5c25 ad3c 15c2 d538
00000310: eca7 b1bc abd0 febc ef3c 0c3d 08c8 79bc
00000320: 203f bdbc c9f0 f0bc 5ff4 9e3d 64b8 7abc
00000330: 6384 4abd 317b a73d cf78 c33d cb50 7039
00000340: 02dc 8ebc 26fc 7dbd a30a 133e 570b c03c
00000350: c802 6439 3725 17bd a5fc 043d db6a 70bc
00000360: 00cb ae3c 0234 173d b0bb 31bd a4c5 433c
00000370: 2a7f f53b 697b c2bb a935 603d 9c77 c2bc
00000380: f4ff 4e3d 2c47 bf3b 598c 5cbc 0894 123d
00000390: 6055 18bc d5f0 a8bd 682e 513d d28c 10bd
000003a0: 0a59 b9ba f831 b3bc 7627 a83d f7df 4d3d
000003b0: 9ba6 d2bb d9a8 e6bc 3be8 49bb 6df8 c83a
000003c0: 2a59 d33b 0a58 6cbb e0cb a53d 9125 c13b
000003d0: 7495 c63c 51e5 0f3b af7a cdbb 9806 7ebc
000003e0: 7a66 9abc 46ec 733c b196 9c3d 5412 063d
000003f0: aeb9 d13a 38c6 d1bd 6062 283d e91a 333e
0.0006367273 0.0020472975 -0.0024733471 0.00033000967 -0.0003081678 -0.019007493 0.0008876101 0.0033079893
0.0029188641 -0.00017784265 -0.0056720423 -0.00058950705 -0.0019470274 0.006688429 -0.0015507544 -0.0006290772
-0.000709522 -0.0019902925 -0.003469881 0.00026625165 0.0050747953 -0.0032754366 -0.0009168675 -0.0013607529
0.0019868491 -0.0004795835 0.015771853 -0.0010006003 -0.001123424 -0.00034692106 0.0042039333 0.005208975
-0.003465836 -0.0024507702 0.004177541 0.0010269231 -0.003026571 -0.00078365975 -0.0023552168 -0.00018118156
0.0050029797 2.8332477e-05 0.00052097254 -0.004164186 0.002313943 0.00010290221 0.009646192 -0.011519352
0.0008118909 0.0033482518 -0.0008478199 0.0053507565 -0.0010620817 -0.0002908982 -0.017171051 0.0025927024
0.0030618145 0.0011091663 0.007336773 -0.0009749115 0.00015806097 -0.0057024485 -0.00043111024 -0.00015512011
-0.00086963124 -0.000722934 -0.00029535583 -0.0002844425 -0.00021934221 2.498327e-05 -0.0025886614 -0.0001642456
-0.0002730367 -6.858539e-05 0.009717668 0.004210589 0.0015929309 0.00037378224 0.00033384786 -0.00043551507
-0.0022394117 0.0072623133 -0.00442215 0.005739055 -0.00046044737 -0.00095742 -0.014511473 0.0037790432
-0.0017656669 -0.0020534124 0.0058085197 0.0026877436 -0.00074290653 -0.00028006252 0.0015790754 0.0038864063
0.0054326877 0.012473262 -0.00016978115 0.010684363 -0.00030693374 0.003007392 0.005514422 -0.012777483
-0.0014295765 0.008246347 -8.528501e-05 -0.009995839 -0.00016680153 -0.0003291154 -0.000662587 0.00012624399
-0.0010868569 -0.00049351575 0.01035454 -0.00038834728 -0.000115158524 -0.00027128262 -0.000558329 -0.00076114683
-0.00029831714 0.009901234 0.0012965495 0.0033971453 -0.00236978 0.0020826596 -0.0011746213 -0.0050213425
-0.048609395 0.06515802 0.007241646 0.08940137 -0.026642315 0.08202828 0.09779033 0.068183206
-0.00803786 0.005527629 0.05461996 0.006027769 0.10698965 0.058193237 0.0002946558 -0.0101478435
0.0034484572 0.014652473 0.10367054 -0.030080987 0.08647904 0.030604731 0.005557866 0.058973618
-0.0139740445 0.002244251 -0.036137454 0.05248444 0.07756203 0.005717691 -0.035662204 -0.06764506
0.10861656 0.07224408 -7.105239e-05 0.058504067 -0.0041012485 -0.011101564 -0.045661934 -0.006969481
-0.051889285 -0.05472786 -0.005612918 -0.006526401 0.068160936 0.082335204 -0.05600084 0.08871802
-0.044473454 0.05042406 0.0066011655 0.028925885 -0.01832124 0.022631 0.055505116 -0.05464959
-0.03594644 0.06726735 0.08696812 -0.03146762 0.00789267 0.09476401 0.04855918 0.061642695
0.005876828 0.018877506 0.021135978 0.00010192782 -0.021686517 -0.03110536 0.0342378 -0.015245445
-0.02310139 -0.02941169 0.07761454 -0.015302751 -0.04944266 0.08177794 0.09544527 0.00022918281
-0.017438892 -0.062008046 0.14359526 0.023442907 0.0002174481 -0.036900725 0.032467503 -0.014673914
0.021337032 0.036914833 -0.043391883 0.011948977 0.007491966 -0.005935122 0.054738674 -0.023738675
0.050537065 0.005837342 -0.013461196 0.035785705 -0.009297699 -0.0824906 0.051069647 -0.035290547
-0.0014140916 -0.021874413 0.082106516 0.050262418 -0.0064285523 -0.028156685 -0.0030808586 0.0015332826
0.006449838 -0.0036063218 0.08095527 0.005894371 0.024241187 0.0021956752 -0.0062707285 -0.015504502
-0.018847693 0.014887875 0.076459296 0.032732323 0.0016000771 -0.10242885 0.041109443 0.17490734

find.2.bias f4 [128]
00000000: f30e 0dbc 0d5d b6bc 566f 983d b19d 69bc
00000010: 5999 913c 9016 91ba 23e3 273d 497c 803d
00000020: 4f6b 96bd ca63 c53d b0b0 6cbd b79a c43d
00000030: 9dfc dd3b 9b0a e23d 5188 4bbd b724 113e
00000040: 7d81 223d 1817 8c3c e427 443d 6355 343d
00000050: e0d7 de3b ca00 3e3c d1b2 0a3d 3a37 bf3d
00000060: 1b2a 8b3d 64d4 353d a557 5cbd b52e 8fbc
00000070: b5a2 053c 8630 51bd 8c78 443a 1533 e4bc
00000080: 55a1 bbbc 4a89 82bd 4afe d6bc 3f40 85bd
00000090: 444a 7abc b47a a03c 0a5b 65bd ee8f ab3b
000000a0: df26 8abd 1731 80bd c909 0b3e 80a3 113d
000000b0: 8b93 a33d 73c2 753d ad14 4ebc 269e c43c
000000c0: 7ff5 aabc afde ed3c b368 00bd c9b3 f73d
000000d0: c789 88bc e655 a43c aece 01bd 16e6 c23c
000000e0: 81c0 a3bd ca72 013d 332e 0d3e 94a1 a13c
000000f0: 1c2b 80bd d68f e5bc 52f3 24bc 7b54 433c
00000100: 756d 8bbc c91f fbbc 44a7 29bd dd3f de3d
00000110: b4c1 983d 39f5 dfbc dc7e c03d 2432 6dbd
00000120: ca66 db3d 3aad 283b 4daf 1fbc b447 a13b
00000130: 9706 a1bc 2f0f 8fbc c117 0a3d 1704 2c3c
00000140: c566 90bd 5458 7c3d 6517 6b3c f470 ebbb
00000150: 8963 083e 1265 adbb 7dae 973c d500 9b3b
00000160: 48bf 4cbd f343 983d 90c4 4bbd 6735 f8bc
00000170: 8f0f 49bd f14c 7b3c ec84 023d f9b0 953d
00000180: 025f 4ebc bb69 c2bc 6b1f 8f3c 0548 9fbd
00000190: a825 203d 4a3a 8f3d 9763 cebb 8a1f 5dbb
000001a0: 2e0c a13d b2fd fd3a 6807 44bd bfbf ae3d
000001b0: 3e75 77bd 9784 3fbd 37cf 403d aed7 6dbb
000001c0: 0a10 d0bd bbdd 0a3a b1e5 393d 2c15 9c3d
000001d0: 90e5 6c3d 904e 523d eddc c73d d9d2 6c3d
000001e0: 3b48 0dbd 46f7 ee3c 9ded d3bc b3d4 813d
000001f0: df29 8ebd 8e56 5e3c 48ee 75bc 3696 8abb
-0.008609521 -0.022261167 0.07443111 -0.014258788 0.017773317 -0.0011069346 0.0409881 0.062737055
-0.07344686 0.09638174 -0.05778569 0.09599822 0.0067744986 0.11037179 -0.04969055 0.14174162
0.03967427 0.017100856 0.047889605 0.044026744 0.0068006366 0.011596868 0.03386194 0.093367055
0.0679514 0.044392005 -0.05379452 -0.017478326 0.008156468 -0.051071666 0.00074947695 -0.027856389
-0.022904078 -0.06373842 -0.026244301 -0.065063946 -0.015276495 0.01958976 -0.055995025 0.0052356636
-0.06745695 -0.06259363 0.13577951 0.035556316 0.07987126 0.059999894 -0.012578172 0.024001192
-0.020869015 0.029036848 -0.03134985 0.12094838 -0.01666726 0.02006049 -0.031691246 0.023791354
-0.079957016 0.031603612 0.13787155 0.019730367 -0.062582225 -0.028022688 -0.010067778 0.011921997
-0.017019967 -0.030654805 -0.041419283 0.10852025 0.07458821 -0.027338611 0.093991965 -0.057909146
0.10712965 0.0025738017 -0.009746385 0.0049218778 -0.019656463 -0.017463295 0.03371406 0.010499022
-0.07050852 0.061607674 0.014348839 -0.007185096 0.1331922 -0.0052915895 0.01851582 0.004730324
-0.049987108 0.07434835 -0.049748003 -0.030298902 -0.049087103 0.0153381685 0.031865045 0.073091455
-0.012595894 -0.023732057 0.017471036 -0.077774085 0.03909841 0.0699354 -0.006298493 -0.0033740723
0.07863651 0.0019377975 -0.047858626 0.085326664 -0.060414545 -0.046757307 0.047072615 -0.0036291885
-0.10159309 0.00052973226 0.045385066 0.07621226 0.057836115 0.051344454 0.09758935 0.057818267
-0.034492712 0.029170644 -0.025870139 0.06339397 -0.0694158 0.013570441 -0.015010424 -0.0042293323

find.4.weight f4 [64, 128]
00000000: 53f8 47bd 493d 23bd 76dc 28bd eea6 e43d
00000010: 70ba 0abc e825 67bd a459 abbc 4468 a3ba
00000020: f1e3 05bd 5652 e23c c180 ee3c e671 613d
00000030: 7d51 a6bd 0660 973d d5eb bd3d 7a04 bdbd
00000040: fce7 54bd 6ff8 bf3c 82bc 1dbe 7477 cd3d
00000050: 6d5d 263d 4845 26bd 9e95 4fbd 0a7c ab3c
00000060: 3275 6cbd 1510 723d 3a97 9b3c 56f6 e4bc
00000070: d16b fdbd 1d21 633d e0db 2c3d fcdf de3d
00000080: e2c2 aabd fb39 c2bc 759c 883b 6139 a0bc
00000090: 0c85 cbbb f42c 633c 0b4e e53c e477 fa3d
000000a0: 807b 8e3d d584 9a3d 0523 7bbc 8b83 63bd
000000b0: 3863 e2bc 612d 98bc b865 83bc ee51 483d
000000c0: 2a80 85bd 3719 ce3b 8630 fc3a 530b 87bd
000000d0: 51e5 933d 5e68 bfbb 1b6a 6bbd b590 9b3d
000000e0: 70ad 98bd 54f4 54bd d9dd b3bc 2def e6bd
000000f0: ca4e 0e3c 4e4a c03c 9c85 b33d 35b1 c83c
00000100: 693f a43d 94fa 1ebd 445c 7b3d 62d7 62bd
00000110: c602 c93d 821e 3fbc 3dda 043d b2ae 0a3d
00000120: b053 86bd 1d6c 2fbe c1b9 263d bdd5 c8bd
00000130: a219 063d 4e31 3ebd ae87 b63d c6f2 a1bc
00000140: 5345 8bbc 48bf 06bd 24b7 3cbd ebaa d4bd
00000150: 064c ec3c 61dc 55bd 258f b83b b8d5 2cbc
00000160: 0bca b4bc 7f70 b7bc 3d22 923d 08d7 f1bb
00000170: 3b5b 0bbd 62ea f53c fa88 b63d 9bc5 babd
00000180: b050 783d 733e 8b3c b79b 9fbd 55d2 a5bc
00000190: 6ecf 1dbb 7144 dfbd e01f 053d 6eca a8bd
000001a0: 79dd d83c c43b 96bd 4cc1 5fbc 8990 a33c
000001b0: d2d3 f4bc c0d0 e3bc c809 df3c 36e2 cc3c
000001c0: 9c2f a33c d32a 333b 6d2a 7d3d 8d91 10bd
000001d0: ff87 cfbd bed0 aa3b 2092 063e 790b 6abc
000001e0: cc60 f83d 8c8d dfbd c12a 3e3c 89d0 06bd
000001f0: 1729 98bc 56e3 0d3c 4d39 54bc 94a1 fc3b
00000200: 3e47 5bbc ede1 713d 6c3c 3a3c e0af 14bd
00000210: 8e94 303d 022c 18bc fab0 af3d 25f5 0cbd
00000220: 37ee f0bc ff78 aebc eb90 22bc ed01 0c3d
00000230: 9ed6 013d 68c8 caba c497 c43d 4371 c6bd
00000240: 6271 8abd 1858 9cbc cc3a 0fbd f5e5 8fbb
00000250: b1e5 953d 7c27 18bd eaf0 713c 7ca0 5d3d
00000260: bc49 383d 71e9 a3bc 20a6 91bc 3113 1abb
00000270: e793 28bd b907 13bb 5a7f db3c 9b38 353d
00000280: 9341 83bb 04e8 d33b 806d 55bc fbe4 94bc
00000290: d555 abbb 2ccc 663d ab33 00bc 3bda 5abd
000002a0: f0ad 8dbc 8170 9d3d 8d28 0abd 7b80 b73c
000002b0: 64df 19bb e8a9 b93d 0013 cabc 31d9 3fbd
000002c0: 9b23 1abd 7e88 023d 0cc5 1a3b c8e0 5bbd
000002d0: 8e7e b73c cfa5 023d 670e 043d 7b48 c03d
000002e0: 91ff 7abd 9591 81bd 361f 303c 5b3c 0dbd
000002f0: a9aa 003d 3329 50bd b499 91bd 42a8 1ebc
00000300: c0c3 803d 3ae3 28bd 7b1a 803c 3026 713c
00000310: ed7b b43c 5985 6c3d 9a67 243d 2e88 663c
00000320: 19ff 703c 1993 95bd 34a3 06bd b13f e0bb
00000330: 3580 683b ab20 f6ba 0d64 33bd ff95 9ebc
00000340: ef39 233c c615 f7bb 7969 183d 3195 0db9
00000350: daad 47bd 1d36 873b 4205 c13c 699a 873d
00000360: c149 6d3c cf60 173d aaf0 c93d 89d2 7cbc
00000370: 6dee 873d 9172 8fba c2a2 363c 81a9 11bc
00000380: a005 bcbc f5ea 223d c7a7 b0bd b622 3abb
00000390: 6f9d 39bd 6a5b 12bc 365c 413c 74c5 593b
000003a0: 65f1 343d 5f32 343b 4781 df3a 1d97 3bbd
000003b0: 44b4 323c 7fcd 82bb 2520 c33d 1835 9bbb
000003c0: 8ea5 11bd 4a76 5abb adcd 9e3d 15dc f0bc
000003d0: 8bcd dbbc fe6d 293d 76db 09bd 493d b539
000003e0: d81c 983d 38aa 77bd f3e9 113d 142b a43c
000003f0: 6054 ff3b 63ea a9bd 0b4c 09bd 048b 4eb9
-0.048820805 -0.039853368 -0.041225873 0.11164652 -0.008467302 -0.056432635 -0.020916767 -0.0012466987
-0.032688085 0.027627151 0.029114129 0.055040263 -0.081210114 0.07391362 0.09273497 -0.092293695
-0.05197905 0.023433892 -0.15403941 0.100325495 0.04061644 -0.040593415 -0.050679795 0.02093317
-0.057728954 0.05909737 0.018993009 -0.027949493 -0.1237408 0.0554515 0.042201877 0.108825654
-0.08337952 -0.023709288 0.0041690418 -0.01955861 -0.006210929 0.013865698 0.027991315 0.122298986
0.069571495 0.07544867 -0.0153281735 -0.05554537 -0.027635202 -0.018576326 -0.016039714 0.04890626
-0.06518586 0.006289627 0.0019240535 -0.06593957 0.07221473 -0.005841299 -0.057474237 0.0759596
-0.074549556 -0.051990822 -0.021956371 -0.11276088 0.008685777 0.023472931 0.08765718 0.024498561
0.08019907 -0.03881319 0.06136729 -0.055381186 0.09814982 -0.0116649885 0.03243469 0.03385801
-0.06558931 -0.17131086 0.040704492 -0.09806392 0.03273929 -0.04643374 0.089125976 -0.019769084
-0.01700083 -0.032897264 -0.046073094 -0.103841625 0.028844845 -0.052212123 0.0056322985 -0.010549001
-0.022068998 -0.02239251 0.07135437 -0.00738037 -0.03402255 0.030018989 0.08912845 -0.091197215
0.060623825 0.016997552 -0.07793372 -0.020241896 -0.0024079937 -0.10901726 0.0325011 -0.082417354
0.026472794 -0.07335618 -0.013656925 0.01996638 -0.02988616 -0.0278095 0.027226344 0.02501021
0.019920163 0.0027338758 0.06180804 -0.035295058 -0.10133361 0.0052128723 0.1314168 -0.014284962
0.121278375 -0.1091567 0.011606873 -0.03291372 -0.01857428 0.008660158 -0.012953115 0.0077096913
-0.013383685 0.05905335 0.011366945 -0.03630054 0.043110423 -0.009287836 0.085786775 -0.034413476
-0.029410465 -0.02129793 -0.009922246 0.034181524 0.031698816 -0.0015471103 0.095992595 -0.09689572
-0.06759907 -0.019084975 -0.034968182 -0.0043914267 0.07319201 -0.03714703 0.014766911 0.054108128
0.044992194 -0.020008774 -0.01777941 -0.0023509974 -0.041156676 -0.0022435023 0.026794124 0.044243436
-0.00400562 0.0064668674 -0.013026595 -0.018175593 -0.005228738 0.056347057 -0.007824819 -0.053430777
-0.017294854 0.07687474 -0.03373008 0.022400131 -0.0023479098 0.0906561 -0.024667263 -0.04683799
-0.037631612 0.03186845 0.0023615984 -0.053681165 0.022399213 0.03189641 0.032240298 0.093888246
-0.061278883 -0.06326596 0.010749629 -0.034481388 0.031412754 -0.05082054 -0.07109395 -0.0096836705
0.06287336 -0.041232325 0.015637627 0.014718577 0.022031749 0.057744358 0.040137865 0.014070554
0.0147092575 -0.07303447 -0.032870486 -0.00684353 0.0035476808 -0.0018778046 -0.043796588 -0.019358633
0.009962543 -0.0075404374 0.03720996 -0.00013502386 -0.048749782 0.004126324 0.023562077 0.06621248
0.014482916 0.03695756 0.09860356 -0.015431055 0.06637273 -0.0010944178 0.011147203 -0.008890511
-0.022951901 0.039774854 -0.08625751 -0.0028402037 -0.045316156 -0.008932928 0.01180177 0.0033229263
0.044175524 0.0027495844 0.0017052077 -0.04579841 0.0109072365 -0.003991782 0.095276155 -0.004736554
-0.035558276 -0.0033334666 0.07754073 -0.029401818 -0.026831409 0.041364662 -0.03365656 0.0003456867
0.074273765 -0.060465068 0.035623502 0.020040073 0.0077920407 -0.08296659 -0.033519786 -0.00019697478

find.4.bias f4 [64]
00000000: 9278 2e3d 3d34 283d e82c 4f3c bf9b 2d3d
00000010: 66d9 60bd 40f3 6d3b 4933 35bd 0eb3 bbbc
00000020: b556 cd3d 0404 0bbc 0a55 dcba 3937 8ebc
00000030: 5fab 9d3c 1cfb 8a3d 0423 aa3c f498 303c
00000040: 56cd 07bd 89c5 02bd aa02 69bd e6b4 80bd
00000050: 269c 80bd 8d50 b6bd 91cc a0bd 3f61 323d
00000060: dcee c6bc 8c54 003d 371c 363c fbeb 4cbd
00000070: 3490 87bd 8b4a 0d3d 818a 80bc f977 083d
00000080: 7416 7abd 2bb0 8bbc 439e c43c d6e4 6cbd
00000090: a68a 11bd 478e e23d c469 ecbb e4fa 183d
000000a0: bd06 103d e5d1 9f3d a5e0 86bd 4959 083d
000000b0: 5fd6 45bd ad2a a0bd 0663 b0bc 93af 4d3c
000000c0: 761f 313c 5aa4 4d3d 9606 683d 9487 953d
000000d0: afb3 183d ab37 6f3d f99f 3b3b e517 fc3d
000000e0: ef17 323d e9e2 9a3c e40d a63c f0c8 1a3c
000000f0: ac29 7abd c640 733d d73c c23d feb7 3cbb
0.042595454 0.041065443 0.012644984 0.04238486 -0.054894827 0.0036308318 -0.044238362 -0.022912528
0.10026304 -0.008484844 -0.0016810012 -0.017360317 0.019246755 0.067861766 0.02076865 0.010778654
-0.033154808 -0.031926665 -0.056887306 -0.06284504 -0.06279783 -0.089020826 -0.07851518 0.043549772
-0.024283819 0.03133063 0.011115125 -0.050029736 -0.066193014 0.034494918 -0.015691044 0.03331754
-0.06105657 -0.017051777 0.024001246 -0.057835422 -0.035532616 0.110622935 -0.0072147567 0.037348643
0.035162676 0.07803706 -0.06585816 0.033288274 -0.048300143 -0.0782064 -0.021531593 0.012554067
0.0108107235 0.050205566 0.056646906 0.0730125 0.037280735 0.0584027 0.0028629287 0.12309245
0.043479856 0.018907027 0.020270295 0.009447321 -0.061074898 0.059387945 0.094842605 -0.0028796191

find.6.weight f4 [2, 64]
00000000: e904 053e f02e d13c e831 98bd a63d 9e3d
00000010: e831 093d 23b7 dbbd 8984 0a3c ca37 e3bc
00000020: 10d7 013e cc61 b1bc f3c0 a53b dac7 01bd
00000030: c0ac 27bd 8109 f23c f3a3 0abd 281d 5dba
00000040: b751 5bbc 16dd fe3d e1d0 ba3d c00a 1ebe
00000050: f097 8f3d e5b3 e73c e99e c9bd 87a1 883d
00000060: 4b51 ffbd ef63 9bbd 7cbf a13d a8c1 8b3b
00000070: 9fa2 74bc 9179 f53d 7262 213d 8275 33bc
00000080: 8f76 9bbd b0b7 c7b9 34c4 973d 977e 11bc
00000090: 7c94 f4bc ff0d 61bd f43b ae3d 2ef2 c9ba
000000a0: edde 1c3b 195f 0ebd eb46 c23c 03c4 0e3d
000000b0: 512c 04be 10b2 5f3d ddd8 03bd ad14 4c3d
000000c0: 5760 a4bd 49ab 933d c049 9f3c 2e1e b83d
000000d0: fd8b fcbb 7b4e 2f3d 12a3 b3bb a124 5e3e
000000e0: 1c21 c2bd 3a52 9f3d 9824 14bc a1ae c1bc
000000f0: 73aa d4bd 949c 5c3d 6638 66ba 9486 44bb
00000100: badd 11be 06d0 38bd bc75 babd 7023 e23d
00000110: 5302 273d 8c9f 19be 4c46 d93c a511 693c
00000120: 4c39 773d 5055 fcbd b350 78bd d23b e6bb
00000130: 05b1 15be bd61 ecbc 3bc9 aa39 a15f b4bd
00000140: 8d80 0e3e f099 f0bd 4420 abbd 348f 893c
00000150: cac8 5d3c 42e4 c53d 7cf0 b33d 26e9 9abd
00000160: bf52 27be b756 89bd b3ee 173e 9295 07be
00000170: 4a82 2c3c 03f6 19bc 783a 21bd e516 e9bd
00000180: 5c5c f43d 8c52 42bc 7179 f53d c742 f73c
00000190: 047a 9d3d 3507 07be 49e9 adbd 63bd edbd
000001a0: 6812 a63c 7539 e53d df85 8b3d b331 eb3d
000001b0: 9565 b6bd 922f e53d 830b 1f3e fd13 a03d
000001c0: 85aa c03d dd8d 403d 0ba9 6abc cdab 683d
000001d0: f737 a63c cdce 963d bdc3 8ebd b9af 233e
000001e0: df8c ffbd 7ca1 fcbd bf86 f6bd 3e17 dbbd
000001f0: 4823 c43d 0a44 ce3c 2ff8 22be f558 413c
0.12990154 0.025535077 -0.07431394 0.07726602 0.03349486 -0.1072829 0.00845445 -0.027736563
0.12679696 -0.021653078 0.0050584017 -0.031684734 -0.04093623 0.029545547 -0.03384776 -0.00084348256
-0.013386182 0.124445125 0.09121872 -0.15433788 0.07011402 0.028284023 -0.09844763 0.06671434
-0.12466677 -0.0758742 0.07897851 0.004265029 -0.01493135 0.119860776 0.039400525 -0.010953309
-0.07590973 -0.00038093096 0.0741047 -0.008880279 -0.02985596 -0.05494499 0.08507529 -0.0015407258
0.0023936585 -0.03475866 0.023715457 0.0348549 -0.1290753 0.054613173 -0.03218924 0.049824405
-0.08026188 0.072104044 0.019444346 0.08990131 -0.0077071176 0.042799454 -0.005482086 0.2169366
-0.09478971 0.07779355 -0.009041928 -0.02364284 -0.10384073 0.053860262 -0.0008782208 -0.0029987441
-0.14244738 -0.04512026 -0.09104487 0.110419154 0.0407737 -0.15002269 0.026522778 0.014225398
0.060357377 -0.123209596 -0.060623836 -0.007026174 -0.14618309 -0.028855199 0.00032574855 -0.08807302
0.13916226 -0.11748111 -0.083557636 0.016791917 0.013536641 0.09662677 0.08786103 -0.07564001
-0.16340159 -0.06705993 0.1483715 -0.1324065 0.01052911 -0.009397033 -0.0393624 -0.1138132
0.11931679 -0.011860501 0.11986054 0.03018321 0.07689288 -0.13186343 -0.08491761 -0.11608388
0.020272449 0.111926 0.06812643 0.11484089 -0.08906094 0.11190714 0.15531735 0.078163125
0.09407524 0.04701029 -0.01432253 0.056804467 0.020290358 0.07363663 -0.06970928 0.15985002
-0.12478041 -0.12335488 -0.120374195 -0.106977925 0.09577042 0.025178928 -0.15914987 0.011800994

find.6.bias f4 [2]
00000000: 496e 78bd 83a0 913d
-0.06065205 0.07110693

grapher.0.weight.weight f4 [5, 1]
00000000: 68f2 0c3f 9035 dbbd 2919 80be 62c4 2b3d
00000010: 9d7e b03b
0.5505738 -0.107035756 -0.25019196 0.041935332 0.005386187

grapher.0.weight.bias f4 [5]
00000000: 6b2b a3bb ddfa 393f 191a c73e fbe8 8ebe
00000010: a64f 8bbe
-0.004979541 0.7264841 0.38887098 -0.27912125 -0.27209204

grapher.0.reduce.weight f4 [5, 1]
00000000: a4fe 86b9 c9e2 8d3e cebd 4a3e 3489 713e
00000010: c535 93ba
-0.00025748194 0.27712086 0.19798967 0.23587495 -0.0011231235

grapher.0.reduce.bias f4 [5]
00000000: f8d4 dcba 9859 37be 1f1f 1fbe d9b7 08be
00000010: 1998 f6bb
-0.0016848138 -0.17905271 -0.15539216 -0.13351382 -0.0075254557

grapher.0.gru.weight_ih f4 [15, 5]
00000000: 46a4 023b 5388 2e3e 6416 87bc f74a 99bd
00000010: c674 f0bc 6e3b 55ba fdf3 703a 7265 45ba
00000020: 8d85 6d3a d6da e3bb c17e 66b9 9da7 5abc
00000030: 6d26 0abb 9452 b93a da70 b23b babb 343c
00000040: 1ae0 87bd 49cf df3b 3f72 2dbb d5c1 6d3d
00000050: ce37 5bbd 3aab 453d 052a bb3c 93c5 af3b
00000060: 728e fe3c db2b d9ba 68b4 4fbd 53ba 993d
00000070: 0f64 3bbc fb36 0d3e 2189 6f3c b61d bf3d
00000080: 0731 5abb 12e9 d4bc f1bd cbbd ab4c 373b
00000090: 471c d33d 0756 fbbc 2aa1 e4bc c12c d3bd
000000a0: 0af6 313c 586e e2bd 552d 26bc 2913 d83c
000000b0: f2f6 163d ae23 48bb aa51 d43c 6473 1ebd
000000c0: a3e7 71bc 92af fe3d 2997 aebc c8fe 7f3e
000000d0: 246b 36bd ca8c 98bd ef1b 85be 4969 fd3d
000000e0: 07ec 913e d3ad 0f3e c17d 233e 397b 7abe
000000f0: d75e 3abd abb3 b73d e23f 76bd 3390 b7bd
00000100: 2f0a ef3d b1da 133e df60 d83d ca4c 5f3d
00000110: 8912 1f3d 9750 98be c60a aebe d5ae d1be
00000120: 0ef9 6a3e 0add 8fbe e8b6 8abe
0.001993434 0.17044191 -0.016490169 -0.074850015 -0.029352557 -0.0008134161 0.00091916305 -0.000753007
0.0009060733 -0.0069535775 -0.00021981729 -0.013345626 -0.0021080032 0.001413899 0.005445582 0.011031086
-0.06634541 0.0068301302 -0.00264658 0.05804618 -0.053520016 0.048258997 0.022847185 0.005364129
0.031073783 -0.0016568856 -0.05070916 0.07506242 -0.01143743 0.13790505 0.014620096 0.09331839
-0.0033293383 -0.025990043 -0.09948338 0.0027969282 0.10308128 -0.03068067 -0.02790888 -0.103112705
0.010861883 -0.11056203 -0.010142644 0.026376324 0.0368566 -0.0030538845 0.025917847 -0.038684264
-0.014764699 0.12435831 -0.021312313 0.24999535 -0.04453577 -0.074487284 -0.25997874 0.12373597
0.28500387 0.14031152 0.1596594 -0.24461068 -0.045500603 0.08969816 -0.060119517 -0.08963051
0.11671864 0.14438893 0.10565352 0.05451659 0.038836036 -0.29748985 -0.33992594 -0.409537
0.2294657 -0.28098327 -0.2709267

grapher.0.gru.weight_hh f4 [15, 5]
00000000: 4868 5cba 33dc 7a3b 0747 953b 8dd9 8dbd
00000010: 0533 9cbc 234a c138 e0c0 bfb9 e128 a6b8
00000020: 5b3b 07b8 69d5 32b9 ff5e 60b9 9a43 18ba
00000030: dabc 9db7 2e86 813a 748b 8aba 05c3 173b
00000040: dc30 1c3c f51f 05ba 3956 75bc dee4 113d
00000050: b851 df3b 7644 81bb b267 ccb8 1951 f03a
00000060: e751 af3b fc55 823b 97f9 19bb 90b0 cab8
00000070: 2f09 08bc 7183 b23b 57bc 843b 3617 313b
00000080: 82bb c2b8 ed21 3cbc d5a1 c53c 2450 13bb
00000090: e862 c7ba 3c8e 3c36 91d2 553a edf5 76bb
000000a0: 1498 8c39 e478 3ab8 6464 25b9 d208 333a
000000b0: 5437 abba 1191 efba c030 4cba 1815 5536
000000c0: 7da1 0d3b 016e 06bb f36f 60bd 7254 9bbe
000000d0: b77b 2f3e d2fd 75bd b289 283d a20c 2c3c
000000e0: 39d9 bb3c 21f9 51b9 40d5 35bd 414f 693c
000000f0: 7a21 2cb9 fe57 a1bb 68a1 6139 3bc5 18bb
00000100: 9d72 6bba b5af 8cbb 7650 943c 6fdc 5a3a
00000110: 766c 523b 75ee 4abd 82b0 c3bd 05ea cc3d
00000120: 12ad 6b3d 8b4a e83c 5fcd 843e
-0.0008407873 0.0038278222 0.0045555863 -0.0692626 -0.019067297 9.216766e-05 -0.00036574062 -7.923111e-05
-3.2241787e-05 -0.00017054904 -0.00021397693 -0.0005808413 -1.88038e-05 0.0009881908 -0.0010570125 0.0023157012
0.009533133 -0.00050783093 -0.01497417 0.035618655 0.0068151616 -0.0039449288 -9.746793e-05 0.0018334716
0.0053503397 0.0039775353 -0.0023494714 -9.664998e-05 -0.008302971 0.005447798 0.004050772 0.0027021891
-9.285567e-05 -0.011482698 0.02412502 -0.0022478187 -0.0015211971 2.8096974e-06 0.0008156682 -0.0037683204
0.00026816188 -4.4458444e-05 -0.00015773025 0.00068296224 -0.0013062754 -0.0018277486 -0.0007789247 3.1751752e-06
0.0021611147 -0.0020512345 -0.054794263 -0.30337864 0.17137037 -0.060056515 0.04114694 0.010501059
0.022930728 -0.00020024601 -0.044392824 0.014240087 -0.00016415669 -0.0049238196 0.000215178 -0.0023310918
-0.0008981617 -0.004293407 0.018104773 0.0008348887 0.0032108105 -0.049543817 -0.095551506 0.10005573
0.0575381 0.028355857 0.25937936

grapher.0.gru.bias_ih f4 [15]
00000000: 6a2d 293e 257e 8ebb 302c 33bc e854 53bd
00000010: 755e d03d b2d5 aabd a934 f9bd e157 89bd
00000020: d6fb 84bd 7686 d8bd e559 c73e c83c 913e
00000030: 46f3 2f3e 7b07 99be a574 a33e
0.1652123 -0.0043485337 -0.010935828 -0.051594645 0.10174266 -0.083415404 -0.12168247 -0.06706215
-0.064933464 -0.105725214 0.38935772 0.28366685 0.17182645 -0.2988852 0.3192493

grapher.0.gru.bias_hh f4 [15]
00000000: 23ca 3ebe 0453 0fbd 623e 19bc 9b2e a93c
00000010: b6e0 d43d 2785 ce3d 8a38 38bd 0dc6 80bd
00000020: e82a 273e 763d 35bd 9c11 8bbe 42f1 1abe
00000030: dce9 4dbd b997 7cbd abb9 ba3e
-0.18631797 -0.03499128 -0.009353252 0.020652106 0.10394423 0.100839905 -0.044975795 -0.06287775
0.16324961 -0.044248067 -0.27161872 -0.15131095 -0.050271854 -0.06166813 0.36469778

grapher.0.gru.ln_resetgate.weight f4 [5]
00000000: 4618 0e3f 8fd2 053d 7a77 e03c e8df ac3c
00000010: 4e85 293f
0.5550579 0.032671507 0.02740072 0.02110286 0.6621903

grapher.0.gru.ln_resetgate.bias f4 [5]
00000000: 2e43 503c cd18 85ba 1627 1b39 132c 233a
00000010: 350d 7e3b
0.012711329 -0.0010154486 0.00014796513 0.0006224524 0.0038765196

grapher.0.gru.ln_inputgate.weight f4 [5]
00000000: e157 af3d feec ab3e 97e4 a93d 72ef ad3c
00000010: 1fb0 c83e
0.085616834 0.33579248 0.08295553 0.02123234 0.3919687

grapher.0.gru.ln_inputgate.bias f4 [5]
00000000: 2806 e13b e868 523c 54bc 5e38 5a16 45b9
00000010: f3ec 8b3b
0.006867189 0.012842394 5.310432e-05 -0.0001879571 0.00427019

grapher.0.gru.ln_newgate.weight f4 [5]
00000000: 33ad 2b3f 3dd6 c03e 3e02 4d3d 4e9f 133e
00000010: e313 4c3f
0.67061156 0.3766345 0.050050966 0.14416239 0.79717845

grapher.0.gru.ln_newgate.bias f4 [5]
00000000: c9cb d9bc 4193 89bc 7c82 493b b671 d4ba
00000010: c31d 713b
-0.02658643 -0.016793849 0.003074794 -0.0016208205 0.003679142

grapher.1.weight.weight f4 [5, 5]
00000000: ab18 1cbd b844 9b3e 5f75 eeb8 864d 08ba
00000010: 553d 15be d447 31be 0588 48be 274e 9537
00000020: 207c 6c39 7002 a6be 12a2 86be f760 b8be
00000030: 9884 66b8 6806 f9b8 d0a4 a13e e3b7 943e
00000040: 02d7 e5bd ffa3 dcb8 9689 feba b273 b7be
00000050: 9c6d 52be e690 b4be a390 ee37 aca2 d939
00000060: 42f0 b43e
-0.038109463 0.30325866 -0.000113705864 -0.000519954 -0.14574178 -0.17312557 -0.19583137 1.7798577e-05
0.00022552954 -0.32423735 -0.26295525 -0.36011478 -5.495976e-05 -0.000118744385 0.31571054 0.29046544
-0.1122265 -0.00010520964 -0.0019419666 -0.35830456 -0.20549625 -0.352668 2.8439163e-05 0.00041510665
0.35339552

grapher.1.weight.bias f4 [5]
00000000: f681 163e d43d 61be 0f5f 0a3d aaec 6bbd
00000010: 6574 49bd
0.14698014 -0.21996242 0.03378206 -0.057598747 -0.049183268

grapher.1.reduce.weight f4 [5, 5]
00000000: 422d 053e 986a e1bd fb34 ff38 d326 f039
00000010: ade5 84be d836 1ebe 386f 423c 2ad9 13b6
00000020: 0ec9 a938 1708 5dbe ee86 b4bd b386 76be
00000030: de19 a938 7219 383a 22aa 8abe 50cb 4bbd
00000040: 199f e53d 0a0b 83b8 2e7c 59b9 e30e 693e
00000050: a9ca 3c3b e007 d1ba 8c52 38b7 469c d2b8
00000060: db74 84bc
0.13005546 -0.11006659 0.00012169216 0.00045805293 -0.2595648 -0.15450609 0.011867337 -2.2031113e-06
8.095997e-05 -0.21585117 -0.08814798 -0.24074821 8.063366e-05 0.00070228346 -0.27082926 -0.04975444
0.11211986 -6.248623e-05 -0.00020740993 0.22759585 0.0028807318 -0.0015947782 -1.0986474e-05 -0.000100426885
-0.016169002

grapher.1.reduce.bias f4 [5]
00000000: f642 643e d157 183e 6302 b63e 81a9 c7bd
00000010: a0cc 4dbb
0.22291169 0.1487725 0.35548696 -0.09749127 -0.0031402484

grapher.1.gru.weight_ih f4 [15, 5]
00000000: dc61 753c 5854 8b3d 28b8 b4b9 6396 7fbc
00000010: 4177 a23a 5dc9 c9bc 231d eebc cd2c 09ba
00000020: 2622 f4bc 74bc 0cba 8ed1 4cbe 94a7 d8bd
00000030: 4d2f c83b ac09 bebc 1645 fc3c 3cdf cd3c
00000040: 63e9 d33d 448b c639 c984 bebc a963 8639
00000050: 588f 103c d980 0d3e 17e6 af3a 6bfc 723c
00000060: 9206 c83c 692d 5abe ed7b b03d 1ca1 ddbc
00000070: 0a0d 0c3e 6cce 5ebd 5e54 b43e 4e85 763e
00000080: 530d 60bd 3c88 383e 0e01 cbbd e42b 4abd
00000090: 3ece 8e3e 6ecd 76bc 3e37 2f3e 4573 37bc
000000a0: e9ce a3bd ed59 cfbd b817 90bc a3ed bfbd
000000b0: 4419 94bc 3274 8cbd 61cb 9b3e fc52 65be
000000c0: 1ed9 b5be 6ed5 d4bd a2cb 53bd 88e4 2c3e
000000d0: 6fe5 cfbb 33e3 86bd 9243 b2bd eaeb 83bd
000000e0: af00 9bbe cea8 0d3d b67e 5d3e 93d5 6ebd
000000f0: ad6c 643e ca3d 99bd 5453 273c 2ee8 0c3e
00000100: a90e 493e 3c62 383e 3274 7a3e ad92 4b3e
00000110: 7179 943e ddc3 63be aafa 87be 4a99 3fbd
00000120: 1773 64bd e7d8 0e3d d5e8 e93d
0.014976945 0.06803197 -0.00034469482 -0.01559982 0.001239516 -0.02463215 -0.029066628 -0.0005232811
-0.02980144 -0.0005368658 -0.20001814 -0.10578838 0.0061091543 -0.023197971 0.030794661 0.02513086
0.10347249 0.00037869264 -0.023256676 0.00025632724 0.008823238 0.13818683 0.0013420013 0.014830689
0.024417195 -0.21306385 0.08617387 -0.027054362 0.13676849 -0.054396078 0.35220617 0.24074289
-0.054700207 0.1802072 -0.099123105 -0.049358264 0.27891725 -0.015063627 0.17110917 -0.011196916
-0.07998449 -0.10124574 -0.017589435 -0.093714975 -0.018078454 -0.068581 0.30428603 -0.22394937
-0.3551721 -0.10392271 -0.05170787 0.16884053 -0.0063444893 -0.065863036 -0.08704294 -0.064414814
-0.3027396 0.034584813 0.21630368 -0.05830915 0.22307082 -0.074824885 0.010212738 0.13760445
0.19634499 0.18006223 0.24458387 0.19880171 0.28998902 -0.22242685 -0.2655843 -0.046777047
-0.05577382 0.034874823 0.11421362

grapher.1.gru.weight_hh f4 [15, 5]
00000000: 65f1 8fba 1ade 0eb8 cc85 0a39 4328 033c
00000010: 1a32 8cb9 40da 8eb9 2f10 eb39 4f7f f3ba
00000020: 4e9c 9a3b 7ade abb9 5941 783c c591 37ba
00000030: de2b 8a39 e10c 8abc ab96 4abb 6271 19bb
00000040: 009a 51b9 b222 e439 d3a4 47bb 84e3 f23a
00000050: 23a2 cbbb 4db7 fa39 d903 503c 4625 5c3d
00000060: 114e 483c 5ba4 d63d 6cb0 813d 554e 96bd
00000070: f6b7 53be 1fd9 54be 7038 7abd 87fd 213e
00000080: fd0e a6b8 c64d 1b3d 8130 1c3e bafa 40bd
00000090: 1d76 693c d421 8b3c 22c0 95bc 5d6c 7ebb
000000a0: 1ae2 ea3c 5731 183c 7636 0eba 7c3d b63d
000000b0: 4037 c4bc ad30 813e cd44 32bd 00f6 a33e
000000c0: 9035 2cbe 128e 96bd 86a1 7f3d db6d a2bc
000000d0: 0837 35bd 9472 d7bd 7fd3 953d 7e19 ad3b
000000e0: e859 75bb 0643 87ba d206 b6bc 506f db3b
000000f0: 1ac3 1c3e 9175 873a d8b3 eabd 8fc8 e7bd
00000100: 9e58 ed3d b6a3 fb3d 5e8c 01bd 2a0e 0e3c
00000110: c3c6 1a3e 6fa5 f63d d577 c3bd 2171 d93c
00000120: bdf1 b03d b28c 5a3d 0fa2 6b3d
-0.0010981975 -3.4062286e-05 0.00013210549 0.008005205 -0.0002674021 -0.0002724696 0.0004483475 -0.001857737
0.00471834 -0.0003278142 0.015152299 -0.00070026173 0.00026354095 -0.016851844 -0.003091256 -0.0023413529
-0.00019989163 0.000435134 -0.0030463233 0.001853094 -0.0062143966 0.00047820286 0.01269623 0.053746484
0.012225644 0.10480567 0.06332478 -0.073391594 -0.20675644 -0.2078595 -0.06108898 0.1581937
-7.9182886e-05 0.037915967 0.15252878 -0.04711411 0.014249352 0.016983904 -0.018280093 -0.0038821914
0.028672267 0.009289107 -0.00054249854 0.08898446 -0.023952127 0.2523245 -0.043522645 0.3202362
-0.16817307 -0.073513165 0.0624099 -0.019827774 -0.044241935 -0.10519901 0.0731573 0.00528258
-0.0037437622 -0.0010319657 -0.022220049 0.006696619 0.153088 0.001033472 -0.11460084 -0.113175504
0.11589168 0.12287085 -0.031628005 0.008670369 0.15114884 0.12043273 -0.095443405 0.026543202
0.08639858 0.053356834 0.057527598

grapher.1.gru.bias_ih f4 [15]
00000000: 4607 323e ff2e 04be 4fa8 91be 7e1c 95bd
00000010: a522 e73d e7e1 963d cf6f 8b3e 481b 8dbe
00000020: 9fb0 adbe c5cf 813e 7a31 ec3d 1a7c 18be
00000030: 2074 37bd 7578 6e3d 6c3b 843e
0.17385587 -0.12908553 -0.28448722 -0.07280825 0.11285905 0.07367306 0.2723374 -0.27559876
-0.33923814 0.25353828 0.115328744 -0.14891091 -0.04478848 0.058220346 0.25826585

grapher.1.gru.bias_hh f4 [15]
00000000: f7be bcbc 77bd c7bd 4f77 a53e 2268 543e
00000010: 22bf 393e 9e38 79bd 3703 c53c 9a9f 51bc
00000020: 1571 97be a8ac 4d3e f70d 0ebe 33fc 98be
00000030: 50d2 07be 03c6 66bd 4c07 a93e
-0.023040278 -0.097529344 0.32317588 0.20742849 0.18139318 -0.06084501 0.024049385 -0.0127944
-0.29578462 0.20085394 -0.13872515 -0.29879913 -0.13263822 -0.056341182 0.3301338

grapher.1.gru.ln_resetgate.weight f4 [5]
00000000: 4139 263d 9d72 173f 65aa ac3d cfe6 423d
00000010: ef34 263e
0.040581945 0.5915926 0.08430938 0.047583397 0.1623113

grapher.1.gru.ln_resetgate.bias f4 [5]
00000000: e11f 423b 52d9 c93b ef78 8cbc 36ec 123a
00000010: 3f14 173c
0.0029621052 0.00615994 -0.01714751 0.0005604656 0.009221136

grapher.1.gru.ln_inputgate.weight f4 [5]
00000000: b1e2 5c3d 994b a03e 4781 a03e 78ee 7c3e
00000010: 2f2a 793f
0.053927127 0.31307676 0.3134863 0.24700344 0.9732999

grapher.1.gru.ln_inputgate.bias f4 [5]
00000000: 3d0d 3f3c f22b ba3b 1a91 323c ec70 a5bb
00000010: 245a 823c
0.011660871 0.005681508 0.010898853 -0.0050488617 0.015912123

grapher.1.gru.ln_newgate.weight f4 [5]
00000000: 02f7 173f f6c4 d43e bc33 2f3f 91f7 0f3f
00000010: 95f9 5f3f
0.5936128 0.4155652 0.68438315 0.5623713 0.87490207

grapher.1.gru.ln_newgate.bias f4 [5]
00000000: e9e1 b83c 96a4 85bc 44b8 093d c18c b8bc
00000010: bf85 77bc
0.02256866 -0.016313832 0.033622995 -0.022528054 -0.015107571

grapher.2.weight.weight f4 [5, 5]
00000000: 4863 5abd b38a ff3d 4960 53bd 97cc 673e
00000010: 4ee1 d5be 9ba0 f83a d2be 453d 4a92 81bb
00000020: 2757 3d3e 1472 c83d c291 02be 5d5e e63d
00000030: 0e44 bdbd 271b 893e 98ca ca3e ca6c 8abd
00000040: ac85 073d bdb8 8d3d fe49 873e 17b1 c83b
00000050: 356a fcbb 4d10 aabd 177e bebc 7fea 613e
00000060: 60a6 223e
-0.05331734 0.12477627 -0.051605497 0.22636639 -0.41773456 0.0018968763 0.048277684 -0.0039542066
0.18490277 0.09787384 -0.12750915 0.11248467 -0.09241496 0.26778528 0.39607692 -0.06759031
0.033086464 0.06920002 0.2642364 0.0061246264 -0.0077030906 -0.083038904 -0.023253484 0.2206211
0.1588378

grapher.2.weight.bias f4 [5]
00000000: 2e1b 2d3e 1285 2cbe f064 c9bd 2f36 1c3e
00000010: 0535 fa3d
0.169049 -0.16847637 -0.098337054 0.15255044 0.12217144

grapher.2.reduce.weight f4 [5, 5]
00000000: 36a3 89bb 9097 0abd 105a 4d3c 43be 2abe
00000010: 53d1 933e 0b78 23ba 14b8 5039 c560 afbb
00000020: fd37 c2bc 88a7 00be a435 da37 14e6 5939
00000030: 129d 1539 c433 073e dc4b 873c eec1 e9bd
00000040: 1fcf 0b3d ab39 473c 6851 3d3e 1630 cabd
00000050: add7 c83a 5364 93bc 03d6 e5bb e879 8dbd
00000060: ab8d 97be
-0.0042003645 -0.033835948 0.01253368 -0.16674142 0.2887064 -0.00062358443 0.00019905 -0.005352112
-0.023708338 -0.12563908 2.6012603e-05 0.00020780443 0.0001426826 0.13203341 0.016515665 -0.11413942
0.034133073 0.012159745 0.18488085 -0.09872453 0.0015323065 -0.017992174 -0.0070140376 -0.069080174
-0.29600272

grapher.2.reduce.bias f4 [5]
00000000: 3805 103e 763b 193d 5c8f 29be 69b2 083e
00000010: e4ed e93e
0.14064491 0.037410222 -0.16558594 0.13349308 0.4568931

grapher.2.gru.weight_ih f4 [15, 5]
00000000: d9f3 24bc 7f17 7ebd a5a6 9abd 9d4d c93c
00000010: 485f f6ba e420 a53d e311 a4be 4716 483e
00000020: 442e c2bc 7acd 043e 431e 1cbc 5b8b b5be
00000030: 58f3 c2bd 9dd6 733e 9db1 e9bd 4084 cd3a
00000040: 7952 863e 73cd 0fbe b6de 963d 00a9 883e
00000050: 2163 03bd fc76 81be 3912 14bd 05ee 3ebe
00000060: dac0 543c f1cf 92be 01b5 69be dd2c 66be
00000070: 71f5 8d3e 488a 6e3e 1355 873c 0eed 56be
00000080: 40cc a13c 94be 88bd a53c b43e 14e6 17bd
00000090: 5f3c b9bc 3ee8 473e 6bcc 4c3e 2dad 45be
000000a0: d180 393d 7ff3 feba cedf b23e e8c7 a7be
000000b0: 76d4 d13e ff44 c4bd c927 553e e727 543e
000000c0: 8347 1abe e44a 023e 520f 073d 3d41 963d
000000d0: 4531 8c3e 45cc 723b 446d 0f3e cfb7 cfbd
000000e0: eaa9 22bd b991 5bbd a85c ca3e d048 1bbe
000000f0: 6acd df3d 867d 39be 2aa0 48be bbad 81be
00000100: 894a 8d3c b1fe afbe a190 4f3d 3719 eabd
00000110: 9338 bd3e ed33 5e3e 3266 563d 8978 233e
00000120: 354e 91be e13b 28be da45 343e
-0.010067903 -0.062034126 -0.07551316 0.024573142 -0.0018796707 0.08062914 -0.32044896 0.19539748
-0.023703702 0.12969008 -0.009528699 -0.35457882 -0.095190704 0.23812337 -0.1141083 0.0015679672
0.26234797 -0.14043216 0.073666975 0.26691437 -0.03207696 -0.2528609 -0.03615019 -0.18645485
0.0129854325 -0.28674272 -0.22822954 -0.22478051 0.2772632 0.23294938 0.016520059 -0.20988867
0.019750714 -0.06676975 0.35202518 -0.037084654 -0.022611795 0.19522187 0.19999854 -0.19304343
0.045288865 -0.001945123 0.34936374 -0.32769704 0.40982407 -0.095834725 0.20815958 0.20718347
-0.15066342 0.12723881 0.032973595 0.07336662 0.2738134 0.0037048024 0.14006525 -0.101424806
-0.039712824 -0.05360577 0.39523816 -0.15164495 0.109278515 -0.1811429 -0.19592348 -0.25327858
0.017247455 -0.34374002 0.05067504 -0.114305906 0.36957225 0.21699496 0.052343555 0.1596395
-0.2837998 -0.16429092 0.17604771

grapher.2.gru.weight_hh f4 [15, 5]
00000000: 74f4 6dbe ba7a 853b 0550 e33d eb35 7ebe
00000010: 7f0a 913d 2239 b1be e2f2 bc3c 7680 f8bc
00000020: 295e 8b3e f65f 9b3e a239 303e ab7e 2cbd
00000030: 2f3c 82be b231 2ebe 6364 6ebe 361c 723d
00000040: 1292 cf3c 06a7 18be 6840 92be 1bec fd3d
00000050: 2395 643e 6539 e53c 1df0 13be 557d 1cbc
00000060: 60bd 903e c225 9ebd e206 673e de78 3fbe
00000070: 390e 07be 3fe9 b4be f7cc b53d 5df8 7d3c
00000080: 78bc 80be ba56 27bc 025f cebd 6ce9 543d
00000090: 575f 113d 20f1 acbd ec84 d0be 8a61 9f3e
000000a0: 6d93 2dbe 6e88 fdbd fd0b 9dbe de78 1fbe
000000b0: 4bd4 f73d bf24 de3d e5d2 903d 7b75 5abe
000000c0: 696f 30be 59c0 96bd 2a0d 883c 7caa 3abe
000000d0: 322c 3dbd 43ca bfbd dc3a 2a3d dbed 7b3e
000000e0: 6515 1a3e b495 06be 03f8 7b3e 0224 a43e
000000f0: 35f2 8d3e e44a c4bd 95a1 a43e 3184 27be
00000100: e943 613e 156b 3abe bcde 92bd cf89 c0be
00000110: e861 e43e 72d9 643d 47b1 25be d8a4 bcbd
00000120: 3808 cc3d 07dc e3bc 9ab8 6dbe
-0.23237783 0.004073468 0.11099247 -0.24825256 0.0708208 -0.346139 0.023065034 -0.030334692
0.27220276 0.3034665 0.17209485 -0.042112987 -0.2543654 -0.17011145 -0.23280482 0.059108935
0.025338206 -0.14907464 -0.28564763 0.12398549 0.22322516 0.02798147 -0.14447065 -0.009551366
0.28269482 -0.077220455 0.2256122 -0.18698451 -0.1318902 -0.35334203 0.088769846 0.015501109
-0.2514379 -0.010213548 -0.10076715 0.05198042 0.035491314 -0.084444284 -0.4072641 0.31129104
-0.1695077 -0.123795375 -0.3067321 -0.15573451 0.121010385 0.108468525 0.07071475 -0.21333878
-0.1723 -0.07360906 0.01660784 -0.18229097 -0.046184726 -0.0936475 0.04156004 0.24602453
0.15047224 -0.13143045 0.24606328 0.32058722 0.27723852 -0.09584597 0.32154527 -0.16359021
0.21998562 -0.18204911 -0.071713895 -0.3760514 0.44605947 0.055871435 -0.16180907 -0.09211129
0.09962505 -0.027814878 -0.23214951

grapher.2.gru.bias_ih f4 [15]
00000000: c85d a7be 3433 8fbe dd88 9ebe 89ba c93e
00000010: ce96 95be 033c cfbe bc84 b53e 1d4e efbc
00000020: 73d4 b33c 50af e53d 1627 023d ca75 4fbe
00000030: 1466 8abd 7399 8cbe 61d7 18be
-0.32688737 -0.27968752 -0.30963793 0.39400128 -0.29216617 -0.40475473 0.3545283 -0.029212052
0.02195189 0.11215079 0.031775557 -0.20259777 -0.06757751 -0.27460822 -0.1492591

grapher.2.gru.bias_hh f4 [15]
00000000: 17d0 9b3e b9ee b1be 4d09 b9be f60d c93e
00000010: 9cc4 c9be 9e0c e8be 94c2 dc3e e07a a93d
00000020: 0e7a d1bd 9ddb 5ebe ceda 9ebd 4908 853e
00000030: fc29 bb3c 68b1 ff3e 4a7f 363e
0.30432197 -0.34752443 -0.36139908 0.39268464 -0.39407814 -0.45322126 0.431172 0.0827539
-0.10228358 -0.21763463 -0.077565774 0.25982884 0.022847168 0.49940038 0.17821994

grapher.2.gru.ln_resetgate.weight f4 [5]
00000000: 6cf2 293f 680d 703f 5411 ea3e 814f 843f
00000010: 9bdc 0b3f
0.6638553 0.93770456 0.45716345 1.0336763 0.5463349

grapher.2.gru.ln_resetgate.bias f4 [5]
00000000: 5856 1b3d 601a 933c 5809 4f3c 7bfe 563d
00000010: 609a 8f3c
0.03792414 0.017956913 0.012636505 0.052488785 0.017529666

grapher.2.gru.ln_inputgate.weight f4 [5]
00000000: 7f08 713f 45bb 473f eb99 363f 01ac 643f
00000010: 41a3 cd3e
0.9415359 0.78020126 0.7132861 0.8932496 0.40163615

grapher.2.gru.ln_inputgate.bias f4 [5]
00000000: 8536 21bd 2290 9b3c 6dc9 46ba 24e1 ab3d
00000010: fca5 8a3d
-0.039358635 0.018989626 -0.00075831154 0.083925515 0.0676994

grapher.2.gru.ln_newgate.weight f4 [5]
00000000: ca13 7a3f b492 333f 9017 4a3f c95f 6a3f
00000010: 69c2 593f
0.97686446 0.70145726 0.78942204 0.91552407 0.8506227

grapher.2.gru.ln_newgate.bias f4 [5]
00000000: c7c8 0fbd 3d6b 08bd 2b89 d6bb 2058 93bd
00000010: f967 c13d
-0.035103586 -0.033305395 -0.0065471134 -0.07194543 0.09443659

grapher_b.0.weight.weight f4 [5, 1]
00000000: f780 bebe 31e0 56be 636d 47be 8d13 933c
00000010: db2a b5bc
-0.37207767 -0.2098396 -0.19475321 0.017953658 -0.022115162

grapher_b.0.weight.bias f4 [5]
00000000: acf2 e43b 7040 b23e 5ce3 733e 626f 1fbf
00000010: 3f2e 2d3f
0.0069869366 0.34814787 0.238172 -0.6227933 0.6764869

grapher_b.0.reduce.weight f4 [5, 1]
00000000: e110 acba 1b56 623a 7150 e4b5 30e2 14b9
00000010: 417b 093f
-0.0013127589 0.00086340465 -1.7010735e-06 -0.00014198641 0.53703696

grapher_b.0.reduce.bias f4 [5]
00000000: 4a2a 0e3f fcfb 3c39 6bc9 19ba cddc f7ba
00000010: 9a2f c53e
0.5553328 0.00018022949 -0.00058665004 -0.0018910408 0.3851288
