scheduler/BaGTI/checkpoints/energy_latencyGNN_BiGRU128L3_4_Trained_Intense.ckpt (torch, 955343 bytes, 276 tensors)

find.0.weight f4 [128, 360]
000000 c2 c1 98 3c 7d 35 99 b9 ad f9 89 ba 13 d8 ae bc
       0.018647078 -0.00029222286 -0.001052668 -0.021343267
000010 39 6e 4c bb b4 33 a9 3c 14 5e 79 ba 5e cb 74 ba
       -0.0031193628 0.020654537 -0.0009512615 -0.00093381654
000020 bb 14 cb 3b b8 69 6e bc 9c b6 c6 3b 19 a1 a5 ba
       0.0061975396 -0.0145515725 0.006064249 -0.0012636512
000030 5e 76 88 ba cf 55 02 3d 0d d7 b7 bb e1 b1 b8 3c
       -0.0010411253 0.031820115 -0.005610353 0.022545757
000040 45 20 5c b9 8f 1e 8a ba 11 e1 b0 bb 50 f3 34 bc
       -0.00020992856 -0.0010537672 -0.0053979238 -0.011044338
000050 f7 f6 36 3c 07 79 d1 b9 61 13 7e ba 83 b3 05 3d
       0.011167279 -0.0003995376 -0.0009692219 0.0326419
000060 17 08 2b 3c 8b 6f b2 3c 62 bc 02 3a c5 ff 97 ba
       0.0104389405 0.021781703 0.00049871777 -0.0011596611
000070 c4 b3 bd bb bf b0 65 bc d6 57 7e 3c af 7f 7b ba
       -0.005789252 -0.01401919 0.015523871 -0.00095939165
000080 79 42 64 ba ed 3e aa 3c 03 b2 6a bc 2c 78 93 3c
       -0.0008707415 0.020781958 -0.014324668 0.018001638
000090 9c fa a7 b7 8a 32 93 ba 7b d2 2d 3c ae c1 03 bb
       -2.002465e-05 -0.0011230272 0.0106092645 -0.0020104456
0000a0 b2 e5 d8 3c 8d e7 84 b9 ff de 91 ba a9 b9 c5 bc
       0.026476715 -0.0002534952 -0.001112908 -0.024136381
0000b0 11 bf 94 bb e5 80 d5 3c 1e 5f 4e 3a ce 54 96 ba
       -0.0045393785 0.026062438 0.000787245 -0.0011469366
0000c0 24 a3 0b 3c 62 88 89 ba f6 ee e5 3c 47 a1 1d 39
       0.0085227825 -0.0010492916 0.028068047 0.00015032767
0000d0 bf a9 57 ba e5 16 45 bc 28 70 22 3c 0d e1 a0 3c
       -0.0008226893 -0.012029384 0.009914435 0.019638563
0000e0 e9 57 a6 39 7c 20 41 ba ee 14 1a 3d 7d 32 38 bc
       0.00031727485 -0.0007367206 0.037617616 -0.011242506
0000f0 9f 85 c2 3c 69 90 57 b8 1a f2 5e ba e7 b6 68 bb
       0.023745356 -5.1394487e-05 -0.0008504704 -0.003550941
000100 90 f3 67 3a 40 35 cd 3c 40 58 23 ba d6 21 57 ba
       0.00088482443 0.025049806 -0.0006231107 -0.0008206641
000110 59 97 26 bd 61 8d ba 3b 22 a8 4a 3c 18 ed 89 3a
       -0.04067168 0.005693123 0.012369188 0.001052293
000120 24 12 7a ba a7 83 1f 3d 29 d2 c1 bb bc 07 84 3c
       -0.00095394463 0.038943913 -0.0059149456 0.01611697
000130 6e 00 e9 39 e6 d3 83 ba 9d 69 29 bd d1 ea 7a bb
       0.00044441543 -0.0010057657 -0.041360486 -0.0038286934
000140 56 85 55 3c c9 b3 c7 ba 34 fa 88 ba a8 e9 82 3c
       0.013032278 -0.0015236075 -0.0010450543 0.015980557
000150 3c 04 73 3b a5 0e 45 3b 7f 6c 4d 3a 4a 1f 76 ba
       0.0037081381 0.0030068543 0.00078362966 -0.00093888177
000160 c7 ba c2 3c 0a 07 19 bc 9e e2 18 3b d5 e5 10 ba
       0.023770703 -0.009340057 0.0023328434 -0.00055274117
000170 2f 10 89 ba 83 b4 97 bc 06 3c a2 3b 19 e5 c9 3c
       -0.0010457094 -0.018518692 0.004951003 0.024645375
000180 69 75 4f ba 3c b1 96 ba 16 ce 2e bd 6c bc a9 bb
       -0.0007913919 -0.0011496912 -0.042677008 -0.0051799323
000190 74 b6 39 3c 15 3b de b8 5e 0e 86 ba 28 f8 7c 3c
       0.011335004 -0.0001059679 -0.001022767 0.015440024
0001a0 07 48 1f bc 0e 8c 45 3c eb 97 64 ba 89 f2 71 ba
       -0.0097217625 0.012057317 -0.00087201473 -0.0009229561
0001b0 d8 bb 19 3c fa b0 37 3c e2 5e bd 3b 3c b2 6a b9
       0.009383164 0.011211628 0.005779133 -0.00022382376
0001c0 26 2a 3e ba cb 37 20 3d b9 ab 32 bc c0 17 03 bc
       -0.00072542054 0.03911571 -0.0109052 -0.008001268
0001d0 9f 53 83 38 1e 68 86 ba 1d 91 13 bc 99 6d 2a 3c
       6.2621424e-05 -0.0010254418 -0.009006766 0.010402107
0001e0 f6 a2 cf b9 93 8a 95 ba 33 a5 f0 3b 7b d7 f4 3b
       -0.00039603532 -0.0011409096 0.007343912 0.0074719763
0001f0 6c 85 a1 bc 8b a6 4f ba dc 05 91 ba d0 6f 82 3b
       -0.01971694 -0.000792124 -0.0011064368 0.0039806142
000200 6c d4 f4 3b d1 be b5 3c 99 de ce b9 a3 87 97 ba
       0.0074716117 0.022185715 -0.0003945723 -0.0011560809
000210 ce 99 cf 3a 24 d4 f4 3b 22 df 56 3b 80 7c 6c 3a
       0.0015838684 0.007471578 0.0032786806 0.00090212375
000220 63 cc 8b ba a6 ba 21 3a 7b da f4 3b f5 be 15 3c
       -0.001066577 0.00061694754 0.007472334 0.009139766
000230 e1 4c 8e b8 d7 c0 8f ba 82 bb 3e 3b 46 d7 f4 3b
       -6.7854075e-05 -0.0010967505 0.0029103463 0.0074719517
000240 b4 57 03 bd e0 61 a1 b9 97 fb 98 ba f3 4d af bb
       -0.032066062 -0.00030781236 -0.0011671659 -0.0053498684
000250 a8 d7 f4 3b 00 34 02 3d db 9c 49 ba 1b 5d 8e ba
       0.0074719973 0.031787872 -0.0007690915 -0.0010861488
000260 98 b3 e9 ba 89 d2 f4 3b 33 ba 03 3d 6c 40 6d b9
       -0.0017830012 0.007471387 0.032159995 -0.0002262608
000270 30 ea 96 ba f9 f0 db bb 37 d7 f4 3b 77 83 a3 3c
       -0.0011513885 -0.006712076 0.0074719447 0.019960148
000280 37 fd 49 3a b5 9a 98 ba 37 80 40 bb a9 d2 f4 3b
       0.00077052735 -0.0011642786 -0.0029373297 0.0074714017
000290 07 23 00 3c 92 c5 6c 3a 98 5d 8f ba db 00 f8 3b
       0.007820851 0.0009032126 -0.0010937927 0.0075684614
0002a0 e0 d5 f4 3b 02 a6 3e ba 21 76 8a b9 64 aa 9a ba
       0.007471785 -0.0007272662 -0.00026409424 -0.0011800048
0002b0 d4 9e df 3a bb d2 f4 3b 49 25 33 3c e5 3e 9a b9
       0.0017060884 0.00747141 0.010934182 -0.0002942003
0002c0 95 e3 8d ba d8 f8 a3 bb a0 d5 f4 3b ca 49 ee 3c
       -0.0010825271 -0.0050040297 0.007471755 0.02908792
0002d0 d5 5e 65 3a a6 d5 91 ba 2a a3 e3 3b 6c d3 f4 3b
       0.0008749788 -0.0011126294 0.006946941 0.0074714925
0002e0 98 82 e6 bb 95 cf 26 3a 32 01 92 ba 20 9c e7 3b
       -0.007034611 0.00063633296 -0.0011139272 0.007068172
0002f0 92 d1 f4 3b c3 4a a0 bc 44 c5 e7 b9 d6 ef 8a ba
       0.007471272 -0.0195669 -0.00044206728 -0.0010600041
000300 10 e7 a9 3a 9b d3 f4 3b 28 f2 92 3c 9a 3d 91 39
       0.0012962539 0.0074715144 0.017937735 0.00027702452
000310 30 d1 93 ba f4 ed d4 3a 47 d1 f4 3b d9 8a 2d bd
       -0.0011277553 0.0016245232 0.007471237 -0.042368744
000320 33 92 1f ba 81 a0 88 ba c3 37 cb 3b 47 d3 f4 3b
       -0.0006087154 -0.001042381 0.0062017157 0.0074714753
000330 31 c4 59 3b 26 92 4d 3a db 7f 89 ba 28 2c 06 3b
       0.0033228511 0.0007841907 -0.0010490374 0.0020473097
000340 7c d2 f4 3b 81 34 91 bc bd 3e d7 b8 1c 1b 99 ba
       0.0074713808 -0.017725231 -0.00010263685 -0.0011681053
000350 4f 9f 21 3c 87 d1 f4 3b bd 3d 29 bd 07 8f 15 39
       0.009864642 0.0074712667 -0.041318644 0.00014263029
000360 14 f0 8c ba ca be af ba 2b d5 f4 3b 25 3f 68 3c
       -0.0010752701 -0.00134083 0.0074717007 0.014175211
000370 68 dc c8 b9 85 d4 97 ba 8c 8a 2a 3c 8e d6 f4 3b
       -0.00038311188 -0.0011583721 0.010409009 0.007471866
000380 e6 86 70 bb b1 14 f8 39 84 38 89 ba f3 68 d9 bb
       -0.00367015 0.00047317662 -0.0010469113 -0.0066348254
000390 19 d8 f4 3b 1a c3 26 bd ba a0 03 3a 6f 4b 8d ba
       0.00747205 -0.040713407 0.00050212035 -0.0010779927
0003a0 d7 4e 34 3c 06 d1 f4 3b e8 01 0c bb cb 25 46 3a
       0.011005125 0.0074712066 -0.002136344 0.0007558732
0003b0 71 7e 89 ba 6d 3e ec ba f3 d6 f4 3b 5a 49 0b 3c
       -0.0010489953 -0.0018023975 0.007471913 0.008501375
0003c0 f9 91 b2 3c 55 75 3a be 4a b8 b7 bd 40 c2 02 3e
       0.02179812 -0.18208821 -0.08970697 0.12769413
0003d0 7e bc fd bd 07 39 f2 3c 60 fc 8a 3c 29 f3 57 3e
       -0.12389468 0.029568208 0.016966045 0.21088852
0003e0 aa 5d 13 bd 8e a9 87 3d 2d 48 bd 3c e5 92 ce bd
       -0.035977997 0.06624137 0.023105705 -0.10086612
0003f0 a8 57 48 bd 85 c8 dc bc 02 59 f4 3c ba 5a 97 3c
       -0.04891172 -0.026951084 0.029827598 0.018475879

find.0.bias f4 [128]
000000 1b e2 9e 3c 71 c6 86 bc 70 9d 6b 3b ee c9 4b bd
       0.019394925 -0.016452046 0.0035951994 -0.049753122
000010 a7 6a 35 bb 6c e6 cd bc e0 32 86 3d 57 17 7e bd
       -0.0027681978 -0.025134288 0.065526724 -0.062033977
000020 f4 87 a6 3b dc 9a b6 bc 4e 21 51 bc a2 59 52 bd
       0.005082125 -0.02229064 -0.012764288 -0.05135501
000030 aa 10 be 3c 9f 55 c1 3c b3 a1 f8 bc 60 5a 0e bd
       0.023201305 0.023600398 -0.030350542 -0.034754157
000040 3e 3b b0 ba 97 c5 5f bb 1d 8e da bb 31 e0 38 3d
       -0.001344539 -0.0034144872 -0.0066697733 0.04513568
000050 52 92 87 bd 7a 2e 06 bc 40 47 39 bc 1e b9 f1 ba
       -0.06619705 -0.008189792 -0.011308491 -0.001844201
000060 9a 99 5e 3c 1c fb e0 bb e6 12 3d bc 96 fb 00 bc
       0.013586426 -0.006865872 -0.01154015 -0.007872483
000070 52 d3 ef bc 38 a1 1c bc 34 a8 bc bc 89 05 ad 3b
       -0.02927557 -0.009559922 -0.023029424 0.005280201
000080 1e 58 3e bd 48 4c 96 bc c9 95 a0 bc cb f0 bd bb
       -0.046470754 -0.01834692 -0.019602673 -0.005796527
000090 0d b3 3d 3d 29 d5 bd b9 ec 2c fc bc bd 5c 14 bd
       0.046313334 -0.00036207706 -0.03078314 -0.036221255
0000a0 a7 4a 6e 3c c9 0e a3 bc 0e 28 b4 bc cd 0e 6e 3c
       0.014544166 -0.019904511 -0.021991756 0.014529896
0000b0 16 9b 77 bd 9c 38 5c bd 16 1b db bc b9 6e 23 bc
       -0.060450636 -0.053764924 -0.026746314 -0.009975129
0000c0 31 25 42 3d 40 ea 3c bd 81 47 68 bb 1a fe 96 3c
       0.04739875 -0.046121836 -0.003544301 0.018431712
0000d0 e5 1f d8 b9 b4 c2 54 bd ec 7c 99 bd cb 20 a4 3c
       -0.00041222494 -0.051943496 -0.0749453 0.020035168
0000e0 27 b8 b7 3b 43 35 e4 3d 00 83 8e bc fd cf 5d bd
       0.0056066695 0.11142971 -0.01739645 -0.05415343
0000f0 59 84 34 3d 7a 8f 19 3d d6 59 2f 3c 7f 95 65 bd
       0.04407153 0.037490346 0.010702571 -0.056050774
000100 d2 2d 1f bc 17 a7 91 3b c1 f0 07 bc 89 3c 37 bd
       -0.009715514 0.0044449675 -0.008297146 -0.044735465
000110 ed f4 4f bb aa cd 19 3b 71 c8 8e 3d 5b 41 d3 bc
       -0.003173168 0.0023468533 0.06971825 -0.025788
000120 9b f8 8b 3c 42 0f 3a ba b7 07 6e bd b4 bc 31 3c
       0.017086318 -0.00070976105 -0.058112826 0.010848213
000130 d6 a7 f5 ba a6 ca 42 bc e0 de 42 bd 8b a7 d4 3b
       -0.0018742036 -0.011889135 -0.04757583 0.0064896992
000140 03 94 57 3c a0 cd 24 3c 00 06 54 bc 26 eb cc 3c
       0.013157847 0.01005879 -0.012940884 0.025014471
000150 60 88 bc 3c 9c a8 b7 3a d6 39 87 3d 60 60 87 bd
       0.023014247 0.0014012042 0.06602828 -0.06610179
000160 fb 8d 87 bc 4f 79 9f 3c 49 3b 18 3d 84 ee c8 bc
       -0.016547194 0.019467024 0.037165914 -0.024527796
000170 0f 4b 29 bc e0 42 a3 3c 0f e5 4a 3b 5d 31 d9 bb
       -0.010332837 0.01992935 0.0030959283 -0.006628199
000180 8a 25 12 3c 8b fb f4 bc f2 3f 48 39 63 25 d9 3c
       0.008920083 -0.029905101 0.00019097308 0.026507085
000190 f8 e0 a7 bb 9e 85 11 bd a9 e5 72 3c 49 97 e8 3c
       -0.005123254 -0.035527818 0.014825263 0.02839245
0001a0 cb b3 59 bb c4 f0 66 bd 51 9d 8d bc 02 49 dc bc
       -0.0033218737 -0.056381956 -0.017286928 -0.026890282
0001b0 93 52 99 bc f0 87 63 3c 10 ea 51 3d 08 63 bf 3c
       -0.018716132 0.0138873905 0.05124861 0.023362651
0001c0 f0 6b 33 bc 20 4c ac bc 4c da 26 bc c8 1e f8 bc
       -0.010951027 -0.021032393 -0.010183882 -0.030288115
0001d0 9e 33 04 bb 1a a2 be bb a7 aa 23 bd 6d 88 84 bc
       -0.0020172368 -0.005817664 -0.03995767 -0.016178334
0001e0 5d 6a 18 bb a7 99 d5 bb 21 85 1a 3c cb be bc bb
       -0.0023256757 -0.006518561 0.0094311545 -0.005760049
0001f0 fe 2d 54 3b 2b ce fd 3c ad 82 12 bb ac 64 c6 bb
       0.0032376046 0.030982098 -0.002235572 -0.0060544815

find.2.weight f4 [128, 128]
000000 29 60 ca 3c 35 3a bc 3b f8 f9 c9 39 1c a3 12 3d
       0.024704056 0.0057442435 0.0003852395 0.035800084
000010 06 6d 87 bd 48 3c 11 3c 54 9e 15 bd c4 3f e0 bb
       -0.066125914 0.00886447 -0.036527947 -0.006843539
000020 69 0b b9 3c 3c e4 37 3c 94 00 fc 3a fa 36 eb ba
       0.022588449 0.011223849 0.0019226247 -0.0017945461
000030 fa 39 1d 3d d0 fb 72 3c 15 30 e7 b9 c3 0b 94 3b
       0.03838537 0.014830545 -0.00044095577 0.0045180037
000040 86 0c 51 ba 4c 0a 1d 3b 9c 4f 20 3a a3 7d 8a bd
       -0.00079745834 0.0023962436 0.00061153783 -0.067622446
000050 57 41 01 3b d2 af 6b 3a a6 ea 85 ba 64 5d c0 3a
       0.0019722783 0.0008990738 -0.0010217025 0.001467627
000060 9a 4e bb 3d bf f7 89 39 a3 5f 11 bd 42 36 30 3c
       0.091458514 0.00026315261 -0.035491597 0.010755124
000070 27 b0 5e 3d f3 ed 10 3c ff 0e b1 3b 4e e1 8a 3a
       0.05436721 0.008845794 0.005403399 0.001059571
000080 fc 8f d2 b9 00 da d8 bc fd ca 39 3c 4e 07 f8 ba
       -0.00040161598 -0.026471138 0.0113399 -0.0018923075
000090 95 d7 a4 3c 47 a3 8c 3c b1 fa 77 bd ca ad 1b 3e
       0.020122329 0.0171677 -0.060541812 0.15203014
0000a0 19 46 87 3d 20 bb d2 3b 14 8f 66 bc 8a 07 5c 3d
       0.06605167 0.0064309984 -0.014072198 0.053718127
0000b0 dd c2 71 bd 6f d5 2b 3b 60 e1 ca 3b 3b f8 0f 3d
       -0.059023727 0.0026219746 0.0061914176 0.03514884
0000c0 09 b6 1a 3d 66 30 04 bc 92 e8 2a 39 95 3c 2c bd
       0.03777126 -0.00806818 0.00016299103 -0.042049963
0000d0 50 e5 22 39 81 17 47 bd 94 b5 92 39 a1 3b ce 3d
       0.0001553495 -0.0486064 0.00027982576 0.10069967
0000e0 a7 1f cd bd bc bf 9d 3d c5 ee 8d bd 06 ae 13 bd
       -0.10015803 0.07702586 -0.06930307 -0.036054634
0000f0 1d 65 64 bd a1 0e 40 bd fa 08 bf ba 75 c6 8c bb
       -0.05576049 -0.04688895 -0.0014574819 -0.004296119
000100 ce da 8b 3a 9d 98 78 bd dd 40 d0 3c 32 b7 f6 3d
       0.0010670067 -0.06069242 0.025421554 0.120466605
000110 3d 3e 20 3c ba d1 5e 3a 93 c7 4d bc 01 8c 3a 3b
       0.009780464 0.00084998796 -0.012559789 0.0028464796
000120 16 d9 1d be 19 7d 9f 3b 19 1d d2 3b 8c b3 a5 3a
       -0.15414843 0.0048672077 0.00641216 0.001264201
000130 cf f4 56 39 8a cb 19 be 64 37 d5 bc 36 db 87 bc
       0.00020499829 -0.1501905 -0.026027389 -0.01658402
000140 97 5a a4 ba 6a e6 6c bd 87 43 be 3b 9b 2b d6 3d
       -0.0012539205 -0.057836927 0.0058063897 0.10457536
000150 10 f8 d0 bd 1e f2 a8 3c a2 85 01 3a 81 7c 09 3b
       -0.10203564 0.020623263 0.00049408723 0.002097875
000160 33 fe 34 bc af 34 e1 bd 1a 02 91 3c a5 1d 9d 3d
       -0.011046934 -0.10996377 0.017701197 0.0767167
000170 75 96 03 ba 30 42 20 bd a5 63 26 3d 00 38 b3 3a
       -0.0005019673 -0.03912562 0.040622372 0.0013673306
000180 3f e7 20 bc cf 04 e9 bd 7d d8 8e 3a 62 ba c1 bd
       -0.009820758 -0.1137787 0.0010898259 -0.09459378
000190 9c 67 4b 3c f5 3b 11 3d 81 6e 25 bb 22 e6 0a 3c
       0.012414839 0.03545757 -0.0025242867 0.0084777195
0001a0 fe 28 12 39 81 c3 b7 3b 0b 3c 95 3b 9d 93 81 bd
       0.00013938916 0.0056080227 0.004554277 -0.06326983
0001b0 07 96 16 3d ea f6 36 3d 29 70 f5 3d 91 e5 f1 3d
       0.03676417 0.04466907 0.119842835 0.118113644
0001c0 d0 e3 87 3d 25 0d 02 bd 93 32 9f 3d 47 b2 0a bd
       0.06635249 -0.031750817 0.07773318 -0.033861425
0001d0 02 64 ef 3a a2 bd 01 3c a7 2e 9f 3a 9e 9b bc bb
       0.0018264058 0.007918747 0.0012144641 -0.0057558557
0001e0 8f b9 09 ba 9a c8 2e b8 c6 ba 38 bd cb 02 97 3b
       -0.00052537856 -4.1671658e-05 -0.045099996 0.0046084872
0001f0 cf f4 92 3d f1 c6 cf 3d 51 d6 0f 3a df 7b 0b 3a
       0.071756 0.10145367 0.0005486953 0.00053208874
000200 5b ad 01 3c 4d 65 41 bc 10 81 b6 37 85 03 49 3d
       0.007914866 -0.011803937 2.175619e-05 0.049075622
000210 a3 6d 39 bd 83 a9 d5 3a 57 8e 17 bd 68 38 0e 3e
       -0.045270573 0.0016301129 -0.03700098 0.13888705
000220 b6 ce 10 bb 5d a3 c5 39 91 94 18 bd ec cc c5 3d
       -0.0022095866 0.00037696483 -0.03725106 0.09658226
000230 33 b8 2f 3c c2 99 45 3d 94 34 2e 3c 0d 39 8f bd
       0.010725069 0.048242338 0.010632653 -0.069933034
000240 ca 53 41 3c 82 8f 28 b7 bf 9d 81 3a 98 50 3e bd
       0.011799762 -1.0046993e-05 0.0009888931 -0.04646358
000250 b2 b3 db 3c b5 a7 f4 39 e1 89 c7 bb e6 5c 8a 38
       0.026819084 0.00046664258 -0.0060894345 6.5976565e-05
000260 ab 5d 09 bd 3e 65 85 b8 9a 37 2c 3c d1 96 c1 3a
       -0.033536594 -6.360792e-05 0.010511303 0.0014769678
000270 c1 09 4e bd dc 14 9b 3a 59 7c 52 39 31 a9 95 39
       -0.05030227 0.0011831778 0.00020073484 0.00028545552
000280 7e 09 d7 3d 1d 1f 9e 3b 62 08 5b b9 2c cc 92 ba
       0.10499857 0.0048254863 -0.0002088859 -0.0011199764
000290 91 df 1e bd 58 2a 88 3d 98 3b 60 bc c3 27 bb 3b
       -0.03878743 0.066487014 -0.013686083 0.005711527
0002a0 b3 b0 98 bb ff 8e 74 bb 8a 0a 9f bc b3 fa 86 3d
       -0.004659736 -0.0037316678 -0.019414205 0.06590786
0002b0 55 8a 8a 3c 75 43 20 3e a5 81 3a 3e 22 96 96 3d
       0.016911665 0.15650733 0.18213518 0.07352854
0002c0 2c be ec bc ed c3 84 3d 42 3a 5a b8 c2 a5 3d 3d
       -0.028899275 0.064826824 -5.2029507e-05 0.046300657
0002d0 81 b7 d0 37 89 61 83 bd 17 cd 5c bc cc 17 89 3d
       2.4880983e-05 -0.06415088 -0.013476632 0.06693992
0002e0 fe b9 b2 bb a4 75 c7 bd 93 ca 09 3d 25 5b 86 bd
       -0.005454301 -0.09739235 0.033640455 -0.06560353
0002f0 0c d1 6a 3c dc 5c 12 3d e1 51 c5 3c ac eb 51 bb
       0.014332067 0.03573309 0.024086894 -0.003203134
000300 fe a9 84 37 7b fd 88 bd 5a 6a ba 3d fa d6 cf 3c
       1.5814785e-05 -0.066889726 0.09102316 0.025371064
000310 10 a2 cd 3a e9 4a 2a bc 36 65 8a bd f9 7e c3 39
       0.0015688557 -0.010393837 -0.06757586 0.000372879
000320 87 9b ea bb 7f ad 44 bb 01 73 31 3c f8 2a d2 3b
       -0.0071596536 -0.0030010638 0.010830642 0.0064138137
000330 74 aa 1f 37 55 b4 ac 3d ff ec 34 3c 4a a9 84 3d
       9.516825e-06 0.08432833 0.011042832 0.06477602
000340 2e cf c0 3d 4e 9a 9d 3d f4 ab 8b 3a 6a c0 9c 3d
       0.094145164 0.07695447 0.0010656104 0.076538876
000350 19 3a 24 bd d8 25 9b 3d 59 08 9c bd 31 6f aa 3d
       -0.04009447 0.075755775 -0.0761878 0.08321989
000360 7a 12 00 bc 34 4b c6 bd 12 27 06 3d 99 f3 96 3d
       -0.007816905 -0.096823126 0.032752104 0.07370681
000370 45 8e 61 b8 f9 77 47 bd 96 fa 41 3b 93 59 b8 39
       -5.377668e-05 -0.0486984 0.0029598824 0.00035161953
000380 64 d8 18 bc 66 86 91 3d c9 83 a0 39 17 75 b2 3d
       -0.009328935 0.071057126 0.00030615766 0.08713739
000390 8f 43 39 bb bc 20 2a 3d b8 c3 1f bc d0 c1 7a 3d
       -0.0028269028 0.041535124 -0.009751253 0.06121999
0003a0 d8 16 87 39 9f 9e 3b bc b9 d3 95 bb d7 3e 6c bd
       0.00025766226 -0.011451392 -0.0045723584 -0.057677116
0003b0 f9 d5 a4 3c a5 6a db bc 81 3e 38 3c 41 66 85 3d
       0.020121561 -0.02678425 0.011245371 0.06513644
0003c0 98 a9 df bc b5 2c 9e 3d 55 ea 33 bd 16 9a c2 bb
       -0.027302548 0.07723371 -0.04392465 -0.0059387786
0003d0 37 32 dd 3a c2 37 c3 3b b8 82 87 bc 99 c4 df 3c
       0.0016875927 0.0059575746 -0.016541824 0.027315425
0003e0 02 cc 92 3d 14 1c 63 36 ee 45 a4 3d 98 9c 47 bc
       0.07167818 3.384198e-06 0.080211505 -0.012183331
0003f0 a5 8a dc 3b df 5a 83 3c 37 ba e6 37 6d 83 f0 37
       0.006730395 0.016034542 2.750485e-05 2.867143e-05

find.2.bias f4 [128]
000000 3d 11 79 ba 0f c7 6c bd d9 48 50 ba 0b 3f 00 bd
       -0.0009501165 -0.057807025 -0.00079454255 -0.031310122
000010 58 f1 c5 bd 98 3e cb 3d 32 db 00 bd 4f 3b 6d 3c
       -0.09665173 0.09924048 -0.03145904 0.014479472
000020 73 23 de 3c f8 57 b8 bd e6 80 61 bd a4 3b ae 3b
       0.027116513 -0.09001154 -0.055054568 0.0053171683
000030 1b 47 a3 bd c6 12 c4 bd e6 b2 40 bc 11 21 89 3c
       -0.07972547 -0.09573893 -0.011761403 0.0167394
000040 43 ec 15 bd 22 f7 c2 bd af 34 e5 bc 30 8a a9 3d
       -0.03660227 -0.09519793 -0.027979223 0.0827831
000050 c0 4b 0b bd fa b4 46 3d de 79 57 3c 62 74 92 3d
       -0.034007788 0.048512436 0.013151614 0.071511045
000060 b2 f4 0f bd 7b 36 8f 3d c6 31 0c bc 95 62 59 3b
       -0.03514547 0.06992813 -0.008556789 0.0033170332
000070 5d 72 07 3d b2 1b ae bd 67 b8 20 3d 1d 36 55 bb
       0.03306805 -0.08501376 0.03923836 -0.0032533475
000080 3e d8 80 bc fe 76 0b bd c7 21 5c 3c b3 2e 97 3d
       -0.015728112 -0.034049027 0.0134357875 0.07381954
000090 86 25 9f bc e3 3f 55 bc cf c7 fa 3d c8 03 ac 3d
       -0.019427072 -0.01301572 0.12245142 0.08399159
0000a0 4a bb 37 bd 75 bf 14 bd d3 45 8c 3d ee 4d 89 3c
       -0.044856347 -0.0363154 0.068492554 0.016760793
0000b0 6e 72 d7 bc 18 89 ce 3b 88 17 97 bd 1e 18 02 3d
       -0.026299682 0.006302964 -0.07377535 0.03176128
0000c0 7d 26 8f 3d 07 98 c7 3d 44 c2 2f bd f6 f1 5e 39
       0.06989763 0.09745794 -0.042909876 0.00021261707
0000d0 28 f9 91 3d ae e0 83 3d 6f 7c 0c be 33 2b 7b bd
       0.07127601 0.064393386 -0.13719343 -0.061320495
0000e0 75 c5 06 bc 84 34 f8 3d 68 09 83 3c d1 ef 45 bc
       -0.008225788 0.121193916 0.015995696 -0.0120811025
0000f0 eb 12 0f 3c b7 61 11 bc 49 e7 70 3b db 9e d4 bc
       0.008732538 -0.008873395 0.003675895 -0.025954654
000100 03 29 a6 bc 35 57 d4 3d 7a df 78 3d 8e b8 b3 3d
       -0.020283228 0.10368196 0.06076 0.087754354
000110 01 43 02 bd a9 63 8d bd fb f8 cf 3b 56 91 47 3c
       -0.03180218 -0.06903774 0.0063468195 0.012180647
000120 ae a3 48 bd f9 83 5e bd 5a 7f 91 3d 08 eb b1 bc
       -0.048984222 -0.054325078 0.071043685 -0.021718517
000130 b2 15 4c 3d e1 bd 21 3d 6f cc e6 3d 18 8a cd 3c
       0.049825378 0.039487723 0.11269461 0.025090262
000140 44 ed 01 bd df 64 ca bd 7a 1b d9 3d 4d 88 92 ba
       -0.031720415 -0.09882521 0.10600944 -0.0011179537
000150 f4 b9 62 3c 28 b0 08 bc ed e7 36 bd 7a e1 00 3d
       0.01383828 -0.00834278 -0.044654775 0.03146503
000160 16 7e 56 3c f4 02 b9 bc c2 14 52 3d 9d 74 77 bb
       0.013091585 -0.022584416 0.051289327 -0.0037758716
000170 1e 35 82 bd 90 21 76 3d 66 7e 9b bd 07 ab 44 bc
       -0.063577875 0.0600906 -0.07592468 -0.012003667
000180 af 35 b9 3c 85 6a 30 bc 3f e0 81 3d 3e 1b 79 3c
       0.022608606 -0.010767584 0.063416 0.015204249
000190 67 75 cf 3d 33 d5 58 3c 36 8f d9 b9 6e 2e 0a bd
       0.101298146 0.013234424 -0.00041496166 -0.033735685
0001a0 c1 ed 8b bd 6d 9c ac bd d6 13 17 3d 86 cf cd bd
       -0.06832457 -0.08428273 0.03688415 -0.100493476
0001b0 d9 ec f2 bd 0e 2c 5d 3d 22 8f 80 3d a5 a8 a0 3d
       -0.11861581 0.053997092 0.062773004 0.078446664
0001c0 ce 70 ac 3d 93 ce 19 3d 11 c8 f8 bb 3a 84 1b 3d
       0.08419953 0.03755052 -0.007592209 0.037967898
0001d0 30 3e f7 bb ac aa 02 bd 23 e8 ce 3d 9c 26 65 3d
       -0.007545255 -0.031901047 0.1010287 0.055945024
0001e0 da 60 4b bd fb a5 d4 3d 5c 7e 99 bc dc 65 3b bd
       -0.04965291 0.10383221 -0.01873701 -0.045751438
0001f0 82 90 80 3d 0d 83 9b bc c3 5c c8 3c 85 00 25 bc
       0.06277563 -0.018983388 0.024458295 -0.010070925

find.4.weight f4 [64, 128]
000000 6e ad 0a be 20 c5 af 3d e9 0d 5e bd cc 17 8e 3b
       -0.1354272 0.085825205 -0.054212485 0.004336333
000010 9f a5 a0 3d a2 6a 68 3d 30 4e 15 3c 4a a7 54 3c
       0.0784409 0.056742318 0.00911288 0.012979338
000020 c5 22 02 3e cd 95 1b 3e e1 e5 3a 3e fb de c4 3c
       0.12708576 0.15193863 0.18251754 0.024032107
000030 60 c0 de 3b 91 e0 a3 3d 0a 38 ca 3d 11 fe 00 3c
       0.006797835 0.08001817 0.0987397 0.007873074
000040 53 d6 37 bc e3 c6 7d 3b c7 b3 4d bd d3 d4 09 be
       -0.0112205325 0.0038723282 -0.050220277 -0.13460092
000050 3e 3f 4b bd 48 e9 89 bd 8e 82 aa bd 08 fe 04 3b
       -0.04962086 -0.06733948 -0.083256826 0.0020293016
000060 20 62 bb bc 75 d1 37 3d 77 67 ef 37 c6 21 e3 39
       -0.022873938 0.04487749 2.85392e-05 0.00043321977
000070 70 72 f4 3d 88 bb fa 3a 00 43 40 3d e3 8d ac 39
       0.1193589 0.0019129375 0.046938896 0.0003291211
000080 c1 1a 1a 3b 59 7f 39 39 41 15 2d 3d ce ab 61 3c
       0.0023514482 0.00017690416 0.042256597 0.013773872
000090 95 96 1f b7 69 98 e7 38 74 54 0e be 1d ff 97 bd
       -9.512199e-06 0.00011043327 -0.13899404 -0.07421706
0000a0 4f 7e 59 3d 85 6d b1 39 8c a3 0e be cc 4e d7 3c
       0.053098973 0.0003384167 -0.13929576 0.02628269
0000b0 09 00 82 bc 28 3c b9 bd 23 51 06 3e e5 5b a5 bb
       -0.015869157 -0.09044677 0.13116889 -0.005046355
0000c0 0a 70 7f 3d b8 0b 62 bd d1 f2 63 3c 16 de 6f 3d
       0.06236271 -0.055186957 0.013912872 0.058561407
0000d0 71 d6 b0 3d 9d 30 92 bc 3e fb 2f 3b a0 d0 4b 3d
       0.086346515 -0.017845446 0.0026852633 0.049759507
0000e0 45 fd eb bc a2 8b f3 bd 93 b6 c6 3c 30 78 f0 bc
       -0.028807292 -0.11891867 0.02425698 -0.029354185
0000f0 6a 94 7d 3d ce 51 c7 3d f9 c8 06 3e a4 9d f0 38
       0.061909117 0.097324 0.13162602 0.00011473455
000100 7e 18 59 3c 9a 00 99 bd 07 4e 4c be 19 92 18 3d
       0.013250468 -0.07470818 -0.1995164 0.037248705
000110 48 22 1e 3a f6 2a 33 3b f5 ab 2f 3e d3 f1 2c bd
       0.000603233 0.002733884 0.1715544 -0.04222281
000120 d7 31 55 3e 35 28 14 3b 07 76 66 bd 0c 11 85 3d
       0.20819794 0.0022606973 -0.056264903 0.06497392
000130 e5 a0 60 3d 8a 37 ff 3d cd bc 5b 3c 8e 48 09 3e
       0.05484094 0.12461765 0.013411713 0.13406584
000140 b9 bc 36 3c 03 32 f2 3c 12 be 29 be 81 c8 03 36
       0.011153393 0.029564863 -0.16576412 1.963723e-06
000150 11 c6 2b 3b 6b 9a dc 3a 7f 3b 88 ba 08 29 cc bc
       0.0026210586 0.0016830688 -0.0010393708 -0.024921909
000160 13 fb bd 3b a0 0e c7 3d 47 6d db 3d 7c 68 5e ba
       0.0057977526 0.09719586 0.107142024 -0.00084841973
000170 ef c4 89 bc 64 c6 1c 3d 3b e4 c3 3c e8 6d 84 b8
       -0.016817538 0.038275138 0.02391254 -6.314722e-05
000180 b7 6e db bd dd c0 6c 3c f9 f8 b3 3d 1c dd b6 bc
       -0.107144766 0.014450279 0.08787722 -0.02232223
000190 c9 d5 9d bd 14 84 97 bd 6b 9e ff 35 90 1e 47 39
       -0.07706792 -0.07398239 1.9045086e-06 0.00018989504
0001a0 6c 72 e6 bb 48 d1 80 3d 40 46 b5 3d ed 61 91 3d
       -0.007032683 0.06289917 0.0885129 0.07098756
0001b0 1a 98 dc 3d b2 73 bd 3d 77 fa 7b bd 28 94 05 3e
       0.107711986 0.09250583 -0.06151816 0.13044798
0001c0 14 9f 21 3d 7c f3 5d 3d 9d 31 1f 3e 94 3a 12 3e
       0.03945835 0.054187283 0.1554627 0.14280158
0001d0 b1 04 f1 bd dc 6d 2d 3d bf 0e 8e bd cb 73 7e bd
       -0.11768473 0.0423411 -0.06936406 -0.062122148
0001e0 49 55 b2 3c e0 8a 86 3d 8a 6c b5 3a 39 80 67 3b
       0.021769183 0.06569457 0.0013841551 0.003532423
0001f0 2d 29 d7 bd d7 61 85 3d 93 31 51 3d 32 1b 40 3b
       -0.105059005 0.06512802 0.05107267 0.0029313085
000200 1c eb 8b bd 37 09 d3 3d 38 03 bd 3c b0 89 c8 3b
       -0.06831953 0.10304492 0.023072824 0.0061199293
000210 32 7f e1 3d 91 b3 be 3b e4 76 2e bc bb 49 39 3d
       0.11010589 0.005819746 -0.010648463 0.04523633
000220 3e 31 df 3d 69 e7 b0 3d ea 35 cc 3d 5f 3c fd bb
       0.10898064 0.08637888 0.09971221 -0.007728144
000230 6b 37 b6 bd 86 31 cd 3d 74 0b c0 3d 23 53 7b bb
       -0.08897289 0.100192115 0.093771845 -0.0038349114
000240 9e 88 04 be cc e3 a5 bc 41 ab ff 3d a7 b4 69 bd
       -0.1294274 -0.020250224 0.12483836 -0.05705705
000250 79 59 44 b8 8d f2 21 3e 05 8e 15 bd 44 74 a7 3c
       -4.681337e-05 0.15815182 -0.036512394 0.020441182
000260 70 0b 26 bd 4c 40 a2 3d 8b bf 78 ba 13 55 3b 3a
       -0.04053825 0.0792242 -0.00094889913 0.0007146161
000270 c6 62 50 ba 99 6a 3c bd 17 2e b0 3d 7f f8 7b 3b
       -0.00079492887 -0.046000097 0.08602541 0.0038447676
000280 7a 08 9c bc b8 63 bf 3c 89 c9 ce 3d 59 d2 71 bd
       -0.01904701 0.02336298 0.100970335 -0.059038494
000290 1e 2d 7f 39 89 b6 af 39 37 c8 95 3c 3f a1 d8 3d
       0.00024335503 0.000335146 0.018283946 0.1057763
0002a0 4c 4b 76 3d 0a e6 63 3a 39 04 ef 3c 75 82 e5 3c
       0.060130402 0.0008693641 0.029176818 0.028016308
0002b0 dc 69 05 3c 8c 0a 9c 3c b7 ea 5b 3d d4 8c cb bd
       0.008142915 0.019047998 0.05369064 -0.0993897
0002c0 bb 48 32 bd 87 3a f7 bc aa c2 0c bc 1d 5c ae 3d
       -0.043526392 -0.030179275 -0.008591333 0.08513663
0002d0 ee 55 e2 3d cf 39 82 3c 94 0b 2b bd 0a a9 ab bc
       0.11051546 0.015896706 -0.04175909 -0.020954628
0002e0 85 50 a1 3c fa 3a ad bc 71 9d ed 3d 0b 6b de 3c
       0.019691715 -0.021146286 0.11602295 0.027150651
0002f0 5b f3 76 3d 4c 2e b7 3d f7 50 aa 3d 17 47 fd ba
       0.060290676 0.08944377 0.08316224 -0.0019323555
000300 24 95 41 bd 83 77 6c bd 9f b2 4d 3c 43 9c 6a 3b
       -0.047261372 -0.057731163 0.012554794 0.0035798706
000310 0a 16 64 39 a5 c6 68 bd 70 1a 83 bc 00 52 37 bc
       0.00021751985 -0.056830067 -0.016003817 -0.011188984
000320 98 69 34 ba 19 16 93 bd 61 15 b7 3b 61 ff 6f 3c
       -0.000688219 -0.07181949 0.0055872654 0.014648289
000330 bd 4b c3 3d a8 dc 1f 3d 64 3c 0c bd 9e fd 3f bd
       0.0953593 0.039028794 -0.03423728 -0.046872728
000340 ed e8 94 bc a8 75 27 bd 14 f7 e6 bc b2 63 05 b9
       -0.018177474 -0.04088369 -0.028193988 -0.00012721008
000350 d6 ea 44 3c 61 43 62 3d 26 18 69 bd 89 4d 5f 3b
       0.01201888 0.05524004 -0.056907795 0.0034073314
000360 8e 54 ae bd 45 ab 45 3d 94 83 f6 3c 7f 84 0f 3b
       -0.08512221 0.04825904 0.030092038 0.0021899042
000370 76 4a 85 3a 4d f7 1b 3d ed 72 21 3d ce 42 b6 39
       0.0010169286 0.03807764 0.039416242 0.00034763518
000380 a7 63 be bd 77 de 25 39 35 b0 ad 3c fb bb c0 bd
       -0.09296351 0.00015818501 0.021202186 -0.094108544
000390 ec 13 81 bb e8 38 f4 bc 64 73 51 b7 86 2c 1a bc
       -0.0039391425 -0.029812291 -1.2484237e-05 -0.009410029
0003a0 5f a1 91 bc c2 e3 d1 bb 8e 07 7e 3d b5 70 66 3c
       -0.017777143 -0.0064053247 0.062018923 0.014064957
0003b0 6f 3f 09 3e 7d 5d bf 3d 23 e4 88 bd e5 b0 e8 bc
       0.13403104 0.09344003 -0.066841386 -0.028404662
0003c0 3e b9 3e 3d 1a e3 ec 3c a3 20 eb 3c d3 5c 98 3c
       0.04656338 0.028916884 0.028702086 0.01859895
0003d0 3b 6b 07 bd 78 68 a3 3c ba 65 05 bd df 02 92 3d
       -0.033061247 0.019947276 -0.032567717 0.07129454
0003e0 9c 99 30 bc de 41 e4 bc 64 ea 1a bd 6e 02 80 bd
       -0.010778811 -0.02786344 -0.03782119 -0.062504634
0003f0 ca 4e 8e bd 63 0d 1c 3c d0 0f 58 3d 2f 22 f3 bc
       -0.069486216 0.009524676 0.052749455 -0.029679386

find.4.bias f4 [64]
000000 d4 ec 65 3c b6 ae 20 3d 2d ef 19 bd 45 14 0b bd
       0.014033515 0.039229117 -0.03758161 -0.033954877
000010 84 d8 16 3d 21 83 2d 3d ee 4d 14 3d 6b 03 98 bc
       0.03682758 0.042361382 0.036207132 -0.018556317
000020 4f 81 bb 3c 95 3a 49 3c 88 26 40 bd 23 24 b6 3d
       0.022888808 0.012282033 -0.046911746 0.08893611
000030 c4 da 7b 3d 91 54 bc 3c ed 6b e0 3a a9 d0 bd bd
       0.061487928 0.022989543 0.0017122008 -0.092683144
000040 0d 78 6d 3d 5b da 08 bc e4 3e 4d bd 1e a6 3d 3d
       0.057975817 -0.008352841 -0.050108805 0.046301
000050 b2 b9 a7 3d c9 40 6e bc fc 13 5d 3d 8d b4 8c 3a
       0.081897154 -0.014541813 0.053974137 0.0010734961
000060 d2 e9 10 bd fe ac 6b 3a 45 f5 55 3d e4 07 82 3d
       -0.03537924 0.00089903164 0.05223586 0.06349161
000070 c0 c0 06 bc 81 21 cb bc 34 a8 c7 3c 18 8f 2c 3d
       -0.008224666 -0.02479625 0.024372198 0.042128652
000080 ad c2 c5 3d 27 85 9f 3d 52 88 ab 3c 58 c2 90 3d
       0.09656272 0.07789069 0.020939026 0.07068318
000090 c5 72 72 3d 64 b4 ca 3c ac 69 c3 3c 6c e8 d5 3c
       0.059191484 0.02474422 0.0238541 0.026111804
0000a0 ce a4 4e bd 2b 08 55 3d 8e 6e ba 3d 0e 24 fa 3d
       -0.05045014 0.052009743 0.09103118 0.12213908
0000b0 a9 ea 2e 3d 8a ac d3 3d 16 26 77 bd 6c 1c 41 3d
       0.042704258 0.103356436 -0.060339056 0.047146246
0000c0 8d dd f6 bc 47 f7 d7 3d 80 ba 56 3c f0 85 38 bd
       -0.03013494 0.10545211 0.0131059885 -0.045049608
0000d0 1a b0 3b bb 79 21 88 bc 97 87 0f 3d 64 bf e2 bc
       -0.00286389 -0.016617524 0.035041418 -0.027679153
0000e0 5f 7b 9e bd 41 f3 d6 3d 48 c1 19 3d a4 8d 98 3b
       -0.07738375 0.10495616 0.037537843 0.0046555568
0000f0 5b cc 9e 3d cf e2 2a bd 67 9e 90 bd 30 d6 a0 bd
       0.077538215 -0.041720208 -0.07061463 -0.07853353

find.6.weight f4 [2, 64]
000000 74 98 b1 39 4a 94 df 3d e0 c0 07 bd e9 83 49 3b
       0.00033873657 0.10916956 -0.033142924 0.003074879
000010 c6 ed f0 3d ec ca 8a bd 5d c3 f5 3d 2f 0c a8 bd
       0.11764102 -0.067769855 0.12000153 -0.08205449
000020 67 12 e6 bd 97 b4 60 bb e2 d6 db 3d 59 12 62 3d
       -0.11233979 -0.0034287327 0.10734345 0.05519328
000030 e6 78 56 3d f7 09 d4 bd 58 ff 1e bd 7b ff ed 3c
       0.05236139 -0.10353463 -0.038817734 0.029052487
000040 6b f7 4f bd 1e f6 43 ba bb 86 db bc 31 4d 04 3d
       -0.050773066 -0.0007475334 -0.026797643 0.032300178
000050 5a 5e 4f bd e2 13 d2 3d de 8e a7 3d bc 50 0f be
       -0.05062709 0.102576986 0.08181547 -0.13995641
000060 63 89 70 bc 5f a7 79 3b d0 b9 e3 3d a0 aa 76 3d
       -0.014681193 0.0038094146 0.11119425 0.060221314
000070 ce 68 18 39 cf 6b 4e 3a 23 cd f4 3d 2f d2 f6 3c
       0.00014534892 0.0007874341 0.11953189 0.03012952
000080 e8 4c 7e bc 9e 94 31 3d c6 43 c2 bc 6a 20 d2 bc
       -0.015521266 0.043354623 -0.023713958 -0.025650222
000090 b1 2a ae bd 6a 59 88 bd 70 64 d3 3d 85 c3 6e 3d
       -0.085042365 -0.066576794 0.10321891 0.05829193
0000a0 4a c5 7a bb 64 44 04 be 2b 81 91 3d ff 04 4e be
       -0.0038264566 -0.12916714 0.07104715 -0.20119093
0000b0 9b 9a bb 3b 8a 82 69 3d 58 10 ed bc f3 09 72 3d
       0.0057252175 0.057009257 -0.028938457 0.05909152
0000c0 ca bd 1a 3d 79 3b 3b 3e 0d fe ae bd 33 f3 f3 3d
       0.037778653 0.18284406 -0.0854455 0.11911621
0000d0 4f 65 99 3d 90 28 f9 3d a7 46 98 bd 88 45 9c bb
       0.07490026 0.1216594 -0.07435351 -0.004769031
0000e0 71 43 0d 3c 2c d0 92 3d 95 d7 9b 3d 1f e6 38 bd
       0.008622036 0.07168612 0.076094784 -0.045141336
0000f0 74 ff 5c bd ac 57 a4 bd 45 a4 b1 3d 1b e7 2e 3d
       -0.053954557 -0.080245346 0.0867391 0.042700868
000100 e4 3e a6 be 7e 3d 46 be a7 6e b9 bc 7b d5 72 be
       -0.32469857 -0.19359395 -0.022635771 -0.23714249
000110 97 64 ab bc 3c 92 68 be bc fc 24 3e 86 bb 58 3e
       -0.020921988 -0.22712034 0.16112036 0.21165285
000120 ca c6 77 3d 69 e2 41 3c 63 5c 3a be 37 06 14 be
       0.060492314 0.011833766 -0.18199305 -0.14455496
000130 60 b1 fe 3d 26 55 1e be 9c 57 a2 be 17 36 46 3e
       0.12436175 -0.15462169 -0.31707466 0.19356571
000140 61 2f 55 be e6 04 ca b9 bc c7 6a 3c b3 30 05 be
       -0.20818855 -0.00038532092 0.014329847 -0.13006859
000150 c3 9b 74 be b4 7a 30 3e 86 ba 98 3d 1c 1f 73 3d
       -0.23887543 0.17234308 0.074574515 0.05935584
000160 33 78 af be 65 21 36 bb 9c be 4a be 73 51 a9 3d
       -0.34271392 -0.00277909 -0.19799274 0.08267488
000170 61 4f 2e 3a 97 f4 a6 3c b7 c0 18 be 78 b4 0c be
       0.00066494016 0.020380301 -0.14917265 -0.13740718
000180 69 19 58 3e f3 81 6e be 72 62 8c be be 5b 8f be
       0.21103443 -0.23291759 -0.27418858 -0.2799968
000190 ee 0b 5e be ac 94 3c 3d de e0 7f be 0e 32 8b 3d
       -0.21684238 0.046040222 -0.24988124 0.067966565
0001a0 13 53 90 be 62 7f d8 3d 02 55 61 be a6 d7 06 3d
       -0.2818838 0.10571171 -0.22005084 0.032920502
0001b0 94 7b 85 be dd 67 17 3e bb 75 90 bc d7 9f f1 3d
       -0.26070845 0.14785714 -0.017634263 0.11798065
0001c0 a9 c7 ef bd 3b 55 27 3e 59 c3 45 be 04 86 52 be
       -0.11708004 0.16341107 -0.193128 -0.20558935
0001d0 a7 6b 44 3d 18 3c d5 3d ce 4b e1 bb 55 36 b4 3d
       0.047954228 0.104118526 -0.0068754917 0.087994255
0001e0 a6 13 ad be 11 c4 44 be f6 7f 4c 3e db a5 bc 3d
       -0.33804053 -0.19215418 0.19970688 0.09211322
0001f0 9f 16 5e be 80 c2 25 3e 14 a2 f3 3d 8b 09 2b be
       -0.21688317 0.16187477 0.11896148 -0.16702859

find.6.bias f4 [2]
000000 19 f7 52 bd b5 88 33 3d
       -0.051505182 0.043831546

grapher.0.weight.weight f4 [5, 1]
000000 a9 cd 88 3c 59 c9 2b be 23 dd d9 3d 12 fe ed bb
       0.016699629 -0.16776027 0.106378816 -0.0072629536
000010 cc b2 86 bc
       -0.016442679

grapher.0.weight.bias f4 [5]
000000 2a 17 d5 bd e4 0d 90 3d d7 f1 c1 be 1c 2e 67 3d
       -0.10404809 0.070338994 -0.37879822 0.056440458
000010 8c 11 3b 3c
       0.011417758

grapher.0.reduce.weight f4 [5, 1]
000000 2a 95 5e b8 75 cc 3a 3f 64 41 70 bd ef ef 85 b7
       -5.3067844e-05 0.72968227 -0.05865611 -1.5966563e-05
000010 86 cb 85 3d
       0.0653296

grapher.0.reduce.bias f4 [5]
000000 ae e3 a0 b8 cc 61 99 be cc 02 1c 3e a0 ec 34 b9
       -7.671803e-05 -0.29957426 0.15235442 -0.00017254287
000010 73 be e6 3b
       0.0070417463

grapher.0.gru.weight_ih f4 [15, 5]
000000 4e 63 5d 36 68 55 80 b5 bf ce 2f 37 de 59 e2 b5
       3.298937e-06 -9.5616e-07 1.047895e-05 -1.6864467e-06
000010 c2 d0 ab b4 64 80 6e b7 fb 19 4b 36 a9 44 29 b8
       -3.2003123e-07 -1.4215799e-05 3.026448e-06 -4.0356685e-05
000020 ac d7 e1 36 69 98 ae 35 c5 04 94 36 5d 19 0f b5
       6.73063e-06 1.3008367e-06 4.411299e-06 -5.330856e-07
000030 aa 53 47 37 be 2e f7 b5 03 5a c6 b4 08 12 4a 36
       1.1880804e-05 -1.8416538e-06 -3.6945866e-07 3.0110841e-06
000040 4f 54 08 b5 c9 34 ff 36 36 4c a6 b5 a4 e4 8f b4
       -5.0786633e-07 7.605737e-06 -1.2390144e-06 -2.6802184e-07
000050 65 eb 37 36 fe 7c cf b4 e7 03 ce 36 3b 37 90 b5
       2.7406143e-06 -3.8647698e-07 6.1397327e-06 -1.074491e-06
000060 ff 62 8f b4 73 46 43 38 7d 80 c2 b7 6c 70 f8 38
       -2.6707855e-07 4.6557234e-05 -2.3186434e-05 0.00011846502
000070 16 71 b1 b7 ad 7b ce b6 4e e6 1b bb e0 70 77 bb
       -2.1152704e-05 -6.153676e-06 -0.0023788395 -0.0037756488
000080 73 bc b8 bc 95 a2 25 3c b6 ab 3e 38 a0 00 d7 3b
       -0.022550797 0.010109563 4.545945e-05 0.006561354
000090 3f f4 8f bc 49 d9 37 3d d5 ba c4 bc 30 61 bc b9
       -0.01757252 0.044884954 -0.02401487 -0.00035930565
0000a0 f3 9d 39 38 fb ac da b7 1d b2 88 b7 7c d2 5f 38
       4.425454e-05 -2.6068175e-05 -1.6295404e-05 5.3363372e-05
0000b0 1f 40 ee b6 01 4c b5 38 ad 17 32 b9 1d ad 63 ba
       -7.1004174e-06 8.6449094e-05 -0.00016984223 -0.00086851587
0000c0 fe e4 66 ba 82 d9 ca b6 97 71 35 3c d7 e6 33 3d
       -0.0008807926 -6.0453904e-06 0.011074445 0.043921318
0000d0 7f b7 8e 3d e5 a5 0d bd be d4 13 3a 73 32 fd 3b
       0.06968593 -0.034582037 0.0005639306 0.0077269613
0000e0 95 2e f1 bd 86 bf 26 39 f7 4b 01 bc cc 19 88 3d
       -0.11776463 0.00015902342 -0.007891647 0.06645545
0000f0 fa 7e 95 3d 5b 03 c6 bc a3 4a 61 be 92 cb 9c bd
       0.072996095 -0.024171522 -0.22001128 -0.076560155
000100 ea 41 38 3d 8a f5 e5 3a 58 f2 09 3c 36 27 0e 3d
       0.044984736 0.001754449 0.008419596 0.034705363
000110 45 8a 87 bc 3a 44 13 38 0a a2 b2 bc 98 c8 bd 3c
       -0.016545424 3.5111072e-05 -0.021805782 0.02316694
000120 6f e0 93 3c ab 22 33 bd 40 b1 09 3b
       0.018051354 -0.043734234 0.002101019

grapher.0.gru.weight_hh f4 [15, 5]
000000 f4 ec 85 b3 76 b6 03 b6 23 79 e5 b6 85 5f a8 34
       -6.2363966e-08 -1.9626727e-06 -6.838834e-06 3.1361938e-07
000010 8b c8 c2 b4 96 38 b7 34 47 11 24 37 b8 e3 f3 37
       -3.628123e-07 3.4127578e-07 9.779184e-06 2.9073897e-05
000020 78 87 b9 b5 2d 0c 08 36 e0 9a 0c b5 28 cf 4e b6
       -1.3823001e-06 2.0272666e-06 -5.2379437e-07 -3.0816973e-06
000030 e4 fe 17 b7 a9 6b ad 34 c0 1b 35 b5 3a 01 15 35
       -9.059648e-06 3.2302094e-07 -6.7468136e-07 5.550861e-07
000040 f1 6d 13 b6 04 f2 cd b6 22 f6 a7 34 d7 eb f1 b4
       -2.1968701e-06 -6.1376504e-06 3.128526e-07 -4.5061344e-07
000050 18 0f 05 b5 22 39 e3 b5 ab 7d ad b6 4b 35 36 34
       -4.9568325e-07 -1.6929446e-06 -5.1704315e-06 1.6969459e-07
000060 44 59 dc b4 e3 ab 0c b8 bc c8 14 b5 93 1e b2 b8
       -4.1043143e-07 -3.3538683e-05 -5.5426403e-07 -8.493396e-05
000070 c2 da 9d 36 39 38 d0 b6 33 d2 f4 39 3c 28 b0 b9
       4.7044314e-06 -6.2054282e-06 0.00046695917 -0.00033599313
000080 29 ce 02 3c 25 91 e8 b8 b9 26 bd 39 ca 7d 42 b9
       0.007983723 -0.00011089657 0.0003607774 -0.00018548142
000090 8e 94 0c 3b b8 ea a7 3c bc 82 76 3b 46 65 d8 bb
       0.002145085 0.020497665 0.0037614545 -0.0066038696
0000a0 0b 37 14 b8 a8 96 3e 36 f6 87 9f b8 2b e7 93 36
       -3.5337212e-05 2.83999e-06 -7.6070355e-05 4.407853e-06
0000b0 8e 7c d7 b6 86 df 88 b8 e6 7c 65 b8 ae 59 06 b9
       -6.4219994e-06 -6.52662e-05 -5.4714175e-05 -0.00012812644
0000c0 3b 4c c2 36 ff d9 37 b8 4c 5c ea 38 bb ad cb 3b
       5.790525e-06 -4.3833625e-05 0.00011175181 0.0062157786
0000d0 70 5f 46 3b 3b a5 57 39 e8 f7 32 3a 68 6a e3 b9
       0.0030269288 0.00020565551 0.0006827102 -0.00043376093
0000e0 4a 7a 59 3d 3e 91 97 3d 4e 6a d1 3c 0f ef 68 bc
       0.05309514 0.074007496 0.025563385 -0.014217152
0000f0 d9 ef c7 39 ba c1 2f 3d da b5 29 3c 18 51 9e bc
       0.00038134938 0.04290936 0.010358298 -0.019325778
000100 9b cb e9 3a 0d 05 ef 39 ba 5c 89 ba 4d 12 31 ba
       0.0017837168 0.00045589395 -0.0010479905 -0.0006754741
000110 bf 41 0f 38 c4 7d 18 b9 51 d1 a4 38 aa e5 9a 39
       3.4155088e-05 -0.00014542701 7.8591176e-05 0.00029544282
000120 81 3c 17 bc 84 3d 8e 3b 63 68 15 3c
       -0.009230734 0.0043408293 0.009119126

grapher.0.gru.bias_ih f4 [15]
000000 41 89 b1 b7 2b e7 90 38 f3 46 97 b7 68 cf 47 b7
       -2.1163958e-05 6.9095135e-05 -1.8033641e-05 -1.1909615e-05
000010 a2 53 14 b7 4f 3a 98 b8 0d 91 81 3d 3b 56 b8 3d
       -8.84096e-06 -7.2587856e-05 0.06326494 0.09000822
000020 c6 ce 26 b9 97 5d c2 3b b6 be 4e 3e 72 85 6b 3e
       -0.00015908023 0.005931567 0.20189938 0.23000124
000030 ef 3f 4f 3e 0f 9c a8 bd e5 b1 4d bd
       0.20239232 -0.08232891 -0.05021848

grapher.0.gru.bias_hh f4 [15]
000000 dd 1d b1 b7 46 b9 92 38 e8 d3 96 b7 7f 38 42 b7
       -2.111395e-05 6.9963324e-05 -1.798007e-05 -1.1576455e-05
000010 6b 3f 14 b7 7a ea 04 b9 e6 39 dc 3d 44 97 f5 3d
       -8.836253e-06 -0.0001267585 0.10753231 0.11991742
000020 5c da 4b 3a 55 82 9e b9 ac 0d 48 3c 08 bd b8 bd
       0.00077763735 -0.00030233213 0.012210291 -0.0902043
000030 c8 fd 54 bd da 22 8b bb 5f c7 a3 3d
       -0.051999837 -0.004246098 0.079970114

grapher.0.gru.ln_resetgate.weight f4 [5]
000000 b6 43 37 35 cd 26 9e 38 18 cc 3d 37 7f 50 2c 34
       6.8271345e-07 7.541254e-05 1.1312797e-05 1.6048033e-07
000010 54 e6 6f 37
       1.4299138e-05

grapher.0.gru.ln_resetgate.bias f4 [5]
000000 20 7c 49 38 93 16 85 3a 03 9e 3b ba 70 ea c9 b8
       4.8037735e-05 0.0010153822 -0.00071570295 -9.628094e-05
000010 41 a9 fb 37
       3.0000347e-05

grapher.0.gru.ln_inputgate.weight f4 [5]
000000 3a a0 4c 39 65 4e 05 3f 7f c1 cc b9 ae 68 ea 37
       0.00019514645 0.52072746 -0.00039054078 2.7943719e-05
000010 b7 ad 05 b9
       -0.00012748582

grapher.0.gru.ln_inputgate.bias f4 [5]
000000 7e 8b 41 b9 04 8b fa 3c fc 73 f1 39 3d 36 81 b7
       -0.00018457879 0.030583866 0.00046053517 -1.5403255e-05
000010 9b 9b 54 39
       0.00020275863

grapher.0.gru.ln_newgate.weight f4 [5]
000000 4c eb 97 3d 52 d1 db 3e 86 f1 cf 3e 92 3e b4 3c
       0.07417926 0.42933136 0.40613955 0.022002492
000010 bf 81 53 3c
       0.012909352

grapher.0.gru.ln_newgate.bias f4 [5]
000000 ee d8 c4 3c ec cc 80 bc 8d 4c ce bb 19 9b 40 ba
       0.024029221 -0.015722714 -0.0062957467 -0.000734733
000010 34 30 21 3c
       0.009838153

grapher.1.weight.weight f4 [5, 5]
000000 c3 33 a2 3b 44 9e 32 be d3 f2 b4 3d 8f 18 ed b7
       0.004950018 -0.17443186 0.088353775 -2.8264038e-05
000010 95 83 15 ba b6 73 2b 3c 64 67 85 3e d4 16 34 be
       -0.0005703506 0.010464599 0.26055443 -0.17586833
000020 2b 31 c8 b7 d3 9d ba 3a 8b 79 c1 bb 85 ce d1 bd
       -2.3864754e-05 0.0014237709 -0.0059043816 -0.102444686
000030 97 a3 e7 3c c6 fa 21 37 88 2a 89 ba b3 a2 41 3b
       0.028276248 9.654736e-06 -0.0010464946 0.002954644
000040 85 3a 37 3c ea 47 74 3e 57 67 9c 35 b0 0a c8 b9
       0.011183386 0.23855558 1.1652982e-06 -0.00038154935
000050 6b a1 92 bd b3 c8 8c 3e a1 68 11 be b8 74 ef 39
       -0.07159694 0.2749687 -0.14200069 0.00045672595
000060 e1 26 2d bd
       -0.042273406

grapher.1.weight.bias f4 [5]
000000 59 56 b6 be de e9 07 be 24 00 e6 ba 51 c2 5e be
       -0.35612753 -0.13272807 -0.0017547649 -0.21753813
000010 c1 cf 4f 3e
       0.20294096

grapher.1.reduce.weight f4 [5, 5]
000000 90 f8 9e 37 88 a0 2b b9 a9 64 05 b9 5e 63 0c b5
       1.8950814e-05 -0.00016367633 -0.00012721367 -5.229866e-07
000010 dc 9b d2 37 78 17 e6 bb 1c 65 53 bd af 75 84 bc
       2.5106528e-05 -0.0070218407 -0.051610097 -0.016169397
000020 bf 3d 5c 38 b9 7c d5 ba 3f 6a 06 ba ec 4b ce bc
       5.2509593e-05 -0.0016287781 -0.0005127526 -0.025182687
000030 52 32 3d be 36 34 b3 35 f7 71 1c b9 72 5d 27 3d
       -0.18476227 1.3351735e-06 -0.00014919775 0.0408606
000040 2f a0 5e be 36 dd 3f 3e 37 12 a2 b6 5f 02 25 3a
       -0.21740793 0.18736729 -4.8300967e-06 0.0006294604
000050 8c 97 e3 38 91 52 46 3c 12 54 08 bc ec b3 73 36
       0.00010852431 0.012104646 -0.008320825 3.631455e-06
000060 2f 59 a9 b8
       -8.07516e-05

grapher.1.reduce.bias f4 [5]
000000 a1 19 00 ba fd cf a4 3e ec 65 7c 3e 69 33 9d bb
       -0.00048866315 0.32189932 0.24648255 -0.0047973883
000010 53 f4 ca ba
       -0.0015484191

grapher.1.gru.weight_ih f4 [15, 5]
000000 2d 3b 30 bc 22 0b 2b b9 13 d2 21 39 30 71 06 b8
       -0.010756296 -0.00016311978 0.00015432415 -3.2053504e-05
000010 c4 69 0b ba 58 60 62 3e 39 e4 89 3e 71 e6 33 3c
       -0.00053181895 0.22107065 0.26931933 0.0109802345
000020 5f 13 b6 3d e2 27 c7 bd fa 4c ac bc a0 ff 72 3c
       0.088904135 -0.09724404 -0.021032799 0.014831454
000030 00 97 63 b8 a6 39 2d ba 85 42 37 3c c1 85 49 be
       -5.4261647e-05 -0.00066080166 0.011185293 -0.1967993
000040 0a dc 49 bd 4b cf 4d bc 39 66 fc 3d 00 4d 8c bd
       -0.04928211 -0.0125616295 0.12324185 -0.06850624
000050 6a 0d 49 bb 1f d5 86 3b 33 21 92 b8 c0 f1 14 b7
       -0.0030678161 0.0041147615 -6.968006e-05 -8.877774e-06
000060 70 a2 5d ba 12 74 b1 be 7e 97 88 be 7e 0d 13 3d
       -0.0008454686 -0.34658867 -0.2667808 0.03590154
000070 40 53 80 3e 90 3e a9 3e f6 74 11 be c1 0a 65 3e
       0.25063515 0.33055544 -0.14204773 0.22367384
000080 62 28 05 3a 1d 8a 00 be 9b a9 c4 3d 46 73 8a bd
       0.0005079565 -0.12552686 0.09602662 -0.06760268
000090 2c 95 17 3d 00 82 72 39 9d 0d 70 3b d5 a4 8a bc
       0.037007496 0.00023127347 0.0036629208 -0.016924301
0000a0 f2 c5 8e bd 71 c7 c6 3d e7 c6 00 be 13 38 0a 3e
       -0.06971349 0.09706009 -0.12575875 0.13497953
0000b0 31 7d 19 be 09 55 06 be 12 c6 e0 bc 83 f2 65 ba
       -0.14989163 -0.13118376 -0.027438197 -0.0008771794
0000c0 ca 35 b5 3c f1 3a 22 3d 2f 84 80 3e 64 a7 14 3d
       0.022120375 0.039606992 0.25100848 0.03629245
0000d0 aa 91 a0 3a ff 16 0d bb 25 4a e3 bd c0 35 6e be
       0.0012250443 -0.00215286 -0.11098126 -0.23262691
0000e0 77 40 28 be 45 07 b9 3d eb 2e 0c be 6b 21 01 3e
       -0.16430841 0.0903459 -0.13689773 0.12610404
0000f0 bd 22 a2 3c e9 6e ac 3c f9 85 88 3c 28 cd d7 bc
       0.019791955 0.02104898 0.016665446 -0.026342943
000100 cf 0c e0 bd ea 74 ca bd 1f 5f 0c 3e d4 69 57 bc
       -0.10939943 -0.09885581 0.13708161 -0.01314779
000110 66 fe 77 bd ae 39 ba 3e a9 23 5d 3e 08 bd c8 bc
       -0.060545348 0.3637213 0.21595635 -0.0245042
000120 dd ff 8b bb 7d 91 f6 3c 0e b9 32 bc
       -0.0042724446 0.030098671 -0.010908378

grapher.1.gru.weight_hh f4 [15, 5]
000000 e0 e9 83 b9 34 c4 25 3d 5a 54 2a 3c 89 5b 32 3b
       -0.00025160518 0.040470317 0.010396088 0.0027215204
000010 c1 ec 02 ba c6 ac b2 3b b7 f2 7a 3d 1a 13 3e 3e
       -0.00049943855 0.005452725 0.061266627 0.18561974
000020 c8 2e 84 bd b8 71 07 bd 71 92 5b 38 bc e9 10 be
       -0.06454235 -0.033067435 5.2350053e-05 -0.14151663
000030 19 84 53 3b bf 57 46 ba 6a 4c 00 3a 5d e5 d7 bd
       0.0032274781 -0.0007566176 0.0004894199 -0.105417944
000040 fa 14 a1 3e a7 13 03 3d 74 cc 94 3d ea fb d8 bc
       0.31461316 0.032001164 0.07265559 -0.02648731
000050 da 20 05 38 34 fc 0a 3d b1 f6 54 3c 82 61 7f b9
       3.1740266e-05 0.033931926 0.012998269 -0.0002435502
000060 ee 95 98 39 fe 54 31 3e 96 9b 82 3e 59 42 a2 3d
       0.00029103406 0.17317578 0.25509328 0.07922811
000070 9d ce d0 3d 34 7a 32 be 20 51 b7 3c a5 51 8b be
       0.10195658 -0.1742943 0.02237755 -0.27210727
000080 91 2b 0e bd 4c a4 c7 bd 49 e2 b6 3d 5d 98 3e 3b
       -0.034709517 -0.09748134 0.08929879 0.0029082515
000090 2b 3e 96 3d 9f c9 a9 3c 71 42 0c 3c 4a 4e 43 bc
       0.07336076 0.020726023 0.008560763 -0.011920521
0000a0 16 28 26 3c a3 e1 35 3d dc dd 86 3d 04 76 95 bd
       0.010141393 0.044404637 0.06585285 -0.072979
0000b0 a1 32 2c be 07 12 4d ba 34 9f a7 bd ae f0 d0 bb
       -0.16816188 -0.00078228157 -0.081846625 -0.0063763475
0000c0 a6 c9 87 3b fe fc 2d bb cf 12 2e 3c 50 9d e8 bd
       0.0041439114 -0.00265485 0.0106246015 -0.1135813
0000d0 9e da 30 3d dc 01 a1 3b 7e 6f 22 3c bd 2f 40 3e
       0.04317724 0.0049135517 0.009914277 0.1876821
0000e0 d9 b0 98 3e c7 67 32 be a2 fa 93 bd f3 94 17 bd
       0.29822424 -0.174224 -0.07225539 -0.037007283
0000f0 57 bc 6b 38 c2 92 b0 bc 1d f3 54 bb 7a 83 62 b9
       5.620377e-05 -0.021554355 -0.003249354 -0.00021602018
000100 5e 7c d0 36 ca 62 75 3e a4 2b 95 3e be bc 74 be
       6.2133613e-06 0.23963466 0.29134858 -0.23900124
000110 3b c9 89 be b0 85 fd bd a4 bd c3 ba dc 21 ba bc
       -0.2691134 -0.123790145 -0.0014933837 -0.022721224
000120 b5 72 33 b9 48 1e 44 3b 73 3c c0 b9
       -0.00017113502 0.0029925276 -0.00036666132

grapher.1.gru.bias_ih f4 [15]
000000 c3 ff 8b 3d 78 15 b6 3d 29 55 74 3d ae c2 51 be
       0.06835892 0.088908136 0.059651528 -0.2048442
000010 72 66 e6 bc 40 c3 a3 3e 4a b2 3d bc fa 68 9d be
       -0.028125022 0.319849 -0.011578152 -0.30744153
000020 57 5e 9b 3e bd 6c 0c be 24 ab c0 3d e6 df 16 3e
       0.30345413 -0.13713355 0.094076425 0.14733848
000030 81 4a 59 3d 53 1f 4c 3e 2e 53 67 3d
       0.053049568 0.19933824 0.05647581

grapher.1.gru.bias_hh f4 [15]
000000 ce 36 85 3d 41 3a 44 3d 2a 16 51 be 3f 78 d7 bd
       0.06504594 0.047907118 -0.20418611 -0.10520982
000010 22 bc f7 bd 6b 8d 33 bd 52 97 f3 3d f3 42 f8 3d
       -0.1209643 -0.04383604 0.118940964 0.121221446
000020 ce 4e c3 3e 62 11 ca bd bb 91 73 be c5 4c c2 3e
       0.3814606 -0.09866597 -0.2378606 0.37949196
000030 c5 61 6c be 7e 52 a5 3e 93 a9 3d 3e
       -0.23084171 0.322895 0.18521719

grapher.1.gru.ln_resetgate.weight f4 [5]
000000 b1 27 bf 3d 9e ce 70 3e a0 8e d4 3d 38 ef 45 3e
       0.093337424 0.23516318 0.10378766 0.19329536
000010 fb 37 ed 3b
       0.0072393394

grapher.1.gru.ln_resetgate.bias f4 [5]
000000 e5 df 12 3c 78 47 55 3c db 73 a4 ba 23 fb ea bb
       0.008964513 0.013017528 -0.0012546735 -0.007171051
000010 8b 96 6d 38
       5.6645407e-05

grapher.1.gru.ln_inputgate.weight f4 [5]
000000 89 a2 d7 3d b9 3b 1c 3f 36 c2 18 3e 93 84 6a 3f
       0.10529048 0.6102863 0.14917836 0.9160854
000010 d0 e2 45 b7
       -1.1794924e-05

grapher.1.gru.ln_inputgate.bias f4 [5]
000000 85 05 3d 3b 94 24 ab 3c bf 34 42 3c 48 88 13 3d
       0.0028842401 0.020891465 0.011853396 0.03601864
000010 56 ef 9b 37
       1.858889e-05

grapher.1.gru.ln_newgate.weight f4 [5]
000000 e8 7a 27 3e 56 12 6d 3f 1d 1e f9 3e 56 e9 67 3f
       0.16355479 0.92606103 0.48655787 0.9059042
000010 eb bd f2 3b
       0.007407894

grapher.1.gru.ln_newgate.bias f4 [5]
000000 23 26 de 3a 13 9b 24 bb 70 3d 81 3c c1 c9 49 bc
       0.0016948621 -0.0025116845 0.015776366 -0.012316168
000010 10 17 9a bc
       -0.018809825

grapher.2.weight.weight f4 [5, 5]
000000 71 16 d8 3a 3e 6b 16 3e 2e a1 06 3a 87 dc a9 3e
       0.001648618 0.14689347 0.0005135712 0.33176062
000010 49 ab b9 39 0c 32 90 3b 04 89 2d 3d c4 f2 e0 bb
       0.00035413567 0.0044004973 0.042366996 -0.0068648774
000020 85 37 aa 3e 37 bc 2a 3b 2f ef 24 ba 2c d5 5a be
       0.33245483 0.0026052126 -0.00062917446 -0.21370381
000030 97 3c 52 ba 19 64 65 3d a0 d2 8c b9 2e 53 25 bb
       -0.0008019893 0.056003664 -0.0002685981 -0.002522658
000040 e9 65 a1 be 14 01 a7 bc 41 cd 80 3e df 3f ef 39
       -0.31523064 -0.020386256 0.25156596 0.0004563322
000050 5d 6e 9b ba 21 2c 80 be 05 32 7a bb d6 fb b3 3c
       -0.0011858452 -0.25033668 -0.0038176787 0.02197067
000060 8f d7 b1 b9
       -0.00033920674

grapher.2.weight.bias f4 [5]
000000 c4 79 02 be b2 f6 8b 3e 91 4b 72 3e 13 b5 ca be
       -0.12741762 0.2733665 0.23661639 -0.39591274
000010 12 36 8f 3e
       0.2797094
