scheduler/BaGTI/checkpoints/energy_latencyCNN_4_Trained_V1.ckpt (torch, 740287 bytes, 18 tensors)

find.0.weight f4 [20, 1, 6, 6]
00000000: 446f 083f 6a59 823e 1031 ab3e 6320 e1be
00000010: 8cc3 d5bd 7c50 623f d13f 61be bf26 98bf
00000020: 22db 483f 0d8f 1d3f 2871 21c0 2694 8a3e
00000030: 0e74 a4bf b50c b1bd 341f a43d 5eda f03e
00000040: 1436 c9bd 6d72 debb e162 99bf 9627 10be
00000050: 51c1 e7bf c245 853f 3123 69bf e443 3abf
00000060: d72c ccbc de90 423f 9f72 15be 8198 8ebd
00000070: 8fb0 73bf cf14 69bf b61b aabf a2a1 9c3f
00000080: 1fd3 893f 7e11 4dbf 34a4 97bf 3fb4 fc3d
00000090: 58c0 e33e cdd7 763f ccb7 58bf bceb 933e
000000a0: 17cc ab3f 9a39 75bf 7988 24bf 9f00 a0bf
000000b0: 1f9f 813f 2201 27c0 0536 ae3e 7ba9 003e
000000c0: 434f 18bf 5de9 923f 8339 9c3e a2d1 85bf
000000d0: 8ed3 623e ffbc 883e 8583 38bf 13fb c3be
000000e0: e1e8 68bf 0a41 98bc 15ed 193f b259 e9bf
000000f0: 19c9 833f f4fd 3bbf 3f2f 98bf 6715 133e
00000100: 0f36 4abf 1c55 6b3f e49d 743e e8cb 1dbf
00000110: 2a52 18c0 fee2 403e 1b8a 2d3d 7b90 b43e
00000120: b0fb 153f 9a42 e03e 3931 463f c990 80bf
00000130: 0f53 bc3f 70fd 0e3f 1cdf 693e facc 8d3f
00000140: 8a7e 813f 002d 02bf d607 5e3f 215f 773f
00000150: 1c21 04bd 2d88 183f 94d2 9abe 68f7 823f
00000160: 9275 ea3e 6326 403f aab9 ebbc 6f69 5a3e
00000170: bfe0 17be 6fa1 803f 0041 1cbf 9b4e 3abe
00000180: a987 1b3f 786d e2be 05fd 8ebf 1b00 b23e
00000190: e0f2 0cbf 68ac c7bf 1d7e 2bbf 890f 843f
000001a0: 216a 82be 1ffa 0cbf fc01 b23e 79a8 ddbf
000001b0: ba77 8fbf 649c 0d3f 25c7 b83e 0b38 67be
000001c0: a150 14bf 8513 213f 6124 903f b547 81bf
000001d0: 86c1 10bf 632e 763e 7723 26bf 6d8c 333f
000001e0: e189 1cbf aba7 d4be ebc4 fcbe 4f31 a63d
000001f0: 9628 2abe 4bee ddbd 535b 3b3f 3271 c9bf
00000200: 6f43 edbd 02fb 1f3f 7250 563f 7fc7 093f
00000210: 795c d23e fe7a 02c0 f53b 96be 2486 3dbf
00000220: b7ed 813e 4919 a73e 4965 94be f2da be3e
00000230: fd88 9c3f b3d8 a8be 5ad9 1b3f 2f9d 4cbf
00000240: c802 23be 5208 5abe 9901 0b3e fe8a 58bf
00000250: 6f03 563f 16b7 e6be 4b85 83be 5c1b 4abf
00000260: ccb7 803f 2367 c0bf dd5c 17bf 9a67 4ebd
00000270: 49dd 013f 7e4e 92bd 2008 e8be 8e50 4dbf
00000280: 2eaf 133f b810 3d3f 45ee 853e 44f4 313f
00000290: fee0 023f 0c75 acbe 89e7 88bf e246 3e3f
000002a0: e35b 4c3e c310 763f a8b2 4dbe 2c3c 0a3f
000002b0: 9e32 783e 1af1 ecbe e93b 6abf 8a7e 81bb
000002c0: c125 a73f 63bc 2bbd 3285 0a3f a43f 5fbf
000002d0: 3f09 17bf d5b0 b4bb 72d0 2cbf 735f db3e
000002e0: 02f6 a0bc a7a6 023f c20b 5bbf cda7 443f
000002f0: 614d 283f 2438 d03e df85 fdbd 3fdf 21c0
00000300: b562 373f 8af0 23bf 8f1e 1abf ce08 cebf
00000310: 7a83 4f3e 8a6e d5be eb70 2dbe 9e24 63bf
00000320: 269b b9be f491 ed3e f09f e23e ae32 eb3e
00000330: e91b c8bd d827 183f ee98 0cbd acea 99bf
00000340: 3fbb 6abe 3ff5 80bf a639 20bd 6367 873f
00000350: 3617 7f3f 60b6 f8be 2cf5 933f f45c e63e
00000360: a992 8abc dfa5 d8bf 75d4 853f fecc 8ebd
00000370: b5b6 b3bf af4e ec3e 849b 253f ec39 8cbf
00000380: 0332 85bd 852c 07bf 76f0 833c da03 d2be
00000390: 39e0 c7be 7462 1e3f 611f 523f 445c ab3f
000003a0: c8d7 0bbf 3e72 84bd 0c30 243f fc78 4e3e
000003b0: f24d 91bf 5b5d 203f d7ea 463f 5d1d aebf
000003c0: 044a e9be 480e 9cbf afb8 2c3f 61c6 c1bf
000003d0: 26db 3e3f 9ea2 9b3f 60ab c13e 57fe 6a3f
000003e0: 3dc5 a6bf f574 dc3e 0ca4 2a3f 8887 32bf
000003f0: e2ed 67bf 7630 c9be 050a 4abe 5935 aabf
0.5329478 0.25458843 0.3343587 -0.43970022 -0.10437688 0.8840406 -0.21997 -1.1886824
0.7845937 0.61546403 -2.5225315 0.27066153 -1.2847917 -0.08645002 0.08013764 0.470416
-0.09824768 -0.006788543 -1.19833 -0.14077601 -1.810587 1.0411913 -0.9106932 -0.7275984
-0.024923725 0.760023 -0.14594506 -0.069626816 -0.9519128 -0.91047376 -1.3289707 1.2236826
1.0767554 -0.80104816 -1.1846986 0.12339067 0.44482684 0.96423036 -0.8465545 0.2889079
1.3421658 -0.9579102 -0.6427074 -1.250019 1.0126685 -2.6094441 0.3402559 0.12564652
-0.59495944 1.1477467 0.30512628 -1.04546 0.22151014 0.26706693 -0.7207568 -0.38277492
-0.90980345 -0.0185857 0.60127383 -1.8230498 1.0295745 -0.73434377 -1.1889418 0.14363633
-0.78988737 0.9192674 0.23888355 -0.6163926 -2.380015 0.1883659 0.042368036 0.3526648
0.5858717 0.43800813 0.7741886 -1.0044185 1.4712847 0.55855465 0.22839016 1.1078179
1.0116742 -0.50849915 0.86730707 0.9662953 -0.032258138 0.5958279 -0.30238783 1.0231752
0.45792824 0.75058573 -0.028775055 0.21329282 -0.14831828 1.0049266 -0.6103668 -0.18194048
0.60753876 -0.44224143 -1.1170965 0.34765705 -0.550581 -1.5599489 -0.6698931 1.0317241
-0.25471595 -0.55069155 0.3476714 -1.7317039 -1.1208413 0.5531676 0.36089435 -0.22579972
-0.5793553 0.6292041 1.1261102 -1.0100008 -0.56545293 0.24041133 -0.64897865 0.7013615
-0.61147887 -0.4153417 -0.49368986 0.081148736 -0.16617045 -0.108364664 0.73186225 -1.573767
-0.115851276 0.6249238 0.837165 0.5382003 0.41086176 -2.0387568 -0.2934262 -0.7403281
0.25376675 0.3263648 -0.28983524 0.37276417 1.2229306 -0.32977828 0.6087853 -0.79927343
-0.1591903 -0.21292236 0.13574828 -0.84587085 0.8359899 -0.45061558 -0.25687632 -0.78948
1.005609 -1.5031475 -0.59126073 -0.05039177 0.5072828 -0.071438774 -0.453187 -0.8020104
0.5768918 0.73853636 0.26158348 0.69513345 0.5112456 -0.3368305 -1.0695659 0.7432691
0.19956927 0.96119326 -0.20087683 0.53998065 0.24238059 -0.46277696 -0.91497666 -0.003951852
1.3058397 -0.041927706 0.5410949 -0.8720648 -0.58998483 -0.005514244 -0.6750556 0.4284626
-0.019648556 0.5103554 -0.85564816 0.76818544 0.6574307 0.40667832 -0.123790495 -2.5292509
0.7163499 -0.6403891 -0.6020288 -1.6096437 0.20264998 -0.41685897 -0.16937606 -0.8872775
-0.3625118 0.46400416 0.44262648 0.45937103 -0.097709484 0.59435797 -0.034325533 -1.2024741
-0.22922991 -1.0074843 -0.039117478 1.0578426 0.9964479 -0.4857664 1.1559196 0.44992793
-0.016915636 -1.692562 1.0455462 -0.06972693 -1.4040133 0.4615378 0.64690423 -1.0955176
-0.065036796 -0.52802306 0.016105872 -0.41018564 -0.39038256 0.6186898 0.8207913 1.3387532
-0.5462613 -0.064671025 0.64135814 0.2016334 -1.1351912 0.6264245 0.7770209 -1.3602711
-0.45564282 -1.2191858 0.67469305 -1.5138665 0.74553144 1.2159002 0.3782606 0.9179434
-1.3028942 0.4305798 0.66656566 -0.69738054 -0.90597355 -0.39294785 -0.19730385 -1.329753

find.0.bias f4 [20]
00000000: 7788 04be 7446 f53e d10e e3bf b5a5 f73e
00000010: 0db0 16be 898f ab3e ab55 b93e fc81 853e
00000020: 6891 5cbb e6e9 1cbf d981 be3e 8584 bfbd
00000030: 3fa3 debf 39ec ddbf aa59 4ebc a809 c53e
00000040: 883b 15bd 897d 823e e486 023e d47c f0be
-0.12942682 0.47905314 -1.7738897 0.48368612 -0.14715596 0.33507946 0.36198172 0.26075733
-0.0033656005 -0.612944 0.3720844 -0.09351448 -1.7393569 -1.7337714 -0.01259462 0.3848393
-0.036433727 0.254864 0.12746769 -0.46970236

find.2.weight f4 [50, 20, 6, 6]
00000000: 909a f1be e634 a33d 7c19 dcba 8097 213d
00000010: cf57 403f 6833 8ebe e2f7 09bf 373d 06bd
00000020: 5239 713e da9c 9b3e 1d8e 263f 332e ecbe
00000030: 5c9d 47bf a24d b4be 230f fc3e 9a64 e43e
00000040: e45d 053f 6d34 1bbf 1281 42bf 8972 fbbe
00000050: 3ad4 a53e be55 bc3e cc0e ea3e 8ce6 48bf
00000060: 14fd f7be 64a2 e5bd 23ff 453f bc9e 923e
00000070: 2667 203e 6f86 56bf b9d6 0ebf b033 613d
00000080: 1e29 693f f594 5c3e bdd2 223d 6532 44bf
00000090: d482 8b3e eff8 81bd ba78 a0bf 52ca c7bd
000000a0: 029a 293f 7e3b 95be 4aef d93e 8a9e bf3e
000000b0: 39fb c3bf 1750 0ebf 8eeb 3a3f ddd9 aebe
000000c0: c6de 033f 21a7 ac3e 393e a3bf 9608 53bf
000000d0: 929f 433f 32c5 68be 4a74 a93e c1e0 093f
000000e0: 9ae5 87bf b0c5 3bbf c0df 5b3f 5fa5 973d
000000f0: 3642 f33d 964f cc3e 0754 b5bf 7ccf f1be
00000100: 1740 483e 5627 4c3e 8394 04bd c562 c3be
00000110: c32c f8be fc97 3ebf f814 6c3e 7fbe 173e
00000120: 772f d63d 253f 543f 738a 96be 6874 2abe
00000130: f48a 1b3e dd6f 9fbe 89e5 0abf 4cdc 363f
00000140: 8775 bdbe 2641 31be 4c91 9dbe 10b9 31bf
00000150: 5ce5 bbbe ed52 2a3f 28db 17bf 0b4f 8dbe
00000160: 56cd c0be 52b7 873e d714 063d 92f9 813f
00000170: dd62 57bf 17f2 80be b099 f1be 1dc4 f43d
00000180: 8b5a 173f 1076 303f 9f5f 52bf 5e23 c8be
00000190: 6c42 12be d6de fd3d d72d 263e e7f4 353f
000001a0: b9bc 99bf f8f9 93be 0a46 efbe 2613 bcbd
000001b0: 0d39 803d 5f33 373f 5ae3 2fbf d3c6 e7be
000001c0: 7b70 b7be 8c29 38be 0b84 bfbe 00b8 683f
000001d0: 3af5 b8be 6b40 4dbf c15c a43e bedc afbe
000001e0: dbb5 16be 2ce2 263f 86c4 b1be a118 7fbe
000001f0: 15c5 8f3e d775 2dbe fe62 c83e c78f 8a3f
00000200: d227 15bf dcb3 673d 42b7 c7bb a23c 06bf
00000210: 2366 19be 057c d63e 30d7 79bd bf8e 3abe
00000220: 6d39 60be 118c 50bf bfdd 24be b5ca 95be
00000230: 47d0 40bd 536f 843d cfec 7cbe 2c45 6abf
00000240: acd5 6a3d 402a fcbe 8eb8 2b3f 4eef a2be
00000250: 2d8b 513f 3f14 22bf fba1 07bd 25c5 58bf
00000260: c746 b1bd e45b 763e dd6c c53e a4ee 2339
00000270: 322a 9dbd 398e dcbe d5d2 413e 3c5a 633e
00000280: e7a5 2b3f d95c 84be f131 8f3e 157f 2abf
00000290: 71e2 d03e 8328 43be 04fb 8a3d 55bf c23e
000002a0: 5797 2b3e eb46 eebe 9cfa 0b3f ee5d a9bd
000002b0: 8b8b 453f 2bb8 bf3c cbc7 0cbe 8bfc 333f
000002c0: ba4b 943c 4bc4 ce3e cd3e 113f f24d f13e
000002d0: cf3c 05be e817 663d ba75 303e a342 963e
000002e0: 0ccf f43e a032 41bf c8f6 4fbf eade 533e
000002f0: d17a c73d 72bb 88be d377 603e 3cb9 fcbe
00000300: f640 98bf 40bf 313f ff07 843d 9e48 4ebe
00000310: 591d cb3e 80fc 05bf 587f 8fbf 6bce 883f
00000320: 3354 893d da76 233d 4c28 853e cbb7 d2bd
00000330: d692 74bf 3a9d 973f efbf 2b3e 4811 b6bc
00000340: 907e ca3e 6588 c9be d486 58bf 6685 793f
00000350: 7830 393d e23a 263e 7061 833e 4866 683e
00000360: 0192 22bd 2a05 ed3d a72b 58be 7d0e b43d
00000370: c5ba 80bf de2c 3bbe c1dc 80be a033 c13e
00000380: ef19 eabe e151 b1bd e72c 79bf 7487 993e
00000390: 9730 85be 1f64 703f 47ef 39be 164c 1dbe
000003a0: 16f2 81bf 697c 923e 8aa1 debe eeb6 823f
000003b0: fc4a f1be 00fb 47be 3a96 c1be a145 0c3f
000003c0: 8f84 bb3e 9e82 383f 4664 54bf 73b5 06bf
000003d0: 2daa 2abf 66b0 16be 69d1 193f a076 363f
000003e0: fea6 1cbe dd58 b1be 63b7 3cbf c922 5abc
000003f0: 5f7c 86be 9dcb c53d 0ff2 2c3f 26df a0be
-0.47188234 0.07969074 -0.0016792263 0.039451122 0.75133985 -0.27773595 -0.53893864 -0.032773223
0.23557022 0.30393106 0.650606 -0.46128997 -0.77974486 -0.3521548 0.49230298 0.44608003
0.5209639 -0.6062687 -0.75978196 -0.4911082 0.3238848 0.36784166 0.45714414 -0.78476787
-0.4843527 -0.11212614 0.7734243 0.2863673 0.15664348 -0.8379888 -0.5579639 0.054980934
0.91078365 0.21541198 0.039751757 -0.76639396 0.2724825 -0.063463084 -1.2536843 -0.097553864
0.6625062 -0.2914695 0.42565376 0.37425643 -1.5311042 -0.5559096 0.7301568 -0.34150591
0.515118 0.3372126 -1.2753364 -0.82434976 0.7641536 -0.22731474 0.33096534 0.5385857
-1.0616944 -0.7334852 0.8588829 0.07404589 0.11877863 0.3990447 -1.4166268 -0.4722861
0.19555698 0.1993688 -0.032368194 -0.38161293 -0.4847165 -0.7445066 0.23054874 0.14818762
0.10458272 0.8290885 -0.29402503 -0.16645968 0.15189725 -0.31140032 -0.5425649 0.71429896
-0.3700373 -0.17310008 -0.30774915 -0.6942301 -0.36698425 0.66532785 -0.5931878 -0.27599367
-0.3765666 0.2650705 0.03273472 1.0154288 -0.8413523 -0.251847 -0.47187567 0.11951468
0.5912253 0.6893015 -0.82177156 -0.39089483 -0.1428315 0.12396018 0.16228424 0.71076816
-1.2010719 -0.2890165 -0.46733123 -0.0918334 0.062608816 0.7156276 -0.68706286 -0.45268878
-0.35828003 -0.17984599 -0.37405428 0.9090576 -0.36124593 -0.8017642 0.32102016 -0.343481
-0.1471781 0.6518886 -0.34720248 -0.24911739 0.2808005 -0.16939484 0.39138025 1.0825127
-0.58263886 0.05656801 -0.006094844 -0.5243627 -0.14980368 0.41891494 -0.060996234 -0.18218516
-0.21896906 -0.81463724 -0.16100214 -0.29256216 -0.04707363 0.06466546 -0.2469971 -0.915118
0.05733268 -0.49250984 0.67078483 -0.318232 0.8185299 -0.63312143 -0.03311346 -0.8467582
-0.08656078 0.24058491 0.3855962 0.00015633792 -0.07674064 -0.43077257 0.18928082 0.2220239
0.6705002 -0.25852087 0.2796779 -0.6660016 0.4079776 -0.19058423 0.06786159 0.380366
0.1675695 -0.4653848 0.54679275 -0.08269869 0.7716605 0.023403248 -0.1374809 0.70307225
0.018102515 0.40384135 0.5673645 0.4712978 -0.13011478 0.056175143 0.17232409 0.29347715
0.47814214 -0.7546787 -0.81235933 0.20690504 0.09740222 -0.2670551 0.2192071 -0.49360073
-1.1894825 0.6943245 0.06446838 -0.20144889 0.39670828 -0.5233841 -1.1210737 1.0687994
0.06705513 0.039908268 0.26007307 -0.10288962 -0.95536554 1.1844857 0.16772436 -0.022225037
0.39549685 -0.39361873 -0.8458073 0.97469175 0.04521224 0.162334 0.25660276 0.22695267
-0.03969002 0.115732506 -0.21110402 0.08791826 -1.0056998 -0.18278834 -0.25168422 0.377347
-0.4572291 -0.08658195 -0.9733414 0.29986155 -0.26013634 0.9390277 -0.18157683 -0.15361056
-1.0152004 0.28610542 -0.4348262 1.0212076 -0.4712752 -0.19529343 -0.37809926 0.54793745
0.36624572 0.72074306 -0.82965505 -0.5262062 -0.6666592 -0.14715728 0.6008516 0.7127476
-0.15298077 -0.3463811 -0.73717326 -0.0133139575 -0.26266763 0.09657977 0.6755685 -0.3142025

find.2.bias f4 [50]
00000000: 90ac f53e 393f 003f 3c84 fe3e a4ca f93e
00000010: b28b f63e 13c9 fa3e e352 033f 2b78 ff3e
00000020: 5bab fb3e f3b0 ff3e 46fd fc3e 6071 f33e
00000030: 4c02 ed3e bfd4 ff3e 0e8e fd3e 7c79 f73e
00000040: ef95 003f 0cc0 f83e 5d07 fd3e 9dfa f73e
00000050: 7ad2 f93e f6c4 023f 1b95 f83e d2c9 f43e
00000060: 424c fe3e 19ce fd3e 3d73 063f 0f0b 013f
00000070: 8572 f93e 172e ff3e 09ed f53e c28e ff3e
00000080: 4e21 f53e 4323 f83e b9f7 003f f096 013f
00000090: 1271 013f 9006 fe3e fd06 f83e 9a8b fe3e
000000a0: daf0 f33e 8b5f f93e 1fc5 e83e 1e80 003f
000000b0: 640f f23e f3f4 fd3e 00f1 ff3e fafd fa3e
000000c0: edb9 fd3e 6de1 f93e
0.47983217 0.5009647 0.49710262 0.48787415 0.48153454 0.48981532 0.5129835 0.49896368
0.4915417 0.4993969 0.49411982 0.47547436 0.46290815 0.49967 0.49522442 0.48334873
0.5022878 0.4858402 0.4941968 0.4843339 0.48793393 0.5108179 0.48551258 0.47810227
0.49667555 0.49571303 0.5251959 0.504075 0.48720184 0.4983985 0.48032406 0.49913603
0.47876972 0.48464403 0.50377995 0.5062094 0.50563157 0.49614382 0.48442832 0.49715883
0.47644693 0.48705706 0.4546289 0.5019549 0.47277367 0.49600944 0.49988556 0.49021894
0.49555913 0.488048

find.4.weight f4 [2, 15]
00000000: 43fb 9d3d bbdc a7bc 6b9d 42bd 4713 40bd
00000010: d9a6 59be 715a e9bb ac6f ee3d 2468 413d
00000020: e1e2 1f3d ac32 fd3c 2eee 3bbd 1db4 803d
00000030: 4837 c1bc 3a12 463c 55ba 01be 302f 6bbd
00000040: 27fa 8b3e 6493 56be 2889 cb3d 6fdc bbbd
00000050: f2a5 21c0 654c b33d dbf4 a63c b455 b0be
00000060: 479c e83d 00ab 3e3e b8ec 8d3d 8880 60bf
00000070: 4462 493e 1af1 a23e
0.0771394 -0.020490995 -0.047513407 -0.046893384 -0.21255054 -0.007121377 0.116423935 0.047218457
0.039034728 0.030907951 -0.045881443 0.06284354 -0.02358593 0.0120893065 -0.12668736 -0.05741805
0.2733929 -0.20954663 0.0993827 -0.09172904 -2.5257535 0.087548055 0.020380428 -0.34440386
0.113579325 0.18619919 0.06929916 -0.87696123 0.19666392 0.3182457

find.4.bias f4 [2]
00000000: 8c20 373e d954 e4bf
0.1788351 -1.7838393

exp_avg f4 [20, 1, 6, 6]
00000000: ea8f 1dbe c4aa 06be 2126 04bd 19a6 30bd
00000010: 0a17 60bd e2ea c5bc deb3 d7bd 2146 55bd
00000020: 765d 53be c06d afbd 5e64 323d a973 143e
00000030: 4b8e e7bd fadf 43be b8db 2ebe 3837 d83c
00000040: 761f ae3e 1c7b 0a3e 3037 8abc d676 68bd
00000050: 199b cd3d 839c 893e 73c6 933d 33e4 1d3e
00000060: 6540 0abe 5a76 b5be c08c 8abe fca1 eebd
00000070: 2bee 813d 1ec7 9ebd 5c54 f9bc 4881 2bbc
00000080: 0c9d 9b3d 26d0 4a3e 09a0 963e 55c8 fb3d
00000090: 0355 1f3e 7f55 9b3e 4c0c 4c3e 6437 8b3d
000000a0: 1410 a7bd a0e4 b8ba f050 4c3e d771 803d
000000b0: a2a0 833e 5cb8 90bb 9ee8 61be 7341 1dbd
000000c0: d8ca 693e 35ec 963d fce2 313e 409d 663d
000000d0: d666 65bd bd16 e3bd 7f51 7d3e 4421 12bd
000000e0: 5912 973d acac 5b3e 2ccd 74be 78ef 7bbe
000000f0: 0e24 683e b7e5 193e 3edf 933e 88ca c3bd
00000100: 0b54 5a3d d8ac 0bbe 3a1a 08be 78b8 8ebe
00000110: f948 efbc 75d7 7e3c 9a58 83bd e584 75be
00000120: ceed 26be 4c59 623d 483c 7d3c d88e 713d
00000130: 2dc2 9abd 1c15 de3b b3bd 2dbe ce74 36be
00000140: 886c 0d3d 4b64 203d aac1 4cbe b993 d5bc
00000150: 92cc 69be 4ab8 9bbe fd72 2dbd 7ec9 85bc
00000160: 0832 1e3d f0f9 c43b 0a07 8fbd 26e8 78bc
00000170: 827e 8e3d 851c 033e cbf2 4cbe aa05 2b3e
00000180: a77e cabd 5dd9 0bbe 6b81 07be 48dd 74bd
00000190: 7f28 4dbe 34df ffbd 5bf2 55be bd6d 2abe
000001a0: c3f2 f0bd 4018 bc3c 8188 4fbe ebbb c23c
000001b0: 60c8 7d3b 50e5 083e 978b 243d d354 2dbd
000001c0: 0eed 20bc 5cc2 bc3b 0673 103e 0002 593c
000001d0: 658e 17be ba6a 25be 03b6 f0bd 98e2 26be
000001e0: f040 1cbd 5287 18bd 364e 0dbe 99e7 0cbe
000001f0: 6c1e 9bbd 8a5e 2f3d 3409 d23d 9668 93bc
00000200: 3a58 44bd dd66 073d cb4c 213e 60d6 6a3d
00000210: 9df4 5dbd 2e72 15bd 5711 54be 8859 b2bd
00000220: aba9 103d d616 dcbd 802a 3dbd 26d2 b4bd
00000230: db21 acbd 542b 323d a986 d4bd de45 2a3d
00000240: 008f 833b a08a 223b 8a3b f73c d3d5 803c
00000250: 6679 603d e332 d63b 4c73 74be b2c6 71bd
00000260: ca23 823d 7c1a 323d a7a8 2d3d 40bd 903d
00000270: 8a73 a2bd ce7e bf3c 6d30 1f3e 2ab9 033e
00000280: c641 3f3e eb4f e23d 9f9c c33d 76d5 9c3d
00000290: 3c94 c13d 97ed 303e de2d 073e e878 773d
000002a0: 8ab7 3f3e 6db2 363e 95ff 063e 9f58 353e
000002b0: ec7e 643d 1109 313d 06ec 963e ff4d 983c
000002c0: d94f 7b3d 3a78 71bd 5da5 533e e096 513c
000002d0: 1b36 323c 0c0c 93bc 849b 513d 94cc 8abc
000002e0: 359f 8f3b c67c a03b f5e0 063e 1666 83be
000002f0: d00c fcbd e5f5 7a3d 35a4 67bc 6dca 6a3d
00000300: 777c 263e ba9c c7bd 9cba 84bd 7ad7 90bd
00000310: b5bc eb3d a85b b23d b5f9 4a3e f7e9 3f3e
00000320: e21c 613e 8c22 083e 613d 303d 2502 9a3e
00000330: 0a9d 353d aedb cf3d 4a37 a13d 3553 1a3c
00000340: b853 11be d654 3fbd 55a0 4bbc c394 e23d
00000350: ad0b 1d3e 6ed9 8dbd c341 383e 99a3 0b3e
00000360: de49 483d 8ada c93d 58de 4f3b c2d2 753d
00000370: 48ce d93b 00d5 413a b801 623d 6c50 993d
00000380: e895 1e3e f0e6 893d 3d2d 57bd b9ae 00bd
00000390: 1a15 29be 0669 a83d 00cc e4ba 0085 07be
000003a0: fac7 ecbc 1064 00be 04c4 98be 008b 83be
000003b0: da1d 79bd 20ca fdbc 5264 df3d 59e4 e03d
000003c0: 116c 19be 0c65 093e e09f 7d3e 2fe0 833e
000003d0: 8c03 933e 3162 023e 8d71 11be 8270 4ebd
000003e0: 8b23 c1be ecd3 a9bd 3576 6ebe 062f 7d3e
000003f0: 20ba 0d3e e1d3 bd3d 1011 433c b515 d3bc
-0.1538693 -0.1315108 -0.032262925 -0.043127153 -0.05470947 -0.024159852 -0.10532354 -0.052068833
-0.20641121 -0.08565855 0.04355275 0.14497246 -0.11306437 -0.19128409 -0.17076004 0.026393518
0.34008378 0.13523525 -0.016872019 -0.056753956 0.10039348 0.2687722 0.072155856 0.15419082
-0.13501127 -0.35441858 -0.2706051 -0.1165199 0.06344255 -0.07752822 -0.030435733 -0.010467835
0.07598314 0.19805965 0.29418972 0.1229407 0.15559773 0.30338666 0.19926566 0.06797674
-0.081573635 -0.0014106221 0.1995275 0.06271713 0.2570849 -0.0044165086 -0.22061393 -0.038392495
0.22831285 0.07369272 0.17371744 0.05630231 -0.056006275 -0.11088321 0.2473812 -0.035676256
0.073765464 0.21452588 -0.23906392 -0.24603069 0.22670004 0.15029036 0.28881258 -0.09560114
0.053302806 -0.13640153 -0.13291255 -0.27875113 -0.0292096 0.015554299 -0.06413384 -0.23976476
-0.16301653 0.05526094 0.015456267 0.058974117 -0.07556567 0.006777419 -0.16966896 -0.17817995
0.03452733 0.039158147 -0.19995752 -0.026071416 -0.22831944 -0.3041404 -0.04234599 -0.01633143
0.038621932 0.00601124 -0.069837645 -0.015192067 0.06957723 0.12803848 -0.20014493 0.1670138
-0.09887438 -0.13657136 -0.13232963 -0.059781343 -0.2003498 -0.124937445 -0.20893233 -0.16643424
-0.11765053 0.022960782 -0.20266916 0.023771247 0.003872417 0.13368726 0.040172186 -0.042317223
-0.009822143 0.005760474 0.14106378 0.013245106 -0.14800413 -0.16153994 -0.11753466 -0.16297376
-0.038147867 -0.037238427 -0.13799366 -0.13760222 -0.07574162 0.04281477 0.102556616 -0.017994206
-0.047935702 0.033057082 0.1575195 0.05733335 -0.05418836 -0.036485843 -0.2070974 -0.08708483
0.035318058 -0.10746543 -0.04618311 -0.08829145 -0.08404895 0.043498352 -0.10377247 0.041570537
0.0040148497 0.0024801865 0.030179758 0.01572696 0.054803275 0.006536828 -0.23872107 -0.05902738
0.063544825 0.04348229 0.042397168 0.070673466 -0.079321936 0.023375895 0.15545817 0.12863603
0.18677434 0.110503994 0.095513575 0.07657902 0.094521016 0.17278133 0.1320109 0.06041804
0.18722358 0.17841502 0.13183434 0.17709588 0.055785105 0.043221537 0.29476947 0.018591879
0.061355446 -0.058952548 0.2066855 0.012792319 0.010877158 -0.01795008 0.051173702 -0.016943254
0.0043829926 0.0048976867 0.13171752 -0.25663823 -0.12307131 0.06126966 -0.014138271 0.057321955
0.16258417 -0.0974669 -0.064809054 -0.07072349 0.115106024 0.08708888 0.19821818 0.18741594
0.21983674 0.13294429 0.043027285 0.3007976 0.044339217 0.101493225 0.07871874 0.009419252
-0.14192092 -0.046711765 -0.012428363 0.1106353 0.15336485 -0.06926237 0.17993836 0.13636626
0.04889857 0.09856136 0.003171822 0.060015447 0.006646905 0.0007394105 0.05517742 0.074860424
0.15486872 0.06733501 -0.052533377 -0.03141663 -0.16511956 0.08223157 -0.0017455816 -0.13234329
-0.02890395 -0.12538171 -0.29837048 -0.25691986 -0.060819484 -0.03098017 0.109078065 0.10981054
-0.1498263 0.13417453 0.24768019 0.25756976 0.28713644 0.1273277 -0.14203472 -0.050400265
-0.3772243 -0.08292374 -0.2328728 0.2472497 0.13840532 0.09268928 0.0119059235 -0.025767187

exp_avg_sq f4 [20, 1, 6, 6]
00000000: 2ae4 1f3f 38ea 8c3f 7257 4c3f e7d2 c73e
00000010: 7ce7 643e 8042 0d3e 30c4 f23e 05c2 3f3f
00000020: 15c1 0340 9178 b33f efd1 dc3d 3c6f ff3e
00000030: c76e ef3e 0523 5d3f 09eb cb3f f193 e23f
00000040: 9c77 ae3f cb2c a03f ad54 353f 079e d03f
00000050: bf51 a53f 814e 0040 4c03 f23e 2fd1 0f3f
00000060: bb12 813f 4779 1040 d52e 0240 7242 e23f
00000070: ccf5 013f fed3 de3e 2f83 d93e c07b c73f
00000080: 7d0d 8e3f a371 5f3f 969d 2d3f 993f 203f
00000090: 19bf dc3f b11b 9e40 2710 3a3f 751e 933f
000000a0: d580 293f 006f 3f3e 12a1 9c3f 48f4 b63f
000000b0: 9e69 ff3f c14e a13e 44c0 993f 627c 503f
000000c0: afe2 0f40 e598 8640 bd42 b23f bdf3 2240
000000d0: 1134 e33f f7ad 3940 d218 2440 65eb f33f
000000e0: 87f8 a33f 075c 1340 60f4 0340 41c4 5e3f
000000f0: 5352 7f40 512d 0e40 58ab 9a3f ee40 8440
00000100: df47 3140 6244 6740 e0cb de3f d510 c13f
00000110: b1e1 153f db03 ab3f c72c 843f 3e8a 943f
00000120: 8ddf d140 8d8e 5640 a883 1a40 4a03 713f
00000130: 295e 673f 1c32 b33f c11f c840 1858 a840
00000140: 39c8 f43f 7451 0540 9dd7 e53f a5f9 fb3f
00000150: d9a6 1041 a596 d640 b6dc 4e40 1f6f 7440
00000160: e8bf e13f 7742 d23f 087c d140 27c7 6d40
00000170: 9c97 0f40 3f0a 5440 8709 f73f 38d1 ad3f
00000180: 7b38 b740 5c1c 1c40 6732 c53f c023 0440
00000190: f315 bc3f 6867 803f 685c d13f a06c a73f
000001a0: 356f 8f3f 713c 783f 8957 813f 642c 293f
000001b0: 889e 3c3f 6831 6c3f 1afd 1c3f 3723 6e3f
000001c0: 7d9e 583f d19a b13f 398a a63f 31b5 a33e
000001d0: 4457 f43e 8409 5a3f b06f 933f be4f 0640
000001e0: 22d9 033f 288f 803e 4e3d 913f 91b2 a33f
000001f0: 2674 743f af43 0940 82f5 a33f af77 033f
00000200: a992 1540 1e7d 0340 452b 0840 a2c7 4140
00000210: 2ede 513f bb24 e63e 068f d33f 1c65 e93f
00000220: d682 da3f 5557 3a40 c0e5 133f 1e7d 813f
00000230: 0c67 d63f 361f 753f 844a 983f 20a6 763f
00000240: 1cf0 ad3f 7220 3d3f 32d2 353f 5045 c83d
00000250: 42cb 453e 82b1 263d 5a74 a83f f71d 473f
00000260: 601d 763f 59aa f63d 3214 413e 72ed d33e
00000270: c69e 4640 8e33 cb3f 3ddd b73f a63d 3c3f
00000280: 346e 583f 5393 c83f e179 6240 95fb 2140
00000290: 8c55 923f ff64 fd3f 05f2 453f fdd4 803f
000002a0: b668 3940 8de3 963f 37f0 a63f 7082 3e40
000002b0: 1bc7 393f 7423 153f 46a1 fe3f 90de 283f
000002c0: 6702 be3f fe0f 353f c1d9 713f e921 cc3e
000002d0: 13e8 8c3f a778 da3f 4613 a63f 8032 c33f
000002e0: 14b1 873f f4ea 1e3e 8ae6 5f3f 509e 4640
000002f0: d396 2140 a5de d53f c1dc 9d3f 6913 443e
00000300: b5b5 4440 ec09 903f c372 903f 8aca 7d3e
00000310: b690 823f 97e0 ff3e 01b7 fd3f 9589 a53f
00000320: a573 1940 cee6 1e40 08c2 b53f e66c 0d40
00000330: 5796 0640 b4ae 2f40 f0da 0f40 ca4a 7c3f
00000340: cd16 b43f 4124 813e f176 d63f 416e e13f
00000350: 72c2 943f 88e1 7b3f 5de8 cd3f 92b5 1d40
00000360: 33a5 7340 45ba 133f 857f 1140 63b7 0040
00000370: 2e87 4e3f 8c0d 303f a3a2 a940 2ed3 533f
00000380: 5e2f e83f a922 2140 9dcf c43f ba5c 883f
00000390: 0f70 4840 891a 3940 a165 4640 6a46 9b40
000003a0: 1b45 3740 f502 5340 3408 0041 dff3 1040
000003b0: 101d 7940 e8b5 8440 bb13 2240 4e08 c43f
000003c0: 23c0 a040 4a2b b13f 2e9c 4340 6208 943f
000003d0: edcf b83f 2511 0040 8d1b 4640 258e a43f
000003e0: f695 1d40 e6c4 d23f 1b9a 0c40 d749 9f3f
000003f0: d570 613f f646 0b3f 0db7 043f 9aa2 953e
0.62457526 1.1008978 0.7982093 0.39028093 0.2235393 0.13794899 0.47415304 0.74905425
2.0586598 1.4021169 0.10782229 0.49889553 0.46764204 0.8638156 1.5931102 1.7701398
1.3630252 1.251367 0.7083233 1.6298226 1.2915572 2.0047915 0.4726814 0.56178564
1.0083841 2.2574022 2.0341084 1.7676528 0.5076568 0.43521112 0.42482898 1.558464
1.1097866 0.8728277 0.6781858 0.6259704 1.7245818 4.9408803 0.72680897 1.149367
0.6621221 0.18694687 1.2236655 1.4293299 1.9954107 0.31505397 1.20118 0.81439793
2.2482107 4.206164 1.3926617 2.5461266 1.7750264 2.901243 2.564015 1.9056212
1.281022 2.302492 2.0617905 0.8701821 3.9893997 2.221516 1.208354 4.132926
2.7700117 3.6135488 1.7405968 1.5083262 0.585475 1.3360552 1.0326165 1.1604688
6.558539 3.3524506 2.4142857 0.94145644 0.9037805 1.3999667 6.253876 5.2607536
1.9123603 2.0830965 1.7956425 1.968556 9.040734 6.705889 3.2322211 3.8192823
1.763669 1.6426533 6.5463905 3.7152803 2.2436285 3.3131254 1.9299783 1.3579473
5.7256446 2.439231 1.5406007 2.064682 1.4694198 1.0031557 1.6356325 1.3080025
1.1205813 0.96967226 1.0104839 0.6608336 0.736794 0.9226289 0.613237 0.93022484
0.84616834 1.3875371 1.3010932 0.31974176 0.47722828 0.8517077 1.1518459 2.098617
0.51503193 0.2510922 1.1346834 1.2788869 0.9548973 2.144756 1.2809298 0.513545
2.3370764 2.0545115 2.127641 3.0278096 0.81979644 0.44949898 1.6528022 1.8233981
1.7071178 2.9115803 0.57772446 1.0116308 1.6750197 0.9575075 1.189774 0.96347237
1.35889 0.7387763 0.7102386 0.09778845 0.19315818 0.04069663 1.3160508 0.777801
0.9613857 0.1204421 0.1885536 0.41392094 3.1034408 1.5875108 1.4364392 0.7353157
0.84543157 1.566996 3.538689 2.5309803 1.1432357 1.9796447 0.7732242 1.0064999
2.897016 1.1788193 1.3042058 2.9767113 0.72569436 0.5825722 1.9892967 0.65964603
1.4844483 0.7072753 0.9447289 0.3986962 1.1008323 1.706807 1.2974632 1.5249786
1.0600915 0.15519315 0.8746115 3.1034126 2.5248306 1.6708571 1.2332994 0.1914803
3.0735905 1.1253028 1.1285022 0.24784294 1.0200412 0.49976036 1.9821473 1.2932612
2.3976834 2.4828372 1.4199839 2.2097716 2.102926 2.745038 2.247738 0.9855162
1.4069458 0.25222972 1.6755048 1.7611772 1.162184 0.9839101 1.6086537 2.4642072
3.806958 0.577061 2.2734082 2.011193 0.8067502 0.6877067 5.301103 0.8274411
1.8139455 2.5177405 1.5375859 1.0653298 3.1318395 2.8922446 3.099953 4.8523455
2.8635929 3.2970555 8.002003 2.2648847 3.8923988 4.1472054 2.5324543 1.5315034
5.023454 1.3841336 3.0564075 1.1565058 1.4438454 2.0010464 3.0954316 1.2855879
2.462278 1.6466339 2.1969059 1.2444409 0.88062793 0.5440515 0.51841813 0.29225618

exp_avg f4 [20]
00000000: 03af 89be 7f65 9f3e 660e e1bd 6c9b adbc
00000010: b273 ac3d d917 af3d 9fea 953e ea91 0cbe
00000020: ab85 de3d 96b0 4abe dc03 d5bd 9a57 4ebe
00000030: 094b 19be 2463 9c3d 9ff9 e6bd 9b8e babe
00000040: e823 2c3e 16d1 3b3e a063 76bc 467c cf3d
-0.26891336 0.31132123 -0.109890744 -0.021192275 0.08420505 0.085494705 0.29280564 -0.13727537
0.10865339 -0.19793925 -0.10401127 -0.20150605 -0.1497003 0.07636097 -0.1127808 -0.36436924
0.16810572 0.18341479 -0.015038401 0.10131125

exp_avg_sq f4 [20]
00000000: 57a2 5440 e175 0841 f8e6 8340 ac88 f840
00000010: 39b8 1340 5fc5 1440 b076 e540 de12 1a41
00000020: 7dfd 0640 fbb8 903f 2592 5840 d850 da40
00000030: b137 2240 ec00 0240 fab7 8440 6b57 2741
00000040: 970d 2640 1c70 7640 7dda b240 024e 9540
3.3224084 8.528779 4.1219444 7.7666836 2.308119 2.3245466 7.170738 9.629606
2.1092217 1.1306452 3.38392 6.8223686 2.5346491 2.0313063 4.147458 10.458842
2.5945795 3.8505926 5.589171 4.6657724

exp_avg f4 [50, 20, 6, 6]
00000000: 98ff 86b8 2292 91b9 a23d 1fbb 75fd 9fba
00000010: 80f6 85ba b434 a639 c125 8239 40bf c4b9
00000020: 0e50 8fbb c5a9 6bbb defd 11bb fcde 2f39
00000030: 7eae cfb8 9c70 8dba 2275 69bb 083e 90bb
00000040: 07db 6abb ead7 3c3a 1a9f 12ba 5ad3 faba
00000050: 4289 87bb 4f36 22bb 3744 9fba bc5c 853a
00000060: 9e5a 1cbb 11f0 6e39 6ace 1bbb 1274 05bb
00000070: 65b0 4bb9 b4da a43a d353 21bb 6e64 eeb9
00000080: 7017 4fbb c08c cc38 44e0 5739 dfc1 55ba
00000090: 49ad 00bb e8a2 ce37 99f1 80ba fcf1 00bb
000000a0: 4f0a 34bb 35c4 7ebb 4d64 df38 1867 02ba
000000b0: 602c 0d3b 0848 23b9 8c84 5abb 7f9d a5bb
000000c0: 0fff 14bb 0df2 43ba 2a23 b6ba 280e 1dbb
000000d0: 4270 afbb f70a a1bb aa62 cfba 36e5 65bb
000000e0: 029d 0ebb 8c90 b3ba bc72 0dbb ff14 89bb
000000f0: 7c10 a339 5c0b 9dba cccc 0eba 5f88 65bb
00000100: 742b 5bbb 5eee d1ba e3d1 24bb e635 4abb
00000110: da4f 4eba 25ec b7ba 8ccd 42ba 807e 6138
00000120: 7659 3fba 4d95 57ba b213 30bb 7fef daba
00000130: f698 bf3a 1c80 b7ba 4286 b13a be12 10bb
00000140: 1726 c6bb bbd6 87bb 08a7 03bb 122c a3ba
00000150: f81c 87ba a565 50bb a83c 77bb 9041 a7ba
00000160: aa6c 34bb 4e34 49bb 1220 a1ba 4ad9 12bb
00000170: 7884 26bb 5026 2e3b 3080 c73a ba7f f33a
00000180: 1084 e7b9 aa90 b23a 8c37 f53a 1f2c 9c3b
00000190: 2162 cb3a e409 ea3a 0cca 94b9 88b7 183b
000001a0: 3ef1 c33a 74d8 713b 074c 163b 5929 f03a
000001b0: 7e5c adba 1903 a4ba 5ad1 dfba 9023 a439
000001c0: c0b1 8bba 3a71 6ebb 326f 46bb 4773 38ba
000001d0: 309e 7a39 5e3b deba 54ad 0d3a 553d 68bb
000001e0: 9a80 2ebb 220c fc3a 39dc e43a 5561 cb39
000001f0: ba8d 013a e220 7fbb 6859 8739 f2e0 a43a
00000200: 14ec 9c3a 645f 5dba d892 8b3a 9469 45bb
00000210: d244 103b 029b d33a 61f8 a03a 1f8d beba
00000220: 5c8f f939 8a98 c5ba c529 1eba 5563 393a
00000230: 0c78 54ba c2d4 67ba 1457 9db9 0527 06bb
00000240: 9cc7 bab9 a50c 803a 6428 92ba 9958 a5ba
00000250: 6c9f 0d3a 6d08 c3ba 70de f7b9 d82d b7ba
00000260: bbcf 1ebb 85eb 2abb 3cd4 053b 8437 323a
00000270: bd8f d83a 825c c03a 5df1 583a dca0 e7ba
00000280: 0cd2 4b39 fbea 213a 37a7 af3a 9b25 853a
00000290: 2b7c 5b3b 2442 f0b9 86a8 843a 28e9 1f3a
000002a0: d334 1fbb c0fb 283a 148f a93b 6684 ae3a
000002b0: 57b0 1a3a de0c b439 5a53 9aba 2c68 98ba
000002c0: 7fa5 cd39 1f88 9e39 fb32 273a f60d ed39
000002d0: 2056 9637 58c5 d2b9 5792 96ba dd92 61bb
000002e0: c9e5 85ba ab5b 92ba 1836 c9ba 97da 40bb
000002f0: 9f28 dfba 5a0a 40bb 8a2f d13a 095b f23a
00000300: 21ce 07bb f0f1 5f39 26ec 6b3b a467 d039
00000310: 7cd9 083b c6bd 29ba fc77 c8ba 08f6 e3b8
00000320: 5c30 703a 60a1 d4b9 6b25 2b3a 9891 beba
00000330: f834 84ba e13e 803a 3ce8 dfb9 08c1 97bb
00000340: 2fd3 38bb 8d79 8cbb 1499 0dbb ed08 2fbb
00000350: 8d5a 2cbb e0cb 5cbb 44ea 143b 64f9 753b
00000360: f655 41bb 922c c6bb 7e6b 51bb 3726 49ba
00000370: 37bc 773a c49b 31ba ee74 49bb 2849 6c39
00000380: 08e8 bf3a 5ace 81ba 77e6 12b9 cd31 2dbb
00000390: 9959 13bb 0c28 91b9 f0ef 19b8 b50d 6ebb
000003a0: 21f5 143b 6cd6 87ba 79cb 18ba 11da bdba
000003b0: dcb9 96ba cadd 41bb c0d8 31b8 00fc ccb7
000003c0: f441 a3ba 784d c0bb 786e 1bba 888c b3b9
000003d0: d505 753b eacd 693b 2080 793a 522f ca39
000003e0: 04eb 803b ee20 6fba 31ec 1e3a b452 9e39
000003f0: fa1b d4b9 5a02 583a 68d0 b4b8 c3a1 abba
-6.437226e-05 -0.00027765433 -0.002429821 -0.0012206273 -0.0010220557 0.00031701254 0.0002482366 -0.00037526526
-0.004373557 -0.0035959345 -0.002227656 0.00016772369 -9.903031e-05 -0.0010791006 -0.0035622795 -0.004401926
-0.0035836117 0.00072038046 -0.0005593166 -0.0019136474 -0.0041362355 -0.0024751609 -0.0012151067 0.0010174732
-0.0023857723 0.0002278688 -0.0023774155 -0.0020363373 -0.000194253 0.0012577386 -0.0024616614 -0.00045469723
-0.0031599663 9.753695e-05 0.00020587543 -0.0008154194 -0.0019634536 2.4632973e-05 -0.0009837627 -0.0019675484
-0.0027471965 -0.0038874273 0.00010652151 -0.00049744686 0.0021541342 -0.00015571725 -0.0033343164 -0.0050541754
-0.0022735035 -0.0007474728 -0.0013895978 -0.0023964737 -0.0053539583 -0.004914637 -0.0015822251 -0.0035079247
-0.0021761064 -0.0013699695 -0.002158328 -0.004183411 0.00031102065 -0.0011981535 -0.0005447387 -0.003502391
-0.0033442648 -0.0016016474 -0.0025149516 -0.003085488 -0.0007870175 -0.0014032169 -0.00074311416 5.3761993e-05
-0.00072994025 -0.00082238467 -0.0026867208 -0.0016703455 0.001461773 -0.0013999972 0.001354404 -0.0021983827
-0.006047021 -0.004145471 -0.0020088572 -0.0012449047 -0.0010308316 -0.0031798866 -0.0037725363 -0.0012760628
-0.002753059 -0.0030701342 -0.0012292883 -0.0022407346 -0.0025408547 0.002657313 0.0015220698 0.0018577494
-0.00044158148 0.0013623436 0.0018708571 0.004766002 0.0015516916 0.0017855731 -0.00028379296 0.0023302753
0.0014949215 0.0036902698 0.00229335 0.001832287 -0.0013226417 -0.001251313 -0.0017075941 0.00031307014
-0.0010657832 -0.0036383406 -0.003027868 -0.00070362206 0.00023900787 -0.0016954949 0.0005404551 -0.0035436947
-0.0026626945 0.001922969 0.0017460651 0.00038791695 0.00049420784 -0.0038929512 0.0002581582 0.0012579246
0.0011972212 -0.0008444695 0.0010648621 -0.0030122744 0.0022013676 0.0016144218 0.0012281054 -0.0014537907
0.00047599792 -0.0015075367 -0.0006033446 0.00070719916 -0.00081050466 -0.0008843654 -0.00030010252 -0.0020470035
-0.00035625405 0.0009769393 -0.0011150953 -0.0012614905 0.0005402479 -0.001487983 -0.0004727724 -0.0013975454
-0.0024232704 -0.0026080322 0.002042069 0.00067984336 0.001652233 0.0014676007 0.0008275712 -0.0017671841
0.00019437837 0.00061766774 0.0013401274 0.0010158302 0.0033490758 -0.00045825646 0.0010121025 0.00061001116
-0.002429296 0.0006446205 0.005174527 0.0013314604 0.00059009105 0.00034341862 -0.0011774108 -0.0011627725
0.0003922395 0.00030237527 0.0006378141 0.00045214564 1.7921499e-05 -0.00040201354 -0.0011487704 -0.0034419813
-0.0010215576 -0.0011166235 -0.0015351204 -0.0029427165 -0.0017025656 -0.0029303045 0.0015959602 0.0018490265
-0.0020722228 0.00021357066 0.003599891 0.0003975007 0.0020881584 -0.0006475117 -0.0015294547 -0.000108700304
0.00091624795 -0.00040556025 0.0006528708 -0.001453924 -0.0010086587 0.0009784364 -0.00042706903 -0.0046311654
-0.0028202047 -0.004286951 -0.0021606134 -0.00267082 -0.002629909 -0.0033690855 0.002272264 0.0037532682
-0.00295007 -0.0060477937 -0.003195494 -0.0007673236 0.00094503484 -0.0006775225 -0.0030739862 0.00022533967
0.0014641294 -0.0009903417 -0.000140095 -0.0026427389 -0.0022483824 -0.00027686392 -3.67015e-05 -0.0036324088
0.0022729116 -0.0010363585 -0.00058286596 -0.0014484545 -0.0011499482 -0.002958166 -4.2401953e-05 -2.4436042e-05
-0.0012455569 -0.00586861 -0.0005929242 -0.00034246244 0.003738751 0.0035675713 0.00095176883 0.000385637
0.003934266 -0.00091220334 0.0006062417 0.00030197727 -0.00040456635 0.00082400965 -8.6218875e-05 -0.0013094473

exp_avg_sq f4 [50, 20, 6, 6]
00000000: f1be 2239 feed ab39 cf95 2939 d1aa cf38
00000010: 0446 5739 395f 0239 7278 8639 8bbf c239
00000020: 9c59 9b39 1c48 7a39 2c00 8339 34bd 1f39
00000030: 6e40 2339 b5f9 db39 181c ea39 0d80 9339
00000040: 5082 b939 0426 5139 5720 663a 14d8 d739
00000050: 2619 9e39 8d13 9339 5528 093a 4c89 6d39
00000060: 21b0 953a c49a 023a e2d5 c639 1a2b b239
00000070: a67f ef39 e7d5 5e39 08da ed39 22dd 263a
00000080: 95ab 243a d96a a339 4194 d139 1382 6f39
00000090: 9807 ad39 e9bd a839 6454 7c39 212b 8039
000000a0: 2a0f a439 5f74 4439 c53d 8639 3679 7539
000000b0: 912c a839 7695 8439 6509 cc39 845c 9139
000000c0: b23d ee39 b758 8c39 18ec ee39 32f6 ee39
000000d0: 8165 fa39 d697 ac39 dac0 8839 8077 ed39
000000e0: d31c 193a 3518 093a 5bc4 4e3a b298 ff39
000000f0: 8eab 5a3a 6352 2f3a f322 5d3a e6bd 333a
00000100: 5bc4 8f3a f73b 063a 0a2a 1c3a c704 5d3a
00000110: afe3 023a ef40 5c3a c444 a03a 0b0c 5d3a
00000120: 5165 a839 47bf c939 2016 f339 7688 aa39
00000130: ad9b 4a39 a777 8f39 f199 8e39 af56 9639
00000140: 7f9a ea39 7b79 da39 6be6 8b39 07ba 6b39
00000150: 185a e039 60b1 a739 4a9d ee39 c78b f339
00000160: 8f5a de39 ea37 8b39 c1ae 623a 8651 103a
00000170: ef19 603a 804d 1f3a 0c38 d339 318e b639
00000180: 5ee1 ad3a b0ba 943a 0c6d 893a 23ba 3d3a
00000190: fc13 cf39 9545 c339 6db7 993a bb53 d73a
000001a0: 09b4 bc3a d13b 183a aa53 c539 9610 c439
000001b0: 2bde 063a 8511 6339 63c4 c539 13cd b239
000001c0: cae4 b439 fcbe 9939 94b9 db39 84d8 a739
000001d0: 4859 9f39 1a40 ed39 c46d d539 6175 bd39
000001e0: 13f3 1d3a 2b9e b839 b717 bf39 1854 fd39
000001f0: d1ea 0e3a fc77 dd39 82e5 7b3a 7f36 103a
00000200: eabe da39 6cfa 5b3a a48a 073a 56a6 0e3a
00000210: 386d dc39 2ab6 023a 2677 1e3a 67ab 1f3a
00000220: 26b6 de39 1f6d c839 c129 283a ed56 003a
00000230: 1f39 613a ef75 803a f66a 4c3a 6e2f d239
00000240: f7e4 bf39 a17c 9839 c18b e539 8b5d 5039
00000250: 5018 af39 7e11 4d39 e877 0b3a 6bbd 113a
00000260: ee34 333a e520 9b39 c451 8b39 491c a739
00000270: 74bc 813a 76c5 463a b7e8 7d3a 32c4 ee39
00000280: 7695 be39 4d79 5739 dea3 a03a f7ea 973a
00000290: 9497 753a b53c 0c3a e63f 9339 ec87 3239
000002a0: 04d5 103a 0cc6 673a 822c 3c3a 1424 b839
000002b0: 4ebc 5339 29dd 8539 aa7c e239 51d0 833a
000002c0: b0c2 e039 39d3 5739 85ef 8f39 bb28 8539
000002d0: 8742 c139 a2bf ab39 a8fb c439 dc4f a139
000002e0: 7a7d b039 c812 8739 460b 043a 42f4 e039
000002f0: 023a f539 77d5 e739 550a b039 dc50 8739
00000300: c770 d139 0181 303a c121 283a 6927 e439
00000310: 4392 d639 c577 ea39 3104 793a 75a5 3f3a
00000320: f464 3b3a 55f2 fc39 9635 003a 4726 fa39
00000330: 9ec5 363a 74c7 9b39 3985 0b3a 909d 3d3a
00000340: b690 1f3a 6b32 c239 6042 0b3a 7eb2 213a
00000350: e7af 523a 4e92 2d3a d832 2f3a 6912 063a
00000360: b1b6 143a c641 9f39 e870 8239 6d31 8839
00000370: 89aa 6039 eaaf 8539 3d52 0f3a f6c0 f539
00000380: 54b0 dd39 1540 c439 5512 d639 614d e839
00000390: bc96 f739 930d 373a 37b8 0d3a 63dc b939
000003a0: 4fc9 e539 718f e139 3ea7 303a 030b 913a
000003b0: 72ab 473a 0cef 473a d04b 013a e778 253a
000003c0: aa19 303a 7ce6 3f3a 5300 363a caf5 063a
000003d0: 26ac 3a3a bfcd 153a c04d 3b3a 4a7a 323a
000003e0: 126f 473a d078 423a 9b0b 2c3a 090d fb39
000003f0: 06b5 4839 e93b 7339 f529 a039 fa84 9a39
0.00015520655 0.0003279298 0.00016172904 9.902346e-05 0.0002053008 0.0001243324 0.0002564821 0.00037145274
0.00029630668 0.00023868721 0.00024986395 0.00015233905 0.00015568893 0.0004195698 0.0004465289 0.0002813343
0.0003538304 0.00019945955 0.0008778623 0.00041168986 0.00030154845 0.0002805259 0.0005232145 0.00022653228
0.0011420288 0.00049821683 0.00037924858 0.0003398292 0.00045680738 0.00021251255 0.00045366609 0.0006365349
0.0006281671 0.0003116939 0.00039974044 0.00022841273 0.0003300279 0.0003218495 0.00024064031 0.00024446196
0.00031291816 0.00018735368 0.00025604494 0.00023410175 0.00032076662 0.0002528836 0.00038916912 0.00027725485
0.00045440864 0.0002676898 0.000455708 0.00045578327 0.00047759342 0.00032919523 0.00026083627 0.00045293197
0.0005840782 0.00052297424 0.00078875356 0.00048751157 0.00083416037 0.0006687997 0.0008435689 0.0006856605
0.0010968553 0.000512063 0.0005957192 0.0008431193 0.0004993034 0.000840201 0.0012227525 0.00084322755
0.00032118944 0.0003848022 0.00046365056 0.00032526598 0.00019322215 0.00027364233 0.00027199046 0.00028674814
0.00044747067 0.0004167071 0.0002668382 0.00022480647 0.00042791734 0.00031984877 0.00045512087 0.00046452714
0.0004241061 0.00026553805 0.0008647256 0.0005505312 0.0008548786 0.0006076917 0.00040286814 0.00034819686
0.0013266017 0.0011347141 0.0010484769 0.00072375144 0.00039497006 0.0003724514 0.0011727639 0.0016428152
0.0014396916 0.0005807253 0.00037637103 0.0003739639 0.00051448 0.00021654934 0.00037721088 0.00034103598
0.00034502737 0.00029324729 0.00041909202 0.0003201404 0.00030393363 0.00045251922 0.00040708308 0.00036136343
0.00060252956 0.0003521306 0.00036448028 0.00048318575 0.00054518605 0.000422418 0.00096090895 0.00055012846
0.00041722442 0.0008391503 0.00051705004 0.0005441656 0.00042043044 0.0004986251 0.0006044976 0.00060909096
0.0004247885 0.00038228274 0.0006414913 0.00048957655 0.00085915806 0.0009800772 0.0007797921 0.0004008966
0.0003660095 0.00029084555 0.00043782408 0.00019871273 0.00033396715 0.0001955684 0.00053202966 0.00055595365
0.0006836195 0.00029588412 0.00026573066 0.00031873796 0.0009898082 0.00075825246 0.00096858613 0.00045541074
0.0003635098 0.00020549186 0.0012255867 0.0011590411 0.0009368595 0.0005349622 0.00028085633 0.00017026038
0.0005524906 0.0008841462 0.0007178263 0.00035122095 0.00020192677 0.00025532514 0.0004319896 0.001005659
0.00042869663 0.00020582684 0.0002745354 0.00025398083 0.00036861395 0.0003275844 0.00037571532 0.00030767813
0.00033662823 0.000257632 0.000503708 0.00042906596 0.0004677326 0.00044218797 0.00033577034 0.00025809451
0.00039947612 0.000673309 0.0006413721 0.00043516912 0.00040926234 0.00044721193 0.0009499221 0.0007310727
0.0007148527 0.00048245737 0.00048907974 0.00047712235 0.0006972196 0.00029712508 0.0005322281 0.00072332565
0.0006086932 0.00037040128 0.000531232 0.000616826 0.0008037076 0.00066212274 0.00066832965 0.00051144377
0.0005672975 0.00030375848 0.00024879654 0.00025976766 0.00021425834 0.00025498803 0.00054672715 0.0004687381
0.0004228378 0.00037431778 0.0004083092 0.0004430814 0.00047223817 0.0006982919 0.00054061733 0.0003545015
0.0004382827 0.00043022216 0.0006738788 0.0011065904 0.0007616795 0.00076268683 0.00049322564 0.00063122663
0.00067176914 0.00073204166 0.00069427973 0.000514832 0.0007120989 0.00057145575 0.00071450695 0.00068083836
0.00076077983 0.0007418515 0.00065630086 0.00047884163 0.00019140923 0.00023196604 0.0003054884 0.00029472244

exp_avg f4 [50]
00000000: f6f0 4cba 0a1f 42ba 15c5 74ba caab 3aba
00000010: 7c12 80ba 86e9 85ba 15b6 30ba a932 1aba
00000020: be95 3eba dc48 89ba 85c9 86ba 2216 60ba
00000030: 2c93 7eba f260 54ba 3cbe d6b9 62e2 df39
00000040: 5f3d a5ba 420f 7fba 0c99 a1ba f6a6 63ba
00000050: 9c67 95ba 4c42 82ba f27e 7eba 745f d3b9
00000060: 14a2 56ba 41ab 16ba 5689 47ba f0f3 84b8
00000070: 6443 5aba 2c7d e7b9 bc14 79ba d60b 0eba
00000080: c0fe 78ba a6e6 81ba 99ba 3d3a f92f 50ba
00000090: 8e64 35ba dbad 21ba 5ea3 c0ba 4a39 9aba
000000a0: a1ed 56ba d231 aa3a ae7b 6bba c5a3 48ba
000000b0: 777c 3dba 072b 5dba 0fe8 0fba ba37 25bb
000000c0: acfb 30ba 59b1 2dba
-0.00078178884 -0.0007405138 -0.0009337229 -0.00071209355 -0.0009771134 -0.001021669 -0.00067409995 -0.0005882183
-0.0007270238 -0.0010473984 -0.0010283446 -0.000854822 -0.00097112614 -0.0008101604 -0.00040958996 0.00042702543
-0.0012606791 -0.00097297516 -0.0012328937 -0.0008684242 -0.0011398676 -0.0009937971 -0.00097082474 -0.00040316174
-0.00081876037 -0.0005747565 -0.0007611712 -6.3396874e-05 -0.0008326082 -0.00044153014 -0.0009501686 -0.0005418634
-0.000949841 -0.0009910658 0.0007237583 -0.0007941719 -0.0006919586 -0.0006167569 -0.0014697125 -0.0011766341
-0.00081988616 0.0012984818 -0.0008982968 -0.0007653798 -0.00072283245 -0.00084368925 -0.00054895965 -0.0025210218
-0.0006751369 -0.0006625853

exp_avg_sq f4 [50]
00000000: 9ca9 e539 4d34 ba39 b882 bf39 e6af ce39
00000010: 1721 0e3a 1ba0 b139 9e6b aa39 f2b6 d639
00000020: c502 bc39 76f7 ae39 b718 b539 32b9 ac39
00000030: b2c6 b839 d3ea c539 d258 bf39 1df8 023a
00000040: a627 b939 2ce7 ac39 dc14 cb39 b9c9 c039
00000050: 1ab1 b639 dcc1 be39 cea9 ae39 aa35 763a
00000060: 6dae 0e3a 7ff1 d339 68bc c739 490a c039
00000070: ddbb b239 74b6 e439 76ba fa39 4a56 aa39
00000080: 3710 da39 877e d339 8d98 c839 a385 bf39
00000090: 5aa5 b439 d479 ce39 0587 c239 1a3d 233a
000000a0: 01fd ae39 8c31 cd39 28d7 b139 6a2d ba39
000000b0: db22 433a bf7f cc39 8c6b b039 51bd bb39
000000c0: 5027 bc39 efe1 af39
0.00043804653 0.00035515652 0.00036527752 0.00039422436 0.0005421801 0.0003387936 0.00032505108 0.00040953566
0.00035860218 0.0003337224 0.00034541424 0.00032944378 0.00035243254 0.00037749726 0.00036496535 0.0004996078
0.0003531549 0.00032978633 0.0003873472 0.0003677139 0.00034845696 0.0003638406 0.0003331438 0.0009392152
0.00054428616 0.00040424985 0.0003809661 0.00036628757 0.00034090775 0.00043623487 0.0004782264 0.00032489217
0.0004159228 0.00040339326 0.00038260632 0.00036529926 0.00034455472 0.0003938215 0.0003710316 0.00062270614
0.0003337637 0.00039137562 0.00033920375 0.0003551052 0.00074438535 0.0003900509 0.00033649465 0.0003580847
0.00035887444 0.00033546935

exp_avg f4 [2, 15]
00000000: aaa2 7dbf 66a3 083f 361b 6840 a43d 11bf
00000010: a6a9 debd b921 c1c0 00e3 5cbd 9d06 07c1
00000020: 5e94 b140 2949 e33f 1da6 fbbf 40d6 383f
00000030: 6510 0440 9ab4 163f 7d0f 0bbd 2086 a8bf
00000040: f8c8 953e 82be d3be 94b4 9dbf 749e a6bd
00000050: 6fac f43b a458 c1be 10e2 ebbd bd73 2bbe
00000060: a4df b23e a1af 45bf bcff 94bf d02c b33d
00000070: 0b47 f0be 9d1b 883d
-0.9907633 0.53374326 3.6266608 -0.5673468 -0.108722016 -6.0353665 -0.05392742 -8.439115
5.549361 1.7756702 -1.9660069 0.7220192 2.0635006 0.58869326 -0.033950318 -1.3165932
0.2925489 -0.41356283 -1.2320733 -0.08135691 0.0074668447 -0.3776294 -0.115177274 -0.1674337
0.3493625 -0.77221113 -1.1640544 0.08748782 -0.469292 0.06645892

exp_avg_sq f4 [2, 15]
00000000: 71da 2144 6e25 1743 b898 e944 44f1 d444
00000010: 4b7e 8743 296c d043 f62c 1844 54e7 0345
00000020: 0f7f 0f44 309e 9c43 0e47 a143 8fa3 d942
00000030: a407 a543 0f35 2942 e218 8640 9b4b 8743
00000040: 2b29 d942 94f3 9c43 abfd bd44 9f85 0943
00000050: 060c c03b 8b53 3e44 e679 bc44 f3ab 7842
00000060: 0ef0 3444 ac92 3a43 52e4 4943 e8cd be3f
00000070: 40fa 9342 2946 b440
647.41315 151.14621 1868.7725 1703.5396 270.98666 416.845 608.7025 2110.458
573.9853 313.23584 322.5551 108.81945 330.0597 42.301815 4.1905375 270.59067
108.58041 313.90295 1519.9271 137.52196 0.0058608083 761.30536 1507.8093 62.16792
723.75085 186.57294 201.89188 1.4906588 73.98877 5.6335645

exp_avg f4 [2]
00000000: 4095 a0bb 2498 01be
-0.0049006045 -0.12655693

exp_avg_sq f4 [2]
00000000: 1b0d 6741 9add 3341
14.4407 11.241602
