scheduler/BaGTI/checkpoints/energy_latencyGNN_1_4_Trained.ckpt (torch, 181535 bytes, 150 tensors)

find.0.weight f4 [64, 64]
0	0x3dbd0efd	0.092313744
1	0x3c7f1575	0.015569081
2	0x3b77c8d7	0.003780892
3	0x3ccf3654	0.02529446
4	0x3d87393f	0.06602716
5	0x3d938481	0.072030075
6	0x3c47b88d	0.012189996
7	0x3be07146	0.0068494407
8	0x3ccf0f96	0.025275987
9	0x3b7e5957	0.0038810575
10	0xbd84c280	-0.064824104
11	0x3c88ab6a	0.0166833
12	0xbba861d2	-0.005138614
13	0x3ccf3478	0.025293574
14	0x3d720d17	0.059094515
15	0x3d2fb70a	0.04289917
16	0x3c3f9b0e	0.011694683
17	0xbc56b50e	-0.01310469
18	0x3ccf269a	0.025286961
19	0x3dba6e1e	0.091030344
20	0x3d9c8ba0	0.07643819
21	0x3c776d7e	0.015101789
22	0xbcae4a88	-0.021275774
23	0x3ccf2a82	0.025288824
24	0xbd970440	-0.073738575
25	0xbdbc4252	-0.09192337
26	0x3c4a76f0	0.0123574585
27	0xbbacba64	-0.005271243
28	0x3ccf304d	0.025291586
29	0xbc99a0d0	-0.01875344
30	0xbd06ccb1	-0.032910053
31	0x3c83978f	0.01606348
32	0xbc3ae619	-0.011407399
33	0x3ccf3cf9	0.025297629
34	0xbcad6733	-0.021167373
35	0xbd1774ce	-0.036976628
36	0x3c96d923	0.018414086
37	0x3b17ee48	0.0023182798
38	0x3ccf0471	0.025270673
39	0xbd847bd5	-0.064689316
40	0xbcfe14cd	-0.031015778
41	0xbd873ce1	-0.066034086
42	0x3de26859	0.11055059
43	0x81b77afc	-6.7400057e-38
44	0x80968c6e	-1.3825701e-38
45	0x017602a0	4.5184947e-38
46	0xbea3f053	-0.3201929
47	0xbe65152e	-0.2237136
48	0xbd63a05e	-0.05557286
49	0x00c14485	1.7748831e-38
50	0x809be53d	-1.4316737e-38
51	0x8092613b	-1.3442862e-38
52	0x3e78fc38	0.24314964
53	0xbd4a9f21	-0.049468163
54	0x3ca3743a	0.019952882
55	0x815d02be	-4.0593257e-38
56	0x819d46ef	-5.7774476e-38
57	0x01506fe3	3.828384e-38
58	0x3cfa0988	0.030522123
59	0x3ddb2ab4	0.10701504
60	0x3ddde053	0.10833802
61	0x81aa05ef	-6.245665e-38
62	0x806555d6	-9.306177e-39
63	0x012d52f4	3.1834598e-38
64	0xbce1880c	-0.027530693
65	0xbc88e9d1	-0.016713055
66	0x3c52146b	0.012822251
67	0xbc78b284	-0.01517928
68	0xbb93efce	-0.004514671
69	0xbd2a73c2	-0.0416143
70	0xbc88eb6a	-0.016713817
71	0x3c52146e	0.012822254
72	0xbc78d50d	-0.015187514
73	0xbbdbb3e5	-0.0067047947
74	0xbd58d28a	-0.05293516
75	0xbc88e97e	-0.0167129
76	0x3c521474	0.012822259
77	0xbc78b1b1	-0.015179084
78	0xbc65f522	-0.014035495
79	0xbd8451f6	-0.06460945
80	0xbc88ea69	-0.016713338
81	0x3c52146f	0.012822255
82	0xbc78b248	-0.015179224
83	0x3c393639	0.011304432
84	0xbd92685a	-0.0714881
85	0xbc88ea55	-0.0167133
86	0x3c52146a	0.01282225
87	0xbc78c62d	-0.015183968
88	0xbb957da6	-0.0045620976
89	0xbc93e60d	-0.018054033
90	0xbc88eb9b	-0.016713908
91	0x3c521479	0.012822264
92	0xbc78b688	-0.015180238
93	0xba95cbe3	-0.0011428561
94	0xbd93d59d	-0.07218478
95	0xbc88eb24	-0.016713686
96	0x3c521470	0.0128222555
97	0xbc78b1e9	-0.015179136
98	0xbc714e3f	-0.014728128
99	0xbc9c9ff1	-0.019119235
100	0xbc88eba9	-0.016713934
101	0x3c52146f	0.012822255
102	0xbc78b209	-0.015179166
103	0xbc66c70f	-0.014085545
104	0x3c9e110a	0.019295234
105	0x3b3f94ca	0.0029232972
106	0xbbff9231	-0.00779941
107	0x0171d16e	4.4414968e-38
108	0x018de41c	5.212254e-38
109	0x0045691a	6.374353e-39
110	0xbd34d90d	-0.04415231
111	0x3cb9efe0	0.02269739
112	0xbdbe1f9c	-0.09283373
113	0x004cd9a0	7.057567e-39
114	0x800405ec	-3.69466e-40
115	0x00d0f32c	1.9189017e-38
116	0xbdb75db7	-0.089534216
117	0xbc148e93	-0.0090671955
118	0xbdcfd50d	-0.10148058
119	0x00e995e6	2.1451444e-38
120	0x803fa86c	-5.846055e-39
121	0x81223d74	-2.979879e-38
122	0xbbd42b79	-0.006474909
123	0x3c22a5d5	0.009927233
124	0xbca8ff9d	-0.020629698
125	0x814e8a3c	-3.7935403e-38
126	0x01ad48a2	6.3654386e-38
127	0x01815ecc	4.7523143e-38
128	0xbe36f641	-0.17867376
129	0x3c63da4d	0.013907027
130	0x3d53427c	0.051577076
131	0xbd266b85	-0.040629882
132	0x3c0e2c61	0.008677573
133	0xbc6d5b94	-0.014487166
134	0x3c80bd1b	0.015715173
135	0x3d017905	0.031609554
136	0xbd26eb1a	-0.040751554
137	0xbde7dad7	-0.11321037
138	0x3d267d35	0.04064675
139	0x3c27c3f4	0.01023959
140	0x3d9fa577	0.07795232
141	0xbd26b12f	-0.04069632
142	0x3d9e0c64	0.07717207
143	0xbdb91559	-0.09037275
144	0x3c4fb123	0.01267651
145	0x3d6fdde1	0.05856121
146	0xbd26b6ce	-0.04070168
147	0x3d81c9ee	0.06337343
148	0xbda9808e	-0.08276473
149	0x3d2603c1	0.040530924
150	0x3cb13793	0.021632945
151	0xbd26c3a2	-0.040713914
152	0xbd918786	-0.07105927
153	0xbe16f769	-0.14742817
154	0x3d220b75	0.039561708
155	0x3d799643	0.060934316
156	0xbd26b08b	-0.04069571
157	0x3d6231ed	0.055223394
158	0xbd3c2a73	-0.04593892
159	0x3cd648d3	0.026157772
160	0x3d668705	0.05628111
161	0xbd26be65	-0.040708918
162	0xbcde2c26	-0.027120661
163	0xbc4f1f88	-0.012641795
164	0x3cf09888	0.029369608
165	0x3d6f1699	0.05837116
166	0xbd26b592	-0.040700503
167	0xbcc4e22f	-0.024033634
168	0x3ebe12e4	0.37123787
169	0xbee41f95	-0.44555345
170	0x3c5ce0dd	0.013481346
171	0x81826d60	-4.7911403e-38
172	0x817fb6da	-4.6967293e-38
173	0x01162428	2.757659e-38
174	0xbc9dc13e	-0.019257184
175	0x3e1cb6ff	0.15304182
176	0xbc690128	-0.014221467
177	0x0120502b	2.9444876e-38
178	0x81acfd52	-6.354632e-38
179	0x814a8a82	-3.7200915e-38
180	0x3ed3cdfa	0.41368085
181	0x3ea7f67c	0.3280524
182	0xbce72d73	-0.028219914
183	0x01792fb5	4.5768305e-38
184	0x8147af88	-3.6676465e-38
185	0x00b9a168	1.7047468e-38
186	0xbe2b1a69	-0.16709293
187	0xbeb4f9bc	-0.35346782
188	0xbd83608a	-0.06414898
189	0x018fcf1e	5.28271e-38
190	0x019ca1bd	5.753743e-38
191	0x81876110	-4.9730446e-38
192	0x3df5e230	0.120060325
193	0x3b831c47	0.0040011737
194	0xbd206501	-0.039158825
195	0x3d081386	0.033221744
196	0x3da19f26	0.07891683
197	0x3c413a2b	0.0117936535
198	0x3b533c82	0.003223211
199	0xbd1d0e62	-0.038343795
200	0x3d07f1c5	0.033189554
201	0xbd928e9e	-0.07156108
202	0x3d2aa04e	0.041656785
203	0x3b838792	0.004013964
204	0xbd1e7bcf	-0.03869229
205	0x3d081c21	0.03322995
206	0x3df7e1e2	0.121036306
207	0x3a472074	0.00075960835
208	0x3b77b426	0.0037796586
209	0xbd205c0e	-0.03915029
210	0x3d0807ad	0.033210445
211	0xbd714632	-0.058904834
212	0xbc520db5	-0.012820651
213	0x3b75bbe0	0.0037496015
214	0xbd1f45ec	-0.038885042
215	0x3d080bbd	0.03321432
216	0x3dbef301	0.09323693
217	0x3d525774	0.051352933
218	0x3b5d3fc5	0.0033759933
219	0xbd1ece53	-0.038770985
220	0x3d07ebd4	0.033183888
221	0xbd0774fc	-0.03307055
222	0x3dc24687	0.09486108
223	0x3b85b67a	0.004080591
224	0xbd1f307e	-0.038864605
225	0x3d081624	0.03322424
226	0x3e0159b3	0.12631874
227	0xbccdfadb	-0.025144031
228	0x3b741229	0.003724227
229	0xbd1ea2d7	-0.038729515
230	0x3d080a88	0.03321317
231	0xbd4c6145	-0.04989745
232	0x3cceead1	0.025258454
233	0xbf038910	-0.51381016
234	0x3e22e847	0.1590892
235	0x815545c8	-3.9171987e-38
236	0x01597f5d	3.9947984e-38
237	0x800de9c8	-1.277726e-39
238	0x3e68cbcf	0.22733997
239	0x3eca4af3	0.39510307
240	0x3c72a7a2	0.014810475
241	0x019db3d2	5.793072e-38
242	0x818ad52e	-5.099909e-38
243	0x8182bff4	-4.80299e-38
244	0xbf3f1231	-0.7463713
245	0xbf7546be	-0.9581107
246	0x3d925d06	0.07146649
247	0x807bfcc4	-1.1386441e-38
248	0x0181164e	4.741912e-38
249	0x816cab42	-4.3469226e-38
250	0xbeb219c5	-0.34785286
251	0xbea052d0	-0.3131318
252	0x3dc6bbb9	0.09703774
253	0x01343644	3.3099712e-38
254	0x0039d16c	5.30975e-39
255	0x010f5044	2.632254e-38

find.0.bias f4 [64]
0	0x3d18fa9e	0.037348382
1	0xbd976c51	-0.073937066
2	0xbe00b7f6	-0.12570176
3	0x3c964224	0.018342085
4	0x3d109354	0.035296753
5	0x3b35f9b9	0.0027767255
6	0xbd8d820f	-0.06909572
7	0xbd8733d3	-0.066016816
8	0x3ba73b29	0.005103488
9	0xbc944d56	-0.018103283
10	0xbd24646a	-0.040134825
11	0x3d1b7fa5	0.03796353
12	0xbc5df77f	-0.013547777
13	0x3e02d54a	0.12776676
14	0x3d23adea	0.03996078
15	0xbd75af01	-0.05998135
16	0xbd8ccc6e	-0.06874929
17	0x3c85a0eb	0.016312083
18	0xbdab5bdc	-0.0836713
19	0xbcba7361	-0.022760095
20	0x3dc576d2	0.09641804
21	0x3e09ff7c	0.13476366
22	0xbceccdab	-0.028906664
23	0xbd298a7f	-0.041391846
24	0x3e01637b	0.12635605
25	0x3d58619c	0.052827463
26	0xbd5a0668	-0.053228766
27	0x3dd785d9	0.10523576
28	0x3d388f90	0.045058787
29	0x3cc92a58	0.024556324
30	0xbd832d0e	-0.06405078
31	0x3c570140	0.013122857
32	0x3d870282	0.06592275
33	0xbd83ccb1	-0.06435526
34	0x3daa9333	0.08328857
35	0x3d7e8dd6	0.062146984
36	0xbd19cfdc	-0.037551746
37	0xbc108b14	-0.008822221
38	0xbb9604ab	-0.004578193
39	0xbe1b0c09	-0.1514131
40	0xbd159ac5	-0.036524553
41	0xbd93e338	-0.07221073
42	0xbd64f2de	-0.05589568
43	0xbe2e5c7f	-0.17027472
44	0xbc134357	-0.008988223
45	0xbdaf6ee1	-0.0856607
46	0xbc5f8db7	-0.013644627
47	0xbd187852	-0.03722412
48	0xbd2bc504	-0.041935936
49	0xbd49fc49	-0.049312863
50	0x3d62cfaa	0.055373825
51	0xbd470c7f	-0.0485959
52	0xbc1e6a94	-0.009668965
53	0xbcb6bcb5	-0.02230678
54	0xbcc4f19c	-0.02404099
55	0xbc9c1f05	-0.01905776
56	0xbdc4773e	-0.09593056
57	0xbcfc0575	-0.03076432
58	0xbd37147c	-0.04469727
59	0x3c989372	0.018624995
60	0x3de53916	0.11192529
61	0x3dcf45f6	0.10120766
62	0x3b9ab454	0.004721204
63	0x3d6399c8	0.05556658

find.2.weight f4 [64, 64]
0	0xbdd5adef	-0.10433566
1	0xbcd9c809	-0.026584642
2	0x3e247ff3	0.16064434
3	0x3baae12b	0.0052148304
4	0xbc269ea9	-0.0101696635
5	0xbc2ff157	-0.010738692
6	0xbe26ae66	-0.16277465
7	0xbd10ffca	-0.03540019
8	0x3ca51409	0.020151155
9	0x3d076e8c	0.03306441
10	0x3d339b75	0.043849427
11	0xbd48ad47	-0.048993375
12	0xbc128c15	-0.008944531
13	0xbd7fc126	-0.06244006
14	0x3e498db2	0.19682959
15	0x3d1d21a3	0.038362157
16	0x3c7bfd53	0.015380221
17	0x3d0044fc	0.03131579
18	0xbc19b8dc	-0.009382453
19	0x3c3045a2	0.010758789
20	0xbdb6ebc5	-0.08931688
21	0xbceb69f9	-0.028737055
22	0x3c4c591e	0.012472419
23	0xbcfe3229	-0.031029778
24	0xbc2366be	-0.009973226
25	0x3d10beb5	0.035338122
26	0xbc0eb367	-0.008709765
27	0x3bcbd427	0.006220359
28	0xbdc5a93c	-0.096514195
29	0xbb30b045	-0.0026960534
30	0xbd98bebe	-0.07458256
31	0xbcf29442	-0.02961171
32	0x3d0c8aad	0.03431194
33	0x3d6a1763	0.05715121
34	0xbe1f3a5c	-0.15549606
35	0xbd03c9e2	-0.032174952
36	0x3ca4a4c3	0.020098096
37	0xbc70b60d	-0.014691842
38	0xbc952bab	-0.0182093
39	0xbde7935f	-0.11307406
40	0xbcb3f272	-0.021966193
41	0xbe00658e	-0.1253874
42	0x3dd3b50d	0.10337267
43	0xbdd38f66	-0.103300855
44	0xbd8a0003	-0.067382835
45	0xbd6e0367	-0.058108713
46	0xbcf15931	-0.029461475
47	0xbe282f9f	-0.16424416
48	0xbc2763d6	-0.010216674
49	0xbdbb23a9	-0.09137661
50	0x3bfeecec	0.007779708
51	0xbcced6d6	-0.025248926
52	0xbda74d03	-0.08168986
53	0xbd664dce	-0.056226544
54	0x3d27f66f	0.0410065
55	0xbc1b7cc0	-0.009490192
56	0x3bdfde38	0.0068319105
57	0xbce6979b	-0.028148463
58	0xbcec3c23	-0.02883727
59	0x3ca383c5	0.019960294
60	0x3e2a5b33	0.16636352
61	0xbd1adea6	-0.03780999
62	0x3d7e1123	0.06202806
63	0xbd81b793	-0.06333842
64	0xbc441978	-0.011968963
65	0xbc622186	-0.013801938
66	0xbeffda7f	-0.49971387
67	0x3e911667	0.28337404
68	0xbb89c4df	-0.004204377
69	0x3cd280ae	0.025696125
70	0xbe6882f9	-0.22706212
71	0xbc8eb913	-0.017422235
72	0x3b4fe22b	0.00317205
73	0x3e5c42ba	0.21509829
74	0xbe9f8f40	-0.3116398
75	0xbe8d8e6a	-0.27647716
76	0x3c577622	0.013150724
77	0x3d55260e	0.052038245
78	0x3e1f50bf	0.15558146
79	0x3b6bc2c5	0.0035974246
80	0xbce0dc64	-0.02744884
81	0xbcd73feb	-0.026275596
82	0x3d7a7d4b	0.061154645
83	0xbcb39aed	-0.02192446
84	0x3db4f9d1	0.08836711
85	0xbe1bac68	-0.15202487
86	0xbcc32f4f	-0.02382627
87	0x3a9d7e0c	0.0012015714
88	0xbe8d8613	-0.27641353
89	0xbeabddf0	-0.33567762
90	0x3b760e40	0.0037545115
91	0x3d8dc65f	0.06922602
92	0x3d400315	0.04687794
93	0xbd112459	-0.035435054
94	0x3d005408	0.03133014
95	0x3b3b8733	0.002861452
96	0x3d812d37	0.06307452
97	0x3d74d79c	0.059775934
98	0x3d64ea37	0.055887427
99	0x3da2fee3	0.07958772
100	0x3c117541	0.008878053
101	0xbc7adc66	-0.015311336
102	0x3da2e7c7	0.07954364
103	0x3cced24b	0.02524676
104	0xbcd9428c	-0.02652099
105	0x3d85b7ff	0.06529235
106	0x3d290bc3	0.041270982
107	0x3c1dfa72	0.00964223
108	0x3ce18a83	0.027531868
109	0x3d7e9ded	0.06216233
110	0xbc6c3703	-0.014417413
111	0x3daf479f	0.085585825
112	0x3c201aae	0.009771986
113	0x3d88945d	0.06668923
114	0x3d73bbb7	0.05950519
115	0x3b843274	0.004034335
116	0xbe03acb9	-0.12858857
117	0x3d3eb886	0.046562694
118	0xbcb9d5c6	-0.022684943
119	0xbce1197f	-0.027477978
120	0x3d217334	0.039416507
121	0x3b9b8fe0	0.004747376
122	0x3c9b1c7a	0.018934477
123	0x3cfe8518	0.031069323
124	0x3d7314d6	0.059346043
125	0xbdfc51a6	-0.12320261
126	0xbcddfadb	-0.027097156
127	0x3d11476c	0.035468504
128	0x3d3c00d6	0.045899235
129	0xbd2a2f25	-0.041548867
130	0xbf25ce24	-0.6476767
131	0x3e8c621f	0.2741861
132	0xbd00f136	-0.031480037
133	0x3c197235	0.009365608
134	0xbebdac36	-0.3704545
135	0xbd272810	-0.04080969
136	0xbcce557a	-0.025187243
137	0x3e4a1cdc	0.19737571
138	0xbe91f384	-0.285061
139	0xbda0b5bc	-0.07847163
140	0x3b16596e	0.0022941488
141	0x3d96603e	0.073425755
142	0x3e557b75	0.20847876
143	0x3cae5154	0.021279015
144	0xbd54839c	-0.051883325
145	0xbd761b76	-0.060084783
146	0x3ce4cb3e	0.027928945
147	0xbcb02fa0	-0.021507084
148	0x3da33948	0.0796991
149	0xbd5e5c60	-0.054287314
150	0x3b232520	0.0024893954
151	0xbcc9d155	-0.02463595
152	0x3c0a5452	0.008442955
153	0xbd97c9df	-0.07411551
154	0xbd1e1d97	-0.038602438
155	0x3da24fc3	0.079253696
156	0xbce6a24f	-0.028153567
157	0xbd31c0a1	-0.043396596
158	0x3d899182	0.067172065
159	0xbcc4b9c2	-0.024014357
160	0x3d804f44	0.06265119
161	0x3d1e5a6e	0.03866046
162	0xbca301e7	-0.019898368
163	0x3d5be3dd	0.053684104
164	0x3c1814c0	0.009282291
165	0xbcf1106b	-0.029426774
166	0x3caec9c6	0.021336447
167	0xbdaeffdc	-0.08544895
168	0xbd0b2246	-0.033968233
169	0x3cd25ee1	0.025680007
170	0x3d2bae1e	0.041914098
171	0xbd12673c	-0.035742983
172	0x3d2a749f	0.041615125
173	0xbc85868a	-0.016299505
174	0xbcf69dee	-0.030104604
175	0x3d0e7e75	0.034788568
176	0xbc6bbfd6	-0.014388999
177	0x3d1586ce	0.036505513
178	0x3db41932	0.08793868
179	0xbd2140d5	-0.03936847
180	0xbd18e489	-0.037327323
181	0x3d202fcf	0.039108094
182	0xbd4523c6	-0.04812982
183	0xbd218ee9	-0.03944293
184	0x3d79ccf5	0.060986478
185	0x3ca5d539	0.020243274
186	0xbbffea6d	-0.007809928
187	0x3cc4249f	0.023943244
188	0x3d896528	0.06708747
189	0xbd8fc7cb	-0.07020529
190	0xbd4edd51	-0.050504033
191	0x3d9842fa	0.0743465
192	0xbdb2b9cd	-0.08726845
193	0xb980f40f	-0.000245959
194	0xbed65e59	-0.41868857
195	0x3e9265b8	0.2859323
196	0x3c71b67d	0.014752981
197	0x3b4728a1	0.0030389207
198	0xbe67bd8d	-0.22630902
199	0xbc6205b1	-0.013795302
200	0xbd1349eb	-0.035959166
201	0x3e667394	0.22505027
202	0xbe8a41e2	-0.2700339
203	0xbe4c13d6	-0.19929442
204	0x3c3c4016	0.011489889
205	0x3c77d8ce	0.015127374
206	0x3e18cc30	0.14921641
207	0x3bbf02ec	0.0058292057
208	0xbd3ce246	-0.04611423
209	0xbcc47c29	-0.023984985
210	0x3c8f05f1	0.017458888
211	0xbca64fe3	-0.020301765
212	0x3d98ecb5	0.07467023
213	0xbdf69818	-0.12040728
214	0x3c8c6176	0.017136317
215	0xbb29b471	-0.0025894905
216	0xbe26f0e8	-0.16302836
217	0xbe74e298	-0.23914564
218	0xbc273a6f	-0.010206803
219	0x3c8afa23	0.016964978
220	0xbd691434	-0.056904033
221	0x3c8faf3b	0.017539611
222	0x3d02b284	0.031908527
223	0x3ca4cd1f	0.02011734
224	0x3d1005b5	0.035161693
225	0x3d4277f9	0.047477696
226	0xbd373439	-0.044727538
227	0x3d0952a6	0.033526085
228	0x3bdd8d64	0.00676124
229	0xbc0e8349	-0.008698293
230	0x3d34b0f9	0.044114087
231	0xbde0d3cd	-0.10977898
232	0x3b4b42d4	0.0031015174
233	0xbd00352b	-0.031300705
234	0x3d045466	0.03230705
235	0xbd8c19b9	-0.06840844
236	0xbce29126	-0.027657103
237	0x3c3ceadf	0.011530607
238	0xbc35450f	-0.011063828
239	0xbca2fa25	-0.019894669
240	0x3bfb0189	0.007660095
241	0xbca30d84	-0.019903906
242	0x3c0e45b2	0.008683609
243	0xbb5e2f4b	-0.00339027
244	0xbd382ad3	-0.044962715
245	0xbcc18dc5	-0.023627171
246	0xbd3eea86	-0.046610378
247	0xbc68ea5d	-0.014216033
248	0x3d845257	0.064610176
249	0xbc1279b6	-0.008940151
250	0xbbcf682c	-0.006329557
251	0xbb29e6c9	-0.0025924912
252	0x3d93cc52	0.072167054
253	0xbdd30eea	-0.10305579
254	0xbcd2a86a	-0.025715072
255	0x3cddc171	0.02706978

find.2.bias f4 [64]
0	0x3daa1dba	0.08306451
1	0xbd2052a7	-0.039141323
2	0x3d0edef5	0.034880597
3	0x3c0c5ff3	0.008567798
4	0x3e03d327	0.12873517
5	0xbd79aaf2	-0.06095404
6	0x3e4b00f7	0.19824587
7	0x3e1115a7	0.14168416
8	0xbd9a7f8c	-0.07543859
9	0xbcf32c1c	-0.029684119
10	0x3d16cf3b	0.036818724
11	0xbc565acc	-0.013083171
12	0x3d204ce9	0.039135847
13	0xbc0c57e8	-0.00856588
14	0x3e545510	0.20735574
15	0xbcfa01a4	-0.03051836
16	0xbd5b6a77	-0.05356833
17	0x3d27136f	0.040790018
18	0x3dcef480	0.101052284
19	0x3d94d1fe	0.07266615
20	0x3dd86221	0.105655916
21	0x3e246677	0.16054712
22	0x3d231855	0.039818127
23	0x3d02ec0d	0.031963397
24	0xbc789d66	-0.015174245
25	0xbcdfeebe	-0.02733552
26	0x3dba3eb0	0.09093988
27	0x3c839c6b	0.016065797
28	0xbcfd1e0b	-0.030898115
29	0x3c36d4ce	0.011159135
30	0xbdcdb1b6	-0.10043661
31	0x3dcfa7e7	0.10139447
32	0x3e4b090a	0.19827667
33	0xbcc6586f	-0.02421209
34	0x3d37ac60	0.044842124
35	0x3db66518	0.08906001
36	0x3c38d61f	0.011281519
37	0x3ce8ed8a	0.02843358
38	0x3c9144bf	0.017732976
39	0x3e0be831	0.13662793
40	0x3d8fcb4e	0.07021199
41	0x3e3c81a8	0.18408835
42	0xbcefd8d7	-0.029278202
43	0x3e466567	0.1937462
44	0x3e6e2703	0.2325707
45	0x3e1629e0	0.14664412
46	0x3de819b0	0.113330245
47	0x3dbc6a63	0.09199979
48	0xbd75e5d5	-0.060033638
49	0x3cb9f312	0.022698913
50	0xbcd5fe8c	-0.026122354
51	0xbccaefe7	-0.024772597
52	0x3cfcba4b	0.03085055
53	0x3cdf1943	0.027233725
54	0xbca549f2	-0.020176861
55	0x3e6d3b29	0.23167099
56	0xbc552daa	-0.013011375
57	0x3c5d858c	0.01352061
58	0x3e6a78ff	0.22897719
59	0xbdbe5229	-0.092930146
60	0x3cc6bef0	0.024260968
61	0x3e06be62	0.13158563
62	0x3c3cba34	0.011519004
63	0xbcf68654	-0.03009335

find.4.weight f4 [32, 64]
0	0x3dbf3782	0.09336759
1	0x3def96c6	0.116986796
2	0x3df43534	0.1192421
3	0x3e0460b7	0.12927519
4	0xbdd256ca	-0.1027046
5	0x3c16cbad	0.0092038335
6	0xbda6ea7d	-0.08150194
7	0x3e05845c	0.13038772
8	0x3c2e19dd	0.0106262835
9	0x3d1f97d6	0.03896316
10	0x3e5a224c	0.21302146
11	0x3e050cfa	0.12993231
12	0x3e493ec0	0.19652843
13	0xbbe794dc	-0.007067306
14	0xbd66e7ab	-0.05637328
15	0x3b57db16	0.0032936982
16	0x3bec68c8	0.0072146393
17	0x3e7438e0	0.23849821
18	0xbdc5189b	-0.09623834
19	0xbe2b99ae	-0.16757843
20	0xbd4ccbc7	-0.049999025
21	0xbe404917	-0.18777882
22	0xbd85fe3e	-0.065426335
23	0xbd8d7dd5	-0.06908766
24	0x3bb46302	0.0055049667
25	0x3b4a1d68	0.0030840281
26	0x3bc41728	0.0059842058
27	0xbdf01691	-0.11723054
28	0xbca0a732	-0.019610975
29	0x3c004b16	0.007830402
30	0x3ae8bc39	0.001775629
31	0xbdacdcac	-0.08440527
32	0xbb13f141	-0.0022574218
33	0x3c247346	0.010037249
34	0xbd9f36c4	-0.077741176
35	0x3dc1ce73	0.09463205
36	0x3e5c39ad	0.21506377
37	0xbd93279f	-0.071852915
38	0x3e1d9ee5	0.15392645
39	0xbddd8171	-0.108157046
40	0xbdac42de	-0.084111914
41	0xbcc82ed0	-0.024436384
42	0x3e0db869	0.13839878
43	0x3ade00f6	0.0016937542
44	0xbd61beba	-0.05511353
45	0xbe169116	-0.14703783
46	0x3e020099	0.1269554
47	0xbd47eb74	-0.04880853
48	0x3c017410	0.007901207
49	0xbd47a473	-0.048740815
50	0x3b21cced	0.0024688796
51	0x3d567839	0.052360747
52	0x3e21f389	0.15815558
53	0xbd9a23ec	-0.07526383
54	0x3c461e16	0.012092134
55	0xbd92fa00	-0.0717659
56	0x3c63d8e8	0.013906695
57	0x3e4f4d32	0.20244291
58	0xbddf6877	-0.10908597
59	0x3e4a57d8	0.19760072
60	0xbc473cb0	-0.012160465
61	0xbdef4ed5	-0.11684958
62	0xbcb2e5e4	-0.021838136
63	0x3b6fd737	0.0036596784
64	0x3dae7327	0.08518057
65	0x3dede432	0.116157904
66	0x3de7b12d	0.113130905
67	0x3e00ce23	0.12578635
68	0xbde3c912	-0.111223355
69	0x3c1f5ddf	0.00972697
70	0xbe083037	-0.13299643
71	0x3e17ef26	0.14837322
72	0x3c369c47	0.011145658
73	0x3d234a9e	0.039866082
74	0x3e532747	0.20620452
75	0x3e04969e	0.12948081
76	0x3e410d72	0.18852785
77	0xbb529afe	-0.003213584
78	0xbde2ee9f	-0.110806696
79	0x3b82de3a	0.0039937766
80	0x3bfe13f1	0.007753842
81	0x3e75a801	0.2398987
82	0xbcf7e075	-0.030258397
83	0xbe2f2135	-0.17102511
84	0xbd979e75	-0.0740327
85	0xbd6ee05d	-0.05831944
86	0xbd98a8fa	-0.07454105
87	0xbd873f11	-0.06603826
88	0x3bef13ed	0.0072960765
89	0x3b5a62ce	0.0033323052
90	0x3cb94c98	0.02261953
91	0xbd7083d4	-0.05871947
92	0xbc3b2c27	-0.011424101
93	0x3c0f2553	0.008736926
94	0x3b8b43c9	0.004250024
95	0xbdad8bab	-0.08473905
96	0xbc08631c	-0.008324411
97	0x3c2a2d62	0.010386797
98	0x3ca3f063	0.020012086
99	0x3a99db80	0.001173839
100	0x3e5b36ff	0.21407698
101	0xbca1af94	-0.019737042
102	0x3e230af8	0.15922153
103	0xbe2de076	-0.16980156
104	0xbd260010	-0.040527403
105	0xbd2e6c9e	-0.042584054
106	0x3e0eeb64	0.13956982
107	0xbd7ea125	-0.0621654
108	0xbd053b9d	-0.032527555
109	0xbda3527c	-0.07974717
110	0x3e090b31	0.13383175
111	0x3cb4a39b	0.02205067
112	0x3c279b53	0.010229903
113	0xbd786324	-0.060641423
114	0x3b559253	0.0032588437
115	0x3d44f535	0.04808541
116	0x3e16aded	0.14714785
117	0xbdd56aca	-0.10420759
118	0x3c4338e1	0.011915416
119	0xbdbf8c79	-0.09352965
120	0x3c83e8c9	0.016102212
121	0x3e4de9a4	0.20108658
122	0x3cfedd50	0.03111139
123	0x3e4db183	0.20087247
124	0xba90d2ef	-0.0011049191
125	0xbdd358e6	-0.103196904
126	0xbd52ab23	-0.05143274
127	0x3b5f6446	0.0034086867
128	0x3dd33fe2	0.10314919
129	0x3e06de23	0.13170676
130	0x3e03e07b	0.12878601
131	0x3e0bd47b	0.13655274
132	0xbe2deecf	-0.1698563
133	0x3bd9d597	0.0066477763
134	0xbd6a543e	-0.057209246
135	0x3e1d1478	0.1533984
136	0x3bcfc4bb	0.006340591
137	0x3d0e0812	0.034675665
138	0x3e6569d5	0.22403653
139	0x3e0e1602	0.13875583
140	0x3e584979	0.21121778
141	0xbc7ecd64	-0.015551899
142	0x3b07898c	0.002068135
143	0x3b57ae42	0.0032910262
144	0x3b35c361	0.0027734863
145	0x3e6b96dc	0.23006767
146	0xbca8abcc	-0.020589732
147	0xbda544dd	-0.08069775
148	0xbdae7841	-0.0851903
149	0xbdf45de6	-0.11931972
150	0xbd94a779	-0.072585054
151	0xbd991763	-0.07475164
152	0x3bc020c0	0.005863279
153	0xbac46342	-0.0014983194
154	0x3cdb8271	0.026795598
155	0xbd527dcc	-0.0513895
156	0x3cfab7b3	0.030605173
157	0x3bf69952	0.0075256014
158	0xbbc01ada	-0.005862576
159	0xbdbd18b6	-0.09233229
160	0x3b9d3dd5	0.0047986307
161	0x3c2877a1	0.010282428
162	0xbbde0db6	-0.006776537
163	0xbcd0499c	-0.025425725
164	0x3e5ee342	0.2176638
165	0xbd7e9c83	-0.06216098
166	0x3e0ffbe2	0.1406093
167	0xbe01e882	-0.12686351
168	0xbc54deb5	-0.012992551
169	0xbe2fccb0	-0.17167926
170	0x3de6f826	0.11277799
171	0xbc68c2c4	-0.014206592
172	0xbd4a3b84	-0.049373165
173	0xbbc93c28	-0.0061412044
174	0x3e092fb4	0.13397104
175	0xbd385b44	-0.045008913
176	0x3b9dd954	0.0048171673
177	0xbdd62cb5	-0.10457746
178	0x39908fc2	0.00027572928
179	0x3d8a2f59	0.06747312
180	0x3e2fe988	0.17178929
181	0xbb2f4dc5	-0.0026749235
182	0x3beea5ac	0.007282933
183	0xbda0923b	-0.07840391
184	0x3cacd430	0.021097273
185	0x3e3f84eb	0.18703048
186	0xbd2b2c76	-0.041790448
187	0x3e251980	0.16123009
188	0x3b21892f	0.0024648418
189	0xbd9527cc	-0.07282981
190	0xbd7b7b35	-0.061396796
191	0xba0fae17	-0.00054809585
192	0x3d8b2642	0.067944065
193	0x3e0a567f	0.13509558
194	0x3e15958f	0.14607833
195	0x3e0f86bc	0.14016241
196	0xbdfefe9c	-0.12450907
197	0x3bf301c2	0.007415981
198	0xbd88d52b	-0.066812836
199	0x3e20264f	0.15639614
200	0xbbbcd5e4	-0.0057628024
201	0xbc82e967	-0.015980436
202	0x3e7ede9a	0.24889603
203	0x3e0d241c	0.13783306
204	0x3e637bba	0.22215167
205	0xbb474759	-0.0030407517
206	0xbda44350	-0.08020651
207	0xbc3f4e41	-0.011676372
208	0xbacbc887	-0.0015547433
209	0x3e817c66	0.2529022
210	0xbc61d54d	-0.013783765
211	0xbdf803b4	-0.12110081
212	0xbd1a4afd	-0.03766917
213	0xbdb5f65f	-0.08884882
214	0xbd2359dd	-0.039880622
215	0xbdab19e1	-0.083545454
216	0xbb90e22c	-0.004421493
217	0xbadee3f8	-0.0017005196
218	0xbcfcbf77	-0.030853016
219	0xbe43b914	-0.1911357
220	0x3cbbb32b	0.022912582
221	0x3c030651	0.007997111
222	0xbc276981	-0.010218025
223	0xbd26e0d0	-0.04074174
224	0x3c57b3b5	0.013165404
225	0xbb250131	-0.0025177712
226	0x3b1b3363	0.0023681752
227	0x3a859176	0.0010190445
228	0x3e7a75e2	0.24459031
229	0xbd67b4d0	-0.05656892
230	0x3e0a35a6	0.13497028
231	0xbdb358b6	-0.08757155
232	0x3cfb5e7b	0.0306847
233	0xbda02607	-0.07819753
234	0x3db33c8e	0.08751784
235	0xbb2c16fe	-0.0026258822
236	0xbe2fc4d0	-0.17164922
237	0x3c2cc3b8	0.01054471
238	0x3e0f2840	0.13980198
239	0xbd93181a	-0.071823314
240	0xbbc6b664	-0.006064223
241	0xbdebd877	-0.11515897
242	0x3945f4dc	0.00018878601
243	0x3cc48354	0.023988403
244	0x3e3771c7	0.17914496
245	0xbd57d4ab	-0.05269305
246	0x3af8821d	0.0018959675
247	0xbdcceeb8	-0.100064695
248	0x3c358bb8	0.011080675
249	0x3e489bfb	0.19590752
250	0x3bb8e745	0.005642804
251	0x3e00517e	0.12531087
252	0xbcbadbcf	-0.022809891
253	0x3cb9542e	0.022623148
254	0xbcc395f6	-0.023875218
255	0xbba39791	-0.0049924334

find.4.bias f4 [32]
0	0x3e225885	0.1585408
1	0x3e07367e	0.13204381
2	0x3d3b1468	0.045673758
3	0x3d3fe05b	0.04684482
4	0x3e2c17da	0.16805974
5	0x3e6de19c	0.23230594
6	0x3e25dd90	0.161978
7	0x3e54cb8f	0.20780776
8	0x3e1b32af	0.15156053
9	0x3c026381	0.007958294
10	0xbd4a936d	-0.049457002
11	0x3e2383db	0.15968268
12	0xbd97aba3	-0.07405784
13	0xbd306d7f	-0.043073174
14	0x3e5dde1c	0.21666759
15	0x3d07f105	0.03318884
16	0x3d46ef28	0.04856792
17	0x3dfa9f52	0.12237419
18	0x3e34312a	0.1759688
19	0x3c905b17	0.01762156
20	0xbd76413a	-0.0601208
21	0x3cd4ca83	0.025975471
22	0xbdcddd5c	-0.100519866
23	0x3ba02567	0.004887271
24	0x3e1efdfd	0.15526576
25	0x3e16e8fc	0.14737314
26	0x3d335746	0.043784402
27	0xbcab968f	-0.020945815
28	0x3d8b95fd	0.06815717
29	0x3d1e378a	0.038627185
30	0x3d323f24	0.043517247
31	0x3e057665	0.13033445

find.6.weight f4 [2, 32]
0	0x3d958bc8	0.07302052
1	0x3d98519b	0.0743744
2	0x3e1e3dac	0.15453213
3	0xbacd35af	-0.0015656258
4	0xbd96759c	-0.07346651
5	0xbdc6f3aa	-0.09714444
6	0xbc226712	-0.009912269
7	0xbe9054c6	-0.28189677
8	0x3de877b3	0.11350956
9	0x389e2040	7.540034e-05
10	0x3ec1ef7d	0.37878028
11	0xbdd56eed	-0.10421548
12	0x3e96b635	0.29435888
13	0x3ea1e3f9	0.31619242
14	0xbe5ad2be	-0.21369454
15	0xbd87306c	-0.066010326
16	0xbe2310fd	-0.1592445
17	0xbe550866	-0.20803985
18	0xbe912d68	-0.28354955
19	0x3d1874a1	0.0372206
20	0x3ea678d5	0.32514063
21	0x3d4cc538	0.04999277
22	0xbd61c02d	-0.055114914
23	0xbb721b00	-0.0036942363
24	0xbd0645dd	-0.03278147
25	0x3e1f7e1a	0.15575448
26	0x3ea73fdf	0.32665917
27	0x3d493980	0.049127102
28	0x3bf973cb	0.0076126806
29	0xbcbf1a4d	-0.02332797
30	0x3e3f97fc	0.18710321
31	0xbd57fe2e	-0.05273264
32	0x3eab13fa	0.33413678
33	0x3eabcff3	0.3355709
34	0x3ee6b6ff	0.4506149
35	0x3ea8ed79	0.32993677
36	0xbe8e6df7	-0.27818272
37	0xbe89eb52	-0.26937348
38	0xbe93b35a	-0.28847772
39	0xbcf6c6ac	-0.030124031
40	0xbee552f2	-0.44789845
41	0x3e9ce57c	0.30643833
42	0x3e216f1c	0.15765041
43	0xbd6a4ce7	-0.057202246
44	0x3e131bfc	0.14366144
45	0x3ce17a5d	0.027524168
46	0xbe0964f5	-0.13417418
47	0xbe6af8f0	-0.22946525
48	0xbcc8a06e	-0.024490561
49	0xbd0f8ce4	-0.035046473
50	0x3b226c2c	0.0024783714
51	0xbea3ab58	-0.31966662
52	0x3d48f924	0.049065724
53	0x3e889fae	0.26684326
54	0x3d3923c9	0.045200143
55	0xbe95b622	-0.2924052
56	0x3e9cde0e	0.30638164
57	0x3e8046f5	0.25054136
58	0x3e54f49e	0.20796439
59	0x3e5e1d7f	0.2169094
60	0x3ed9256f	0.42411372
61	0x3e5f6c36	0.21818623
62	0x3ed4556f	0.4147143
63	0xbe72aeff	-0.23699568

find.6.bias f4 [2]
0	0xbc1414df	-0.009038179
1	0x3c1d43c1	0.009598673

grapher.0.weight.weight f4 [5, 1]
0	0xbacdbe10	-0.0015696902
1	0xb0aa1c5e	-1.237719e-09
2	0xb5839752	-9.804301e-07
3	0x9ea16cbc	-1.709151e-20
4	0x32f90c04	2.899288e-08

grapher.0.weight.bias f4 [5]
0	0x3c7504d0	0.014954761
1	0xb35ab074	-5.0917563e-08
2	0xb6291ca9	-2.5199645e-06
3	0xa1e7a4e7	-1.5696818e-18
4	0xb5f9c0de	-1.8608077e-06

grapher.0.reduce.weight f4 [5, 1]
0	0x33a05e1c	7.467699e-08
1	0x1d60391d	2.967568e-21
2	0xabc276e3	-1.3817527e-12
3	0x3b5f90c0	0.0034113377
4	0xa8229821	-9.025794e-15

grapher.0.reduce.bias f4 [5]
0	0xb6c6eb59	-5.928258e-06
1	0x9d5235ae	-2.782102e-21
2	0xacb530b4	-5.1497365e-12
3	0x3cc2dea7	0.02378781
4	0xa8732fc6	-1.3499569e-14

grapher.0.gru.weight_ih f4 [15, 5]
0	0x1758de41	7.007389e-25
1	0x8ee2ccbc	-5.5910453e-30
2	0x926c029e	-7.4471695e-28
3	0x8087a2c4	-1.2456181e-38
4	0x129576f5	9.432547e-28
5	0x16743918	1.9728179e-25
6	0x0b381420	3.545225e-32
7	0x12f7779f	1.561738e-27
8	0x01b89b26	6.781355e-38
9	0x12631cdd	7.1664147e-28
10	0x98dcfc96	-5.7123714e-24
11	0x10ac873d	6.8050405e-29
12	0x9b25074f	-1.3650842e-22
13	0x80aaf1f2	-1.5698828e-38
14	0x93039ff8	-1.6613395e-27
15	0x1923cfb0	8.468845e-24
16	0x903b1d68	-3.69019e-29
17	0x1394a720	3.752525e-27
18	0x01894410	5.0423517e-38
19	0x92a0780d	-1.0127014e-27
20	0x17b6103e	1.1765574e-24
21	0x0ec45d9d	4.8407877e-30
22	0x12ead554	1.4820066e-27
23	0x019ffa6f	5.876673e-38
24	0x9290c4b2	-9.136167e-28
25	0x2ad0c110	3.7082186e-13
26	0xa28c5cd9	-3.8045382e-18
27	0x2634653f	6.258726e-16
28	0x92501b6c	-6.5667027e-28
29	0xa63212a4	-6.178142e-16
30	0xaa3d557c	-1.681623e-13
31	0x229962fa	4.157553e-18
32	0xa4d0ded0	-9.058308e-17
33	0x10d40928	8.3633363e-29
34	0x254b1d94	1.7617465e-16
35	0xaa1637ca	-1.3342032e-13
36	0x2002b24f	1.1070426e-19
37	0xa588efad	-2.375465e-16
38	0x119a4ad0	2.4343023e-28
39	0x253564e7	1.5733435e-16
40	0xa9de21c0	-9.864635e-14
41	0x2049f424	1.7106142e-19
42	0x2563798b	1.9730292e-16
43	0x10157551	2.9475446e-29
44	0x24ac6edf	7.478093e-17
45	0xaa0a0468	-1.2258391e-13
46	0x21b042c4	1.1943897e-18
47	0xa54fdc4e	-1.802903e-16
48	0x10e2559c	8.9273184e-29
49	0x254ddd93	1.7855988e-16
50	0x3b918c73	0.0044417917
51	0x360ebf74	2.127109e-06
52	0x3a057d5f	0.0005092229
53	0x234351e6	1.0588314e-17
54	0x33eb682d	1.096199e-07
55	0x367e8d71	3.793128e-06
56	0xad415097	-1.0988674e-11
57	0x327d6821	1.4750214e-08
58	0x1b1c4efa	1.2929536e-22
59	0xb0607d5e	-8.166888e-10
60	0x3a00ff6e	0.00049208745
61	0xb09b76d2	-1.1311505e-09
62	0xb6668161	-3.434798e-06
63	0x9de8331c	-6.1462735e-21
64	0xb30155b3	-3.0113096e-08
65	0xbb8debe4	-0.004331099
66	0x358ce822	1.0498372e-06
67	0x3a087e36	0.0005206795
68	0x231b41cc	8.4165e-18
69	0x344677c9	1.8483765e-07
70	0x368c9452	4.189592e-06
71	0xad3af047	-1.0626228e-11
72	0x32696736	1.3585852e-08
73	0x1ba953f2	2.8012953e-22
74	0xb04064df	-6.999254e-10

grapher.0.gru.weight_hh f4 [15, 5]
0	0x969cc901	-2.533001e-25
1	0x81079b0a	-2.490682e-38
2	0x093a94d2	2.245891e-33
3	0x18d189fe	5.416457e-24
4	0x06920f99	5.4942015e-35
5	0x97a67f26	-1.0759595e-24
6	0x014d6a2a	3.7728722e-38
7	0x09528340	2.5339544e-33
8	0x9776faa9	-7.9803265e-25
9	0x85c4541e	-1.8462651e-35
10	0x1817a1b8	1.959794e-24
11	0x80e64eb1	-2.1150393e-38
12	0x0b24dcfc	3.17515e-32
13	0x9a8eefcf	-5.9117255e-23
14	0x87287508	-1.2673308e-34
15	0x981a0d26	-1.9910672e-24
16	0x8088eaaa	-1.2573809e-38
17	0x8ba0d85b	-6.1955294e-32
18	0x1a4cf9f4	4.2388122e-23
19	0x878ad82e	-2.0890991e-34
20	0x978ff5b8	-9.303187e-25
21	0x01ad8afa	6.3749585e-38
22	0x892f749d	-2.111969e-33
23	0x97a08108	-1.037233e-24
24	0x85ce50b4	-1.9401793e-35
25	0xab24451f	-5.836043e-13
26	0x9038e9aa	-3.646761e-29
27	0x1d7ce9bf	3.3472766e-21
28	0x2b2e7637	6.1981274e-13
29	0x98768ce9	-3.1865896e-24
30	0x2a57b4cd	1.9158564e-13
31	0x0e250391	2.0339537e-30
32	0x9c8d6e64	-9.359133e-22
33	0xaa895180	-2.439264e-13
34	0x17b50a57	1.1699461e-24
35	0x29ee7388	1.0589365e-13
36	0x0f49f225	9.9567005e-30
37	0x9ce32b1f	-1.5032746e-21
38	0xaa39c174	-1.6498418e-13
39	0x1851368a	2.7040152e-24
40	0x28cd9114	2.282249e-14
41	0x8ecaa39e	-4.9954402e-30
42	0x1c0d29ba	4.6706917e-22
43	0xaa695736	-2.0724815e-13
44	0x176de07d	7.6862174e-25
45	0x2a1e9090	1.4083374e-13
46	0x0f0f569f	7.067127e-30
47	0x1cd5f3e7	1.4158205e-21
48	0xaa2f5a06	-1.5574355e-13
49	0x984ef3c3	-2.6747944e-24
50	0xb614a9ae	-2.2152485e-06
51	0x1b30e2ca	1.4631658e-22
52	0xa9af84ad	-7.794577e-14
53	0x38ec6fca	0.00011274179
54	0x2bd32191	1.5001768e-12
55	0xb52869c5	-6.273879e-07
56	0x9b4d6a52	-1.6991557e-22
57	0xa922b580	-3.6128652e-14
58	0x36866622	4.005401e-06
59	0xa2f0d802	-6.5280838e-18
60	0xb6b4a4e1	-5.3836125e-06
61	0x9ba1f5a6	-2.6793962e-22
62	0xaa99243b	-2.72034e-13
63	0x38063fec	3.200762e-05
64	0xa5e8b120	-4.036561e-16
65	0x36fcca2a	7.5337202e-06
66	0x9c5fc3b2	-7.403744e-22
67	0x2ae5e2cc	4.0835944e-13
68	0xb9167ca7	-0.00014351551
69	0xa8c9e1b1	-2.241336e-14
70	0xb55bc7a1	-8.1874356e-07
71	0x9a889a32	-5.64974e-23
72	0x29261bd0	3.6883528e-14
73	0x3694794d	4.424865e-06
74	0xa435c0d7	-3.941146e-17

grapher.0.gru.bias_ih f4 [15]
0	0x1cd68cdf	1.4197746e-21
1	0x9aad3c84	-7.164889e-23
2	0x22f57e9d	6.654144e-18
3	0x1e05fd0a	7.093289e-21
4	0x9a62199a	-4.6756385e-23
5	0x2dc4c0f9	2.2368317e-11
6	0xacf75a84	-7.0302115e-12
7	0xacedcf2a	-6.758945e-12
8	0xac314c72	-2.5195649e-12
9	0xace2ffdd	-6.451713e-12
10	0x3d2f0b61	0.04273546
11	0xb930d310	-0.00016863295
12	0x3d9b37ed	0.07579026
13	0x3d79c009	0.060974155
14	0xb99f0650	-0.00030331546

grapher.0.gru.bias_hh f4 [15]
0	0x1cb80ca2	1.2179364e-21
1	0x9a6580ae	-4.7460037e-23
2	0xa0eb217d	-3.983271e-19
3	0x1e5efda7	1.1805036e-20
4	0x9a27e941	-3.4723212e-23
5	0x2dc513bb	2.2405069e-11
6	0xacf69f2f	-7.0094134e-12
7	0xacebd6af	-6.7029364e-12
8	0xac7ff6da	-3.637471e-12
9	0xace2dd32	-6.447864e-12
10	0xbcd04f30	-0.025428385
11	0x38a8f773	8.056955e-05
12	0x3bfdd0b0	0.0077458248
13	0xbc57042a	-0.013123551
14	0x38a95b19	8.075516e-05

grapher.0.gru.ln_resetgate.weight f4 [5]
0	0x1e3eccb7	1.010085e-20
1	0x19c1c554	2.0035432e-23
2	0x1e9f06af	1.6837544e-20
3	0x9e974a15	-1.6018386e-20
4	0x1a33d54f	3.7188642e-23

grapher.0.gru.ln_resetgate.bias f4 [5]
0	0xb72a2074	-1.0140346e-05
1	0x321eaf00	9.236601e-09
2	0x36db48a7	6.5351664e-06
3	0x37973e2f	1.802956e-05
4	0xb238c2ec	-1.075453e-08

grapher.0.gru.ln_inputgate.weight f4 [5]
0	0x3458fbdb	2.0208192e-07
1	0x80cbf903	-1.8731934e-38
2	0x8f863c7c	-1.3236718e-29
3	0xaccc08d6	-5.7990097e-12
4	0x894823ec	-2.4091015e-33

grapher.0.gru.ln_inputgate.bias f4 [5]
0	0x34a4a8a2	3.0670077e-07
1	0x80881142	-1.2495818e-38
2	0x9ca6e81f	-1.104496e-21
3	0xb8da8e71	-0.00010421582
4	0x13931678	3.7130173e-27

grapher.0.gru.ln_newgate.weight f4 [5]
0	0x3bed0700	0.0072335005
1	0x1f6ea8af	5.0537992e-20
2	0xac106d7a	-2.0524402e-12
3	0x3c4ac612	0.012376325
4	0x28e8cb9c	2.5845476e-14

grapher.0.gru.ln_newgate.bias f4 [5]
0	0xbc191e8f	-0.009345665
1	0x9ea4e038	-1.745691e-20
2	0xaea8cf66	-7.676597e-11
3	0xbba3a8af	-0.004994474
4	0xa8ebf600	-2.6196927e-14

grapher.1.weight.weight f4 [5, 5]
0	0xbb8d07d4	-0.0043039117
1	0x9b14568c	-1.2270238e-22
2	0xa8ad3fde	-1.9234556e-14
3	0x3b372b32	0.002794933
4	0xa6054f98	-4.6251514e-16
5	0x3d380032	0.04492206
6	0x9c7b0d66	-8.306625e-22
7	0x2e23c949	3.7240686e-11
8	0xbc6d1d26	-0.014472282
9	0xa7bf11b3	-5.303234e-15
10	0x3d0c82e8	0.03430453
11	0x9d938084	-3.904346e-21
12	0x2be21479	1.6063948e-12
13	0x3bd34172	0.0064470107
14	0x28139334	8.192059e-15
15	0x3cb86043	0.022506839
16	0x1e6c8791	1.25217704e-20
17	0xabbaf38a	-1.3283691e-12
18	0x3c9778fb	0.018490305
19	0xa8ad4f5f	-1.924128e-14
20	0x3d85a873	0.0652627
21	0x9c8126b0	-8.546504e-22
22	0x319038b2	4.197397e-09
23	0x3d975db0	0.07390916
24	0x26f3add3	1.6908627e-15

grapher.1.weight.bias f4 [5]
0	0xba0e9f93	-0.00054406485
1	0xbd73a32e	-0.059481792
2	0x3e24ae16	0.16082034
3	0x3d9a210d	0.07525835
4	0xbd912a26	-0.07088117

grapher.1.reduce.weight f4 [5, 5]
0	0xb33345f4	-4.1740307e-08
1	0x192c50e7	8.90853e-24
2	0x26e23cb5	1.5698355e-15
3	0x36c9a39d	6.009314e-06
4	0x2326f1b5	9.0500615e-18
5	0xb37c46cd	-5.8737715e-08
6	0x185bfa0a	2.8431324e-24
7	0xa60dfe67	-4.926398e-16
8	0x36d61d49	6.3811062e-06
9	0x22522822	2.8481553e-18
10	0x378ee1e5	1.703291e-05
11	0x9a6ff522	-4.9622058e-23
12	0x282ac5d4	9.479793e-15
13	0x38b07dbd	8.4157546e-05
14	0xa5ea807b	-4.067959e-16
15	0xb2bf1f87	-2.2249663e-08
16	0x193f3e44	9.887043e-24
17	0xa5f4c7ba	-4.2462593e-16
18	0xb7fdd649	-3.0259735e-05
19	0x2335959d	9.8437115e-18
20	0xbab8313c	-0.0014052759
21	0x9abe6812	-7.875029e-23
22	0x28d03fa2	2.3120235e-14
23	0x3b6e1ad1	0.0036331902
24	0x25be0d0b	3.2968584e-16

grapher.1.reduce.bias f4 [5]
0	0xba1c05a4	-0.0005951768
1	0xb836cc1c	-4.3582273e-05
2	0xbb80bb54	-0.0039285813
3	0xbbc33075	-0.0059567043
4	0x3cc86b90	0.024465352

grapher.1.gru.weight_ih f4 [15, 5]
0	0x3562dcdc	8.4512953e-07
1	0x3895918c	7.131984e-05
2	0xb9ffa2c8	-0.00048758672
3	0xb94c70bf	-0.00019496957
4	0x38fd0ee4	0.00012066754
5	0x359f96c5	1.1890303e-06
6	0x399c3c52	0.0002979958
7	0xba943796	-0.001130807
8	0xba09a6e4	-0.0005251004
9	0x39d21c76	0.00040075526
10	0x36e10f0d	6.7072747e-06
11	0xba2afd61	-0.0006522742
12	0x3a06d0b6	0.00051427947
13	0x39b23f95	0.00033998178
14	0xba30682b	-0.00067293894
15	0x35816640	9.641008e-07
16	0x39668db7	0.00021987302
17	0x391a3a12	0.00014708217
18	0xb97565f3	-0.00023403
19	0x39846bd3	0.00025257337
20	0xb6d25dc4	-6.2694035e-06
21	0xb96b812d	-0.00022459468
22	0x3a3ed2e0	0.00072793476
23	0x39b4e17d	0.00034500277
24	0xb9a12ad2	-0.00030740217
25	0xbc27ff72	-0.010253774
26	0x3c66baa0	0.014082581
27	0x3c8ab61e	0.016932543
28	0xbc8c3ce6	-0.017118882
29	0x3caba3d7	0.020952148
30	0x3a2b8b89	0.00065439247
31	0xbb105857	-0.002202531
32	0xbc3f9bc7	-0.011694855
33	0x3ad09f55	0.0015916625
34	0x3bb45b0d	0.005504018
35	0xbd8423ea	-0.064521626
36	0xbc886d96	-0.016653817
37	0x3d861f9c	0.06548998
38	0x3d37efa1	0.044906262
39	0xbcde13ec	-0.027109109
40	0xb9698eb2	-0.0002227377
41	0xbb63253a	-0.003465964
42	0x3c496a24	0.012293372
43	0x3bce26bd	0.006291239
44	0xbb5584c2	-0.003258035
45	0x3bb961d9	0.0056574163
46	0xb83ebc76	-4.5475048e-05
47	0xbd68525b	-0.056719165
48	0x3ba1e834	0.004941011
49	0x3c15997e	0.009130834
50	0x3d06eeb0	0.032942474
51	0xbc88d221	-0.01670176
52	0x3bfe41e4	0.0077593196
53	0x3e5ed431	0.21760632
54	0xbe13d452	-0.14436463
55	0x3c845ab8	0.01615654
56	0x3d5b5f93	0.053557944
57	0x3cb8f315	0.022576848
58	0x3d229ef3	0.039702367
59	0x3d37273c	0.04471515
60	0xbc4f3189	-0.012646087
61	0x3d1908fa	0.037362076
62	0x3e05d090	0.13067842
63	0x3b402406	0.0029318347
64	0xbdf07740	-0.11741495
65	0xbccd1c33	-0.02503786
66	0x3d3ebd8a	0.046567477
67	0x3d05b2fc	0.032641396
68	0x3cc67eff	0.024230478
69	0x3e0e21b8	0.1388005
70	0xbd0c77be	-0.034293883
71	0xbc488312	-0.012238281
72	0xbd354ec3	-0.044264566
73	0x3ca87c55	0.020567099
74	0xbda36542	-0.07978298

grapher.1.gru.weight_hh f4 [15, 5]
0	0xb6f513dc	-7.303881e-06
1	0x345825bd	2.0130297e-07
2	0xb9d35399	-0.0004030734
3	0xb57a161b	-9.3164425e-07
4	0xb7c98c09	-2.4026276e-05
5	0x387258de	5.778006e-05
6	0x38ca05a6	9.633163e-05
7	0xbab33d04	-0.00136748
8	0x375a05a0	1.2995122e-05
9	0x36ec6069	7.0445717e-06
10	0xb8eb4b76	-0.00011219729
11	0xb944ad80	-0.0001875665
12	0xba9bad31	-0.0011877177
13	0xb79d73b8	-1.8769744e-05
14	0x387141ca	5.752015e-05
15	0x3803a568	3.138688e-05
16	0x387d14ef	6.0339396e-05
17	0x39fd1eea	0.00048278953
18	0x3707c00e	8.091343e-06
19	0xb73b1474	-1.1150831e-05
20	0xb7aee388	-2.0848369e-05
21	0xb8950d99	-7.1074064e-05
22	0x3a8e6bfa	0.001086592
23	0xb72cbbd8	-1.0295735e-05
24	0x37c29094	2.3193927e-05
25	0xba82f4af	-0.0009991134
26	0x3bc74179	0.006080803
27	0xbd3a6fd8	-0.04551682
28	0x389e1be5	7.539223e-05
29	0x39b0ca17	0.00033719905
30	0xba90113a	-0.0010991462
31	0x391a4348	0.00014711649
32	0xbc8fddc2	-0.017561797
33	0x3882ea00	6.242469e-05
34	0xb90f6dbb	-0.0001367842
35	0x3b036854	0.0020051198
36	0xbbbc39c5	-0.0057441914
37	0x3d885a3a	0.06657834
38	0xba006543	-0.00048979017
39	0xbbb6d362	-0.005579398
40	0xba6330de	-0.00086666446
41	0xba1c47a8	-0.00059616053
42	0x3bff3b79	0.007789072
43	0xb89079b4	-6.889124e-05
44	0x3a171b21	0.00057642354
45	0xba89cee9	-0.0010513935
46	0x3a9e0f51	0.0012059008
47	0xbd700cd1	-0.058605973
48	0xb892d7dd	-7.00203e-05
49	0xb971d453	-0.00023062648
50	0x3be3b25e	0.0069487533
51	0x3be00f8b	0.0068377904
52	0x3e398fcf	0.18121265
53	0xbb95ee04	-0.004575493
54	0xbb0570e1	-0.002036147
55	0x39469b02	0.00018940496
56	0x3c8a167d	0.016856426
57	0xbd436b01	-0.04770947
58	0x39905f33	0.0002753675
59	0xba33ba2a	-0.0006856049
60	0x3c35654d	0.011071515
61	0x3c50a0d0	0.012733653
62	0x3d4c7f58	0.049926132
63	0x3c2b6f8b	0.010463606
64	0x3aafae5e	0.0013403406
65	0x3ba5e97f	0.0050632353
66	0x3c8ecc32	0.017431352
67	0x3c487acc	0.012236308
68	0x38f2ab6e	0.000115713905
69	0xba41d56d	-0.00073941686
70	0x3c106a1e	0.008814363
71	0xbbbdd739	-0.005793479
72	0x3e0ed109	0.13946928
73	0xbb808e21	-0.003923193
74	0xbb111291	-0.002213631

grapher.1.gru.bias_ih f4 [15]
0	0xbc20a876	-0.009805789
1	0xbc136c0a	-0.0089979265
2	0xbc4b89fc	-0.012423035
3	0x3d251713	0.04030521
4	0xbc4fabe0	-0.012675256
5	0xbe482798	-0.19546354
6	0xbce206a1	-0.027591052
7	0xbe1be872	-0.1522539
8	0x3e331989	0.1749021
9	0x3dda8465	0.106697835
10	0x3e5cc8a3	0.21560912
11	0xbeb0f51a	-0.34561998
12	0x3decea75	0.11568157
13	0xbe1af3cc	-0.15132064
14	0x3dc66979	0.09688086

grapher.1.gru.bias_hh f4 [15]
0	0xbc16074f	-0.009157016
1	0xbc16b525	-0.009198462
2	0x3cb6ae15	0.022299806
3	0x3d143f1a	0.03619299
4	0x3cb97aab	0.0226415
5	0xbeacbf1b	-0.33739552
6	0xbcc3f07c	-0.023918383
7	0xbe1f8845	-0.15579326
8	0x3d4f401f	0.05059826
9	0xbe337f23	-0.17528968
10	0x3bca2082	0.006168426
11	0xbdcb5665	-0.09928588
12	0x3e32f77b	0.17477219
13	0xbe252295	-0.16126473
14	0x3e70c575	0.23512824

grapher.1.gru.ln_resetgate.weight f4 [5]
0	0xba8de55a	-0.0010825798
1	0xbba8d629	-0.005152483
2	0x3a43f435	0.00074750494
3	0x3cfa7968	0.03057547
4	0xba787c7a	-0.00094789977

grapher.1.gru.ln_resetgate.bias f4 [5]
0	0xbb1b9a6a	-0.002374316
1	0x3c4a3975	0.0123428
2	0xbd0e05cc	-0.034673497
3	0x3cc5917e	0.024117228
4	0x3cd94867	0.026523782

grapher.1.gru.ln_inputgate.weight f4 [5]
0	0xba9fb36c	-0.0012184209
1	0x3a12ea2b	0.0005604352
2	0x3f08b9a5	0.5340827
3	0x3a4bda9b	0.000777641
4	0x38caa658	9.6630945e-05

grapher.1.gru.ln_inputgate.bias f4 [5]
0	0x3a50793c	0.00079526356
1	0x3ae5aaa2	0.0017522166
2	0x3dc70197	0.097171
3	0x39d13749	0.00039904777
4	0x39a48788	0.00031381496

grapher.1.gru.ln_newgate.weight f4 [5]
0	0xbb4cd2e9	-0.0031253642
1	0x3d051267	0.032488253
2	0x3f39b3a1	0.72539717
3	0x3ce12a1f	0.027485905
4	0xbc060b0a	-0.008181343

grapher.1.gru.ln_newgate.bias f4 [5]
0	0xbce61ff1	-0.028091403
1	0x3b34e51b	0.0027602378
2	0xbdc5aaa8	-0.09651691
3	0x3c63618d	0.013878238
4	0xbc965610	-0.018351585

grapher.2.weight.weight f4 [5, 5]
0	0xba83baab	-0.0010050138
1	0xbc39ef31	-0.011348532
2	0x3e7ddbf0	0.24790931
3	0x3c0f0233	0.008728552
4	0xbabadf5c	-0.001425724
5	0x3c21415c	0.009842243
6	0x39589440	0.00020654593
7	0xbec5801f	-0.3857431
8	0x3b09ed1d	0.0021045872
9	0x3ba70b75	0.0050978013
10	0xbbc3a45b	-0.0059705204
11	0xbc3aca2c	-0.011400741
12	0xbe9a3e0b	-0.3012546
13	0xba8d7452	-0.0010792112
14	0xba86d9e8	-0.001028833
15	0x3c4d40c9	0.012527653
16	0xbc17823d	-0.00924736
17	0xbc877f63	-0.016540235
18	0xbc875aca	-0.016522784
19	0x3a3dbd73	0.0007238008
20	0xbcbfd910	-0.023418933
21	0x3c8ef473	0.017450547
22	0xbe468a05	-0.19388588
23	0x3d83e1e0	0.064395666
24	0x3aa820a4	0.001282711

grapher.2.weight.bias f4 [5]
0	0x3e069bf5	0.1314543
1	0x3e9b61af	0.30347964
2	0x3f052ce9	0.5202165
3	0xbeb15b14	-0.346398
4	0xbea33124	-0.3187343

grapher.2.reduce.weight f4 [5, 5]
0	0x3bc600b7	0.0060425657
1	0x3d9d3bbe	0.076774105
2	0xbb4ab763	-0.003093206
3	0xbd12e088	-0.03585866
4	0x3c3b4d16	0.011431953
5	0x3bf6927d	0.007524787
6	0x3b8de2a7	0.0043299976
7	0xbec88f6e	-0.39171928
8	0x3b24450e	0.0025065574
9	0x3b356df7	0.0027683952
10	0x3a8b7b7e	0.0010641662
11	0xba029f0e	-0.00049828074
12	0x3e2a62d9	0.1663927
13	0xba528582	-0.00080307585
14	0x3a12eaaa	0.00056044257
15	0x375a4211	1.3009195e-05
16	0x38e379c8	0.00010846887
17	0x3e14b488	0.14521992
18	0x3bd2805a	0.006423992
19	0x3809e3f1	3.2875632e-05
20	0xb91d6a6d	-0.00015012333
21	0xb9a60495	-0.000316654
22	0xbe1dc6f9	-0.15407933
23	0xb88a5974	-6.597015e-05
24	0xb8941478	-7.0610025e-05

grapher.2.reduce.bias f4 [5]
0	0xbc2d5888	-0.0105801895
1	0x3e74fac7	0.23923789
2	0x3e406962	0.187902
3	0xbe0ba97a	-0.13638869
4	0xbe781bce	-0.24229357

grapher.2.gru.weight_ih f4 [15, 5]
0	0x3e903a9d	0.28169718
1	0x3ddcebeb	0.10787185
2	0x3b89caaa	0.0042050676
3	0xbe2bf8bc	-0.16794103
4	0x3ca418e5	0.020031402
5	0xbdd95aed	-0.10613046
6	0xbd58a2b0	-0.052889526
7	0x3ddf055b	0.10889693
8	0xbe703e48	-0.23461258
9	0x3e29dc6b	0.16587989
10	0x3cef2853	0.029194033
11	0x3e3df2f9	0.18549718
12	0xbe045ebf	-0.12926768
13	0x3e5fd3a6	0.21858081
14	0xbd51158d	-0.051045943
15	0xbdacddd7	-0.0844075
16	0x3d520eb5	0.051283557
17	0x3d027d6d	0.031857897
18	0x3d4b5fa1	0.049651746
19	0xbe139042	-0.14410499
20	0xbe086e4f	-0.1332333
21	0x3c082af8	0.008311026
22	0xbc8936bd	-0.016749734
23	0x3e801e84	0.25023282
24	0x3e97fd1d	0.29685298
25	0xbdb73b5e	-0.0894687
26	0x3d4a13f2	0.049335428
27	0x3e32d416	0.17463717
28	0x3e97d6e7	0.29656145
29	0xbe00b4ff	-0.12569045
30	0x3bdcc3d1	0.0067372103
31	0x3e13e895	0.14444192
32	0xbd340778	-0.043952435
33	0xbdf20bfa	-0.118186906
34	0x3e4423d8	0.19154298
35	0x3e6cd20e	0.23127005
36	0x3ea9b33f	0.33144566
37	0x3d22f712	0.039786406
38	0x3ed470cf	0.41492316
39	0xbe74fdad	-0.23924895
40	0xbeace1d9	-0.33766058
41	0xbe9870ea	-0.29773647
42	0xbc450ddb	-0.012027229
43	0x3d6c1b78	0.057643384
44	0x3ef73df4	0.48289454
45	0xbebd75ef	-0.3700404
46	0x3e37ed87	0.17961703
47	0xbe29b659	-0.16573466
48	0xbe90353d	-0.28165618
49	0x3eabb859	0.33539084
50	0x3eb88705	0.36040512
51	0x3d1cde02	0.03829766
52	0x3ed4027c	0.41408145
53	0xbedc36c9	-0.43010548
54	0xbe2a8233	-0.1665123
55	0x3e5bdeba	0.21471682
56	0x3e4f4638	0.2024163
57	0x3e080008	0.13281262
58	0x3e5b751d	0.21431394
59	0xbefc3f4b	-0.4926704
60	0xbe40cf0e	-0.18828985
61	0x3e2becc1	0.16789533
62	0xbdd96b8c	-0.10616216
63	0x3d5df3e0	0.054187655
64	0x3e83378b	0.25628313
65	0xbe81a826	-0.253236
66	0xbe288c37	-0.16459738
67	0x3ebd1798	0.36932063
68	0x3d5f7951	0.054559056
69	0xbe9e3aa2	-0.30904108
70	0x3daa494d	0.08314762
71	0xbce07ef6	-0.02740429
72	0x3c019b1c	0.007910516
73	0x3e4e0e84	0.20122725
74	0x3eb2c29e	0.34914106

grapher.2.gru.weight_hh f4 [15, 5]
0	0x3cd05491	0.02543095
1	0x3dc3e1e4	0.095645696
2	0x3d27b74d	0.040946294
3	0xbd134ba9	-0.035960827
4	0xbb92a103	-0.0044747605
5	0xbe9d2b78	-0.30697227
6	0x3ccdb68f	0.025111465
7	0x3ebb9286	0.36635226
8	0xbe39baf0	-0.18137717
9	0x3ebb54cb	0.3658813
10	0x3dd03d3d	0.1016793
11	0xbe6bccb9	-0.23027314
12	0xbe52aa4e	-0.20572779
13	0xbd0f9f4c	-0.035064027
14	0xbcce67b2	-0.02519593
15	0x3e49d28b	0.19709222
16	0xbdcc8f5d	-0.09988282
17	0xbe2546e2	-0.16140321
18	0xbc074cd8	-0.008258067
19	0xbc56482e	-0.013078732
20	0x3d47e334	0.048800662
21	0x3d9aaeb9	0.07552857
22	0x3d5f4290	0.05450684
23	0x3cd03b52	0.025418911
24	0xbde862f7	-0.11347001
25	0xbd037ed6	-0.032103382
26	0x3e019666	0.12655029
27	0x3e7fbdd7	0.24974762
28	0x3de86f6f	0.11349379
29	0xbed0bd3c	-0.40769374
30	0xbeac5e63	-0.3366576
31	0x3e261d27	0.16222058
32	0x3e0ba62b	0.13637607
33	0x3de2a428	0.110664666
34	0xbdab5bed	-0.08367143
35	0xbecc496a	-0.3989976
36	0xbeacb59e	-0.33732313
37	0xbe362c13	-0.1779025
38	0x3e52dea4	0.20592743
39	0xbe43ea74	-0.19132406
40	0x3e2778c9	0.1635467
41	0xbea955b6	-0.33073205
42	0x3e599ce2	0.21251252
43	0x3e4e367c	0.20137972
44	0x3f00719f	0.5017337
45	0x3ed5fc0e	0.41793865
46	0xbf01bef0	-0.5068197
47	0x3dc924da	0.09821482
48	0xbeb13725	-0.34612384
49	0xbe063c8e	-0.13109037
50	0xbdb59a76	-0.08867352
51	0xbe61c2f2	-0.22047022
52	0xbea30373	-0.3183857
53	0xbe67b2e2	-0.22626832
54	0xbeb729e9	-0.35774162
55	0x3e063867	0.13107453
56	0xbd5448b6	-0.051827155
57	0xbe728972	-0.23685244
58	0x3e72d8e8	0.23715556
59	0x3e31478b	0.17312448
60	0xbef215db	-0.472823
61	0x3e473176	0.19452462
62	0x3eca6699	0.395314
63	0xbe98b4b9	-0.2982538
64	0x3e6fc298	0.23414075
65	0xbe7dc4d2	-0.24782112
66	0x3ef0eeb0	0.47057104
67	0x3efb18be	0.49042314
68	0xbdde91aa	-0.10867627
69	0x3e49ce72	0.19707659
70	0xbed76f14	-0.42076933
71	0x3e8854d4	0.2662722
72	0xbea2c238	-0.31788802
73	0xbc5cc8b2	-0.013475584
74	0xbe4eb666	-0.20186767

grapher.2.gru.bias_ih f4 [15]
0	0xbe9358fe	-0.28778833
1	0xbef2e83e	-0.47442812
2	0xbe2f806a	-0.1713883
3	0xbbecb215	-0.0072233775
4	0x3e9b685f	0.30353066
5	0x3ef6a892	0.48175484
6	0x3ea61704	0.32439435
7	0x3d656c91	0.05601174
8	0x3e607b1a	0.2192196
9	0xbeb873dd	-0.36025897
10	0xbe2d832a	-0.16944566
11	0xbe7c6cc0	-0.2465086
12	0xbe704273	-0.23462848
13	0xbe920399	-0.2851837
14	0xbd1947fb	-0.03742216

grapher.2.gru.bias_hh f4 [15]
0	0x3ebf1eb0	0.373281
1	0xbd332be3	-0.043743026
2	0xbd465464	-0.048420325
3	0xbd9dc8d8	-0.077043235
4	0xbec8a06c	-0.39184892
5	0x3efd6acf	0.4949555
6	0xbe6b7156	-0.22992453
7	0xbee45d8f	-0.4460263
8	0x3eb1ac5c	0.34701812
9	0x3e6407d5	0.22268613
10	0x3e9fb7c3	0.31194887
11	0xbea8fac2	-0.33003813
12	0xbe678257	-0.22608314
13	0x3e135634	0.14388353
14	0x3d1cac4a	0.038250245

grapher.2.gru.ln_resetgate.weight f4 [5]
0	0x3f32ccd5	0.698438
1	0x3f16ddea	0.58932364
2	0x3ee3a354	0.44460547
3	0x3ebb1711	0.36541036
4	0x3f23d84d	0.64001924

grapher.2.gru.ln_resetgate.bias f4 [5]
0	0x3daec134	0.08532944
1	0xbd861846	-0.065475985
2	0x3df30f32	0.11868133
3	0x3e908b74	0.28231394
4	0x3d69c24a	0.057070054

grapher.2.gru.ln_inputgate.weight f4 [5]
0	0x3f73575e	0.95055187
1	0x3f47d715	0.78062564
2	0x3f5173bd	0.8181723
3	0x3f4bb8dd	0.79578954
4	0x3f7d68a9	0.98987824

grapher.2.gru.ln_inputgate.bias f4 [5]
0	0x3e090ad8	0.13383043
1	0x3e007e26	0.12548122
2	0x3d10d057	0.03535494
3	0x3dc3ae09	0.09554679
4	0x3beb000f	0.007171638

grapher.2.gru.ln_newgate.weight f4 [5]
0	0x3f5d8aaf	0.8653974
1	0x3f4de56a	0.80428183
2	0x3f5c7219	0.861116
3	0x3eeac88a	0.45856124
4	0x3f7a0732	0.9766723

grapher.2.gru.ln_newgate.bias f4 [5]
0	0xbde74854	-0.11293092
1	0x3ddb8241	0.10718203
2	0x3d2b9dbf	0.041898485
3	0x3d439856	0.0477527
4	0xbdf302a4	-0.11865738
