scheduler/BaGTI/checkpoints/energy_latency_10_900.ckpt (torch, 513903 bytes, 24 tensors)

find.0.weight f4 [128, 120]
000000 c5 cc 8a bd 25 55 ee 3d 58 75 21 3e 22 d5 8f 3e
       -0.06777338 0.11637334 0.1576742 0.28092295
000010 f6 2d 90 3e e3 63 83 3d 0b 72 ad be e9 5f c5 be
       0.28160065 0.06415536 -0.3387607 -0.38549736
000020 55 67 12 3d d2 a3 cc bc 0b 1b 88 be 3f ed 51 3e
       0.035743076 -0.02498046 -0.26583132 0.20500658
000030 80 e2 f7 bc 76 93 fb bd b1 15 a4 bd 96 e3 2c bd
       -0.03025937 -0.12283985 -0.0801195 -0.04220923
000040 dc e6 78 3e fc 15 47 3e c2 d6 cc 3d 0f 7b 84 3e
       0.24306816 0.1944198 0.10001899 0.25875136
000050 18 99 60 be 4a a3 4b bd ae 0d 72 be 55 af 73 bd
       -0.219334 -0.04971627 -0.23638031 -0.05949338
000060 ea 94 09 3d 7f 1a fe 3d bb 39 76 3d 53 7b 9f 3e
       0.03358928 0.124073975 0.06011365 0.31148776
000070 df 76 87 bc 7e e2 28 be 27 4a d5 be 9b 25 d8 bd
       -0.016536174 -0.1649265 -0.41658136 -0.10554048
000080 77 d4 ac bc c6 37 0d 3e dd 0b 5f be 54 ac a6 3d
       -0.021097405 0.13790807 -0.21781869 0.08138338
000090 e6 36 b6 3e 97 47 2c be ae e9 8f bd 81 ef 96 be
       0.3558876 -0.16824184 -0.07026993 -0.29479602
0000a0 01 04 87 3e 81 5b 0f 3e 9d e0 f0 3d a6 7c 78 3d
       0.26370242 0.1399975 0.117615916 0.06066575
0000b0 6c fb b9 bd a7 ef 9f bd 7e 52 16 be 89 f2 9e 3c
       -0.09081158 -0.07809382 -0.14679906 0.01940276
0000c0 8d fd 31 be 90 1e e2 bc c5 0a b5 bd e0 ac a5 bd
       -0.17381878 -0.027602464 -0.08839945 -0.08089614
0000d0 0e fa 41 3d dd e7 c4 bd de f9 dc 3d a2 a7 ac bd
       0.04735761 -0.09614537 0.10789846 -0.08430411
0000e0 5b 1b 32 3e 10 bf 5d be ce 40 30 3e 3b 59 8a bd
       0.17393248 -0.21654916 0.17212221 -0.067553006
0000f0 42 fb f6 3c 01 b0 6d bd e6 e7 06 bd 70 50 74 3d
       0.030149106 -0.05802918 -0.032936 0.059647024
000100 7d 13 0f be f8 c6 33 3d f6 d5 35 3e a4 e6 ec bd
       -0.13972278 0.043890923 0.17757401 -0.11567429
000110 73 0c 1b 3d c1 3f b5 3e 76 3b 8b 3d 7f 48 06 3e
       0.03785367 0.35400203 0.06798451 0.13113593
000120 9a 03 c5 3d 83 2a e7 3c ae 6a 09 be 4a c3 39 be
       0.096198276 0.028218513 -0.13419601 -0.18140903
000130 99 30 0e be 1b f4 95 3e 00 ad eb be c9 1b a7 3e
       -0.13885726 0.292878 -0.46030426 0.32638386
000140 2b 9e d3 3d b6 9c 74 be 4b 0d 5e be 95 96 80 3d
       0.103329025 -0.23887905 -0.21684758 0.06278721
000150 a2 87 ba bd e6 e7 8a bd cc 9b 19 3c 71 f7 c3 3c
       -0.09107901 -0.06782512 0.009375524 0.0239217
000160 76 d2 a4 3d ff 46 46 3e 62 23 52 be d6 09 7f be
       0.08047955 0.1936302 -0.2052131 -0.24906096
000170 1b 01 08 be 34 86 85 3e 19 24 92 be 45 9a f0 3d
       -0.13281672 0.2607895 -0.28543165 0.117481746
000180 80 35 86 be 52 77 55 bd 27 fc 07 3d 27 ef 26 be
       -0.26212692 -0.052115746 0.033199456 -0.16302167
000190 26 17 a2 be 3d d2 b0 bd bb d0 8c 3e 3b 8d 34 3d
       -0.31658286 -0.0863385 0.27503 0.04408
0001a0 fb be 30 3e 54 3d 99 bd b0 c0 1f 3d 8a 74 29 be
       0.17260353 -0.074824005 0.03900212 -0.16548362
0001b0 9d 5d 04 ba ad bd 19 3e 9a 19 93 be 38 36 de bd
       -0.000504935 0.15013762 -0.2873047 -0.10850185
0001c0 80 33 4d 3d b7 ea fe bd 6a e1 2b 3d 38 49 32 3c
       0.050097942 -0.12447112 0.04196302 0.0108817145
0001d0 69 9a 09 3c 6c 7a e3 3c 15 34 42 3e 2b b4 58 3e
       0.008398631 0.027768336 0.1896518 0.21162479
0001e0 5b a9 01 be 22 2a 72 bd a8 8b ad bc 5d 93 13 bd
       -0.1266226 -0.059122212 -0.021184757 -0.03602921
0001f0 f3 49 a1 3d 0e d6 76 be b5 af 68 3d bd bd 53 be
       0.07875433 -0.24105093 0.056808192 -0.20677848
000200 ea a8 44 bd 7b dc 33 bd 15 b0 ab be e1 d5 3c 3e
       -0.04801265 -0.04391144 -0.33532777 0.18440963
000210 5a 9f 64 bd 53 d3 d4 bd 2c f4 3e bd b7 a0 69 be
       -0.055816032 -0.103918694 -0.04661958 -0.22815214
000220 ec 09 c7 3d a0 c5 e6 3c 8f 71 88 bc 82 ca cf bd
       0.09718689 0.028170407 -0.016655711 -0.10146047
000230 ab f2 88 3e fd da 38 be e8 aa 29 be 70 91 35 be
       0.2674764 -0.18052287 -0.16569102 -0.17731261
000240 bf 8b 70 be 77 be 94 bd d2 9b 66 be 4a ec d4 bd
       -0.23490809 -0.07262891 -0.22520378 -0.10396631
000250 51 d3 44 be b5 40 87 3e 73 58 60 3e e0 dd f0 3c
       -0.19221236 0.26416555 0.2190874 0.029402673
000260 cb 59 b1 3d 80 cc 2d be 4b e3 bd bd fc 8b 24 bd
       0.08659705 -0.16972542 -0.09271868 -0.040172562
000270 7e e6 22 be 08 08 4a be 24 7a e5 bb 87 a7 ab 3e
       -0.15908238 -0.19729626 -0.0070030857 0.3352625
000280 6f c1 81 bc d4 2b 72 bb 43 c1 29 3c 17 31 54 3e
       -0.015839307 -0.0036952393 0.010361019 0.20721851
000290 90 d2 03 be 6c 27 92 bd 98 95 0b be e1 7e c4 3d
       -0.12873292 -0.071364254 -0.13631284 0.09594513
0002a0 7a 42 61 3d 03 6e 1d be 42 33 44 be ef 03 af 3d
       0.054995038 -0.15373997 -0.19160178 0.08545672
0002b0 03 4e a1 bc 3f 70 8b 3d 77 c6 cc bd 79 e1 4a be
       -0.01969052 0.068085186 -0.09998792 -0.19812573
0002c0 ef 0c 1e be 31 22 96 3c 5e f9 36 bd 12 e2 2c 3d
       -0.15434621 0.01832685 -0.04467141 0.042207785
0002d0 d3 f1 93 be 69 5e 1a be e6 d7 42 be 08 7a 62 3d
       -0.28895435 -0.15075077 -0.19027671 0.05529216
0002e0 95 04 80 3c 33 56 1b 3d b3 a0 7f 3e 8a c3 0e be
       0.015627185 0.037924003 0.24963646 -0.1394178
0002f0 ce 66 a9 3c 4c 48 0e be e3 1d 94 bd 16 d2 60 bd
       0.020678904 -0.13894767 -0.07232263 -0.054887854
000300 5a cb 38 be 5a f7 a9 3d 50 62 ed bb 4b c6 57 3e
       -0.18046322 0.08299132 -0.007244386 0.21071737
000310 f9 6d 2c be 0e 62 2d bd 90 84 f1 bd af e4 0f be
       -0.16838826 -0.04232984 -0.117928624 -0.1405208
000320 e1 b3 11 be b6 be 6a bd 4d 41 2a 3e f7 1c 88 3c
       -0.14228775 -0.057310782 0.16626473 0.016615374
000330 3a 47 87 be 4e 65 d9 bc 69 ae 30 3d e7 27 1f 3e
       -0.2642153 -0.026537564 0.04313508 0.15542565
000340 50 b2 fe bd 32 67 83 3c 9c 57 8d 3d 0d ed 9e bc
       -0.12436354 0.016040418 0.06901476 -0.019400144
000350 19 27 1f 3e 42 e4 30 be 9c fb 46 be 0f 28 72 3d
       0.15542258 -0.17274573 -0.19431919 0.059120234
000360 94 05 12 be 9c 6c e1 3c 97 a5 38 3d 1a 6c 5b bd
       -0.1425994 0.02751761 0.045079794 -0.05356989
000370 d2 07 f6 3c 78 9a 1c be cb 05 0e 3e 59 05 39 be
       0.030033026 -0.152933 0.13869397 -0.18068446
000380 c6 ce 2a bd cb 07 93 bd a4 58 23 3e 8b d6 6d 3e
       -0.0417011 -0.07179221 0.15951782 0.23226373
000390 4e 6b 19 3d 96 83 ad 3d 02 08 8b bd 48 e2 81 3d
       0.03745585 0.08472364 -0.06788637 0.06341988
0003a0 29 61 f3 3d cb ee 18 be f1 89 b6 3d ef b5 9f 3c
       0.11883766 -0.14934842 0.08913029 0.019495932
0003b0 dc f0 1d bd 89 68 c9 bc 7a bf be bc 82 dd 1f 3e
       -0.03855978 -0.024585979 -0.023284663 0.15611842
0003c0 63 2e 91 3c 6c 93 a9 bd e8 d7 bf 3d 3f aa d8 3d
       0.017722314 -0.082800716 0.09367353 0.10579347
0003d0 1f 96 0f bf f7 ba 95 bd 92 7e 50 be 76 8d 14 bd
       -0.5608844 -0.07311051 -0.20360783 -0.03626772
0003e0 7c c3 dd 3b 0b 5a 03 3e 37 79 96 3e 43 2d 4b be
       0.0067676883 0.12827317 0.29389355 -0.19841485
0003f0 37 27 25 be ca b9 ad 3d f2 1c 23 3e e6 6d 17 3a
       -0.1612824 0.08482702 0.1592901 0.0005776569

find.0.bias f4 [128]
000000 ec 53 05 be dc a7 5c bd 38 1a 7d bd d2 e8 c6 bd
       -0.13020295 -0.05387102 -0.061792582 -0.09712376
000010 c2 8b ba bc 64 08 98 3c 52 de 86 bd 5d 03 f9 bd
       -0.02277172 0.018558688 -0.06585373 -0.121588446
000020 77 ae ef 3a c2 3f fe bc 51 00 ea bd 55 df 7b bd
       0.0018286248 -0.031036261 -0.114258416 -0.061492283
000030 d6 95 ef bd 40 72 20 bd 75 2a 43 3e 0f 99 26 3d
       -0.11698501 -0.039171457 0.19059165 0.04067331
000040 3c e1 a0 bd 66 2e cd bd 85 55 b1 bd 1f b4 8d bd
       -0.0785546 -0.100186154 -0.0865889 -0.06919121
000050 5f 25 02 be 5c ff 43 be ca 2d 44 be f3 9f 47 3d
       -0.12709568 -0.1914038 -0.19158092 0.048736524
000060 93 af e3 bd ba 8c 05 be e2 4b 15 be 43 1f c1 bd
       -0.111174725 -0.13041964 -0.14579728 -0.09429791
000070 08 d8 6a 3d 10 d8 4b bd a6 ed b1 bc a0 9d ef bd
       0.05733493 -0.0497666 -0.021719765 -0.116999865
000080 01 fa 1a 3d 2a 1a 42 be 78 b1 cc bd b7 1c 6a 3c
       0.03783608 -0.18955293 -0.09994787 0.014289073
000090 f9 b3 e3 bd 5a 8e 95 3d ae b4 00 be fd 3d 12 be
       -0.111183114 0.07302542 -0.12568924 -0.14281459
0000a0 d6 c5 20 3d c9 2d 30 bc 73 0b 0a be d3 52 17 be
       0.03925117 -0.0107531035 -0.1348093 -0.14777689
0000b0 75 cb 86 3b 35 47 98 bd e9 a5 d8 bd 6b b4 20 be
       0.0041136094 -0.07435457 -0.1057852 -0.15693824
0000c0 08 8a 8e bc e2 04 14 be f5 32 26 be f3 68 c7 bd
       -0.017399803 -0.14454988 -0.16230376 -0.09736814
0000d0 86 ec 01 be 3b 84 97 3a a6 cb b3 bd 61 4d 02 be
       -0.12687883 0.0011559793 -0.08779077 -0.1272483
0000e0 dc fa 5a be f7 fe 08 bd ae 5e d5 bc 15 d7 33 bd
       -0.21384758 -0.03344628 -0.026046123 -0.04390629
0000f0 df cb 01 be ed b4 67 bd 80 a2 b8 bd 13 e2 62 bd
       -0.12675427 -0.05656903 -0.090153694 -0.055391382
000100 c5 d4 d1 3c 1d 0e 78 bd f8 71 01 bd 3b 69 5a 3d
       0.025614152 -0.060560334 -0.03160283 0.05332301
000110 fe 9f 34 bd 0e fa 99 bc e1 04 8f bd 66 54 05 bd
       -0.044097893 -0.018795993 -0.069833525 -0.03255119
000120 07 d3 1a 3d da e8 b6 bd 0e 0a 1a be 23 10 5f bd
       0.037798908 -0.08931132 -0.15042898 -0.05445875
000130 64 55 30 be d0 ec 84 3d ea be b5 bd 5b db 14 be
       -0.17220074 0.06490481 -0.088743046 -0.14536802
000140 c0 d6 2f be 30 f0 d9 bd dc 1f 1a be 89 78 18 bd
       -0.17171764 -0.10641515 -0.15051216 -0.037224326
000150 54 52 c6 bd 3d 18 b4 bc 3f 0c d2 bd b2 cc aa bd
       -0.096836716 -0.021984214 -0.10256242 -0.08339824
000160 a4 15 34 bd 19 28 8e bd 8d ec 00 be 71 26 f7 bd
       -0.04396595 -0.06941242 -0.12590237 -0.12067879
000170 6c cc 18 be 11 bf 02 3c 43 46 ee bd da 57 01 be
       -0.14921731 0.007980124 -0.11634495 -0.12631169
000180 43 22 cc bd f4 9f b1 bc f9 43 2b be 3c c4 95 bd
       -0.099674724 -0.021682717 -0.16725148 -0.07312819
000190 d4 63 a3 bc da 85 26 bd 2d 7a 7b bd 7c 48 87 3d
       -0.019945063 -0.040654995 -0.061395813 0.06605622
0001a0 97 a5 47 bd 20 18 97 bd f4 55 15 be 8e b2 0f 3e
       -0.048741903 -0.07377648 -0.1458357 0.14032957
0001b0 b8 e4 12 be c1 9c 4c 3d 1d 8d 1d be f6 6c 8c 3d
       -0.14345062 0.04995418 -0.15385862 0.0685672
0001c0 7e e2 f3 3d fb d2 9e bd b0 35 47 be 3c 2c dc bd
       0.11908434 -0.07755085 -0.19454074 -0.107506245
0001d0 0e d2 b8 bd ac e2 e8 3c bc a9 04 be ca 8a 4e be
       -0.0902444 0.028428398 -0.12955374 -0.20170131
0001e0 00 8a 81 bc 11 2d 3e bc 17 f8 26 be f5 40 23 be
       -0.015812874 -0.011607424 -0.16305576 -0.15942748
0001f0 4e 3e d9 bd 68 7e 0b be a9 15 07 be 9f 3b 08 be
       -0.10607587 -0.13622439 -0.13191856 -0.13303994

find.2.weight f4 [128, 128]
000000 e4 9a c8 bd 2f c3 ff bc c7 a7 c5 3d 84 90 6b bd
       -0.09795168 -0.031221 0.096511416 -0.057510868
000010 b0 6f 15 3c 87 54 9c 3d 12 26 cf bd ed d8 18 bd
       0.009120867 0.0763331 -0.10114683 -0.03731625
000020 48 fb fe 3c d1 98 b7 bd aa 6a 9d bd 74 69 2e bd
       0.03112568 -0.08964694 -0.0768636 -0.042581037
000030 1e 44 12 3e 80 d0 75 bd bc a7 80 3e 41 ee 4f 3d
       0.14283797 -0.060013294 0.2512797 0.050764326
000040 9e 14 a0 bc c0 eb 20 bc f9 e9 b8 bb 59 c5 00 3d
       -0.019541081 -0.009821832 -0.005643126 0.031438205
000050 83 de e0 bd c0 07 35 bc 20 e1 8a bd 88 0a 22 3d
       -0.10979941 -0.011049211 -0.067812204 0.039560825
000060 5f 79 69 bd 07 a6 48 bc 32 97 97 bd 87 9e d1 bc
       -0.057000514 -0.012246615 -0.07401885 -0.025588287
000070 f1 61 c2 3d 94 0a 9e 3d 95 00 98 bd cf 4f c4 bd
       0.09491337 0.07716861 -0.07421986 -0.09585535
000080 3b b8 19 3e ce 8d 26 ba 20 70 39 3d 4d 4a 84 bd
       0.15011685 -0.0006353528 0.045272946 -0.06459484
000090 71 98 9a 3d b6 84 0b 3e b4 2f 0e 3d 15 ed 97 bd
       0.07548607 0.13624844 0.034713462 -0.07418267
0000a0 50 eb 8b bc d1 5e 47 bd 3c db e7 bb d2 c3 5e ba
       -0.01707998 -0.04867441 -0.0070756953 -0.00084978074
0000b0 9d db 3d bd d1 84 74 bc 87 6f 14 3e 0b 80 d1 bc
       -0.046352018 -0.014924244 0.1449567 -0.025573751
0000c0 68 88 0b 3e 37 9b d3 3c 01 21 5b bd 0d bb f5 3b
       0.13626254 0.025830848 -0.05349827 0.007499105
0000d0 ec d3 25 3d 13 4e 7e 3d ac 32 d4 3d 75 22 73 3d
       0.040485308 0.062086176 0.103612274 0.059359033
0000e0 fd 5a 6c 3c 4b 7b a3 3d 5f 2d e2 bd ee f5 57 3e
       0.01442599 0.07982501 -0.1104381 0.21089908
0000f0 9f 8f e5 bd 4f 0f 24 3d 72 4a 90 bc cb 56 db 3d
       -0.11209034 0.040053662 -0.017613623 0.10709914
000100 25 1f d2 bd e4 e7 6b 3d ad e8 42 3d 83 b3 fc 3b
       -0.102598466 0.057594195 0.04758518 0.007711829
000110 fa 9f 69 3d a1 72 48 3e 7b f0 a2 3d 8e f6 05 bd
       0.05703733 0.19574977 0.07956024 -0.032705836
000120 16 5a 6c 3d c5 88 12 bd b4 fa 8b bd 83 9f 11 bd
       0.0577031 -0.035774965 -0.06834927 -0.035552513
000130 df 91 ae 3c 06 b5 10 3e 8e 21 a3 bd cd 4a da bd
       0.021309791 0.14131555 -0.079653844 -0.10658798
000140 eb e3 78 3d 65 5c a5 bd 19 e2 39 bd 35 5e d5 bd
       0.060764235 -0.080742635 -0.04538164 -0.10418359
000150 e2 7a ea bd 56 78 e9 bb fd 81 a2 bc e6 1a 07 3d
       -0.11449219 -0.007124941 -0.019837374 0.032984637
000160 6f bc 08 bd 3c e0 70 3d e8 e0 cc bd 4d 9b b6 3c
       -0.03338283 0.058807597 -0.10003835 0.02229085
000170 48 74 68 3d 54 2c 02 be 2e af 3c bd e8 9f 28 bd
       0.05675152 -0.12712222 -0.046065502 -0.041168123
000180 65 cc 01 be 74 32 04 3e 1d d2 9e 39 a3 b4 10 be
       -0.12675627 0.12909871 0.00030292655 -0.14131407
000190 b3 37 9a bd f6 97 e7 bd 22 c4 b7 bd 0c df 9c 3e
       -0.07530155 -0.11308281 -0.08972956 0.3063892
0001a0 7b 7f 0b bd e8 b1 79 bc 73 a4 9c bd fa 64 43 3e
       -0.03405712 -0.01524017 -0.07648554 0.19081488
0001b0 67 d9 24 be e3 bd df bd 4c 6b 9d bd b6 a6 a2 3e
       -0.16098557 -0.1092489 -0.07686481 0.31767815
0001c0 8f 5c 5e 3e 11 e9 76 bd e2 6d be bc 55 6e 0c be
       0.21714996 -0.060280863 -0.023245756 -0.13713963
0001d0 c5 4f 77 bd 50 49 2f 3e 28 06 f7 bc 9b 22 18 bd
       -0.06037881 0.1711781 -0.030154303 -0.037142377
0001e0 90 c7 ef bb 61 96 0c 3e cd a2 87 3c 93 19 a4 3a
       -0.007317491 0.1372924 0.016557122 0.0012519829
0001f0 39 2a c5 bd 62 d2 80 3d fc 1d 80 3a e4 94 1d bd
       -0.09627194 0.06290127 0.0009774561 -0.03847207
000200 38 ea af bc ed 58 3d bc 58 ff d7 bc 55 d5 9b bc
       -0.021473989 -0.011556846 -0.026366875 -0.019022623
000210 a3 2e 6e bc 72 60 21 bc 53 db 84 bc 83 eb 90 bc
       -0.014537486 -0.0098496545 -0.016217863 -0.017690426
000220 07 05 8b bc eb 2d 81 bc 4e 77 b8 bc 7f a3 9d bc
       -0.01697017 -0.015768966 -0.022517826 -0.019243
000230 27 de 41 bc 35 c7 86 bc 27 88 ad bc 74 e2 9c bc
       -0.01183275 -0.016452411 -0.021183087 -0.01915095
000240 77 66 d5 bc 74 e7 9e bc b4 38 3d bc 75 a9 99 bc
       -0.026049836 -0.019397475 -0.011549164 -0.018757561
000250 14 86 b7 bc 4f 0d 6f bc 19 d1 a2 bc 2b da 46 bc
       -0.0224028 -0.014590575 -0.019875096 -0.012136976
000260 7b d9 9e bc e5 56 5e bc 2a 7b b6 bc 97 24 94 bc
       -0.019390812 -0.013570522 -0.022275526 -0.018083854
000270 c2 c9 65 bc 7c 58 57 bc 7c ff a6 bc 75 4f 9d bc
       -0.014025154 -0.013143655 -0.020385496 -0.019202927
000280 d4 e7 ae bc fb 5f a1 bc ff 5e b3 bc b3 a7 51 bc
       -0.021350779 -0.019699087 -0.021895884 -0.01279633
000290 5a 0c 8d bc ae 02 5d bc 40 c7 70 bc 1d 82 b8 bc
       -0.017217804 -0.013489408 -0.014695942 -0.02252298
0002a0 e2 5a 9f bc 15 fd 9f bc 26 30 b0 bc a7 60 8f bc
       -0.019452516 -0.019529859 -0.021507334 -0.017502142
0002b0 6b 0a 93 bc 9d 44 b8 bc c0 b5 4e bc c8 b3 9f bc
       -0.017949304 -0.022493655 -0.012616575 -0.019494906
0002c0 34 48 84 bc f7 86 c3 bc 9a eb bc bc 9a 96 b9 bc
       -0.01614771 -0.023868067 -0.023061562 -0.02265482
0002d0 44 82 61 bc 7f 07 b9 bc 21 cd 29 bc 6d 4b 68 bc
       -0.013763968 -0.022586582 -0.010363848 -0.014178139
0002e0 5c 49 4f bc 65 1f 98 bc eb 20 3a bc 0a b5 19 bc
       -0.012651768 -0.018569658 -0.011360387 -0.009381542
0002f0 80 a6 af bc f6 17 71 bc 55 78 3c bc d6 56 3c bc
       -0.021441698 -0.014715185 -0.011503299 -0.011495313
000300 c9 39 4b bc 7d b2 b2 bc aa 06 a7 bc ef 6c 9e bc
       -0.012403914 -0.021813625 -0.02038892 -0.019339053
000310 e3 98 36 bc 40 e6 6b bc f8 2b 7a bc f0 94 05 bd
       -0.0111448495 -0.014398158 -0.015269272 -0.03261274
000320 78 2f 96 bc e5 cf db bc 60 33 bd bc 09 b1 93 bc
       -0.018333182 -0.02683253 -0.023095787 -0.018028753
000330 42 1c 81 bc eb 69 89 bc 36 e3 a8 bc d8 15 3d bc
       -0.015760545 -0.016774138 -0.020616155 -0.0115408525
000340 6e 13 80 bc 7b db a6 bc 3c 05 d1 bc 12 9c 9b bc
       -0.015634265 -0.020368328 -0.025515191 -0.018995319
000350 ef 29 f2 bc f3 64 90 bc a4 85 96 bc e3 b1 fd bc
       -0.029561011 -0.017626261 -0.018374272 -0.030968612
000360 cc c8 ad bc bc 07 52 bc aa dd d9 bc 73 8e 9d bc
       -0.021213911 -0.012819227 -0.026594955 -0.019232964
000370 38 6c 83 bc 4a c1 a1 bc 4e 66 72 bc e4 6a 9b bc
       -0.016042814 -0.019745488 -0.014794899 -0.018971868
000380 fe bb d1 bc d0 a9 8f bc 2b 08 93 bc ee b8 71 bc
       -0.025602337 -0.017537028 -0.01794823 -0.014753563
000390 56 e9 8b bc 14 0d 8c bc 22 b2 cf bc 87 ab cb bc
       -0.017079037 -0.01709608 -0.025353495 -0.024862064
0003a0 54 f7 85 bc 56 cc bb bc 65 45 a6 bc 77 fe 77 bc
       -0.016353287 -0.022924583 -0.020296762 -0.015136353
0003b0 57 7f ee bc 2b 24 a4 bc fe ee 96 bc 3d 36 5f bc
       -0.029113455 -0.020036777 -0.018424507 -0.013623771
0003c0 e2 e1 97 bc 60 dc c0 bc c6 c1 a4 bc d0 31 4a bc
       -0.018540327 -0.023542583 -0.02011193 -0.012340978
0003d0 2f eb 43 bc c9 8b 32 bc 3a 98 9f bc 60 e7 81 bc
       -0.011957928 -0.010897585 -0.019481767 -0.015857399
0003e0 af 79 20 bd 44 c2 89 bc 23 88 83 bc 37 a3 cc bc
       -0.039178547 -0.016816266 -0.016056126 -0.02498017
0003f0 d3 86 72 bc ed fa 3e bc b8 ed 4c bc 61 d0 8f bc
       -0.014802652 -0.011656505 -0.012507848 -0.017555417

find.2.bias f4 [128]
000000 34 71 a5 3c fc 94 23 bd 2c 70 26 bd d8 fb ef 3c
       0.020195581 -0.039937004 -0.04063432 0.029294893
000010 af 9f 47 3c e7 ee 35 3d 02 6d 1a bd 82 a2 b4 bb
       0.012184068 0.04441729 -0.037701614 -0.0055125365
000020 49 a6 2c bd 77 59 1f bd 8f b8 be 3a d3 3b 28 bd
       -0.04215077 -0.03890368 0.0014550852 -0.041072678
000030 8e f7 ba 3b e4 62 bd bd c2 2e 2e 3c ff ab ed bc
       0.0057057803 -0.092473775 0.010631265 -0.029012678
000040 e0 c5 b0 bb 4a 23 1c 3d f7 94 28 bd 3f 60 15 bc
       -0.0053946823 0.03811959 -0.04115769 -0.009117185
000050 ca bb 20 bd 1b a3 0b bd 36 05 3a bb 71 e5 88 3d
       -0.03924159 -0.034091096 -0.0028384454 0.066843875
000060 3e 15 22 bd 5f 6c 30 bd c4 c9 1a bd 28 8b 3f bc
       -0.03957104 -0.0430721 -0.037790075 -0.011690892
000070 37 22 a5 bb 41 b2 27 bd 64 e0 88 3c 99 32 2c bd
       -0.005039479 -0.04094148 0.01670856 -0.04204044
000080 1e 8b 91 3c 1b 85 29 bd ea 8d 31 bd 48 8d 73 bd
       0.017766532 -0.041386705 -0.04334823 -0.05946091
000090 21 f3 f5 bc 1b 27 2c bd 13 db d9 bb 0c 0c 14 bd
       -0.03002316 -0.04202948 -0.00664843 -0.0361443
0000a0 37 cf a3 3c ad 3c 31 bd 63 8c 2c bd 27 01 2b bd
       0.019996269 -0.043270756 -0.04212607 -0.041749146
0000b0 0e 7d ab bc aa f7 2c bd ff b4 74 3d 51 3f 22 bd
       -0.020933654 -0.04222838 0.059742924 -0.039611164
0000c0 6f 7b 17 bd 1a ef 14 bd 79 75 2e bd 36 3d 31 bd
       -0.03698295 -0.036360838 -0.0425925 -0.043271266
0000d0 ff 50 23 bd 74 5f 29 bd 5e 7b 2e 3d 8f 10 65 bd
       -0.039872166 -0.041350797 0.04259812 -0.055923995
0000e0 e6 10 29 bd 23 87 6b 3d 4b eb dd bc 24 e0 2b bd
       -0.04127588 0.057501923 -0.027089735 -0.041961804
0000f0 98 c5 27 bd d3 16 29 bd 59 40 2d bd a5 72 31 bd
       -0.040959924 -0.041281532 -0.042297695 -0.043322224
000100 92 f0 2b bd a1 db 03 bd ae e9 25 bd d6 f9 31 3d
       -0.041977473 -0.032191876 -0.040506057 0.043451153
000110 3d 78 6f bc 6b 5b 2c bd 36 66 96 bc 12 22 db bc
       -0.014616069 -0.04207937 -0.018359285 -0.026749644
000120 59 bd 33 bd da 1c 01 3d 5d 6f 27 3d 38 61 65 bc
       -0.043881748 0.031521656 0.04087769 -0.01400023
000130 9c fa f0 3c 78 d5 1d 3d 2e 37 21 bd 52 20 31 bd
       0.029416375 0.038533658 -0.039359264 -0.043243714
000140 f2 f9 c7 bd 20 2f 80 3c db ee 2a bd 62 d2 02 bd
       -0.0976447 0.015647471 -0.041731697 -0.031938918
000150 2f 38 18 3d 44 58 7c 3c a5 bb 90 bc 73 10 3e bd
       0.037162956 0.015401904 -0.0176676 -0.046402406
000160 b0 ad 08 bd aa f3 28 bd 1a cd 1e bd 59 07 22 bd
       -0.033368766 -0.041248 -0.03876982 -0.03955779
000170 11 d1 1f bd bd 33 96 3c 56 d6 28 bd d2 ee 2c bd
       -0.03901774 0.018335218 -0.04122003 -0.042219944
000180 90 8a 3a bd 16 7f 2c 3c a1 94 2e bd 85 2f 05 bc
       -0.0455423 0.0105283465 -0.042622212 -0.008129005
000190 fc c3 26 bd 30 bf 3e 3c 81 57 2d bd 0f 08 70 b9
       -0.04071425 0.011642262 -0.04231978 -0.00022891186
0001a0 3a 85 23 bd 6f 43 37 3c 79 2a 32 bd f4 c9 e3 bc
       -0.039921977 0.011185511 -0.043497536 -0.02780626
0001b0 f0 45 2d bd 88 4c 24 bd 71 4a 27 bd 3d d5 c5 3a
       -0.042303026 -0.04011205 -0.040842477 0.0015093457
0001c0 a8 6b 1e bd 6b c2 f1 bc c9 90 b7 bb 47 7d 22 3d
       -0.038676888 -0.029511651 -0.0056019765 0.039670255
0001d0 00 29 33 bd dc 24 1e bd 89 99 c5 bc 22 c4 66 bd
       -0.043740273 -0.03860937 -0.024121063 -0.05633939
0001e0 4a a9 34 39 8e dc 2b bd 44 c1 0b bd 51 af 27 bd
       0.00017229203 -0.041958384 -0.03411986 -0.04093868
0001f0 6b 17 22 bd 5e 89 1d bd d2 e8 2b bd 32 d8 89 bd
       -0.039573114 -0.03846108 -0.04197008 -0.06730689

find.4.weight f4 [64, 128]
000000 39 84 25 bd 29 63 9a bc 96 95 d4 bc fc d5 b6 3d
       -0.0404093 -0.018846111 -0.025950234 0.08927533
000010 85 a4 64 bd c5 23 23 bc 53 00 0f bd 63 10 69 bd
       -0.05582096 -0.009957259 -0.03491242 -0.056900393
000020 a1 21 bd bc ef a5 b8 bc 8f 6e 69 bd 92 5e f6 bc
       -0.023087325 -0.02254006 -0.056990203 -0.030074392
000030 b4 a1 60 3d cc 9b be bd 04 c5 61 bd 77 0e 21 bd
       0.054841712 -0.0930706 -0.05511953 -0.039320435
000040 2a f0 f8 3d e2 c4 b0 3d 93 5a 93 bc 78 e2 d5 bd
       0.12155183 0.086313024 -0.017987525 -0.10443586
000050 a8 10 c5 bc 42 c1 70 3c 2c ec 50 3d f0 47 a8 3a
       -0.024055794 0.014694514 0.05100648 0.0012838822
000060 69 2c a5 bc 0b 91 ad bc 44 34 c9 bc f2 3b 38 3d
       -0.020162778 -0.021187326 -0.024561055 0.044979043
000070 8d be 70 bd 78 15 94 bc 53 e7 33 bd b6 3c bb bc
       -0.058775473 -0.018076643 -0.04392178 -0.022856098
000080 70 ed 52 3d 7e aa b8 bc 51 d6 c6 bc da 63 87 3d
       0.05149597 -0.022542235 -0.024272116 0.06610842
000090 fd 9a 20 3e 4f da be bc 09 3d b3 bd 8c 12 81 bd
       0.15684123 -0.023297457 -0.08751876 -0.06302366
0000a0 78 97 c4 bd 90 d2 a8 bc 01 30 c4 bc 9f 9d e2 bc
       -0.09599203 -0.020608217 -0.023948671 -0.02766305
0000b0 12 3d 07 3e 3c 98 b0 bc 7d 19 ab 3b 95 46 8f bc
       0.1320689 -0.021556966 0.0052215443 -0.01748971
0000c0 ad a7 db bc cf a3 1e bd fd f8 bd bc a6 a8 b7 bc
       -0.026813352 -0.03873044 -0.023190016 -0.022419285
0000d0 13 cf 9e bc 46 b2 bc 3d 92 a5 a8 bc 90 ae 86 3d
       -0.01938585 0.092136905 -0.020586763 0.06576264
0000e0 fa 8b 9e bc a1 83 a8 3d a3 40 5f 3d cc 46 de bc
       -0.019353855 0.08228231 0.054505 -0.027133368
0000f0 bb 39 b3 bc 42 eb cf bc db c1 93 bc aa 51 b5 bc
       -0.021878114 -0.025380734 -0.018036773 -0.022133667
000100 c3 05 b2 bc 6c 64 20 bd 3a ad b1 bc 65 90 94 3d
       -0.021731263 -0.03915827 -0.021689046 0.072541036
000110 ea da db 3d ec 9d 95 bc ba 77 2c bd f4 af 06 be
       0.10735114 -0.01826378 -0.042106368 -0.13153058
000120 31 59 b9 bc 4c 1f 27 bd ad 80 02 3e 67 2b 8e 3d
       -0.022625538 -0.04080133 0.12744398 0.06941872
000130 ff 0c 05 3e 71 07 ab bc d8 1d e4 bc fc cb bb bc
       0.12993239 -0.020877572 -0.027846262 -0.022924416
000140 df 7e 6c 3b bf 87 e9 bd b6 0f ce bc 7e 4d 95 bd
       0.0036086363 -0.11402845 -0.025153976 -0.07290171
000150 c8 86 76 3d 70 d3 4e bd a7 13 4a 3d 7d d7 dd bc
       0.06018713 -0.05049461 0.04933515 -0.027080292
000160 1a 32 00 3d db 20 b0 bc bb 0f ac bc 26 07 ff bc
       0.03129778 -0.021500042 -0.021003595 -0.031131338
000170 ef 04 8a bc 3d 6d 26 bc 16 bd c0 bc fc bc ae bc
       -0.016848056 -0.01015788 -0.023527663 -0.02133035
000180 76 be 84 bc 1c 75 4a bd 9f 70 a7 bc 9f fd 52 bd
       -0.0162041 -0.04942809 -0.020439444 -0.051511403
000190 3f 37 e3 bc 31 d4 e0 bd 19 38 05 3e 53 db ca bc
       -0.027736304 -0.10977972 0.13009681 -0.024762785
0001a0 95 7f 9b bc 39 8e ed bc 3d 85 ad bc fd 06 ff bc
       -0.018981734 -0.028998481 -0.021181697 -0.031131262
0001b0 39 d7 df bc d2 a4 9a bc 76 56 e8 bc a5 bf 48 bd
       -0.027324306 -0.01887742 -0.02836154 -0.04901089
0001c0 a3 a6 d1 bc 8b c1 10 be 50 43 f7 bc 45 49 9e bd
       -0.025592154 -0.14136331 -0.030183464 -0.07728819
0001d0 e4 19 c7 bc 27 8e 8c bc 8f da d0 bd 32 a2 94 3d
       -0.024304338 -0.017157627 -0.10197937 0.07257499
0001e0 0c 04 57 bd 31 80 ad bc 1a 24 51 bd a1 da b2 bc
       -0.052494094 -0.02117929 -0.05105982 -0.021832766
0001f0 ac a3 9a bc 15 33 9b bc 4c 46 e6 bc be 62 a7 3b
       -0.018876873 -0.018945256 -0.028109692 0.0051082065
000200 df 2e 66 3d ad c5 12 3c 1b e0 57 3c 21 d5 59 3e
       0.056197044 0.008958262 0.0131759895 0.21272708
000210 f1 3b be bd 70 5f 13 3d 8b f0 b9 3c 16 86 2e be
       -0.09288777 0.03597969 0.022697708 -0.17043337
000220 b4 31 42 3c b0 f1 32 3c 9d 7f b8 bd 17 3f 28 3c
       0.01185267 0.010921881 -0.09008715 0.010268948
000230 52 07 13 3e d1 d2 2e be a5 74 b1 3d 47 6b 18 3d
       0.14358261 -0.17072608 0.08664826 0.037211683
000240 a4 a0 19 3e c1 9c 7b 3e d1 c3 0d 3c 03 e8 57 be
       0.15002686 0.24571516 0.008652643 -0.21084599
000250 9b c0 2e 3c 32 78 dc bd 28 fe 0d 3e f4 a1 e3 3d
       0.010666038 -0.10765113 0.13866484 0.111148745
000260 c6 3a 1d 3c a5 c8 2f 3c 72 13 da 3b cc 6a 80 bc
       0.009596532 0.01072899 0.00665515 -0.015675925
000270 32 72 89 bd 17 da 05 3c dd 09 dc 3d ce f9 4a 3c
       -0.06711234 0.008169672 0.10744069 0.01238866
000280 b3 ef 35 3e 38 cc 3b 3c 62 6e 70 3c a9 a6 ee 3d
       0.17767219 0.011462264 0.014674755 0.11652882
000290 64 b4 b4 3c 5e 05 50 3c 14 75 08 be 46 d3 91 be
       0.022058673 0.012696592 -0.13325912 -0.284815
0002a0 eb 94 4a 3c 7a bb 23 3c d5 96 62 3c 3b eb 86 3c
       0.012364606 0.009993428 0.0138299065 0.016469589
0002b0 a7 cd ba 3d 61 95 41 3c 5c 08 26 3e e2 9c 03 3c
       0.09121256 0.0118154 0.16214126 0.008033009
0002c0 58 3e 1f 3c e9 80 b7 3c a1 66 4a 3c f3 08 45 3c
       0.009719454 0.022400336 0.01235357 0.012026059
0002d0 d7 a2 1a 3c 5d a0 74 bc 7b f4 a6 3d 47 18 2d 3d
       0.009438238 -0.014930812 0.081521 0.04225948
0002e0 06 3d 16 3c 16 43 1f 3e 5e b4 26 3d 78 50 63 3c
       0.009169823 0.15552935 0.040699355 0.013874166
0002f0 4a 86 2b 3c 80 bb 33 3c 02 2b 00 3c 10 cf 40 3c
       0.010469029 0.010969996 0.007822754 0.011768118
000300 13 d2 24 3c 31 65 d6 3c 5d 3c 3b 3c f9 2c 75 3e
       0.010059851 0.026171299 0.011427966 0.23942937
000310 81 03 1c 3e 32 b6 09 3c c9 66 18 bd 30 38 ec bd
       0.15235712 0.008405255 -0.0372074 -0.115341544
000320 32 a1 5e 3c 10 c5 04 bd e6 f9 cd 3d 9b a8 78 bb
       0.013588237 -0.032414496 0.1005743 -0.0037942294
000330 1d 97 0a 3e 5b 71 d2 3d 55 72 8e 3c 3d 46 46 3c
       0.13534208 0.10275527 0.017388502 0.012101707
000340 4c a2 09 be e1 a5 18 be 71 54 72 3c 61 a4 0a be
       -0.13440818 -0.14907028 0.01479064 -0.13539268
000350 2c 81 cf 3d ac 71 9f bd 63 b7 38 3e 83 77 f5 3b
       0.101320595 -0.07785353 0.18038706 0.0074910535
000360 16 8c e4 bd b1 b0 3e 3c 3b 6f f8 3b 04 6a 8f 3c
       -0.11159532 0.011638806 0.007581619 0.017506607
000370 7d 00 3d ba eb b1 14 3d 15 82 21 3c bb e1 1b 3c
       -0.00072098506 0.03630249 0.009857674 0.009514268
000380 fb ef 06 3d 46 1b dd 3c bb 03 18 3c 0f 1a 34 bd
       0.032943707 0.026990544 0.009278233 -0.043970164
000390 ec 05 5c 3c b4 80 93 bd c5 3f 19 3d 2d e6 8c 3d
       0.013429146 -0.072022825 0.03741433 0.0687984
0003a0 44 75 13 3c 1a 68 c9 bc bd 49 40 3c a1 c1 fb bd
       0.009000126 -0.024585772 0.011736331 -0.12292791
0003b0 a3 de 8a 3c 47 15 0d 3c eb f3 5e 3c c9 9f 84 bd
       0.016951865 0.00861103 0.013607959 -0.06475789
0003c0 91 ce 24 3c 21 12 a3 bd 09 60 b4 3d fc 9b 8d bc
       0.010059015 -0.07962442 0.0880738 -0.017286293
0003d0 06 7c 83 3c 25 1d f0 3b 08 91 5c be c5 0a 91 bd
       0.01605035 0.007327693 -0.215397 -0.07082132
0003e0 27 26 8b 3d e2 38 36 3c 4c ce 6c bd 58 a8 24 3c
       0.06794386 0.01112196 -0.057813928 0.010049902
0003f0 38 e8 10 3c 4f 83 f6 3b 5d 3f 8a 3c 2c 19 46 bd
       0.008844428 0.0075229774 0.016875917 -0.04836385

find.4.bias f4 [64]
000000 1f 8e fa 3c 13 40 07 3d b0 e4 af 02 d5 58 b5 82
       0.030585347 0.03302009 2.58452e-37 -2.6646547e-37
000010 49 b0 29 3d 42 a6 c3 82 33 7e c1 3c 91 7a af 3d
       0.041427884 -2.8748102e-37 0.023619747 0.085682996
000020 47 0d 4f 3c db 06 9b bd e3 65 ae 02 c3 39 64 bc
       0.012637443 -0.07569667 2.5625482e-37 -0.013929787
000030 50 ff f2 bc 3e ff ad 82 79 b3 0f 3c 23 89 97 3d
       -0.029662758 -2.5566567e-37 0.008770817 0.07399204
000040 e8 17 b8 82 02 7a b7 82 2d c9 c9 02 96 5d f1 bc
       -2.7050092e-37 -2.6959462e-37 2.9649765e-37 -0.02946357
000050 79 56 c5 02 4f 4c b8 82 ad cb 5d 3c 44 2e a3 02
       2.8996181e-37 -2.708017e-37 0.01353733 2.3977253e-37
000060 cd a6 b6 02 28 a4 95 bd c4 1d b7 82 90 ac ae 82
       2.6838235e-37 -0.07306701 -2.6906518e-37 -2.5666048e-37
000070 eb 72 e7 3d 11 2a ac bc 36 45 c1 02 cd 9c b0 02
       0.11301216 -0.021016153 2.8398526e-37 2.5950875e-37
000080 36 47 64 ba ce 85 23 bd ed 6d b4 02 38 ba bd 82
       -0.0008708121 -0.039922528 2.6511717e-37 -2.7877938e-37
000090 0d 61 a2 02 8f 84 87 3d b4 9c b0 82 48 38 af 82
       2.3859465e-37 0.066170804 -2.595082e-37 -2.5746243e-37
0000a0 8b 81 54 3d e8 4c bb 82 b5 4e b9 02 b8 a3 bb 82
       0.051881354 -2.7521322e-37 2.7228482e-37 -2.757115e-37
0000b0 b1 3a 9a 3b f2 6f b3 3c 03 91 57 82 bc 97 49 3c
       0.0047067036 0.021903966 -1.5837322e-37 0.012304243
0000c0 2a b8 73 3d 2b a6 4d 02 02 e5 9b 82 e9 6e 18 3d
       0.059501804 1.5108709e-37 -2.2906647e-37 0.037215147
0000d0 4e 1a b9 02 45 46 ee bb 96 30 b2 82 c8 b7 1a 81
       2.7198405e-37 -0.0072715604 -2.6182636e-37 -2.841719e-38
0000e0 84 96 29 3c de 71 b6 02 54 c1 3d 3d fd 6b 94 3d
       0.010350827 2.6807853e-37 0.04632695 0.0724716
0000f0 84 b2 b0 bd c6 c7 08 3c 2f 5e b4 82 66 38 aa bc
       -0.08627799 0.008348411 -2.6502682e-37 -0.020778846

find.6.weight f4 [2, 64]
000000 bc 88 a3 3d 2f 5b 7f bd 40 fd c0 82 56 01 c1 82
       0.079850644 -0.06234282 -2.8357223e-37 -2.8359568e-37
000010 87 83 5a 3d 3d 2a c1 02 0e a7 19 be f9 18 d7 bc
       0.05334809 2.8383045e-37 -0.15005133 -0.026257025
000020 b5 8c 7a 3e 0d bf d6 3d 3a 52 b8 82 be 2e 5b be
       0.24467738 0.10485659 -2.7083566e-37 -0.2140455
000030 3d 4b b6 be 20 19 b7 02 13 b5 13 3e 43 59 dd bd
       -0.35604277 2.6903854e-37 0.14424543 -0.10808041
000040 76 56 b7 02 70 89 95 02 58 73 a9 02 b2 c8 2a 3d
       2.693906e-37 2.1972468e-37 2.4898522e-37 0.041695304
000050 ba 9e ac 02 3e ee c0 02 44 88 c9 bd 03 25 9d 02
       2.5364233e-37 2.8348609e-37 -0.09840444 2.309032e-37
000060 97 91 c7 82 33 31 dc 3c 8e d7 a3 02 93 4b cb 02
       -2.9323986e-37 0.026878929 2.407442e-37 2.9871547e-37
000070 64 2b 18 3d 11 8c 07 3f cb 10 33 02 d3 8d bc 02
       0.037150756 0.529481 1.3155662e-37 2.770552e-37
000080 31 64 bf 3c 7f e8 3b 3d 62 c9 be 02 1c 79 a1 02
       0.023363205 0.045876022 2.803358e-37 2.3726337e-37
000090 d8 20 5f 82 c9 f1 b0 b9 a4 51 d1 82 b1 ce b4 02
       -1.6392878e-37 -0.0003374948 -3.075665e-37 2.6567258e-37
0000a0 a9 c1 ff bb 94 2d 71 82 e8 df bd 02 a4 b9 86 02
       -0.0078050685 -1.7718964e-37 2.789957e-37 1.9796083e-37
0000b0 b5 8a f3 3d e2 49 8f bc fd bd c6 02 a0 1b 0a bd
       0.11891691 -0.017491285 2.9202533e-37 -0.03371775
0000c0 8c 03 00 bd ce 26 c1 82 29 f0 d3 82 8a dc 3c be
       -0.031253383 -2.8381074e-37 -3.1141509e-37 -0.18443504
0000d0 1e 3b b6 02 e4 17 29 3e 6b 19 d8 02 e4 a0 c7 82
       2.6776428e-37 0.1651302 3.1752937e-37 -2.9332769e-37
0000e0 2c a4 ce bd 02 43 c2 82 af b9 53 bc 55 f1 87 3e
       -0.10089907 -2.8544199e-37 -0.012922688 0.2655131
0000f0 87 8a d8 3d 3d 2d bc 3c c0 05 ac 02 15 e5 1f bf
       0.10573297 0.02297079 2.527643e-37 -0.62458926
000100 9e 1b 93 3d a8 c2 6e 3e a3 9c b4 82 52 cf b4 82
       0.07183002 0.23316443 -2.6538528e-37 -2.656762e-37
000110 a4 3b 0b 3e 6a ca bd 82 9d 57 61 3e 68 b1 bc 3e
       0.1359697 -2.7887234e-37 0.22006078 0.368541
000120 bf 6c 9f 3e 05 79 00 bf c9 3c be 02 20 59 78 be
       0.31137654 -0.5018466 2.795288e-37 -0.24252748
000130 fd 71 04 be 8a 20 be 02 9c c8 74 be 37 96 89 3e
       -0.12934108 2.7936667e-37 -0.23904651 0.26872417
000140 d1 6f 9c 82 74 3a a3 82 0e a4 a8 82 54 05 c4 be
       -2.298632e-37 -2.3984248e-37 -2.4779544e-37 -0.38285315
000150 02 e8 ac 82 b9 b0 c8 02 8f d5 20 3e e2 69 ba 02
       -2.5406294e-37 2.9488793e-37 0.15706466 2.7391017e-37
000160 70 af c5 82 69 c4 5e be 9d fb 03 02 5a 61 c0 02
       -2.9047245e-37 -0.21754612 9.69657e-38 2.8267741e-37
000170 79 49 b0 3e 83 96 5f bf ed 58 9c 02 39 84 c2 82
       0.34431055 -0.8733904 2.297318e-37 -2.858163e-37
000180 8e 52 81 be 5d 7b 73 bd 15 38 c2 02 18 3e b0 02
       -0.25258297 -0.05944382 2.8537928e-37 2.5896516e-37
000190 39 7a 31 82 4b 7d 87 3e a4 b6 bf 02 f7 63 86 02
       -1.3038982e-37 0.26462778 2.8169758e-37 1.9746907e-37
0001a0 bc 52 95 3e 18 f0 4b 83 77 7b be 82 a1 97 aa 82
       0.29164684 -5.9931952e-37 -2.7988856e-37 -2.5066286e-37
0001b0 9d ad 15 3e b3 86 6f 3e 74 b4 c8 02 9f fa 59 3e
       0.1461701 0.23391227 2.9490934e-37 0.2128701
0001c0 22 61 51 3e 86 52 c1 82 51 89 c7 02 0e 7e 64 be
       0.2044721 -2.8406167e-37 2.9319238e-37 -0.22313711
0001d0 85 03 c3 82 8e cb 85 3e 5e 45 b0 82 4c 96 cd 82
       -2.8654695e-37 0.26131862 -2.590069e-37 -3.020831e-37
0001e0 d1 1d 6d be 66 d2 a7 82 bf ea 4a 3e 3b ab 02 3d
       -0.23155905 -2.4659207e-37 0.19816111 0.03190158
0001f0 35 2c 0a be 19 fa 41 be 46 32 ba 02 ba 70 02 3f
       -0.13493426 -0.18943061 2.73591e-37 0.5095326

find.6.bias f4 [2]
000000 c0 5a 29 3e 17 92 a9 3d
       0.16538525 0.082798176

exp_avg f4 [128, 120]
000000 c3 18 1f 39 22 8d 2d 39 7f 73 12 b7 11 61 9d 39
       0.00015172646 0.00016551142 -8.729169e-06 0.00030017694
000010 6b f3 67 37 c3 61 23 b7 dc cb 71 38 dd a2 70 b6
       1.3825348e-05 -9.738319e-06 5.7648736e-05 -3.5857586e-06
000020 97 63 34 37 fd 28 aa 34 48 72 21 b6 f7 61 06 36
       1.0752024e-05 3.169479e-07 -2.405739e-06 2.002458e-06
000030 fa 5d 09 39 16 f8 37 39 43 dd 8d b6 39 77 8f b6
       0.00013100347 0.00017544659 -4.2278857e-06 -4.2756114e-06
000040 7d 05 6c 37 dd 36 4d b7 5f b3 90 38 d0 01 56 b7
       1.4067974e-05 -1.2231726e-05 6.8998655e-05 -1.2755816e-05
000050 d7 7b a3 39 8f f2 18 b7 81 5b 11 37 32 20 7f 37
       0.0003118205 -9.116381e-06 8.663978e-06 1.52066805e-05
000060 cb 5c f1 36 a8 eb 6b 39 45 7a 5a 37 25 73 1e b7
       7.193162e-06 0.00022499135 1.3022281e-05 -9.444343e-06
000070 df 99 3c b5 55 fa ba b6 ab 71 11 b7 dd b4 64 36
       -7.025937e-07 -5.5723744e-06 -8.669139e-06 3.4079924e-06
000080 ce bd 6e b5 fc 28 aa 38 9f 9f 56 b6 36 fe a0 39
       -8.893811e-07 8.1138656e-05 -3.1981397e-06 0.0003070698
000090 d5 da 15 b7 ec 5b 3f 39 50 05 f9 b4 e2 81 27 b6
       -8.932043e-06 0.00018249423 -4.638373e-07 -2.496054e-06
0000a0 17 f9 81 b7 e9 b8 ee b6 de 70 bb 39 0c 42 5e 38
       -1.549399e-05 -7.114479e-06 0.00035751512 5.2990436e-05
0000b0 51 14 06 37 fa 0b 54 b6 3f 6f d1 36 44 36 5a b7
       7.991753e-06 -3.1597433e-06 6.241636e-06 -1.3006447e-05
0000c0 84 b6 43 39 8d 8c 2a 39 92 86 7b 37 22 8e 92 b5
       0.00018664642 0.00016264823 1.4992098e-05 -1.0919214e-06
0000d0 2d d4 9c 37 c6 e4 94 34 6f 53 a1 39 0e 8c 95 b6
       1.8695451e-05 2.7733603e-07 0.00030770476 -4.4568505e-06
0000e0 30 81 0d 36 9b 1c e9 b7 cc d9 2c 38 50 8c 96 36
       2.1085834e-06 -2.7789085e-05 4.1210835e-05 4.486683e-06
0000f0 46 5c c2 38 ff ef 94 37 68 98 3e 34 73 9d fc b3
       9.267828e-05 1.7754732e-05 1.7750574e-07 -1.1763304e-07
000100 f9 a7 55 b6 b8 27 84 b7 10 c9 f3 b4 44 79 46 37
       -3.1837246e-06 -1.5754122e-05 -4.540857e-07 1.1829954e-05
000110 09 b7 c4 b7 28 b1 50 38 be aa 76 37 3c e8 ac 39
       -2.3450253e-05 4.9756054e-05 1.4702497e-05 0.00032979425
000120 27 29 ea 37 f5 c5 af 37 71 ab d8 b5 3b d4 27 b6
       2.7914137e-05 2.0953807e-05 -1.614315e-06 -2.5008474e-06
000130 26 5b f4 37 14 aa 40 b5 ea 6a d4 b6 56 14 42 36
       2.9129511e-05 -7.177307e-07 -6.330539e-06 2.892009e-06
000140 dd d5 3a 36 53 ea af 39 76 28 13 36 3b 42 33 b6
       2.7840645e-06 0.00033553186 2.1928258e-06 -2.671163e-06
000150 06 96 30 38 e1 58 78 39 e5 da 5d 38 5e 96 08 b4
       4.210139e-05 0.00023684233 5.2894367e-05 -1.272069e-07
000160 6d 80 58 35 c7 cc d9 b5 c3 b0 f3 36 35 1b a7 39
       8.0653155e-07 -1.6227358e-06 7.262542e-06 0.00031872993
000170 13 8e 17 b6 31 56 25 37 42 1e ee b7 a9 d8 f0 35
       -2.2583451e-06 9.854834e-06 -2.83859e-05 1.794445e-06
000180 87 53 9e 36 27 93 16 39 eb 0e b1 34 16 59 dd b7
       4.718491e-06 0.00014359933 3.2979673e-07 -2.6386737e-05
000190 fd 06 60 b6 77 5a b1 b6 04 1d 0b 37 5e 5d 41 35
       -3.3382669e-06 -5.2855426e-06 8.291801e-06 7.203397e-07
0001a0 b0 a8 30 35 fb 51 e1 b4 f6 5f 6d b6 c7 a9 ad 39
       6.581058e-07 -4.1969164e-07 -3.5371609e-06 0.00033123625
0001b0 b8 0d 01 39 e0 d4 10 39 1d 8e a2 39 0a c7 d2 b7
       0.0001230751 0.00013812212 0.0003100493 -2.5126636e-05
0001c0 58 35 55 b7 4e e5 00 37 7d 69 7a 34 8b 2c e0 34
       -1.2708209e-05 7.682784e-06 2.3321441e-07 4.175566e-07
0001d0 2a 27 8e b6 72 33 63 37 45 0d f2 35 25 38 36 37
       -4.236489e-06 1.3542232e-05 1.8034267e-06 1.08611175e-05
0001e0 d0 0f 9c b7 d5 f9 bf b7 e4 2b 37 38 3e df b3 b8
       -1.8604012e-05 -2.2885311e-05 4.3671476e-05 -8.576967e-05
0001f0 e9 d5 f5 b8 92 8e af 38 e6 21 90 37 1d 5d 1a b6
       -0.00011722354 8.371206e-05 1.7181923e-05 -2.3001987e-06
000200 82 60 5d b8 71 2c 02 35 34 42 84 38 99 41 15 b5
       -5.2780386e-05 4.8493445e-07 6.306582e-05 -5.560228e-07
000210 a0 c2 8b 38 90 55 b5 36 b0 2a 0b 37 3f b8 52 38
       6.664288e-05 5.404181e-06 8.294985e-06 5.0239494e-05
000220 63 2c bd b8 db 0f 96 37 39 e1 59 38 e1 ae 4f 37
       -9.02049e-05 1.7888777e-05 5.1946587e-05 1.2378879e-05
000230 ce a5 d2 b8 72 cd 0d b7 42 8e 1c b7 c3 02 52 38
       -0.00010044464 -8.452089e-06 -9.331447e-06 5.0070474e-05
000240 4e 1d 3d b8 64 f9 6c b8 d9 23 7b b8 37 98 d1 38
       -4.5088404e-05 -5.6499048e-05 -5.987645e-05 9.994249e-05
000250 ae 92 44 b6 6b a7 c3 b7 25 1b 16 b8 d2 db c1 36
       -2.9291655e-06 -2.3323772e-05 -3.5788067e-05 5.7774387e-06
000260 71 98 9e b5 08 84 68 38 7b 59 09 37 c3 be a4 b8
       -1.1816284e-06 5.5436074e-05 8.18667e-06 -7.8556615e-05
000270 e9 35 9b 38 86 ac 21 b7 b4 9e be 34 cc d1 eb 34
       7.4010175e-05 -9.636517e-06 3.550573e-07 4.3924808e-07
000280 2f 8e aa 37 01 c7 2b b8 70 a0 65 b8 45 a0 27 37
       2.0331789e-05 -4.0954914e-05 -5.4747274e-05 9.991291e-06
000290 09 ca b0 b7 7f 37 a7 b6 6c 16 ee b7 cb 45 d2 38
       -2.1074915e-05 -4.9834484e-06 -2.8382252e-05 0.0001002658
0002a0 40 ca 44 b8 2a 1f c9 37 b6 85 37 37 5a 9b 10 35
       -4.69184e-05 2.397558e-05 1.0938782e-05 5.3870247e-07
0002b0 c3 f5 88 b8 b5 1a e0 34 8a 75 7e b8 27 0e 1d b7
       -6.530762e-05 4.1742683e-07 -6.0667786e-05 -9.361224e-06
0002c0 2e 12 ab b5 6a 9f 1c 37 b7 71 e6 38 26 9f 14 38
       -1.2745784e-06 9.335441e-06 0.00010988436 3.543417e-05
0002d0 a8 d3 3e b8 5c 80 16 38 f1 35 9e b6 73 87 b5 b6
       -4.549665e-05 3.588233e-05 -4.7150465e-06 -5.4099887e-06
0002e0 5b 2d 6a b6 0e f4 1f 39 b3 9b 34 b7 72 48 46 b8
       -3.4895118e-06 0.00015254339 -1.0765088e-05 -4.727435e-05
0002f0 f4 f4 ef b7 97 b3 8b b6 e2 cb 39 37 d0 20 de b7
       -2.8605085e-05 -4.16343e-06 1.1074329e-05 -2.6479742e-05
000300 29 03 4f b8 46 16 98 38 f5 50 0e 35 da 11 15 b4
       -4.935559e-05 7.2520736e-05 5.301693e-07 -1.3883201e-07
000310 f2 ea 2d b8 61 83 4e 38 c0 c2 f7 b7 e4 db 53 b6
       -4.1465224e-05 4.9236583e-05 -2.9535382e-05 -3.1569443e-06
000320 a5 3d 54 b8 75 d1 d4 38 9a d3 31 37 c7 ce a7 35
       -5.060215e-05 0.00010147962 1.0599289e-05 1.250265e-06
000330 38 75 88 38 34 24 da b7 24 0b 3c 37 f3 74 22 36
       6.506819e-05 -2.6004484e-05 1.1208267e-05 2.4207955e-06
000340 bb 2e a5 b5 2c 8d 0e b6 44 be 02 b6 5f 6d b9 b8
       -1.2307058e-06 -2.1241822e-06 -1.9482259e-06 -8.8418594e-05
000350 76 1e 34 b6 f6 62 50 38 4b 5d 73 37 c4 0e 8c 35
       -2.683982e-06 4.968323e-05 1.450565e-05 1.043511e-06
000360 14 87 8f 36 90 91 28 37 5b 57 f0 34 af ff 69 37
       4.2774573e-06 1.0047472e-05 4.4767043e-07 1.3947413e-05
000370 aa 66 c0 b7 b0 70 2e b6 b2 ca d8 b4 fa 3d a6 b6
       -2.293599e-05 -2.5993613e-06 -4.0380615e-07 -4.9544005e-06
000380 cd c8 65 38 1e ab 0d b5 49 b6 05 b6 ec a3 ac b7
       5.4784865e-05 -5.27756e-07 -1.9924648e-06 -2.058033e-05
000390 2c 77 f0 b6 64 20 dc b6 0c 48 86 b8 42 7e 79 37
       -7.166431e-06 -6.5602817e-06 -6.403038e-05 1.4870953e-05
0003a0 8a 57 d5 38 29 57 1b b6 30 e3 60 35 66 09 7e b6
       0.00010172937 -2.3147534e-06 8.3777104e-07 -3.785442e-06
0003b0 f5 60 99 b6 42 c3 35 38 54 5d e6 b6 56 13 45 b8
       -4.5710426e-06 4.333561e-05 -6.865399e-06 -4.6986468e-05
0003c0 99 a3 85 b9 fd 28 8f b9 71 65 99 b8 eb ec fc b9
       -0.00025489627 -0.00027305624 -7.3145035e-05 -0.00048241703
0003d0 e1 4e a8 38 ab 2f 74 b8 af 39 b2 b8 b0 7f 41 b4
       8.0255566e-05 -5.8218528e-05 -8.498446e-05 -1.8020978e-07
0003e0 6a c7 c8 37 94 ff b0 35 49 ba 04 37 7b 05 97 b5
       2.3934717e-05 1.3187405e-06 7.911186e-06 -1.1251972e-06
0003f0 4c 47 9c b9 76 31 9b b9 77 71 ec 36 ca 7c a0 b8
       -0.0002980776 -0.00029600755 7.046557e-06 -7.652638e-05

exp_avg_sq f4 [128, 120]
000000 25 b3 93 35 81 ee 59 35 0a d7 a8 35 62 4f 2c 35
       1.1004491e-06 8.118587e-07 1.257956e-06 6.419051e-07
000010 52 f6 d1 34 2e 2e 6b 35 a0 32 5c 34 82 b9 c0 33
       3.9108505e-07 8.761152e-07 2.0507514e-07 8.9744404e-08
000020 a2 5b 57 34 41 1a be 34 18 54 1a 34 3c 63 eb 33
       2.0056771e-07 3.540936e-07 1.4372961e-07 1.0961091e-07
000030 69 b5 54 35 66 ae 4d 35 1e ac 93 35 38 24 92 33
       7.924014e-07 7.6622234e-07 1.1002446e-06 6.805243e-08
000040 61 b2 f5 33 24 a9 9e 34 68 12 98 34 7d 4f bf 34
       1.14411485e-07 2.955286e-07 2.8325599e-07 3.5634358e-07
000050 b7 ef 62 34 cb 2a 88 35 12 13 3c 34 56 04 2c 35
       2.1135098e-07 1.0145244e-06 1.7515802e-07 6.40813e-07
000060 52 55 30 35 38 b2 5e 35 f3 28 97 34 99 c3 21 35
       6.5689267e-07 8.2960787e-07 2.8155736e-07 6.0261806e-07
000070 e3 a9 7d 35 da d3 bc 34 db f3 76 34 4a 83 fb 31
       9.449706e-07 3.517187e-07 2.299925e-07 7.3199873e-09
000080 7a 6d c9 33 29 68 95 34 7c 40 1b 34 ed 1a a0 35
       9.3797055e-08 2.78292e-07 1.4458959e-07 1.1928765e-06
000090 e6 58 4b 35 3b 95 32 35 33 d4 09 34 f3 55 22 33
       7.575276e-07 6.6527326e-07 1.2836317e-07 3.7796735e-08
0000a0 56 d3 43 35 ae de e0 32 20 ef c1 34 88 94 98 35
       7.2950695e-07 2.6178295e-08 3.6123038e-07 1.1368111e-06
0000b0 ea b8 a0 33 d2 5a ee 34 84 c5 98 35 df 16 5d 33
       7.484216e-08 4.4397035e-07 1.1382367e-06 5.1476373e-08
0000c0 42 cf b6 34 b4 bd 3e 35 86 d7 1e 35 a3 a3 eb 33
       3.4050942e-07 7.105657e-07 5.9173215e-07 1.09728056e-07
0000d0 0b 0b 45 34 17 95 48 33 0a 72 8c 35 9a 35 da 34
       1.8351072e-07 4.6701725e-08 1.0464003e-06 4.0644665e-07
0000e0 b1 bb 2b 34 98 5a 34 34 10 29 98 33 4f 6f ab 35
       1.5993898e-07 1.6796764e-07 7.085521e-08 1.2772888e-06
0000f0 a4 40 b2 34 a9 d4 7f 35 28 b5 d8 34 65 fe f7 31
       3.3202116e-07 9.5304364e-07 4.0364944e-07 7.2175674e-09
000100 2d 4b 35 34 22 25 9a 33 c8 ba 86 35 9e bb 3a 34
       1.6884287e-07 7.177938e-08 1.0038138e-06 1.7390855e-07
000110 f0 25 f9 34 32 fd 12 34 55 61 2b 33 3c 72 d0 35
       4.6407467e-07 1.3689422e-07 3.9902563e-08 1.5530454e-06
000120 cc de 04 34 59 c1 0d 35 0d a7 83 33 bc 30 88 35
       1.2374511e-07 5.280795e-07 6.130549e-08 1.0146973e-06
000130 38 c7 b4 33 e3 8d 34 32 ce 38 b2 34 8d 35 b6 34
       8.418141e-08 1.050964e-08 3.3196415e-07 3.3939105e-07
000140 41 ac 1e 35 5d 93 97 34 17 5d 1c 34 5a 09 17 34
       5.911025e-07 2.8233163e-07 1.4562498e-07 1.4066373e-07
000150 b4 9a 7f 34 48 b5 28 35 5c 62 40 32 dc 54 ca 34
       2.3805006e-07 6.2848676e-07 1.1198235e-08 3.7687175e-07
000160 b9 a1 4d 33 95 6d 11 35 68 f0 31 35 f5 e1 ce 35
       4.7877368e-08 5.417617e-07 6.6287475e-07 1.5413958e-06
000170 96 b1 b7 32 45 30 7d 34 3e 5e 52 34 5e 07 b2 32
       2.138476e-08 2.3580021e-07 1.9592059e-07 2.0725277e-08
000180 1e 40 06 34 41 52 25 35 33 00 fb 32 6e dc db 34
       1.2503048e-07 6.1586985e-07 2.9220336e-08 4.0952312e-07
000190 1d 57 99 32 fc f4 22 35 a1 71 4b 34 16 0e f6 33
       1.7851159e-08 6.07062e-07 1.8947186e-07 1.145783e-07
0001a0 56 63 0a 34 59 77 6b 33 eb 33 82 35 0c d0 be 34
       1.288839e-07 5.4823747e-08 9.700865e-07 3.5541632e-07
0001b0 b2 61 28 34 e4 5e f0 34 be 6d 2c 34 90 de 17 34
       1.568176e-07 4.4772526e-07 1.6058672e-07 1.4143939e-07
0001c0 47 91 ce 31 1f 85 57 35 a4 9d 6a 34 ae 84 3b 30
       6.011905e-09 8.028746e-07 2.1850298e-07 6.8218753e-10
0001d0 8d b9 cc 32 79 2c 37 33 b3 89 a4 35 12 4d 95 32
       2.3833104e-08 4.2648455e-08 1.2259028e-06 1.738093e-08
0001e0 ae 27 75 34 c6 23 b1 34 04 32 ea 34 64 14 69 34
       2.2831838e-07 3.2994848e-07 4.3622288e-07 2.1707234e-07
0001f0 6e 11 10 34 b4 6e dd 33 eb 07 15 34 7e b8 0a 34
       1.3417386e-07 1.0311251e-07 1.3879587e-07 1.291937e-07
000200 d4 a7 f3 33 a4 d1 e3 33 8b 81 ba 33 be b0 3b 34
       1.1346097e-07 1.06086446e-07 8.684864e-08 1.748003e-07
000210 b1 9d 9d 34 40 25 b7 34 7a 25 4f 34 0e a4 cc 32
       2.9358264e-07 3.411351e-07 1.9292011e-07 2.3823329e-08
000220 cf 92 29 34 5b b8 84 34 63 19 c6 33 53 19 e1 33
       1.579276e-07 2.4721052e-07 9.224711e-08 1.04819854e-07
000230 0a be 1f 34 4a 18 e6 34 25 c5 e5 33 7e ec fa 33
       1.4877165e-07 4.285851e-07 1.0699504e-07 1.168455e-07
000240 ba 8b 49 34 ca 59 a7 34 c0 06 2b 33 19 87 80 33
       1.8770416e-07 3.1171504e-07 3.982018e-08 5.9850386e-08
000250 24 0e f0 33 c9 93 2b 34 2f 7d 4b 34 9d 3f 03 33
       1.1178443e-07 1.597938e-07 1.895139e-07 3.055867e-08
000260 b6 2a 90 33 1d 7d 0b 34 7f 08 08 34 c8 b3 1c 35
       6.7132916e-08 1.29909e-07 1.2669078e-07 5.8376145e-07
000270 f4 69 78 34 97 c5 6b 34 d1 ae 92 33 b8 c5 52 33
       2.3135345e-07 2.1957963e-07 6.830454e-08 4.907426e-08
000280 6a 3e f8 33 15 5b 37 33 52 29 11 34 ce 11 13 35
       1.1559753e-07 4.2690846e-08 1.351921e-07 5.4787677e-07
000290 85 06 5d 33 81 04 f5 33 71 c3 69 34 ab 88 cd 33
       5.14615e-08 1.1409521e-07 2.1770917e-07 9.570916e-08
0002a0 85 b2 fd 33 bb aa 96 34 d2 35 9f 33 63 fb 1d 34
       1.1813703e-07 2.80639e-07 7.413804e-08 1.4713218e-07
0002b0 a3 88 07 34 09 53 90 33 db 2b 24 34 35 26 da 33
       1.2622563e-07 6.7206265e-08 1.5289645e-07 1.0158366e-07
0002c0 b5 d7 a6 33 0d 7d c2 33 f9 93 8b 33 e8 c7 17 35
       7.769214e-08 9.0565756e-08 6.499608e-08 5.6542785e-07
0002d0 cb 0f 03 34 24 5e a7 34 2e 81 29 34 95 c3 58 33
       1.2206071e-07 3.117467e-07 1.5786347e-07 5.04693e-08
0002e0 2b c6 91 33 fd a5 9d 33 05 3b 5d 34 77 19 b1 33
       6.788135e-08 7.341075e-08 2.06037e-07 8.246837e-08
0002f0 ad e5 ff 33 64 6d 0b 34 5c b3 d0 32 7e a7 11 35
       1.19161406e-07 1.298518e-07 2.429595e-08 5.426044e-07
000300 45 c5 7e 33 56 2e 4c 34 fb 8a a4 33 31 58 46 34
       5.93184e-08 1.9015837e-07 7.6621255e-08 1.8472271e-07
000310 06 3e f4 32 45 8b 15 33 f0 93 f0 33 64 4f c8 33
       2.8433544e-08 3.481843e-08 1.12027806e-07 9.327667e-08
000320 53 7c d9 33 af f4 11 34 3b f4 0e 34 dd 25 eb 33
       1.01274644e-07 1.3593193e-07 1.3313631e-07 1.09499275e-07
000330 b6 84 e7 33 80 0d 56 34 d5 bb 85 32 54 57 19 34
       1.0780916e-07 1.9935214e-07 1.5568654e-08 1.4281005e-07
000340 5a 82 56 33 75 fa b6 33 4f 2f 49 34 24 85 17 35
       4.9944312e-08 8.520593e-08 1.8736795e-07 5.644563e-07
000350 4c 89 1d 33 fe 3d 11 34 7b 77 a4 33 9b f3 40 33
       3.6679282e-08 1.352673e-07 7.6585785e-08 4.492504e-08
000360 18 16 e7 32 7f 64 46 34 47 bc 5b 32 2b 63 00 34
       2.6901986e-08 1.8476747e-07 1.2790287e-08 1.1957006e-07
000370 09 83 17 33 4b 37 f8 33 ef b5 a4 33 35 fb 1a 33
       3.5276603e-08 1.1558458e-07 7.6699386e-08 3.608439e-08
000380 60 53 17 34 a3 02 bf 33 d7 c2 25 34 d6 70 f5 33
       1.4093303e-07 8.89461e-08 1.5437705e-07 1.1429226e-07
000390 ff fe b4 33 b1 01 19 34 92 bb 4f 33 7d 86 75 33
       8.428287e-08 1.4249851e-07 4.8366537e-08 5.7165824e-08
0003a0 41 9a 2e 33 46 f2 1a 34 cb 4d c9 33 17 80 b6 33
       4.0652825e-08 1.4430506e-07 9.373942e-08 8.498335e-08
0003b0 68 76 e2 32 58 30 0f 33 f5 29 cb 33 97 32 94 33
       2.6363708e-08 3.333875e-08 9.460556e-08 6.900989e-08
0003c0 9d 04 3c 35 a8 97 26 35 01 5a d4 34 72 f5 dd 34
       7.004217e-07 6.206051e-07 3.9553564e-07 4.1343043e-07
0003d0 6b 6a 77 33 04 76 95 35 ab 2a 9d 34 ce 67 65 33
       5.7605956e-08 1.1135712e-06 2.9274574e-07 5.3412627e-08
0003e0 50 05 38 34 45 55 9f 34 d4 3a b1 34 25 49 54 33
       1.7138268e-07 2.96781e-07 3.3011622e-07 4.942662e-08
0003f0 70 73 2a 35 16 6b 0a 35 8d 8f ac 35 62 52 94 33
       6.349792e-07 5.1564837e-07 1.2856777e-06 6.9067724e-08
