scheduler/BaGTI/checkpoints/energy_latencyGNN_4_Trained.ckpt (torch, 182047 bytes, 150 tensors)

find.0.weight f4 [64, 64]
00000000: 78f6 2abc 1b3e 08bb 6c2a 3bbd 218d 943c
00000010: f8ed 333c 3e96 40ba 4f78 60bd 3cbd b63c
00000020: a0a9 b53c ec2d 393c bd19 2cbc f2dd 9dbd
00000030: b627 c23c 4d12 af3c 728b 843c c252 54bb
00000040: 9e6e 5d3d 3617 6cbc d4eb 9f3c 760f 4f3c
00000050: f58e 61ba 6a0f 953c ca7e da3c f908 bb3c
00000060: f9fd 9e3c 90cc 84bb d19b 41bd 7f98 2bbd
00000070: 0a55 973c 5f7f 2a3c 0b60 93bb 1bc2 77bc
00000080: 84c8 263d ed5c 873c 57a1 e13c 8dd9 20bc
00000090: 917e b4bd 2365 d33d 131c 953c 8361 ca3c
000000a0: dd6d f03d 8ea4 c3bd cbf4 36bc b00e ba01
000000b0: 680e 5e80 387e be80 770b 1f3d f9fd c4bd
000000c0: 148f f6bd 485a 7400 6030 5581 a25e ac00
000000d0: aca8 ca3d 771b dcbd 5ef5 a63d 2402 5f81
000000e0: 826e 6400 67d3 bf00 7538 593d fbe6 903d
000000f0: 64cb e3bd 8694 ac00 b008 0080 30a6 df80
00000100: 3e44 8d3b e695 07bd 32b9 ac3c 1b3a df3c
00000110: 5419 273c 4444 8d3b 2afb b5bd 6ba4 d93c
00000120: a830 df3c 951a 273c 0844 8d3b 5355 8dbd
00000130: 07f9 093d 0335 df3c f119 273c 3644 8d3b
00000140: 0bca 2dbd 9d70 143d 9f35 df3c 821b 273c
00000150: f543 8d3b 5c2a 15be 6ebb 063d 1837 df3c
00000160: 561a 273c 5944 8d3b dc0d f6bc bc6f 0b3d
00000170: fd2d df3c 8d19 273c 2744 8d3b 3080 a3bd
00000180: 0c0f 193d 8b39 df3c b31a 273c 3444 8d3b
00000190: da93 8e3a 7ec4 af3c e83a df3c c219 273c
000001a0: 8ccb b23d a44b 52bd 82d8 683d aa34 5901
000001b0: 9a22 3181 4fe2 0880 6f66 19be 9ade 32be
000001c0: 9994 38bc 10c9 1181 a0a5 fb80 0569 7080
000001d0: 368f 21be aa1d 823e 78c8 e3bd 7231 2581
000001e0: 1555 b681 077f ef80 0a43 6a3d 836a f33d
000001f0: 1efd 743d 144e ca00 aef0 8081 0f3d 5700
00000200: 635f 1cbc 5eb4 953d 8861 983d 9817 f73a
00000210: a82c 49bc 7c6d 63bc c2d5 92bd c2f0 c73d
00000220: 25e7 393b 1160 d2bb 7449 7bbb ccb6 c63d
00000230: ee94 c93c dada 1f3c ac36 0abc 90da 50bc
00000240: abf6 563d 8183 113e f231 ac3a 4389 113c
00000250: 53a4 333b b857 a8bd 7094 39bd 6115 27bb
00000260: 1d75 b83c 8c52 a2b9 690d 26bd 5812 ef3d
00000270: 5d09 473c 02c3 14bc c40e d4b9 5072 06bd
00000280: f341 003d d60d 353c f381 163d 4bec 5ebb
00000290: 16bb 3e3d 8cee ed3c 0ca4 343c a001 013b
000002a0: ac34 983d d5f1 8ebe 867b 823c 8f88 5e00
000002b0: ec4a 6881 4063 ab00 14dc 68bd 79af 1dbe
000002c0: 6189 20bd 8c5d 5b01 fc99 cc00 3ce4 3f81
000002d0: 0357 1f3e 2e6a 633e cacf 473d d186 2701
000002e0: d8d9 9101 2177 7080 36f2 943e 0988 fd3b
000002f0: a931 a9bd d409 7301 1910 3281 aec5 3d01
00000300: faec 98bb ba58 593c 8395 3fbb e72f 3fbc
00000310: 82e8 8dbb 33f8 98bb 739b 313c 5991 3fbb
00000320: 6a2f 3fbc 8ae8 8dbb 2efc 98bb 81f9 fa3b
00000330: 368f 3fbb 672f 3fbc 66e8 8dbb c5fd 98bb
00000340: b646 b33b bf94 3fbb a72f 3fbc 6de8 8dbb
00000350: 09fd 98bb 3e0b bc3b 148f 3fbb 802f 3fbc
00000360: 81e8 8dbb 7dea 98bb 3587 2a3c 608d 3fbb
00000370: 0f30 3fbc 87e8 8dbb 10fe 98bb ed41 d23b
00000380: 9f8c 3fbb 632f 3fbc 3be8 8dbb 1dfe 98bb
00000390: 91ec 2c3c 5f97 3fbb cc2f 3fbc 80e8 8dbb
000003a0: fd1f 883d 33c3 463d 71cb 16bd b829 8f01
000003b0: a83a 0901 8905 7d81 ea54 293d 2710 d93c
000003c0: 04d1 57bb 0e1c 6580 6ebe 4e01 0646 2680
000003d0: 304e 913c e7fc 3e3d d91d 0cbd 3494 b801
000003e0: 6603 a801 b3d2 4781 e17b 793d f1cf 443c
000003f0: 292a ddbc a805 9680 7aed 8880 aa20 9b81
-0.010434739 -0.002078897 -0.045694754 0.018133702 0.010982029 -0.00073466066 -0.054802235 0.02230703
0.02217561 0.011302453 -0.010504183 -0.07708348 0.023700576 0.021371031 0.016179774 -0.003239796
0.05406057 -0.014409831 0.019521631 0.0126379635 -0.0008604371 0.018195827 0.026671786 0.022831427
0.019408213 -0.004052706 -0.04726774 -0.04189348 0.018473167 0.010406344 -0.004497533 -0.015121962
0.04071857 0.016523803 0.027542753 -0.009817493 -0.08813203 0.10322025 0.018201863 0.0247047
0.11739705 -0.09552871 -0.011166762 6.8346685e-38 -8.637705e-39 -1.7494023e-38 0.038829293 -0.09618754
-0.12039009 1.0685304e-38 -3.915663e-38 1.5829653e-38 0.09895453 -0.10747426 0.08152269 -4.0960167e-38
9.223192e-39 1.7616417e-38 0.053032357 0.07075306 -0.11122778 1.5848986e-38 -3.116e-42 -2.0538932e-38
0.0043111136 -0.03310194 0.021084402 0.027249387 0.01019891 0.0043111164 -0.08885796 0.026567658
0.02724488 0.010199209 0.0043110885 -0.0690104 0.033684757 0.027246958 0.010199056 0.00431111
-0.04242901 0.03624021 0.027247248 0.0101994295 0.0043110796 -0.1456694 0.03289359 0.02724795
0.01019915 0.004311126 -0.030035906 0.034042105 0.027243609 0.010198963 0.004311103 -0.07983434
0.037367865 0.027249118 0.010199237 0.004311109 0.0010877803 0.021456 0.027249768 0.010199012
0.0873023 -0.051341668 0.056847103 3.989439e-38 -3.253459e-38 -8.15868e-40 -0.14980482 -0.17467728
-0.011265897 -2.677655e-38 -2.3110125e-38 -1.032325e-38 -0.15777287 0.25413257 -0.11122221 -3.034119e-38
-6.697833e-38 -2.1994252e-38 0.05719284 0.1188555 0.059811704 1.857878e-38 -4.736513e-38 8.011592e-39
-0.009544226 0.07309793 0.074404776 0.0018851636 -0.012278713 -0.013881084 -0.07169677 0.09762718
0.0028366533 -0.0064201434 -0.0038343342 0.097028345 0.024607148 0.009756768 -0.008435886 -0.012747422
0.052481335 0.14210321 0.0013137443 0.008882823 0.0027411177 -0.08219856 -0.045307577 -0.002549492
0.022516781 -0.0003096055 -0.040540133 0.11673421 0.0121482285 -0.009079697 -0.00040446792 -0.03282386
0.031312894 0.011050662 0.036745023 -0.0034015353 0.046565138 0.029044412 0.01102544 0.0019684806
0.07431921 -0.27918878 0.015928041 8.681525e-39 -4.2665424e-38 1.5739474e-38 -0.056850508 -0.15398969
-0.039193515 4.0291064e-38 1.878968e-38 -3.524491e-38 0.15560536 0.22208473 0.048782147 3.0769782e-38
5.357718e-38 -1.0328311e-38 0.29091042 0.007737164 -0.08261425 4.4639102e-38 -3.2704986e-38 3.4855646e-38
-0.0046669217 0.013265783 -0.0029233403 -0.011669136 -0.0043306956 -0.0046682595 0.010840285 -0.002923092
-0.011669019 -0.0043306993 -0.004668734 0.0076591377 -0.0029229647 -0.011669016 -0.0043306826 -0.0046689236
0.005471076 -0.0029232947 -0.011669076 -0.004330686 -0.004668836 0.005738645 -0.0029229568 -0.01166904
-0.004330695 -0.004666625 0.010408212 -0.0029228553 -0.011669173 -0.004330698 -0.0046689585 0.0064165504
-0.0029228104 -0.011669013 -0.0043306625 -0.0046689645 0.010554449 -0.0029234511 -0.0116691105 -0.0043306947
0.06646726 0.048526 -0.03681511 5.258977e-38 2.520501e-38 -4.6472732e-38 0.041340746 0.02649696
-0.003293098 -9.285449e-39 3.797285e-38 -3.514869e-39 0.017737478 0.046627905 -0.034208152 6.7803586e-38
6.171833e-38 -3.6701697e-38 0.060909156 0.012012468 -0.026997643 -1.3777354e-38 -1.2574818e-38 -5.698488e-38

find.0.bias f4 [64]
00000000: 2f4a 52bc f382 bc3c 0152 e1bd 0cc7 00bd
00000010: c057 7bbd 3b77 333d d4de 02bd 5890 d83d
00000020: ac8d c4bd d99f a9bc 057d a13d cce9 2bbd
00000030: 1af3 febd 95bf fb3d 7e84 943d 0b11 6fbd
00000040: ef15 aabc 7303 893b d1f2 ec3d b844 59bc
00000050: 7361 1c3b d0c2 a3bc 7031 473c 0ff3 27bb
00000060: 90f9 8d3d 5e06 a13d 19cb 0d3e 08d4 d53d
00000070: d2d2 9bbd cbab 7a3c 32d2 6c3c 35df 70bd
00000080: b8cc a5bd c705 1a3d 3b21 0abc 66e7 493d
00000090: d10e 233d 0248 bd3d cec3 59bd 8bec f03d
000000a0: 1605 e2bc 7a51 c23c 0b2e 983d 770e ce3c
000000b0: f213 223d 1a41 d33d 7db0 80bd a227 e4bd
000000c0: b82a b23d bad4 41bd fa36 8cbc 9212 af3a
000000d0: 9353 89bd f5fd 173d d68b dcbd a5d6 5e3d
000000e0: d18d 2dbd 43ed b83d 62bf 08bd a01b 0ebd
000000f0: c294 b53d 13a7 cc3d 0ca2 003e d762 fd3d
-0.01283507 0.02301166 -0.11001969 -0.031439826 -0.06136298 0.04381488 -0.031950787 0.105744064
-0.09597334 -0.020706104 0.07885174 -0.041971013 -0.12448712 0.12292401 0.072518334 -0.058365863
-0.020762412 0.0041813194 0.11569751 -0.013261013 0.0023861795 -0.019990355 0.012157783 -0.0025627052
0.06932366 0.078625426 0.13847007 0.104408324 -0.0760857 0.015299748 0.014454411 -0.058806617
-0.08095688 0.037603166 -0.008430774 0.049292944 0.039809052 0.0924225 -0.05316525 0.11763867
-0.027590316 0.023720492 0.07430657 0.025153382 0.039569803 0.103151515 -0.062836625 -0.11140372
0.08699554 -0.047322012 -0.017116059 0.0013356975 -0.06705394 0.037107427 -0.10768859 0.05440392
-0.042371575 0.09029629 -0.033385642 -0.034694314 0.08866264 0.099928044 0.12561816 0.12372368

find.2.weight f4 [64, 64]
00000000: c0c3 89bd 004e ffbd 808e b83c 9695 323b
00000010: a397 cabd 4ab7 e1bb 2720 853d 7170 27be
00000020: 6dd0 943d ffe0 b23b e9f2 c53d 2084 653c
00000030: a1a4 bf3c 0489 babd db4f fbbc 0568 413b
00000040: a057 723e 84f4 0c3e f7e7 92be 3dec a03e
00000050: 9bc5 7e3d f485 09bc 9270 41bc d8da b43b
00000060: 93c4 a13e 788e 2c3e 4831 6f3e 4976 c43d
00000070: fe43 363d 1583 06be fc9f 723b 02ce 25bb
00000080: 4869 813e 8c1b c5bd fa1e 94bd 216d 473d
00000090: 8f19 9bbd a336 1bbd 2863 c5bc d4f3 8f3d
000000a0: 9e91 123e 33ae b13e 392c 933d 8f4c c9bc
000000b0: 999d 52bc 44e2 a93e e32c 103c b36f adbe
000000c0: beb7 36bd 4eb9 86bc 16ae 363c 7da6 afbd
000000d0: 1d46 5bbc 3420 363e 8cab 25be 15b6 6dbc
000000e0: 8104 d7bd 9868 38be c3a5 be3c 0143 23bd
000000f0: b709 57bd 54df a53d 2337 573d 05ad 4c3e
00000100: 38a1 823c 8584 08be e681 023d 083b bdbc
00000110: f25f 64be 6a6b 033d 56ce d13d a985 4ebd
00000120: 6f4a f23c 7774 0cbc cdd5 323d be69 30bc
00000130: 20c8 2dbd 8fa1 ed3d f1a2 4c3d b295 9e3c
00000140: 4a78 863e 8f49 023c f00a 84be cab9 693e
00000150: dbe1 c23d 9e00 ba3a 1e68 fcbc c8ea 313a
00000160: 5a4b 183e 93ad d53d 0241 423d 3e1e c1bc
00000170: afe4 26bc 0a20 94be 52e4 6bbc c4d9 d3bc
00000180: b6e3 733c d6d0 96be 5f0a 15bc fdfe 303e
00000190: c790 813c 7ffb d9bb 993b b33c 5f3f bd3d
000001a0: f7b9 a03c da43 923e 4304 993d a89e 2d3d
000001b0: e894 86bb d8e2 e43d 7715 81bc 0ddb 79be
000001c0: 02b8 9e3c 614c fbbc d7b9 5abb d39b a03d
000001d0: 60d9 9bbc 16a6 233d 0b51 55be 5f20 aa3c
000001e0: a20b 47bb f576 7ebe 3ada 90bd a2da 2abd
000001f0: dc78 243e 16d8 1f3e f0e4 edbc 8e2a 503e
00000200: c521 19bd da3a f6bd ff9b 5ebe 0f38 93bd
00000210: 67a3 0b3e 82a7 da3d d2d7 28be abc4 acbe
00000220: 8cc1 85be 2ff3 4abd 7199 20be 528a 81bc
00000230: 896b 95be be6b d13d 998c 5abe 9d28 ccbd
00000240: 43b2 29be e13a 873c ccb9 a93e 8d20 efbd
00000250: 4219 ffbc 0790 843c 2a7e fdbc 8e69 71bc
00000260: 089d 9cbd 6017 10be 7800 4cbe 8259 8cbd
00000270: 3ea5 5ebd 2759 d6bc 51e0 27bd 1189 c1bc
00000280: c12f 2dbe 2c9d 5b3e 23ad aabd 9b30 943e
00000290: 1e98 f53d efb3 873d 9392 9b3c 3755 3dbe
000002a0: 1f9f 043d 4139 eabd 20c8 9a3c 1586 703d
000002b0: f3bc 65bd 103e 00bf 2c72 a8bd d784 153b
000002c0: a1f3 923c 1d55 79bd e96d c1bd 146c c8bd
000002d0: d79f a6ba 46db 5cbe e481 603d d8c3 13bd
000002e0: a2a7 dfbe 499f fe3e 1d2d 0ebd 41ce 8b3b
000002f0: bcaf 6c3d 5a9b e4bd 7965 63be d638 58be
00000300: fbc3 18bc 9322 8e3b 46c2 1bbb 6598 82b9
00000310: 3bc7 cc38 e108 febc b89a 18bc be2f 0dbd
00000320: da9e acbc 3b13 91b9 099f f2bc cfb3 3eba
00000330: a491 c4bb d567 52bd 334e 0cbd a0fd 13ba
00000340: fe3c 2bbd 8ca6 17bd de36 053d a247 ec3a
00000350: d98b 9f3b 432d 34b9 1ca9 84b9 6ec2 cfb9
00000360: af75 583b d1a7 533b 8af6 cc39 7f36 1bbd
00000370: bc27 08ba 62ac 6db9 00cc 83bb d892 12ba
00000380: 6ba6 3dbd d4b1 b63b bd14 a8bc ab3e 123d
00000390: 816f f8bc b8d3 8eb9 c06f ebb9 c907 02bd
000003a0: 9576 adbb ec0c c3ba 9713 b13b bc3f 1bba
000003b0: a2da 5ab9 2c50 0239 1a12 d2b9 9a75 cf3a
000003c0: 0938 12bd 3269 11ba d8c3 ef3b 019d 9db8
000003d0: bdff c6ba 329a f3bc 418b ebbc 489d 13ba
000003e0: 6cb0 b4bb 3aec 013d 0275 4a39 7131 dbb9
000003f0: 3e71 44bd 913d cfbc 6b07 08ba cb38 03bd
-0.067267895 -0.12466049 0.022528887 0.0027249805 -0.09892204 -0.006888305 0.06500273 -0.16351487
0.072663166 0.0054589505 0.09665472 0.014008552 0.02339393 -0.09108165 -0.030677726 0.0029511463
0.23666239 0.1376515 -0.286926 0.31430236 0.06220017 -0.008393753 -0.011806624 0.0055192523
0.31595287 0.16851223 0.23358643 0.095928736 0.044498436 -0.13135941 0.0037021628 -0.0025299792
0.25275636 -0.09624395 -0.07232471 0.048688058 -0.07573234 -0.037893903 -0.024095133 0.070289284
0.14313361 0.34703216 0.07186169 -0.024572639 -0.012854957 0.3318044 0.008799764 -0.33874282
-0.044608824 -0.016445782 0.011149904 -0.08576677 -0.0133834155 0.17785722 -0.16178721 -0.014508744
-0.10498906 -0.1800865 0.0232724 -0.03985882 -0.0524995 0.08099237 0.052542817 0.19987877
0.015946016 -0.13331802 0.031862162 -0.023099437 -0.22302225 0.03208486 0.102444336 -0.050420437
0.029576508 -0.008572689 0.043660928 -0.010767398 -0.042427182 0.116030805 0.04996008 0.01935849
0.26263648 0.007952108 -0.25789595 0.22824779 0.09515735 0.0014190858 -0.030811366 0.00067869993
0.14872494 0.10433497 0.047425278 -0.02357399 -0.010186358 -0.28930694 -0.0143976975 -0.025860675
0.0148858335 -0.29456204 -0.009096711 0.1728477 0.015816106 -0.006652295 0.021879004 0.09240603
0.019619925 0.28567392 0.07471516 0.042387635 -0.0041071065 0.111760795 -0.015757306 -0.24399967
0.019374851 -0.030676069 -0.003337493 0.07842221 -0.01902455 0.039953314 -0.20831697 0.020767389
-0.0030371924 -0.24850066 -0.070728734 -0.04171241 0.16061729 0.15609774 -0.02903983 0.20328733
-0.03738572 -0.12022944 -0.21739195 -0.07188427 0.13636552 0.10676481 -0.16488579 -0.33743796
-0.26124227 -0.049548324 -0.15683533 -0.015813027 -0.29183605 0.10225628 -0.21342696 -0.09968684
-0.16571908 0.016507568 0.33149564 -0.116761304 -0.031139974 0.016181959 -0.030943949 -0.014734639
-0.07647139 -0.14071417 -0.19922054 -0.0685301 -0.054356806 -0.026165558 -0.04098541 -0.023624929
-0.16912748 0.21446675 -0.083338045 0.28943333 0.11991905 0.066261165 0.01899079 -0.18489538
0.032378312 -0.114367016 0.018894255 0.05872162 -0.0560884 -0.500947 -0.082249016 0.0022814774
0.017938437 -0.060872186 -0.09444792 -0.09786239 -0.0012712431 -0.21568021 0.054811373 -0.036075443
-0.4368258 0.497309 -0.034710992 0.0042665307 0.05778478 -0.111624435 -0.22206677 -0.21115431
-0.009324069 0.0043376177 -0.002376692 -0.00024909075 9.7645876e-05 -0.031010093 -0.009314232 -0.03446936
-0.02107184 -0.00027670883 -0.02961685 -0.00072747184 -0.005998807 -0.051368553 -0.034254264 -0.0005645398
-0.041806214 -0.037024066 0.03252303 0.0018026719 0.004868966 -0.00017182999 -0.00025302998 -0.00039626978
0.003302913 0.0032296071 0.00039093598 -0.03789377 -0.0005193909 -0.00022666299 -0.0040221214 -0.00055913394
-0.046301287 0.005575398 -0.020517701 0.035704296 -0.030326607 -0.00027242093 -0.00044905953 -0.031745706
-0.005293677 -0.001488117 0.0054039466 -0.0005922278 -0.00020871547 0.00012427632 -0.00040067808 0.0015827895
-0.03569797 -0.00055469864 0.0073170476 -7.515588e-05 -0.0015182417 -0.029736612 -0.028752925 -0.0005631042
-0.005514195 0.031719424 0.0001930781 -0.00041807772 -0.04795956 -0.025297912 -0.00051890936 -0.032036584

find.2.bias f4 [64]
00000000: e7fe e73d 06ae fe3d 05fc 753e 4835 fdbc
00000010: 71fa e93d c4b8 f1bc bd8b 883d 5c12 12bd
00000020: 8bab bbbc 4f84 233d beba 8a3a 80a9 923d
00000030: dc58 143c 2d86 12bd d6c7 183e cdf7 fd3d
00000040: f90a 273e 7c42 063e 4215 b03d 7079 343e
00000050: 58a5 fa3d 3290 05bd e3d2 263e c063 9bbc
00000060: 8f51 dcbc 2351 6cbd 7d8d 183e 4824 d63d
00000070: 3611 7e3b cc23 3a3d 0b95 ae3d 8c61 a5bc
00000080: 1c8b 8f3d 8090 983d b6e3 53bd 2a46 bf3d
00000090: 74ac dd3d 343f 2f3d fc27 19bd 15a1 cfbc
000000a0: 61f9 8f3d 7a6e 94bd a75b c13d d5d4 afbc
000000b0: 0d0c 37bd daff 1a3d a80c abbd e9f7 40bd
000000c0: c85d 41be 03d7 97bd d59a 6a3e 7ff2 0b3e
000000d0: 91eb abbd 6804 6d3c b29f 5b3d cfdb adbd
000000e0: 1fe2 2dbc 0d1e 693d 5fc5 0f3d 6f5f 153e
000000f0: 63fc 2dbd e78f b73d e64e 003e 72e4 2c3d
0.11327916 0.12435536 0.24021919 -0.030909196 0.11424721 -0.029507048 0.06667278 -0.03566204
-0.022908946 0.0399211 0.0010584218 0.07161236 0.009054389 -0.03577249 0.14919981 0.1240078
0.1631278 0.131113 0.085978046 0.1762445 0.12238568 -0.03260822 0.16291384 -0.018968463
-0.026894359 -0.057694566 0.14897723 0.10456139 0.0038767583 0.045444295 0.085245214 -0.020188116
0.07008955 0.07449436 -0.051730834 0.093395546 0.108239084 0.042784885 -0.037391648 -0.025345365
0.07029987 -0.07247634 0.094413094 -0.02146379 -0.044689227 0.037841655 -0.08352023 -0.047111426
-0.18883431 -0.07414057 0.22910626 0.13666724 -0.0839454 0.014466383 0.053619094 -0.08489191
-0.0106129935 0.056913424 0.035100337 0.14587186 -0.042477023 0.08962994 0.12530097 0.04221005

find.4.weight f4 [32, 64]
00000000: 3303 27bd 3e94 a53b bc94 eabe 8d7a e3bc
00000010: edb9 293d f7bf c5bc a355 193e cf21 31b9
00000020: c822 e3bb 7dd2 94bd e7e8 96be 6d9a 2e3e
00000030: ef4c de3d 8097 e4bb 8c7b c0bd d4aa dcbc
00000040: db4c 06bc dcd4 e8bd 1c95 b6be 46bc bfbd
00000050: d6be 8ebd c492 30bd f840 9dbe e63f 0bbd
00000060: 1fca aebc 7f69 2cbc 0e98 113d dda3 18be
00000070: 1cb4 dcbc de8c e53e 28a9 8d3c 789f 84be
00000080: 613f 78bd ae62 d43d e552 9abe 2e96 21be
00000090: 8df4 3fbe 99fa 27be 54a9 dd3e 5c7e d8bb
000000a0: 6136 27be c250 37bc 370a f0be 4a34 9e3e
000000b0: 0064 dbbc d4e9 563e 3511 f8bc f46f 23bd
000000c0: ea1f 9d3e 6a39 a9be 693a febe 2b87 32bd
000000d0: 8f7d 463d ee62 e6ba de04 243d 3c56 57bc
000000e0: bb02 53be 9b7e a63e d1b4 363c d371 bfbd
000000f0: f4e2 2ebd ac62 113e 4ffd d93e dfba 923c
00000100: 2492 cebd 24a4 9a3d 6290 a93e 6a6f 21bd
00000110: c499 2fbd da4e 93bc cbce 47be 48a7 c1bc
00000120: a509 23bc 81cc 9d3d 3da0 a63d 2cd9 b2be
00000130: 6950 16be 30b4 d2bc 5ca1 1cbe 4a4e 863e
00000140: 5ef8 cdbc f9b8 6bbd ea13 a0bd 9a06 813d
00000150: 58e6 863d 9fe2 92bb f27e cb3d 71b0 eebc
00000160: 8750 b4bc 02fa 26bd eefc 84bd d133 9c3d
00000170: 6c95 bcbc badf bcbd 9a39 16be 848d 403c
00000180: 433c ea3d 5e36 363d 4569 ffbd 657c 2b3d
00000190: 1d31 b8bd 761b 85bd 16f5 f0bd 1018 51bb
000001a0: 6889 683e 9784 053d f74e 123e a68d 06be
000001b0: 36dc 77bc 66cf 74be 9519 eebc e506 a6bb
000001c0: c9db b0bc 47a8 efbe 6f7a 463e 8a95 813c
000001d0: fd32 07be cacd 06bd 17f0 f4bc aa5d d73b
000001e0: f46c bf3c bc92 b7be 3f8c 643e 53c4 803d
000001f0: da8c 9e3b 4da3 0dbe ac6b 17bd 3aab 8bbc
00000200: 497f cc3d 620c 62ba ef0c 4bbe a8f6 b339
00000210: 6c87 0f3e 0bee 77bb 0f5c 0d3f 7e95 503c
00000220: 12aa fabb a0f0 e5bd 53bd 123d 7539 c73e
00000230: 66eb 013e 8c63 db3b f73f 983d f601 30be
00000240: ba98 623e d5d3 5a3d fc57 c3bc 6725 4a3d
00000250: e588 0a3e 2ae1 01bb a949 7dbc ef0b 503c
00000260: b83c acbb cc44 e73c 1f42 06bd cf97 403e
00000270: 81e3 72bb 1dc0 fb3d f9e2 d93d 08d4 8b3c
00000280: 1534 41be 287d 223e 21d8 9fbd 81f4 163e
00000290: 1613 443e d6e7 383e 4d22 233e 6fea c0bb
000002a0: f441 6dbe 9a16 23bd d62b 70bd e09d e53e
000002b0: c004 21bd 97fb 143f c38c ad3c 6076 2dbd
000002c0: 7e03 883d 8fa3 b63e fcd3 19be d3da ce3d
000002d0: 87c5 253e 1742 533e b582 073e 1b3f dbbb
000002e0: b89e cab9 8a46 223f c2db 28be 7f67 1e3e
000002f0: 1d0a b5bc 29ea 0f3e c390 873d e102 5e3d
00000300: 9fb4 1fbe 8f4d 57bd 51a2 c63e e762 3cbb
00000310: 6852 22be 8695 0dbb 0f45 13be 0b2c d8bc
00000320: f4ce ad3c 1a12 843e 7945 27be d3b4 77be
00000330: 0503 4ebd 621f 62bb 887c 3b3b e3e5 ab3e
00000340: 792f 21bd 9c40 d8bd 96dd 0dbe a407 7e3d
00000350: 3b9f 00be fd7c 003a 0e82 413e e7aa 8e3c
00000360: 604c 0dbc 5bfb 32bd 49eb de3b 66f9 9c3d
00000370: ac73 34bc c271 98bd 9ee8 23be 485d 10bc
00000380: ba84 8c3e 4dc5 76bd cb59 0cbe 1cf2 47bd
00000390: afbf b0bd 5a2e f13c 5a8b 483e 5f5c 48bb
000003a0: 790f 703e 1c57 ea3a efa3 053e b2e3 58bc
000003b0: 59e9 a93c 5043 65be de6e 12bd de3b 04bb
000003c0: 9ec9 13bd ff05 1cbe 821a 0f3d 5a8f 01be
000003d0: 430b 2cbe b6ef 50bd 83e2 1fbd dc09 03bc
000003e0: b5ec 2ebd b451 16be c333 833e b32d a4bd
000003f0: 1162 663c 9c6e 0cbd eb8e 5d3e 7222 1dbe
-0.040774535 0.0050530722 -0.458166 -0.027768398 0.04143708 -0.024139388 0.14974074 -0.0001689263
-0.0069316365 -0.0726671 -0.29474565 0.17051096 0.10854518 -0.006976068 -0.09398565 -0.026936926
-0.008197035 -0.11368725 -0.35660636 -0.09362082 -0.06969993 -0.043108717 -0.3071363 -0.033996485
-0.021336613 -0.010523199 0.0355454 -0.14906259 -0.026941352 0.44834036 0.017292574 -0.25902915
-0.060607318 0.10370384 -0.30141369 -0.15779945 -0.18745632 -0.16404189 0.4329325 -0.00660686
-0.16329338 -0.011188688 -0.46882793 0.30899268 -0.026781082 0.20987636 -0.030281642 -0.03990169
0.3068841 -0.33051616 -0.49653938 -0.043585937 0.048459586 -0.0017577091 0.040043704 -0.0131431185
-0.2060651 0.32518467 0.011151508 -0.09347882 -0.042696908 0.14197797 0.42576072 0.017911373
-0.10086468 0.075508386 0.33117968 -0.039412893 -0.04287125 -0.017981935 -0.19512479 -0.023639336
-0.00995103 0.07705022 0.08136032 -0.34931314 -0.14679112 -0.025720686 -0.15295929 0.26231605
-0.025142845 -0.05754945 -0.07816298 0.06300087 0.06586903 -0.0044825817 0.09936322 -0.029136868
-0.022011055 -0.04076577 -0.06493555 0.07627071 -0.023020469 -0.0922236 -0.14670411 0.01175249
0.11437275 0.044485442 -0.124712504 0.04186668 -0.089937426 -0.064993784 -0.117654964 -0.0031905212
0.22708666 0.03259715 0.14287935 -0.13139972 -0.015128186 -0.23907241 -0.029064933 -0.00506674
-0.021589177 -0.46808073 0.19382642 0.015818376 -0.13203044 -0.0329111 -0.02989964 0.006572445
0.023367383 -0.35854137 0.22319125 0.06287446 0.004838568 -0.13831826 -0.03696792 -0.01704942
0.09985215 -0.0008623061 -0.19829153 0.00034325314 0.14016503 -0.0037831094 0.55218595 0.012730954
-0.0076496685 -0.11227536 0.035825085 0.38911024 0.12687454 0.0066952165 0.07434075 -0.17188248
0.22128573 0.053424675 -0.023845665 0.049352076 0.13528784 -0.0019818046 -0.0154594565 0.012698158
-0.0052562617 0.028231047 -0.0327779 0.1880791 -0.0037061872 0.12292502 0.10638995 0.017068878
-0.18867524 0.15868056 -0.07804895 0.14741708 0.19147906 0.18057188 0.15931053 -0.0058873217
-0.2316969 -0.039816476 -0.058635555 0.44847012 -0.03931117 0.58196396 0.021185284 -0.04234922
0.06641291 0.3567166 -0.15022272 0.10100331 0.16188632 0.2063068 0.13233455 -0.0066908724
-0.00038646697 0.63388884 -0.16490081 0.15469168 -0.022099549 0.14054169 0.06619408 0.054201964
-0.15596245 -0.0525642 0.38795713 -0.0028745474 -0.15851748 -0.0021604015 -0.14381813 -0.026388189
0.021216847 0.2579506 -0.16335095 -0.24190073 -0.05029585 -0.003450357 0.0028608162 0.33573827
-0.039351914 -0.10559198 -0.1385406 0.062019005 -0.12560742 0.0004901437 0.18897268 0.017415477
-0.008624166 -0.043696743 0.0068029505 0.076647565 -0.011013906 -0.074435726 -0.16006705 -0.0088113025
0.27445012 -0.060246754 -0.13706128 -0.048814878 -0.08630311 0.029441047 0.19584408 -0.0030572636
0.23443402 0.0017878744 0.13050817 -0.013237881 0.020741152 -0.22388959 -0.035750262 -0.0020177285
-0.03608095 -0.15236662 0.03493739 -0.1265234 -0.16801171 -0.051009856 -0.039034378 -0.007997956
-0.04270621 -0.14679605 0.2562543 -0.08016529 0.014061467 -0.034285173 0.2163655 -0.15345171

find.4.bias f4 [32]
00000000: 1161 eebc 7480 843e 6e5c 9d3d 737a 973e
00000010: a30e 453e aab2 863d ff37 90bc 8938 b9bc
00000020: 3621 0d3e e117 88bd 0929 8d3e 4363 9f3d
00000030: 8e53 633e 1120 cd3d 4274 363d f5c1 cfbb
00000040: 9922 b9bd 2456 c33d 7871 243e 12a2 853e
00000050: 378b c9bb b9d9 8b3d c89e 3e3e b645 4c3e
00000060: ffba 593d c812 04bd 97ed bebc ad7a 51bd
00000070: e074 703e 6dce c43c c0cd 95bd 5d80 793d
-0.02909902 0.25879252 0.07683645 0.2958561 0.19243865 0.06577046 -0.017604826 -0.022609966
0.137822 -0.066451795 0.2757037 0.077826045 0.22199842 0.10015882 0.044544466 -0.00634026
-0.09039802 0.095379144 0.1605891 0.26100212 -0.006150629 0.06828637 0.18615258 0.19948468
0.05315685 -0.032244474 -0.023306651 -0.051142383 0.23482084 0.024024213 -0.07314634 0.060913432

find.6.weight f4 [2, 32]
00000000: 9f54 9d3e 1dc2 53be b6de baba ca53 3c3e
00000010: e8d3 a73e b7d9 803e fa5c 993e e7dd 933e
00000020: 0b21 6cbe 5c59 483d 19ba 1c3e b318 c7be
00000030: d87f a13d 1a76 92be d50e 63be 1f00 d73e
00000040: 35da f33e 7cd3 0f3e 412a 2dbd ca9d 1dbe
00000050: 2646 503c 716d 99be 3974 b3bd 4027 0dbe
00000060: 2e94 83be 2ce9 953c c134 90bd f2d8 f83e
00000070: ec95 18bd baaa 92be 6f58 a83e 2e5f 173e
00000080: 956c 72be ed33 ba3e 9fe1 95be 2990 f93e
00000090: 7926 533e 6931 e03d 5b8f 96ba c4fb 853e
000000a0: f7b0 54be b89b d5be 28d9 c33e 4d10 ac3d
000000b0: e63a bd3e a917 453c 882e bfbc e3ac c8bd
000000c0: 9988 22bb 62f0 f5be 1f5b b4be b3d9 c23e
000000d0: 6515 b2be 4284 97bd db76 643e 7e3b 22be
000000e0: 4620 5cbd 3ad8 b1bb d2f5 0c3e 19f4 8eb9
000000f0: 12e3 e43e 67b8 fbbd ee59 d13d 6419 1fbf
0.30728623 -0.20679517 -0.0014257047 0.18391338 0.3277886 0.25166103 0.29953748 0.28880236
-0.2305948 0.048913345 0.15305366 -0.38886032 0.078857124 -0.2860573 -0.22173627 0.4199228
0.47627416 0.14045519 -0.042276625 -0.15392223 0.012712037 -0.2996631 -0.08762402 -0.13784504
-0.2569899 0.018299662 -0.07041312 0.48603016 -0.03725235 -0.2864588 0.3287997 0.14782402
-0.23674233 0.3636774 -0.29273698 0.48742798 0.20620145 0.10946924 -0.0011486815 0.26168644
-0.20770632 -0.41720366 0.38251615 0.084015466 0.36958998 0.012029567 -0.023337618 -0.097986005
-0.0024800657 -0.4803496 -0.3522577 0.38056716 -0.34781948 -0.07398273 0.22310965 -0.15843007
-0.053741716 -0.0054273875 0.13765648 -0.00027266218 0.4470449 -0.12291031 0.10222231 -0.6214812

find.6.bias f4 [2]
00000000: f822 9bbd 2ceb 0bbe
-0.07575029 -0.1366393

grapher.0.weight.weight f4 [5, 1]
00000000: e24d 7eb6 76fc fd35 66a6 7838 a903 86b8
00000010: 417d 78b9
-3.7894283e-06 1.8923445e-06 5.928278e-05 -6.3903e-05 -0.00023697784

grapher.0.weight.bias f4 [5]
00000000: 4c1a 9e39 89d3 76b7 2831 143c 74a4 883b
00000010: e026 19bc
0.000301557 -1.47119945e-05 0.009044923 0.004169995 -0.009347647

grapher.0.reduce.weight f4 [5, 1]
00000000: 1e3c 1282 af3a b0b8 586c f3b7 86a8 6a0c
00000010: a4ee 0cba
-1.0743639e-37 -8.403265e-05 -2.9018309e-05 1.8077417e-31 -0.00053761364

grapher.0.reduce.bias f4 [5]
00000000: 9cbb 1484 bad6 6db9 3bb1 43b8 638e 240c
00000010: 8da2 523c
-1.7483462e-36 -0.00022682073 -4.665668e-05 1.2676948e-31 0.012856138

grapher.0.gru.weight_ih f4 [15, 5]
00000000: e48d 5e2c aa1a 87aa 4a57 ba2e f430 152d
00000010: 7d81 9ead 03d5 202b 06db 79a9 132f a22d
00000020: f9c9 952c ecaa 86ad 0375 46ac 662a 772a
00000030: 555e a7ae 40e1 98ad fdeb 652e e4b4 012b
00000040: 04e7 91a9 6ff4 722d 063f 34ae 206b 98ad
00000050: 725a c72b 8417 cfa9 0daa 042e 0ac9 172d
00000060: 862e aead 8bf6 9f2b df16 78a9 c52a 0f2e
00000070: 7cc7 152d 4c5a 85ad b066 fc2a f622 a8a8
00000080: 960c 852d b9ef e42d b701 59ae bdd3 40ac
00000090: b3bb 4c2a f7a6 adae 0348 a7ae e2fd 1b2f
000000a0: 1009 2d2b 767a 1ba9 6df8 8f2d 6870 9d2d
000000b0: fd8a 1eae 49af d22b 98bb b8a9 02c0 302e
000000c0: 7c7e 15b5 731b ec32 7c64 aab5 2d88 f433
000000d0: 336e f8b7 4bdb fbb7 68a4 9c38 401f a635
000000e0: 7e23 08b4 fec1 0937 6560 2438 60ec eeb8
000000f0: 572e 3e3a 884c 1f38 6dae dd3a 4bf5 07bc
00000100: 2628 6abc 515f c634 2fa8 eeb2 ae26 2a37
00000110: d40e ac38 d274 0ab9 3233 9cba 7853 523a
00000120: 0e7f c7bb d303 823c c862 b93c
3.1626863e-12 -2.399932e-13 8.4738064e-11 8.480539e-12 -1.8020025e-11 5.713903e-13 -5.547908e-14 1.8438173e-11
4.257258e-12 -1.530994e-11 -2.8202447e-12 2.1952717e-13 -7.6110375e-11 -1.738043e-11 5.227817e-11 4.608104e-13
-6.4793684e-14 1.38103825e-11 -4.0983238e-11 -1.7327972e-11 1.4164904e-12 -9.196726e-14 3.016436e-11 8.627996e-12
-1.980217e-11 1.1366059e-12 -5.50869e-14 3.2552423e-11 8.513964e-12 -1.516045e-11 4.4835446e-13 -1.8666909e-14
1.5125939e-11 2.6027057e-11 -4.934161e-11 -2.740238e-12 1.8183961e-13 -7.896788e-11 -7.6070726e-11 1.4187365e-10
6.1474523e-13 -3.4523132e-14 1.6367541e-11 1.7898752e-11 -3.6048487e-11 1.4970049e-12 -8.203784e-14 4.0188304e-11
-5.5690884e-07 2.7486498e-08 -1.2695232e-06 1.13869056e-07 -2.961522e-05 -3.0023648e-05 7.469283e-05 1.2377059e-06
-1.2678899e-07 8.211004e-06 3.919042e-05 -0.00011392753 0.000725483 3.797983e-05 0.0016912945 -0.0082982285
-0.014291799 3.6949726e-07 -2.7783328e-08 1.0141795e-05 8.204361e-05 -0.00013204225 -0.0011917113 0.0008023302
-0.006088144 0.015870964 0.02263011

grapher.0.gru.weight_hh f4 [15, 5]
00000000: 3a02 2881 0eb5 76ad 62b8 5c2f 6bb1 2b81
00000010: 0d16 7f2d a268 8001 3d70 02ac 029c 652e
00000020: f803 ce01 8848 d72c e601 9380 f906 382d
00000030: 5121 6faf 9277 f481 b2e3 21ae d37f ee80
00000040: 332f 0aac 3a69 382e 6826 0b80 0234 cc2e
00000050: 9e1c a380 3155 1aad 6373 032f a693 2a80
00000060: 8d5c 7d2d eaae 2d01 d548 43ac fe1c 752e
00000070: 24eb 4e80 2cae a22d 4ed8 a801 1dbd 35ac
00000080: 59b3 e72d 1198 9f81 7420 692e 1446 6000
00000090: 6f1d 352d 9ce4 1aaf 2dd6 8001 bdcb 27af
000000a0: 62fa 9601 bb6b 36ac 9ade 192e 9c47 4a80
000000b0: 1dfd 2d2e 054f 1a00 62ec d9ab 0c56 8d2e
000000c0: faeb bc00 a493 11b5 78e2 8f04 6a9c f635
000000d0: ea1d 08b8 73dd 128a 2480 23b7 4366 9503
000000e0: bcb2 22b6 da76 0038 d8ff 6e0a 22bb 4237
000000f0: 202f 3183 8497 8635 62bb e6b7 13ef c78a
00000100: 2745 0f38 2d1d b182 9b9a f7b4 44ba 8036
00000110: e1f3 0889 e19e 4136 34e8 8503 8889 b9b4
00000120: 4e99 4838 f343 4e0a 5d0b 8b3b
-3.0858324e-38 -1.4023683e-11 2.007439e-10 -3.153503e-38 1.4499968e-11 4.7169915e-38 -1.8536416e-12 5.2207134e-11
7.5678144e-38 6.11872e-12 -1.3500499e-38 1.0460737e-11 -2.174876e-10 -8.980302e-38 -3.6809396e-11 -2.1902703e-38
-1.963718e-12 4.1930216e-11 -1.023968e-39 9.2860844e-11 -1.4979452e-38 -8.772803e-12 1.1955374e-10 -3.910057e-39
1.4401935e-11 3.1900576e-38 -2.7751597e-12 5.57323e-11 -7.247521e-39 1.8494616e-11 6.2023835e-38 -2.5826626e-12
2.6341306e-11 -5.862558e-38 5.300689e-11 8.841347e-39 1.0295194e-11 -1.4087437e-10 4.73271e-38 -1.5260944e-10
5.546058e-38 -2.5923558e-12 3.4985882e-11 -6.821515e-39 3.9560456e-11 2.41607e-39 -1.5484387e-12 6.4272226e-11
1.7349726e-38 -5.4231555e-07 3.3827117e-36 1.8373951e-06 -3.2452786e-05 -7.071294e-33 -9.745392e-06 8.780911e-37
-2.4243918e-06 3.0628267e-05 1.1507402e-32 1.1606871e-05 -5.206972e-37 1.0027875e-06 -2.7505394e-05 -1.9252933e-32
3.415826e-05 -2.6024559e-37 -4.6119825e-07 3.8363814e-06 -1.6485076e-33 2.885172e-06 7.870349e-37 -3.4559002e-07
4.7826492e-05 9.931319e-33 0.004243298

grapher.0.gru.bias_ih f4 [15]
00000000: be8b ce30 e988 ae30 9f8d 4f32 dd81 ebb2
00000010: a3d4 9930 9442 8731 e59f c931 dfeb b2b2
00000020: 2278 c831 90d0 deb6 4668 e3bb 2c45 c43c
00000030: ddb6 3e3d 968e 423c 5fd2 553d
1.502819e-09 1.2699078e-09 1.2081187e-08 -2.7416656e-08 1.119265e-09 3.936586e-09 5.868048e-09 -2.0829189e-08
5.8344236e-09 -6.6403954e-06 -0.0069399206 0.023958765 0.04656111 0.011874815 0.05220258

grapher.0.gru.bias_hh f4 [15]
00000000: 005f ce30 2475 b030 621b 4e32 703b a4b2
00000010: 1d5d 9a30 cfad 8731 8c03 c931 4902 b3b2
00000020: c534 c831 a827 6035 dffd acba 6bde 5b3b
00000030: 9c06 953c d5fa 153b f40a 40bd
1.5015473e-09 1.2838979e-09 1.1997004e-08 -1.9119142e-08 1.1231439e-09 3.948777e-09 5.850273e-09 -2.0839382e-08
5.8267653e-09 8.350421e-07 -0.0013198218 0.003354932 0.018191628 0.0022885103 -0.046885446

grapher.0.gru.ln_resetgate.weight f4 [5]
00000000: d486 99ad 2686 9dad 28d3 0536 1021 c0aa
00000010: 9237 8730
-1.7453962e-11 -1.7908407e-11 1.9941454e-06 -3.4128993e-13 9.838337e-10

grapher.0.gru.ln_resetgate.bias f4 [5]
00000000: bc5a 7337 74ed ab36 b6c3 f1b6 2ef9 1835
00000010: 3097 5db7
1.4505054e-05 5.1238403e-06 -7.2051434e-06 5.6987017e-07 -1.3207828e-05

grapher.0.gru.ln_inputgate.weight f4 [5]
00000000: 2e4b 1200 56ca 9a2b e09c 6333 e170 8300
00000010: c213 2f34
1.680008e-39 1.0998518e-12 5.2995233e-08 1.2070943e-38 1.6305333e-07

grapher.0.gru.ln_inputgate.bias f4 [5]
00000000: 10c3 1781 737f a031 7cc4 0539 1891 5400
00000010: 0c78 d1b7
-2.787427e-38 4.671102e-09 0.00012757065 7.766232e-39 -2.4970643e-05

grapher.0.gru.ln_newgate.weight f4 [5]
00000000: 0fab c006 e898 5cba 7941 343d 709c c28b
00000010: 1cfa 693c
7.247372e-35 -0.0008415119 0.044007752 -7.496146e-32 0.014280822

grapher.0.gru.ln_newgate.bias f4 [5]
00000000: 5279 1406 ced1 36bb 0751 83bb b5a5 3e0d
00000010: 7be1 0ebc
2.7924838e-35 -0.002789605 -0.004007462 5.8747733e-31 -0.008720751

grapher.1.weight.weight f4 [5, 5]
00000000: fb71 8107 dbef 163a 683f 3f3d 4e33 5f8e
00000010: f7bb 303c 3182 2906 fc65 01bc 5f27 3b3d
00000020: b0ff b40d f3f0 023d 562e e306 f304 033a
00000030: 8020 ebbc d44e 598d 8e46 ea3b 7600 b704
00000040: 5191 483c d6c0 8e3b 7251 c30c 7ac5 5bb8
00000050: 9395 ad06 1556 ba36 aabd 8e3c 62f7 b78d
00000060: df8e 8cb9
1.9476754e-34 0.0005757787 0.04669133 -2.7511574e-30 0.010787002 3.1881017e-35 -0.00789785 0.045691844
1.1154911e-30 0.03196807 8.5455994e-35 0.0004997991 -0.02870202 -6.6963174e-31 0.007149524 4.3023517e-36
0.012241677 0.004356484 3.0093525e-31 -5.2397583e-05 6.5295147e-35 5.5532532e-06 0.017424423 -1.1337801e-30
-0.00026809328

grapher.1.weight.bias f4 [5]
00000000: ba36 12be 626b 163e 1416 a4bd 899f 973b
00000010: 1b8b 683e
-0.14278689 0.14689401 -0.080120236 0.0046271724 0.22709315

grapher.1.reduce.weight f4 [5, 5]
00000000: a0c4 c683 24b2 633c 49da 15bd 36cc 970a
00000010: d2db 763d 0e6e 7784 27c4 abb5 7ffb 1f3a
00000020: 9ce2 c309 831d 3b35 8ceb 3602 7c50 ca3a
00000030: b0f6 ac3b 98c8 c80b 4d90 31bc f4e3 9801
00000040: 0327 8932 6123 60b6 4059 4386 156e 6236
00000050: 5823 8880 89c4 e3b1 d524 e335 7435 2807
00000060: 248b 9f32
-1.1682537e-36 0.0138974525 -0.036585126 1.4617587e-32 0.06026823 -2.9085245e-36 -1.2797581e-06 0.00061028445
4.7157645e-33 6.9705874e-07 1.3438847e-37 0.0015435363 0.005278431 7.733902e-32 -0.010837627 5.616308e-38
1.596664e-08 -3.3399194e-06 -3.6740994e-35 3.37407e-06 -1.2502306e-38 -6.628913e-09 1.6923537e-06 1.2654624e-34
1.857331e-08

grapher.1.reduce.bias f4 [5]
00000000: 8c25 66bc 7ee2 7abc 37b5 593e 2e2f 77b9
00000010: 5acd d9b7
-0.014047038 -0.015312789 0.21260534 -0.00023573331 -2.596404e-05

grapher.1.gru.weight_ih f4 [15, 5]
00000000: 7e90 b9ba b0af 5b3b 4d26 80ba 165e bb38
00000010: 4733 3f3b ef8c bc3a f25b cdba a39c 173a
00000020: 2b1e e3b7 f825 09bb 2fe0 92ba 2a0e a73a
00000030: 6a32 26ba e062 1a38 125c f73a 287e 573a
00000040: 72d7 7dba f26f 9e39 2b94 00b7 460b dcba
00000050: f519 ab39 6503 ffb9 9dc7 c438 a241 fbb6
00000060: 2449 bdba 346e a23d f86e bfbb 8336 0bbe
00000070: 5e1c 17bd 36a2 0a3e 1243 4d3e 7f3b 513e
00000080: fa90 34bd 9d7d 7abb 1a8b 88bd 7065 8b3c
00000090: ebfb de3d 784b 443c 7383 bf3b 77bf c4ba
000000a0: 57c5 733d 7702 01bd 5a0a ed3c 5087 533c
000000b0: 30a0 fa3c ce9a dabc 24cc 49bd 60a7 34bd
000000c0: 3a5f 373a 0d5c 703d e565 1c3e ba4c e83d
000000d0: 79eb c53d 794d 5cbc 5923 5ebd 9bd9 5f3c
000000e0: 3066 073e 7e61 fcbb 4f2e 843c 61d1 123d
000000f0: 10bb 5d3d 270f ccbd 5e6f 59bc 0124 93bc
00000100: 96c4 18be 3048 593b d5a1 85bd f928 433c
00000110: 2855 58bc 85a2 90bb 3d84 313d b757 25bc
00000120: 5e7a 123d 02b8 103b 3d14 64bd
-0.0014157442 0.0033521466 -0.000977704 8.93438e-05 0.002917485 0.0014385263 -0.0015667661 0.00057835336
-2.7074557e-05 -0.0020927172 -0.0011205728 0.001274531 -0.000633991 3.6808546e-05 0.0018872044 0.0008220398
-0.0009683288 0.00030219514 -7.663893e-06 -0.0016788028 0.00032635 -0.0004863992 9.383189e-05 -7.4880236e-06
-0.0014441353 0.07931176 -0.005842086 -0.13595013 -0.036892287 0.13538441 0.20045117 0.20432852
-0.044083573 -0.0038221844 -0.066671565 0.017016143 0.10887893 0.011980884 0.0058445274 -0.0015010674
0.05951437 -0.03149649 0.0289356 0.012910679 0.030593961 -0.026685145 -0.04926695 -0.044104934
0.0006995086 0.058681536 0.15273245 0.113427594 0.096640535 -0.013446205 -0.05423293 0.013662721
0.13222575 -0.0077020517 0.016135363 0.03584421 0.054133475 -0.099638276 -0.013271181 -0.017961504
-0.14918742 0.00331546 -0.06525008 0.011911624 -0.013203897 -0.004413905 0.043339003 -0.010091714
0.03576123 0.0022082333 -0.055683363

grapher.1.gru.weight_hh f4 [15, 5]
00000000: 9f46 133a 2e1b 0b3b a8a0 dc3a d812 c6b6
00000010: 8ccc 9e36 aebf 2bba 5696 2fbb 5185 8eba
00000020: 6a12 f137 c009 3037 30d9 413a 135a 283b
00000030: 763f 4b3a 36ae a4b7 5054 02b9 9585 e1b8
00000040: 7d4a d9ba 646f 36ba 40cb 61b4 e800 efb8
00000050: 8442 8ab6 673a 81ba 912b 90b9 4046 12b5
00000060: 4e17 91b7 caa6 a1bc 9e51 443d 597d 063e
00000070: 4264 33b9 3032 aab8 ca6a 7f3c 4ac2 8dbd
00000080: df0b 8fbd 8422 593b 1fe4 013a 73be b8bc
00000090: 0d3c 323c e41f d83b 0228 92b9 13c9 00ba
000000a0: a2de 33bd 2d88 f73c 21ae fcbb 588a 97b9
000000b0: c591 c4b9 5d40 373c 488b f73c ec5f d63b
000000c0: 984c 62b9 ad09 aab9 877a 8dbc 5feb 803c
000000d0: 4711 bf3c a5ea 1cbb ec13 1eba 354f d23c
000000e0: 0cb2 003c e7a9 cb3b 2431 8f39 0012 fdb6
000000f0: ee2e 4bbc 005a 3abd 211f e4bc e841 d339
00000100: 4ed8 c539 343b 2c3b 3f8d 08bd a008 c6bc
00000110: 7f0e f138 08d0 1939 6009 5dba d845 52bd
00000120: b2e5 04bd c277 a4b9 c73a acb9
0.00056181283 0.0021225917 0.0016832547 -5.9030535e-06 4.7325793e-06 -0.0006551695 -0.0026792488 -0.0010873472
2.8738013e-05 1.0492688e-05 0.0007394729 0.0025688454 0.0007753292 -1.9631447e-05 -0.00012429175 -0.00010753718
-0.0016577985 -0.00069593475 -2.10287e-07 -0.00011396577 -4.120464e-06 -0.0009859324 -0.0002749828 -5.4491466e-07
-1.7296199e-05 -0.019732852 0.0479294 0.13133754 -0.00017108119 -8.11558e-05 0.015589425 -0.06921823
-0.06984686 0.0033132145 0.0004954952 -0.02255175 0.010878575 0.0065955985 -0.00027877098 -0.0004912775
-0.04391349 0.0302163 -0.0077111875 -0.00028904038 -0.0003749264 0.011184779 0.030217782 0.0065421965
-0.00021581573 -0.00032432136 -0.01727034 0.015737234 0.023323668 -0.002394357 -0.000603019 0.025672534
0.00785495 0.0062153223 0.00027311698 -7.542083e-06 -0.012401326 -0.045495987 -0.027846875 0.0004029416
0.00037735928 0.0026280405 -0.033337828 -0.024174035 0.000114944756 0.00014668715 -0.0008431878 -0.05133614
-0.032445617 -0.00031369744 -0.0003285019

grapher.1.gru.bias_ih f4 [15]
00000000: f78a 9b3c d35f 8a3b 197a 853c 238c 19bc
00000010: b831 15bc 05f7 b93e 3354 22bb 178d 013d
00000020: 330c 643c bc46 20be 8906 58bd 2303 163e
00000030: 0ce9 333c 56d1 babd df33 f3bd
0.018987162 0.004222849 0.016293572 -0.00937179 -0.009106092 0.36321273 -0.0024769425 0.031628694
0.013918924 -0.15651983 -0.052740607 0.14649634 0.010980856 -0.09121959 -0.11875128

grapher.1.gru.bias_hh f4 [15]
00000000: e151 25bc 6903 573b dd2c 853c f473 19bc
00000010: 2e53 2dbc d986 923e f4ad 303e 3bed 61bd
00000020: 97f5 873e d0d8 803d 9380 7f3e 0dfa b53d
00000030: 3a38 f2bd 326e 85bd d2eb 8ebd
-0.010090322 0.003280843 0.016256744 -0.009366024 -0.010578914 0.28618506 0.17253858 -0.05515788
0.26554558 0.06291354 0.24951391 0.08885584 -0.118271306 -0.06515159 -0.06978573

grapher.1.gru.ln_resetgate.weight f4 [5]
00000000: 1cea 063c 021d 20bc 8900 153d 46b8 dabb
00000010: 9e88 8d3b
0.008234527 -0.009772541 0.036377463 -0.006674799 0.0043192646

grapher.1.gru.ln_resetgate.bias f4 [5]
00000000: 8fa0 8d3c 1605 cdbb f034 a83c 9aa3 063c
00000010: d7cb 6739
0.017288474 -0.00625671 0.020533055 0.008217717 0.00022105813

grapher.1.gru.ln_inputgate.weight f4 [5]
00000000: 0063 983e e5ef ff3e 7dbc 9e3b 5480 11b5
00000010: 8e64 41b6
0.2976303 0.49987713 0.004844247 -5.420345e-07 -2.8817772e-06

grapher.1.gru.ln_inputgate.bias f4 [5]
00000000: a2c0 043d 5034 1ebd 5c2a 30bc 1720 b5b4
00000010: 1a88 4136
0.03241027 -0.038624108 -0.010752287 -3.3737226e-07 2.8838463e-06

grapher.1.gru.ln_newgate.weight f4 [5]
00000000: 04dd 1e3f c6c3 173f 2026 143e f93b 943a
00000010: 3baa 713a
0.62055993 0.592831 0.14467669 0.0011309377 0.0009218787

grapher.1.gru.ln_newgate.bias f4 [5]
00000000: 68a0 873b 0957 bd3c 8fb4 d1bc 1578 aebb
00000010: f382 9bbb
0.004138995 0.02311279 -0.025598792 -0.0053243735 -0.004745835

grapher.2.weight.weight f4 [5, 5]
00000000: 7bf9 b0be 64a0 9e3e afbc cf3c c166 ba3a
00000010: d247 42b9 69b3 a93e 76cd 4cbb c4ca 373a
00000020: 6e7a 39b8 77ad 40b8 cc23 4bbe a0be 913e
00000030: dba2 fe3a 3894 9bba d6b1 2a38 9da2 f53d
00000040: 04e5 02bf 4f68 8e3b 04a1 1339 57ad 8d38
00000050: cd26 933e a2db 44be b337 41ba 7504 adb9
00000060: 273d 10b9
-0.34565338 0.30981743 0.025358526 0.0014221297 -0.00018528037 0.33144692 -0.0031250394 0.00070111104
-4.422146e-05 -4.593792e-05 -0.19837874 0.28465748 0.0019427197 -0.0011869734 4.069678e-05 0.11993907
-0.511307 0.0043459306 0.00014078995 6.755691e-05 0.2874054 -0.19224408 -0.00073706656 -0.00033000452
-0.00013755691

grapher.2.weight.bias f4 [5]
00000000: f2ca 2d3e fa1c 3b3e c0f6 4abe 739f 06bf
00000010: 12f8 edbe
0.16971949 0.18272772 -0.1982069 -0.5258705 -0.46478325

grapher.2.reduce.weight f4 [5, 5]
00000000: 2924 603e 74b7 a2bd 71fa 5aba 8d5f c038
00000010: 7c03 9cb8 7745 92bd b93e adbe b2c5 c93a
00000020: dc45 7138 cb6f 8139 297e 223a dddc 29bc
00000030: c617 01b8 f04b adb6 22d0 dfb6 e1b4 f43d
00000040: b958 c93e 932f 8fbb 3402 bdb9 97ca 7139
00000050: 3220 b23e 4720 9e3d 505e d5bb aed9 56b5
00000060: 3812 45b6
0.21888794 -0.07945147 -0.0008353359 9.173071e-05 -7.439309e-05 -0.071421556 -0.33836916 0.0015394001
5.752394e-05 0.0002468809 0.0006198609 -0.010367599 -3.0778137e-05 -5.164642e-06 -6.6701477e-06 0.119485624
0.39325503 -0.004369685 -0.0003605053 0.00023059022 0.34790188 0.07721 -0.006511487 -8.003798e-07
-2.9365892e-06

grapher.2.reduce.bias f4 [5]
00000000: 2169 4c3e 6dcd 29bf dd81 85bd 6320 ba3d
00000010: 1f0a 06be
0.19961978 -0.6632908 -0.0651891 0.090882085 -0.13089798

grapher.2.gru.weight_ih f4 [15, 5]
00000000: 5b55 b33b c23e 90bc 1bf6 14b9 504a f4bc
00000010: 6fcb a7bb b8a1 163c 26a5 47bd ac0c 86bb
00000020: 3a15 93bd 1081 813c 3bd6 c9bc acde 523d
00000030: f84f e63b 321a 043e fc0f c13d d7fc 37bb
00000040: 6dea d83d 9bb0 e4bb c1bd b9bd 4414 44bd
00000050: 6f63 ee3c 21e2 823d c366 2cba d5eb 34bd
00000060: e6ca e73c cff1 cd3e 62ad 763e 62ef 473e
00000070: 6011 aabe 9cf0 fcbd 0e7e 473e 4558 593d
00000080: 5a3c dfbd a8cb 1abf 2013 d4be e0e3 81be
00000090: 2104 7abe ad13 963e a7b7 883c 7d4e 6dbc
000000a0: 1ddd 21be f860 abbd 6866 26be 5c90 f3bd
000000b0: 3233 963e 6c4f 013f de35 b13d 01b4 2a3e
000000c0: 5293 b4bc 0a2d 4b3d 38db c7bd 1223 e63d
000000d0: 29df 903c b973 623e 441e 51be d6ac 69be
000000e0: ef08 c1bd 7c15 7ebd 40a0 0cbf 2a14 043e
000000f0: 9866 343e fe1d c43d 3961 85be 7f2e 80be
00000100: 906d 663e 7668 88be 5948 373c 851b eebd
00000110: 51df a6be 1b0e db3d bf1e 843e 3dd6 a93d
00000120: ce70 38be 0c5f 083e a491 673e
0.0054728216 -0.01760805 -0.00014206061 -0.029820591 -0.0051206867 0.00919383 -0.048741482 -0.004090866
-0.07181783 0.015808612 -0.024638286 0.051481888 0.007028576 0.12900618 0.09426877 -0.0028074288
0.10591588 -0.006979061 -0.09069396 -0.04787089 0.029100148 0.06390787 -0.0006576592 -0.04417022
0.028294992 0.40223548 0.24089578 0.19524911 -0.3321638 -0.1235058 0.1948168 0.053062696
-0.10900183 -0.60467005 -0.4142084 -0.25369167 -0.24415638 0.29311886 0.016689135 -0.014484045
-0.15807004 -0.08368105 -0.16250002 -0.11892769 0.29335934 0.50511813 0.086528525 0.16670229
-0.022042904 0.0496035 -0.097586095 0.11237158 0.017684536 0.22114457 -0.20421702 -0.22819838
-0.09425532 -0.062032208 -0.5493202 0.12898317 0.17617261 0.09576033 -0.26050738 -0.25035474
0.22502732 -0.26642197 0.011186683 -0.11626343 -0.32592252 0.1069605 0.25804707 0.08292816
-0.18011782 0.13317508 0.22614151

grapher.2.gru.weight_hh f4 [15, 5]
00000000: a5a9 063c 1f57 dfba 97fa 91bb 3552 03bc
00000010: bc63 b63b c99d 3e3c 62f8 10bc a8b4 dbbc
00000020: 7dc1 81bb a821 163d f86d d2bc 07e8 83bc
00000030: 2863 ed3c 3774 0c3b 0aa6 423c 63ff 24bc
00000040: 46a0 643b daf4 093d 5645 913c 151b d0bc
00000050: 6e51 2438 1f2c 043c eb8d 01bd a844 a73c
00000060: 8706 7e3c 94ab aa3e d669 133d ac92 2e3e
00000070: 74e9 84be 635e bf3e 908c a13d 74f2 053d
00000080: e5e2 e2ba e47e 063c 7caf e33d a01c 2ebd
00000090: f07a 213d 635f ae3e 91d0 fabe ddf3 22bd
000000a0: 4f97 5d3e 5fa4 7dbe 8ad0 e8bd 406f 623e
000000b0: 8489 f13d aaad 873d 3221 a4bd fc2f 26be
000000c0: f476 bc3e 1922 4e3e d326 b8bb bfcc 95bd
000000d0: bc6b b33c 7db1 14be 5245 28bd 879f 773e
000000e0: f815 de3d cf08 06bd b684 9c3e eb0c e03d
000000f0: dfa5 1d3e 62a5 403e 1239 54be 414c ce3c
00000100: 3251 a43d b846 3b3e 0dfe 59be f630 103e
00000110: e5f8 9ebd c898 ab3e d4be 953e f08b 1dbe
00000120: bb6b 0abd d6f3 b83e 26b9 81bc
0.008219157 -0.0017039514 -0.0044549215 -0.008015205 0.0055660885 0.011634299 -0.008848282 -0.026819542
-0.003959833 0.03665319 -0.025687203 -0.01610185 0.028977945 0.0021431574 0.011880407 -0.010070655
0.003488557 0.033680774 0.017733257 -0.025403539 3.9176484e-05 0.00806716 -0.031629484 0.02041848
0.015504486 0.3333403 0.035989605 0.17048138 -0.2595936 0.373767 0.07888138 0.032701924
-0.0017310051 0.008208964 0.11117455 -0.042507768 0.039423883 0.3405715 -0.4898725 -0.039783347
0.21639751 -0.24769734 -0.11367901 0.22112751 0.11793807 0.06624921 -0.08014144 -0.16229242
0.36809504 0.20130195 -0.0056198626 -0.07314443 0.021901958 -0.14520831 -0.041081734 0.24181949
0.10844034 -0.032723244 0.3057 0.10939964 0.15395306 0.18813089 -0.20724896 0.025182845
0.08023299 0.18288696 -0.21288319 0.14081177 -0.077623166 0.33515 0.29247153 -0.15385413
-0.033794146 0.36123532 -0.015835356

grapher.2.gru.bias_ih f4 [15]
00000000: bdb3 18be 60dd 60be 173c 68be 2abd 083e
00000010: e63d 703d c12b 54be 4152 773e b34f ee3d
00000020: 4269 773e a115 96be 9d43 37be c847 0e3f
00000030: efc3 e4bd 2910 96be dca1 c13c
-0.14912315 -0.21959448 -0.22679172 0.1335341 0.05865278 -0.20719816 0.24152471 0.11636295
0.24161246 -0.29313377 -0.17896886 0.5557828 -0.11170184 -0.29309204 0.02363675

grapher.2.gru.bias_hh f4 [15]
00000000: 4d12 093e 0b68 323e 3e84 1ebe 91cf 673e
00000010: 0a6e 1ebe 5266 8bbe c1e3 8e3e 8405 1d3e
00000020: 5f9e 45be d70b 7b3d d06c 32be 67af 11bc
00000030: af2f 84be cf2b 56be 91e3 8dbe
0.13385887 0.17422502 -0.15480134 0.22637774 -0.15471664 -0.27226502 0.27908137 0.15334135
-0.19298695 0.06129059 -0.17424321 -0.008891917 -0.2581763 -0.20915149 -0.27712682

grapher.2.gru.ln_resetgate.weight f4 [5]
00000000: 6f25 5cbd 61cc f93c 0731 493f f1b9 fa3e
00000010: 64cd 433d
-0.053746637 0.030492963 0.78590435 0.48969987 0.047803298

grapher.2.gru.ln_resetgate.bias f4 [5]
00000000: 9fb5 abbd 7ecc 583c fa7f 8cbc 0919 bb3b
00000010: 7466 85bd
-0.08384251 0.0132323485 -0.017150868 0.0057097715 -0.06513682

grapher.2.gru.ln_inputgate.weight f4 [5]
00000000: eac1 563e d847 a13f d6a9 753f 2e5e 093f
00000010: 6347 d13e
0.2097241 1.260005 0.95962274 0.5365933 0.40874776

grapher.2.gru.ln_inputgate.bias f4 [5]
00000000: 8edb 1e3e 1c24 a73e c8d9 ad3d b4d8 703d
00000010: 650a 523e
0.15513441 0.32644737 0.08488804 0.058800414 0.20511778

grapher.2.gru.ln_newgate.weight f4 [5]
00000000: e180 f13e df5e 2a3f 0706 5b3f 255f f53e
00000010: 5459 283f
0.4716864 0.6655101 0.8555607 0.47924152 0.65761304

grapher.2.gru.ln_newgate.bias f4 [5]
00000000: 7d32 933e 6cbc 9fbe f294 a3bd b757 843d
00000010: 9717 4f3e
0.28749457 -0.31198442 -0.079873934 0.06462043 0.20223843
