scheduler/BaGTI/checkpoints/energy_latencyGNN_BiGRU128L3_4_Trained.ckpt (torch, 955343 bytes, 276 tensors)

find.0.weight f4 [128, 360]
00000000: c778 9d3c 87ec c53a 006c a03c bb0c 02bb
00000010: b181 8fbb 6517 853c d4b8 fc3a e471 7fbc
00000020: 444c 02bb 247f 8fbb 30b7 9d3c 8c0a 04bb
00000030: 36fb 58bd af0d 02bb 127f 8fbb 178f 873c
00000040: 52df 633b f257 d23b 7c6b 02bb 9c82 8fbb
00000050: a9b5 7c3c 1c4b f53a 7217 1bbd bd80 02bb
00000060: a88a 8fbb a833 913c 003d 113b c43f f0bc
00000070: 3506 02bb 3f82 8fbb 6923 873c 12de 8c3b
00000080: 888f 0739 ff54 02bb e289 8fbb 8156 8e3c
00000090: a12b dd3b ed11 153c 956d 02bb 0e83 8fbb
000000a0: 2451 9e3c 3c8a e63b 0b1a d5bc 425c 02bb
000000b0: 5b85 8fbb 4f94 a03c 791f cc3b fccb 9f3c
000000c0: 9c5b 02bb 1887 8fbb c95b 963c 0ba6 ca3a
000000d0: 7aae 86ba eb58 02bb ff7e 8fbb 1b3b 7e3c
000000e0: 5202 16bb cafb eebc 2459 02bb 717d 8fbb
000000f0: c583 873c 5189 4b3b d7ae a23a 1559 02bb
00000100: 7b7d 8fbb b348 7c3c b1c5 0fbb 8c04 56bd
00000110: b458 02bb 807d 8fbb 47d0 823c c4bc 2a3b
00000120: 5c75 00bd b458 02bb 907d 8fbb 84e1 663c
00000130: 77d2 693b b1e4 d4bc e358 02bb 5f7d 8fbb
00000140: 33b8 813c 3562 eb3b f03c 983b de58 02bb
00000150: 617d 8fbb a561 9c3c 27df 853a e644 acbc
00000160: dc58 02bb 5a7d 8fbb 27bc a13c cf62 ae3b
00000170: a3d4 a6bb dd58 02bb 677d 8fbb fb65 9c3c
00000180: 8850 d23b 5a51 2abd e258 02bb 597d 8fbb
00000190: 1295 953c 7686 433b f087 01bd 5f74 02bb
000001a0: be88 8fbb 3d21 783c 0508 ab3a 9ea3 5d3b
000001b0: 0df3 01bb 7182 8fbb dc88 7b3c ca23 9339
000001c0: ca90 913c 6b4e 02bb 0687 8fbb 8b43 a53c
000001d0: f664 d43b 1639 87bb 4070 02bb 387d 8fbb
000001e0: 90b6 0eb9 c045 3dba bbaf 91bc 165d 683c
000001f0: 2ccc 26bb 9e2a 16b9 18be 33ba b671 413c
00000200: 9a82 753c f13a 28bb 66a3 c1b9 a874 2cba
00000210: 935c e3bc 9f13 693c 5635 2abb e8ba 1fb9
00000220: 0dd3 34ba 0c0a a83a 3a2e 763c 30c9 26bb
00000230: e63e 30b9 d126 35ba 78d7 ad3b 4d91 763c
00000240: bc4d 27bb 3a50 20b9 0a81 37ba 1b19 a1bb
00000250: 24c3 763c 5e8e 27bb 9d1c 53b9 c230 36ba
00000260: 6a6a 8fbc e60d 763c ff6d 27bb 4410 e7b8
00000270: b439 35ba c427 a83b ed99 763c ce56 27bb
00000280: e3db 7ab9 640a 36ba 3b06 123b 0780 763c
00000290: 3c63 27bb 8296 76b9 8bea 35ba e0ab 8dbc
000002a0: 0177 763c 9563 27bb 9ba8 86b7 9114 36ba
000002b0: 57f3 9dbc 806a 763c cd65 27bb 7912 9fb9
000002c0: 211a 36ba cd40 e339 576a 763c af62 27bb
000002d0: 90d4 9f38 6e0c 36ba 52dc b0bc 136f 763c
000002e0: c662 27bb 6849 5d37 790f 36ba 25ee 27bb
000002f0: db67 763c 8a64 27bb fba0 ccb8 6f79 36ba
00000300: a4a2 2c3c 695d 763c d34d 27bb 4c42 d9b9
00000310: 362f 36ba 5853 793c 9742 763c 9852 27bb
00000320: 2dae 35b9 32f5 38ba a3a3 ee3b aa52 6e3c
00000330: ffd4 26bb 1bf2 0bb9 921d 35ba f925 10bc
00000340: a247 6b3c fbc7 27bb cd25 b839 1775 2fba
00000350: 67ea dbbc fe53 6a3c 0418 29bb 1fb3 6b39
00000360: f49a 39ba d238 ddbb d24a 763c 1657 26bb
00000370: 518d 0139 38cc 38ba 32d8 7b3a b9e6 6a3c
00000380: 31ec 26bb d603 8db8 0382 2eba 99a1 a0bc
00000390: 041f 693c 917d 29bb 92fc 9cb9 278e 33ba
000003a0: c793 e7bc 8c83 6a3c 212c 28bb e3d5 9b39
000003b0: 127c 2aba 311b a53b 3cd1 693c bc3d 29bb
000003c0: 88d0 293c e951 ba3d 131d 8ebd a878 823d
000003d0: 6e07 003d 2439 1fbc c55e 82bd 07a5 e2bd
000003e0: 5eba 373d 9e92 5dbd 213d 823d f748 843d
000003f0: c48e d83c 17f8 ce3d d6f1 64bc 0bed fd3d
0.01922263 0.0015100398 0.019582748 -0.0019844014 -0.004379474 0.016246507 0.0019281157 -0.0155911185
-0.0019881884 -0.00437917 0.01925239 -0.0020147888 -0.05297395 -0.0019844582 -0.0043791616 0.016547723
0.003477056 0.0064191753 -0.0019900491 -0.0043795835 0.0154241705 0.0018714401 -0.037864156 -0.001991316
-0.004380543 0.017724827 0.0022161603 -0.02932728 -0.0019840125 -0.00437954 0.016496377 0.004298934
0.00012928073 -0.0019887087 -0.0043804506 0.017375233 0.0067495857 0.009098512 -0.0019901742 -0.0043796366
0.0193258 0.007035522 -0.026013395 -0.0019891416 -0.004379911 0.019601969 0.006229338 0.019506447
-0.001989103 -0.004380118 0.018354313 0.0015460862 -0.0010275387 -0.0019889425 -0.004379153 0.0155170215
-0.0022889567 -0.029172797 -0.0019889558 -0.0043789675 0.016542325 0.0031057189 0.0012411725 -0.0019889523
-0.004378972 0.015398192 -0.0021937902 -0.05225043 -0.0019889297 -0.0043789744 0.015968455 0.0026052454
-0.031361923 -0.0019889297 -0.004378982 0.014091853 0.0035678425 -0.025987955 -0.0019889406 -0.004378959
0.015834903 0.007183338 0.004645936 -0.0019889395 -0.00437896 0.01908953 0.0010213599 -0.021028947
-0.001988939 -0.0043789567 0.019743038 0.0053218375 -0.0050912662 -0.0019889392 -0.004378963 0.019091597
0.0064182915 -0.04158149 -0.0019889404 -0.0043789563 0.018259559 0.0029834784 -0.03162378 -0.0019905788
-0.0043803146 0.015144643 0.0013048655 0.0033819447 -0.0019828707 -0.0043795635 0.015352454 0.0002806469
0.017769236 -0.0019883167 -0.0043801097 0.020173809 0.006481762 -0.004126678 -0.0019903332 -0.004378941
-0.00013610185 -0.00072201714 -0.01778399 0.01418235 -0.0025451286 -0.00014320991 -0.0006856634 0.011806896
0.014984751 -0.0025669897 -0.0003693357 -0.00065786624 -0.027754104 0.014225869 -0.0025971732 -0.0001523305
-0.0006897904 0.0012820377 0.01502567 -0.0025449507 -0.000168081 -0.0006910386 0.005305227 0.015049291
-0.002552851 -0.00015288676 -0.00070001243 -0.004916323 0.015061174 -0.0025567035 -0.00020133187 -0.00069500145
-0.017506797 0.015017962 -0.002554774 -0.00011017968 -0.00069132005 0.0051316936 0.015051347 -0.0025533917
-0.00023923772 -0.00069442973 0.0022281546 0.015045173 -0.0025541326 -0.00023516457 -0.00069395517 -0.01729387
0.015043021 -0.0025541533 -1.6052558e-05 -0.00069458137 -0.019281073 0.01504004 -0.0025542856 -0.00030340606
-0.00069466425 0.00043345094 0.015040002 -0.0025540998 7.621304e-05 -0.0006944601 -0.021589432 0.015041131
-0.0025541051 1.3189718e-05 -0.00069450546 -0.0025624123 0.0150394095 -0.0025542104 -9.757463e-05 -0.0006960844
0.010536823 0.015036919 -0.0025528565 -0.0004143886 -0.0006949784 0.015217625 0.015030525 -0.0025531407
-0.0001732639 -0.000705558 0.0072826906 0.014546076 -0.0025456545 -0.00013346264 -0.00069090084 -0.008798116
0.01436034 -0.0025601375 0.0003512338 -0.0006693168 -0.02684517 0.014302252 -0.0025801668 0.00022478074
-0.000708028 -0.0067511583 0.015032487 -0.0025381497 0.00012355043 -0.0007049474 0.0009607106 0.014337235
-0.002547037 -6.7241184e-05 -0.00066569465 -0.019608306 0.014228586 -0.0025862197 -0.00029942818 -0.00068494905
-0.028268708 0.01431359 -0.0025661069 0.00029723262 -0.0006503473 0.005038642 0.014271077 -0.002582415
0.010364659 0.09097654 -0.06939139 0.063706696 0.031257086 -0.009718213 -0.06365732 -0.11066633
0.044855468 -0.054094903 0.06359316 0.064592294 0.026435263 0.10105913 -0.013973674 0.12398728

find.0.bias f4 [128]
00000000: d4d8 1a3d 6260 463d 8111 4cbd 8bbe 3abb
00000010: 82af e7bc 1bf0 a93b c5f6 0bbd a950 153d
00000020: 397c 9cbc 3155 9ebd e42a 1f3d 208f 11bc
00000030: f270 40bc 5bda 1dbd 02c3 403d 7c1e 8fbd
00000040: 22d0 1a3d 48e9 f4bc 3bf5 5abd bfdb d33c
00000050: 2dbf d8bc 1420 bdbb 773b 023c d96c 30bc
00000060: 08d9 d23d 2592 ab3c 5530 2fbd 78cc 053d
00000070: 75a0 f4bb cf18 fcba 9e8b 6c3c 6089 b1bc
00000080: 24c3 07bd 3bb8 093c d7c4 2cbd c0fa 30bc
00000090: ef6d b8bc 69df 063d 482d b73c 488d 383d
000000a0: 4187 f4bb 58bc 6cbd efec b9bc a37f 163c
000000b0: 0a00 cfbc 67e3 28bc 72ae 983d 8e41 473c
000000c0: 610d 7ebc b1f9 a2bd aaae fb3b 9d50 9e3c
000000d0: 69bd b1bc de8c 85bd a28b 9fbc 7551 6e3b
000000e0: ab26 773c 8762 46bd ed24 16bc 9c0a 0cbd
000000f0: 7a87 28bd 0324 b9bc c1e3 15bd 9001 0bbc
00000100: 25ea 83bc 0d36 18bd f9c3 673d 224e 02bd
00000110: d640 96bb 25cf 723d a4aa 453d 2ae9 04bd
00000120: 5842 82bd 1430 553d d96b 80bd 01bf 41bc
00000130: 0854 f53c d55c d4bc 82e9 15bd fd3e 60bc
00000140: 3186 35bd 400c 57bd 59d3 44bc 95a1 54bd
00000150: a436 62bd 9eb2 18bd 5064 2cbd fa2f f83c
00000160: 6b8d 15bd 1e42 9d3c faed 01bd 329d 69bc
00000170: 12cb 883d a897 523c 59ef 9bbd 2f95 75bd
00000180: 627c 2c3d 4590 10bd de74 2ebd cf67 b53c
00000190: 0fc5 773d d6f0 293c b306 773c 2e38 cfbc
000001a0: da99 ecbc 5447 ff3b 7c72 65bd a3bf 483c
000001b0: e6be 9abd e715 3ebc 24ae e33b b09f 0b3c
000001c0: 58f4 3c3d 4671 29bb 878a e83b 9da3 673c
000001d0: 531f 1fbd 6063 093d e6df 0c3d 4443 713b
000001e0: 755b d2bc 01e0 a4bc 3546 e23c f30a c9bb
000001f0: 6c5f 15bd c61f 0fbd 0a8b 91bc 2c33 013d
0.03780444 0.04843176 -0.04982138 -0.002849492 -0.02828193 0.0051860935 -0.034170885 0.036453877
-0.019102203 -0.07731093 0.038859263 -0.008884221 -0.011745678 -0.038538318 0.047060974 -0.06988236
0.037796147 -0.029896393 -0.053456526 0.025861619 -0.026458347 -0.0057716463 0.007948748 -0.010768139
0.10295302 0.02094371 -0.042770702 0.0326657 -0.007465417 -0.0019233468 0.014437584 -0.02167195
-0.033145085 0.00840574 -0.04217991 -0.010801971 -0.022513358 0.032927904 0.022360459 0.04505661
-0.0074624126 -0.057796806 -0.022695987 0.009185704 -0.025268573 -0.010308123 0.07455148 0.012161626
-0.0155061195 -0.07957781 0.0076807337 0.019325549 -0.021696763 -0.06521009 -0.019475762 0.003636447
0.015084903 -0.048433807 -0.009164077 -0.034189805 -0.041144826 -0.02260018 -0.036594156 -0.008484259
-0.01610286 -0.03716092 0.05658338 -0.031812795 -0.0045853658 0.05927958 0.04825844 -0.032448925
-0.0636031 0.052047804 -0.0627057 -0.011825324 0.029947296 -0.025923172 -0.036599644 -0.013686893
-0.044317428 -0.052501917 -0.01201328 -0.05191191 -0.05522789 -0.037279718 -0.042087853 0.030296315
-0.03651182 0.019196566 -0.031721093 -0.01425867 0.066793576 0.0128535405 -0.07614011 -0.059956726
0.04211081 -0.035293836 -0.042591922 0.022144226 0.060490664 0.010372361 0.015077281 -0.025295343
-0.028881956 0.0077904854 -0.056017384 0.012252721 -0.07555942 -0.011601902 0.0069482494 0.008521959
0.04613146 -0.002585487 0.007096592 0.01413813 -0.038848232 0.033542037 0.034393214 0.0036813775
-0.025678376 -0.020126345 0.027621368 -0.0061353385 -0.036467955 -0.03494241 -0.017766494 0.031542942

find.2.weight f4 [128, 128]
00000000: 9c27 863b 38f8 77bd 39be 15bd 3adc 93bd
00000010: 7790 91bc 22a7 043d 56b4 123e 03de 2e3d
00000020: 7cd0 6bbd 5d20 3dbd 0ea8 5c3e 1324 4d3d
00000030: 6179 64bc 6f47 62bc 9fc9 13bd d2f8 563d
00000040: 12f8 f0bd 99f8 933d 2581 15bb 57a0 db3c
00000050: cb28 5ebd 6347 aa3b 6771 c539 d83c c33c
00000060: 3e35 303e fcf0 073e b753 ec3c 371c 2bbb
00000070: 93ee db3a 6905 283e 2fac 68bd 4365 443b
00000080: dea5 4a3d 0fd9 393e 1018 563d 9b61 8b3b
00000090: 5ab2 93bd 9682 d83d 07b8 8abb b636 ac3d
000000a0: ada8 c73d e0ba 473c 0a7e 48bb f74d dfbd
000000b0: dc2b 033b 928a 80bc d733 033e b693 a33d
000000c0: fef1 dc3b 7de4 cdbb 3480 343d 8732 bc3d
000000d0: 1131 f03c 501e c9bd b187 7a3b f3fc 1abd
000000e0: 3e5f c23c 9938 b6bd d9c3 893d 584f f2ba
000000f0: a4e1 d63c 086f a93d 2c20 d5bc e6cd 483a
00000100: 78f5 133e 61cc a1bb ca2f 613e 53d3 e5bc
00000110: ad89 22bc df3e f23d 0533 cf3c a3a9 b1bc
00000120: 8e82 e63c 483d ea3c 11ba ebbd 54e0 423d
00000130: b316 663d 54c3 a8bc 67df ffbb 81c6 1d3c
00000140: 4f3b 433d 57aa b93c ebdc ddbc 9d41 aa3d
00000150: 9830 61bd 7991 70bd de96 0dbd 59c5 19bd
00000160: c7fc 2c3d 8ef8 33be f225 903d 0acb 313c
00000170: eb4f 823e 180f d73d dc03 f83b c6e2 233b
00000180: ab22 b53c 00c6 f93b 365f 89bc 31e6 0e3e
00000190: 0f06 97bd be68 483c b164 48bc 6fa0 463c
000001a0: d4ca 07bd a6e4 2a3b 1421 7ebd e145 473d
000001b0: 4e5b ba3c 068c 5e3a 9f94 04bd b14c 393b
000001c0: 10de 12bd 31ed 9c3b 032e c0bc 6c91 823d
000001d0: 2144 0ebd dea6 c03d 39b1 033e f403 093e
000001e0: de56 c03a 276b c53d 655f 5bba 323f f23a
000001f0: c758 84bd 9b2e 8bbb 2edf 5ebd 2b30 e33c
00000200: 525f 143d f141 56bb ef27 b5bc a8fa 283d
00000210: 3fb0 eb3b 9eef 85b9 eb98 0f3c c350 90bb
00000220: 68ac 9dbc 28e8 72bc 1ba3 a73a 3f74 e6ba
00000230: b088 203a 4428 803b ea76 57bc 942c 36bc
00000240: 8670 533d b3f6 c23a d03c 87bc d6e2 56bc
00000250: 3caf edbc ac2d 953a 1453 a6bb 9a50 393d
00000260: 37ac 39bd 3bba 103a 06f0 613b 0052 b5bc
00000270: 0230 213a 8810 a5bb d6bb 033b 8ab9 f639
00000280: c696 0c3d 9952 01bd b5e6 c73c 8e61 37bd
00000290: 39d0 a7ba d2d7 2abc 19e9 97bb 0490 213d
000002a0: b90e abbc 8657 c0bb fafc 8b3d 4dcc 0dbd
000002b0: fd0b d43a 9f0c cabc 43c2 22bd f9e2 8cbd
000002c0: e21f 853b a8a4 b43c fa7b 24bd b83c b3bc
000002d0: 6d9a 0939 6ecb 9d3a 8fbe 253b a789 a1bc
000002e0: a0d1 46b9 c023 c0bc 1ee3 4bbd 0ffd d33a
000002f0: eb82 f63c 20e5 d5bc 22ef a6bb fab8 c739
00000300: 6cfd 823a f2ad 8a3a d50b 1cbd 2848 5e3a
00000310: a157 ad3a 5433 88bd 58d8 383d 9c3e 87b9
00000320: bf0b e23b 3b35 4dbc 9920 a13a 5089 acbc
00000330: 646e 9c3b 0469 893a 0e7a 6bbb b4ed 2739
00000340: afdf 04bc bde5 003b 61ef 333b 33c0 2bbb
00000350: f4c3 8bbb f318 c53a 1212 bf3a 172a a6bc
00000360: 41b8 b5bc 2464 50bd 28dd d73a a3ef 453a
00000370: e558 aabc b233 b33a f986 96bc 7395 aa3a
00000380: 83f8 f23a 3025 1b3c 3cdb 2c3b c2ec 0bbc
00000390: ec84 b63a 2db0 533a 14f0 993d 0a34 6d3b
000003a0: 0d89 603d e5bc efbb da01 fa3c 5c4d 9c3b
000003b0: f1a3 12bb 88ed 0a3a 1386 57bb 917c 3c38
000003c0: 236c 7b3d 86e2 73ba 98c6 56ba cff6 99b9
000003d0: 559f 86bc a60c 89bb eafe babb 9c13 8cb9
000003e0: 97ad 9939 18d3 9abc 6c63 e13b 9f22 8e39
000003f0: 9f46 82bc 9a02 ce39 05ce 153b 77b2 593d
0.0040940773 -0.060539454 -0.036558364 -0.07219739 -0.017769082 0.032385953 0.14326605 0.042692196
-0.057571873 -0.046173442 0.21548483 0.05008323 -0.013944955 -0.013810976 -0.036080953 0.052483387
-0.11766066 0.072251506 -0.0022812572 0.026809854 -0.054238122 0.0051964982 0.0003765926 0.023832723
0.1720781 0.13275522 0.028848512 -0.0026109347 0.0016779475 0.16408314 -0.056804832 0.0029967583
0.04947459 0.18149208 0.05226904 0.004253579 -0.07211752 0.10571782 -0.0042333636 0.08408873
0.09748969 0.012190551 -0.0030592703 -0.109035425 0.0020015156 -0.015691075 0.12812744 0.07987158
0.006742715 -0.0062833414 0.044067577 0.09189325 0.029320272 -0.09820235 0.003822785 -0.037838887
0.023727056 -0.08897514 0.06726808 -0.0018486781 0.02623064 0.08273131 -0.026016317 0.0007660076
0.14449108 -0.004937694 0.21990886 -0.028054869 -0.00992052 0.11828398 0.025292883 -0.021687334
0.028138425 0.028593674 -0.11510099 0.047577217 0.05617399 -0.020600952 -0.007808614 0.009629847
0.047663983 0.022664232 -0.027082881 0.08313296 -0.054977983 -0.058732484 -0.034567706 -0.03754172
0.042233255 -0.17575285 0.070384875 0.010851631 0.25451598 0.10500926 0.0075688194 0.0025006994
0.022111258 0.0076224804 -0.016769033 0.13954999 -0.073742025 0.012232004 -0.012231038 0.012123211
-0.033152416 0.0026076226 -0.062043265 0.048650626 0.022748616 0.0008489493 -0.0323683 0.0028274471
-0.035856307 0.0047890176 -0.02345944 0.06375393 -0.03473294 0.094068274 0.12860574 0.13380414
0.0014674326 0.09639578 -0.0008368402 0.0018481968 -0.064622454 -0.004247499 -0.05441206 0.02773293
0.036223717 -0.0032693113 -0.022113768 0.04125467 0.007192641 -0.00025546266 0.008764486 -0.004404159
-0.019247249 -0.014825858 0.0012789698 -0.0017582251 0.00061238836 0.00391105 -0.01315091 -0.011119027
0.051620983 0.0014874547 -0.01650849 -0.013115605 -0.029014222 0.0011381409 -0.0050758217 0.045242883
-0.045330252 0.00055209146 0.003447534 -0.022133827 0.00061488163 -0.005037371 0.0020100973 0.00047059014
0.034323476 -0.031572912 0.024402002 -0.04477077 -0.0012803144 -0.010427432 -0.0046359417 0.039443985
-0.020881044 -0.0058698086 0.06835361 -0.034618665 0.0016177889 -0.024664221 -0.039736044 -0.06879229
0.0040626386 0.02205117 -0.040157296 -0.021879539 0.00013122866 0.0012038776 0.0025290584 -0.019718958
-0.00018960843 -0.023454547 -0.049777143 0.001617344 0.030091723 -0.026110232 -0.005094425 0.00038094056
0.0009993738 0.0010580404 -0.03809722 0.000847938 0.0013224968 -0.06650415 0.045128196 -0.00025795854
0.006898373 -0.012524898 0.001229304 -0.02106157 0.004773902 0.0010483568 -0.0035930905 0.00016014912
-0.008109971 0.0019668185 0.0027455913 -0.002620709 -0.004265303 0.0015037343 0.0014577529 -0.020283742
-0.022182586 -0.05087675 0.0016469108 0.0007550662 -0.020794341 0.0013672023 -0.018374907 0.001301451
0.0018537197 0.009469315 0.002637579 -0.008540334 0.0013925112 0.00080752635 0.075164944 0.0036194348
0.0548182 -0.007316219 0.030518461 0.004769964 -0.0022375549 0.0005299677 -0.003288631 4.4938704e-05
0.061382424 -0.0009303469 -0.0008193045 -0.0002936632 -0.016433397 -0.004182416 -0.0057066577 -0.0002671749
0.0002931177 -0.018899485 0.006878307 0.00027110145 -0.015902815 0.0003929332 0.0022858393 0.053148713

find.2.bias f4 [128]
00000000: cc14 94bd 8eec eebc a34c 03be 2f7e 08bd
00000010: 6dc2 0ebd d06d 54bd 9207 c33d 83d3 00bd
00000020: 2fe2 5bbd 6a8c 21bd 9684 98bd e172 c03d
00000030: d2d2 62bd 9192 83bc 27bc 99bb 6abe 54bc
00000040: 72de 9b3d a7e4 383d d121 32bd 3cd4 f4bc
00000050: 3164 4d3d 794e 213d 456a 99bc bcaa 43bd
00000060: f772 81bc 840f ec3b 4134 b3bc 9dc6 63bc
00000070: 1036 bdbd 286e f9bc c938 253d e154 d9bc
00000080: 4304 ebbc bd53 423d 8362 1b3d be68 eeba
00000090: 533f e63c bfe5 82bc 5584 d7bc 937b 25bd
000000a0: 49f3 fe3b 6fe6 57bd b781 133d 1816 713b
000000b0: f751 b5bc b23b 58bd f60a 453d 8ba9 da3c
000000c0: e06a 3cbd 46a0 9c3d 0a4b 843d 2f52 4d3d
000000d0: c903 68bd 2eb5 cabd bbb6 e339 ec31 e43c
000000e0: b322 8fbd a1d6 12bc 7d03 073b c853 a93d
000000f0: 8667 84bc d494 3cbd f0f4 eabc 3662 cfbc
00000100: b166 83bc 672c 45bd eba8 0e3d 8686 cfbb
00000110: a0d3 4dbd f17e 0cba fb30 4abd 2be8 f73b
00000120: 43ae ba3d a2f0 f0bb 7763 9b3c dd12 8abd
00000130: d82a 25bc f7a2 0eba 8b6b 753c ebe4 e43c
00000140: 72d1 463d 8052 2d3d ebe6 a7bd 3421 94bb
00000150: 0986 613d 48cd 5c3d 537c c1bc 09f8 a33c
00000160: df62 3dbd fe65 c3bc 8731 00bd 377d 91bc
00000170: 74ee 52bd 2784 803d 1db7 00bd 46af f8bc
00000180: 03cf 0e3d d33a a33d cbc3 29bc 42af d9b9
00000190: ab7f 553d 7942 a43d 81ba 13bd 94fc 8839
000001a0: 70e1 8c3d dad8 08bd 5b80 a53c 0c0c a03d
000001b0: 3dd1 93bc 86c3 45bc 43a6 b0bc fcb5 203d
000001c0: ba6c 883d aa9b b13b 6eab 893c d4cc c4bc
000001d0: b7a6 8d3d ae39 8fbd 998c a7bc 4c64 a03d
000001e0: cde2 83bd b0ec 92bd 7f9a 68bb 20f4 a2bd
000001f0: b0ff bf3d cae1 613b b329 783c 7bba 7dbb
-0.07230529 -0.029165532 -0.12822203 -0.033323463 -0.034853388 -0.051862538 0.09522928 -0.031451713
-0.053682502 -0.03944055 -0.07447164 0.093969114 -0.055376835 -0.0160611 -0.004691619 -0.012984851
0.076107875 0.045139935 -0.04348928 -0.029886357 0.050144378 0.039381478 -0.018727431 -0.047770247
-0.01580189 0.007203998 -0.021875503 -0.013902334 -0.09238827 -0.030448034 0.040337358 -0.026529731
-0.028688556 0.04744314 0.037935745 -0.0018189175 0.028106367 -0.015978692 -0.026308218 -0.040401053
0.0077804667 -0.052709993 0.036012378 0.003678685 -0.02213381 -0.052791305 0.048106156 0.026692173
-0.04600036 0.07647757 0.06459625 0.050127205 -0.056644235 -0.098978385 0.0004343296 0.027855836
-0.0698904 -0.008962304 0.0020601444 0.08267933 -0.016162645 -0.04604037 -0.028681248 -0.025315385
-0.016040178 -0.04813805 0.03482906 -0.006333175 -0.05025065 -0.0005359492 -0.049363118 0.0075655184
0.09115269 -0.0073529044 0.018968327 -0.06741879 -0.0100810155 -0.0005441154 0.0149792535 0.027941188
0.048539586 0.042315006 -0.08198341 -0.0045205597 0.055059467 0.05390671 -0.023618853 0.020015733
-0.04623687 -0.023852345 -0.031297233 -0.017759902 -0.051496938 0.06275206 -0.03142463 -0.030357014
0.03486539 0.07970204 -0.010361622 -0.00041520043 0.052123707 0.08020491 -0.036066536 0.00026128127
0.06878936 -0.03340993 0.020202806 0.07814798 -0.018044109 -0.012070542 -0.021563655 0.039236054
0.06661363 0.005420168 0.016805377 -0.02402345 0.06916564 -0.069934234 -0.020452784 0.0783163
-0.06439743 -0.07174051 -0.0035492477 -0.079567194 0.093749404 0.0034466856 0.015146661 -0.0038715887

find.4.weight f4 [64, 128]
00000000: c2dc 86b9 b275 e2b7 3b46 703a 056c 61ba
00000010: 009c 0537 dad5 c4b8 53d5 08bb 98de 74ba
00000020: cb89 0b36 bf85 f1ba ea35 0a38 bbc2 2f3b
00000030: 4c47 0139 c2a7 e836 0a4e 7733 8939 c6bb
00000040: 60df bc3b 0235 05bc 4f00 b2b8 10f9 2cbb
00000050: a755 12ba a1fa 1eb9 7f2b cabb a0a9 a0bb
00000060: b3b5 3635 4181 adb9 f8be 8cb9 be0a 3bb9
00000070: de97 88b9 1228 a2b9 5852 f438 2018 7536
00000080: 42f8 05ba 5ba0 56b9 3fd8 51ba b8da b2ba
00000090: 257d a3ba adb3 ebb8 aa7a d9b9 24b2 0b36
000000a0: 14a2 adbc bade b6b9 dc97 41b9 bd0b 51b9
000000b0: 814b 12b8 40e3 c2b5 058d c8b7 becc 363b
000000c0: 266c 4fb9 bfe3 f9ba 4e08 5eb9 f8b9 7dba
000000d0: df8a 98bb 7ded 7ebb afb5 f2b9 febf 45ba
000000e0: a480 e4b5 0a73 8437 e7e8 a3b9 2553 56b9
000000f0: 18ec d037 6164 8eba 9edf c336 1c27 1635
00000100: 9c16 4abb df2a 25b7 cb65 d2b9 1819 9fb6
00000110: 31ed f83b 7f02 ba34 91cf b4b9 e0b5 11b8
00000120: 7d85 db3b 1b31 8cba b1c0 8bb9 e08c 5db9
00000130: 5a56 f137 9cf1 a6ba 3582 e4b8 44c1 10ba
00000140: 9486 adb9 7d17 bfb9 5ded 5a39 b8ad 05bb
00000150: e158 7bb9 6ae7 27ba 354b 76b9 1315 9db9
00000160: c0e1 4ebb a7f8 06b9 8736 30bb d1d7 1236
00000170: 50c1 96b9 5f26 05ba d67e a4b9 45a0 48b9
00000180: 4176 b9ba b05f 8aba 3e2f a0b6 f45b feb8
00000190: 20d1 0aba 9cd8 d3b9 b547 9735 a1fa dbb9
000001a0: 1084 c239 70a6 37b7 8fdc b3b9 a3b2 d33b
000001b0: b7f4 5a36 2731 92bb da86 e0b7 68d6 37ba
000001c0: ae5b 213c 3657 713b 5e56 99ba 169c 03b6
000001d0: 5e20 45ba 8606 9537 22d6 9438 f1bc 93b9
000001e0: f28d 40b8 348d c7ba 1735 eab9 e677 7fbc
000001f0: 15c6 14b9 6451 53ba 8696 31ba 38b9 90b6
00000200: 3bd8 b8bd c5e0 833c d1de 663d 5dbe 923d
00000210: dc50 ab39 54bf 073e 2956 a63d 1eb7 00be
00000220: 69b2 173c 3ddd 103e 87d5 113d 390e cd3d
00000230: 566a 673d 31be cfba 91d7 9d36 d5c5 b5bc
00000240: 5078 7e3d 6d81 ad3a 3423 eab9 76ed adbc
00000250: 566a 0d3e 4445 8e37 c67f 8abd cfa2 ce3d
00000260: 5af6 8739 38fc b93d 64eb c0bd f938 fcbc
00000270: 3316 b2bd 61d6 1cba 536b 4e3d eaba 3fb8
00000280: f751 0c3a bbbb 1cbc 0b27 653d e735 a83d
00000290: 034c ae3d 385c f43d 9129 0d3c 7ef9 613a
000002a0: 2834 0b3d f9f8 003d 2822 85bd 8c6d a6bd
000002b0: 0bf1 0cbd 69e5 0c3c 2b57 a2bc ee89 ba3d
000002c0: 1117 9d3d 53a0 443e 7005 5cbc ee70 04be
000002d0: 9b43 19bd 2067 02bd c7fb b0bd f249 e53c
000002e0: 0479 813a e5ec 90bd 9046 063e 0d70 08bc
000002f0: ba06 db3b ff72 773d 302b 033c 7d1d 653c
00000300: 98ed 8e3d f048 1a3a e7d5 e93d 2669 1b3c
00000310: ff0a 873d 7835 e839 f7d8 203e 5707 5abd
00000320: 55c7 6b3d 37ee bcbb 4301 b6bc 642b 5ebd
00000330: 59c2 153d 59bb d73d 14de 60bc 3e56 3e3e
00000340: ec56 f33d fda0 f53d dbbd 1a3d 09d6 673d
00000350: 0f66 89bc 54a6 fc3c 7114 bdbd 279d 513d
00000360: 10e5 b63d 8f79 50bd c8a5 9b3d 9a9a 193c
00000370: 0f45 b5bd 235a 6bbd 61e0 82bd 7691 773c
00000380: 0d7d f13d 2ee4 ddbd b035 7d3d eff1 e13c
00000390: 7f18 4abd 076f 783d dc2a 223b 33be 8dbd
000003a0: e800 f43d 8301 263a 72f6 60bd 2281 dc3d
000003b0: 417f 1e39 3046 f13d 741a e039 10f9 d73d
000003c0: 02a3 fa3c be09 003d ba62 f03c 7a7b 84b9
000003d0: 992c 9bbb 2672 77bc 4db0 183d 9790 85bd
000003e0: 9721 b3bb a3cd d7bd 55ba a23d ab5c 193c
000003f0: a7d3 01be 436c ef3d 8b41 d33d b394 02bb
-0.0002572295 -2.6996106e-05 0.00091657386 -0.0008599165 7.963739e-06 -9.385841e-05 -0.0020879104 -0.00093410304
2.079282e-06 -0.00184267 3.2951975e-05 0.002681895 0.00012328959 6.9336684e-06 5.7580145e-08 -0.006049339
0.005763933 -0.008130314 -8.487759e-05 -0.002639357 -0.0005582221 -0.00015161421 -0.006169736 -0.0049030334
6.806469e-07 -0.00033093433 -0.00026845164 -0.00017837711 -0.0002605309 -0.00030928903 0.000116501644 3.6521888e-06
-0.00051105407 -0.00020468367 -0.00080049405 -0.0013645506 -0.0012473209 -0.000112391404 -0.00041480857 2.0816306e-06
-0.021195449 -0.0003487969 -0.00018462486 -0.00019936166 -3.487943e-05 -1.4520265e-06 -2.3907525e-05 0.0027893032
-0.00019781347 -0.0019065066 -0.00021174664 -0.00096788956 -0.0046552266 -0.0038898878 -0.00046293202 -0.00075435627
-1.7024763e-06 1.5789195e-05 -0.00031263308 -0.00020439604 2.4905472e-05 -0.0010863655 5.8374853e-06 5.5936266e-07
-0.003083623 -9.844748e-06 -0.00040130163 -4.7414906e-06 0.007596635 3.4647016e-07 -0.00034486924 -3.474008e-05
0.0066992627 -0.0010695787 -0.00026655712 -0.00021128682 2.876965e-05 -0.00127368 -0.0001089614 -0.0005521963
-0.000330974 -0.0003644786 0.00020878525 -0.0020397734 -0.00023970335 -0.0006405028 -0.00023488405 -0.00029961075
-0.0031567663 -0.00012871866 -0.002688797 2.1881317e-06 -0.00028754259 -0.0005079265 -0.00031375018 -0.00019133191
-0.0014149622 -0.0010557082 -4.7738713e-06 -0.000121287914 -0.0005295444 -0.00040406443 1.1271246e-06 -0.00041957668
0.00037100958 -1.0946402e-05 -0.0003430587 0.006460504 3.2626974e-06 -0.004461426 -2.6765676e-05 -0.0007012845
0.009848518 0.0036825663 -0.0011698713 -1.9611375e-06 -0.00075197767 1.7765222e-05 7.097075e-05 -0.00028178797
-4.5908564e-05 -0.0015224577 -0.00044671513 -0.015592551 -0.00014188171 -0.00080611394 -0.0006774444 -4.3130967e-06
-0.09025618 0.01609839 0.056364838 0.07165215 0.00032675907 0.1325658 0.081219025 -0.12569854
0.009258845 0.14146896 0.035604026 0.100124784 0.056497894 -0.0015849528 4.70406e-06 -0.02218906
0.062126458 0.0013237424 -0.00044658186 -0.021231394 0.13810095 1.6959973e-05 -0.06762652 0.10089647
0.00025932753 0.0908131 -0.09419897 -0.030788885 -0.086956404 -0.00059828727 0.05039532 -4.5712026e-05
0.000535279 -0.009566243 0.055945437 0.08213406 0.08510592 0.11931652 0.008615867 0.0008620246
0.033985287 0.03148744 -0.065006554 -0.08126363 -0.034409564 0.0085996175 -0.019816956 0.09108339
0.07670415 0.19201784 -0.013429031 -0.12933704 -0.03741799 -0.03183663 -0.08641773 0.027989361
0.0009877984 -0.07076434 0.13112855 -0.008327496 0.0066841515 0.060412403 0.008005902 0.013984081
0.06978911 0.00058855023 0.11417752 0.009485519 0.06593894 0.00044290326 0.15707766 -0.053229656
0.057563145 -0.005765702 -0.022217399 -0.0542406 0.036562297 0.105337806 -0.013724823 0.18587586
0.118818134 0.11993597 0.037778717 0.056600604 -0.016772298 0.03084103 -0.092324145 0.051175263
0.08930409 -0.050897177 0.0759998 0.009375239 -0.088510625 -0.057459008 -0.06390453 0.015110364
0.1179143 -0.108345374 0.06181878 0.027581183 -0.049339768 0.06065276 0.0024744784 -0.06921043
0.11914235 0.0006332623 -0.05492253 0.10766818 0.0001511546 0.11780965 0.00042744318 0.10545552
0.030595306 0.03125929 0.029343951 -0.00025269 -0.004735541 -0.015102899 0.03727751 -0.06521719
-0.0054666507 -0.10537269 0.07945696 0.009360473 -0.12678395 0.11690571 0.10315236 -0.0019925057

find.4.bias f4 [64]
00000000: 2a78 07bd 1dd9 863d a895 193e fa0f e43b
00000010: e785 6cbb 0657 8fbd 7b09 24bb 9af3 b33b
00000020: 37c7 3f3e 8035 77bc a106 ac3d c06d 93bc
00000030: fe10 513d fc27 ac3d d18d 2dbd 031b a43c
00000040: 5053 63bd e810 af3d 0431 5f3d fb57 083d
00000050: 0a2e 28bd 2f20 123e d58a 3c3d 7713 36bd
00000060: b682 863d 1ae8 b03b 95f6 61bd 40cd 833d
00000070: 6ef2 a4bc 8dce 0cbd 7c11 3abb f907 ea3c
00000080: 932e 013c cecc ac3d 1e71 493b 1714 473d
00000090: 91fa 9b3c 9e6a 943d b400 a8bd 0d35 40bc
000000a0: bd7b 52bc 149c 30bd 5a3e 1d3d 6b46 973a
000000b0: af09 573b 663e 2bbb ab09 363e 1031 50bc
000000c0: ada8 393c c279 9d3c 913a 81bc c635 fdbc
000000d0: 5cc4 0abc d5c8 56bc 3450 fc3c 94c2 673d
000000e0: 60b7 99bb b4a3 b93d 9564 81bc 586a 233e
000000f0: 068e 733d 8cb3 003e 8d3f 4ebd a924 7bbc
-0.03307358 0.0658438 0.14998496 0.0069599124 -0.0036090554 -0.0699902 -0.0025030065 0.005491686
0.18728338 -0.015088439 0.08399702 -0.017996669 0.051041596 0.08406064 -0.042371575 0.020032411
-0.055499375 0.085481465 0.054490104 0.03328703 -0.04105953 0.1427009 0.046030838 -0.044452157
0.065679 0.0053987624 -0.0551668 0.06435633 -0.02013513 -0.03437667 -0.002839177 0.028568255
0.007884639 0.08437501 0.003073759 0.048603144 0.019040378 0.07246898 -0.08203259 -0.011731398
-0.012846884 -0.043117598 0.03838954 0.0011541372 0.0032812168 -0.0026129722 0.17777126 -0.01270701
0.011331719 0.019223098 -0.015774997 -0.03090943 -0.008469667 -0.0131094055 0.030799963 0.05658205
-0.0046910495 0.09064427 -0.015795032 0.15958536 0.059461616 0.12568492 -0.050353575 -0.015328565

find.6.weight f4 [2, 64]
00000000: bdb9 a53b 4c6e 083e 2e4b 773e ec69 193d
00000010: 690f d63d 91bf a23b 5edf e03d 96c8 92bd
00000020: a8b3 7cbd d4bf f2bd ed12 b53d 70ae 1dbe
00000030: 26e6 1abd 39ff 92bd 0e34 223c be8a 043e
00000040: e3ba a6bc b346 a4bd e3b1 30bd a8a3 72bd
00000050: f109 f23c 9fb8 c8bd d96b 9a3d 165f a2bd
00000060: 4105 b23d f486 90bd 5ff6 0f3d 722b 373e
00000070: 13e4 83bc 33bf debc 1490 363d 80c4 57bb
00000080: 00fb 9b3d 4169 8f3d efb9 35bd 7f4a 373d
00000090: 52b4 d6bd 159a aabd 4155 583c 1e35 86bb
000000a0: 260f 84bc f86d 19bc 6948 79bc 4873 05be
000000b0: e681 d3bd 1f17 80bd 1288 d6bd e166 42bc
000000c0: 8499 b83d 6819 dcbd a583 42bb 98f8 e4bb
000000d0: 1a95 e53c e2fe 23bb 46c7 8cbd 1991 febd
000000e0: 15f7 0c3e 39e2 48be 680e 613b d45b 09be
000000f0: 1a17 0d3e d890 823d f280 243d 0d68 5fbd
00000100: 5587 fc3c 9558 243e 56bb 8d3d 9ee9 2abe
00000110: 789b 0bbb 5b48 6f3d 786b a9bd c7d9 7ebe
00000120: 44ff 523e 4329 a2bd fe47 d93d 144d 42be
00000130: e922 35be b561 91be ae46 6cbe 2ebe 95bd
00000140: 5c6e c9b8 0764 5f3e d000 71be a1e9 41be
00000150: f1a2 53be 2a0c 063e 0041 13be c1cd 99be
00000160: 22ed 1bbe 9f68 9cbe 5c65 d6bb 9dc5 703d
00000170: 17aa 873b 0666 463b 5867 25be 2d7d 8dbe
00000180: 47c9 83bd eaf4 47be c79e 92be d001 b03d
00000190: 933c 27bd 0bd0 44be dffd 393e fc8c 423c
000001a0: 9aa9 203c 09ce a13d a9e7 8bbe 4cef aa3c
000001b0: e74b 88be 45ab 203e 3efc 093e 6203 a0ba
000001c0: 3e62 fcbd a98f 363d 6cbd 75bd 7c05 383c
000001d0: 0704 8c3b ac5f 8d3b 9ed9 44be cb6d cf3d
000001e0: d39e d3bd c8ed 303e 3b32 de3a eb70 013e
000001f0: fb31 d8bd 7b6e dc3d 6639 56be 5127 d63c
0.005057542 0.13323325 0.24149773 0.03745453 0.10452158 0.004966684 0.10980104 -0.07167165
-0.06169477 -0.118529946 0.088415004 -0.15398574 -0.037817143 -0.07177586 0.009900106 0.12943551
-0.020352786 -0.08021297 -0.043138396 -0.059238106 0.029545756 -0.09800839 0.075401016 -0.079282925
0.08692408 -0.0705699 0.035147067 0.17887667 -0.016099965 -0.02719078 0.044570997 -0.003292352
0.07616234 0.070024975 -0.044366773 0.04474878 -0.10483612 -0.0833017 0.01320392 -0.0040956875
-0.016120505 -0.0093645975 -0.015215018 -0.13032258 -0.103275105 -0.0625441 -0.10475172 -0.011865349
0.09013656 -0.10747033 -0.0029680517 -0.0069876425 0.028025199 -0.0025023748 -0.06873946 -0.12430019
0.1376613 -0.19617547 0.0034340862 -0.13413936 0.13778344 0.06375283 0.040162034 -0.05454259
0.03082625 0.16049416 0.06920497 -0.1669068 -0.0021302383 0.058418613 -0.08272451 -0.24887763
0.20605189 -0.07918026 0.106094345 -0.18974715 -0.17689098 -0.28394857 -0.23073837 -0.073116645
-9.604983e-05 0.21815501 -0.23535466 -0.18936779 -0.20667626 0.13090578 -0.14380264 -0.3003979
-0.15227178 -0.3054857 -0.0065428447 0.05878221 0.0041401493 0.0030273213 -0.16152704 -0.27634564
-0.06434875 -0.19527021 -0.28636762 0.08594096 -0.040829252 -0.19219987 0.1816325 0.011874434
0.009806061 0.07900626 -0.2732518 0.020866059 -0.2662041 0.15690334 0.13475129 -0.0012208039
-0.12323426 0.0445706 -0.0599951 0.011231776 0.004272941 0.0043143835 -0.1922364 0.10128363
-0.10333028 0.17278206 0.0016952226 0.12640731 -0.10556408 0.1076326 -0.20920333 0.026141794

find.6.bias f4 [2]
00000000: 000f 8b3d 2e43 37bd
0.067899704 -0.044741802

grapher.0.weight.weight f4 [5, 1]
00000000: 8247 bcbd e496 96bc 0c1f e33c cda0 ffbd
00000010: 75d8 02be
-0.091933265 -0.018382497 0.027724765 -0.12481842 -0.12777884

grapher.0.weight.bias f4 [5]
00000000: 6755 cebe ad77 17bf 06dd 31be 698e 063f
00000010: b05a 1f3f
-0.40299532 -0.59166986 -0.1736947 0.5256105 0.62247753

grapher.0.reduce.weight f4 [5, 1]
00000000: 590e 0ebc d4a9 ae35 302e d53c eac6 0a3f
00000010: 96b8 023a
-0.008670413 1.3013437e-06 0.026023 0.5420977 0.0004986612

grapher.0.reduce.bias f4 [5]
00000000: d09b 8d3e 8fa2 20b6 c09b 8c3e c769 bcbd
00000010: be55 86ba
0.27657938 -2.393648e-06 0.27462578 -0.09199863 -0.0010248942

grapher.0.gru.weight_ih f4 [15, 5]
00000000: 60ae 5a3d 6160 c53c 5ae4 8cba 2f92 10bb
00000010: 67c4 09bc 6198 7d3c b250 493b 71ad 4fbb
00000020: c97a b73c c033 af3c 7724 c13d f347 0dbd
00000030: 6a3a 52bc c386 00bc f9c5 cfbc f7af 90bc
00000040: 11ac 8ab6 3ffc afb8 57d8 d038 59ed dc38
00000050: db67 a03d b674 88bd 3d09 e23c 3884 ca3d
00000060: 8af7 cc3b fda8 0e3d a1d6 0ebd cbcb 08bc
00000070: dcec 683c 2ef2 083d 1f38 80bc 0963 dabb
00000080: 2dd0 c3b8 4f4a 7cbc 22a8 c2bc 3a14 cbbd
00000090: 4dbe e9bc fe26 5e3c 5fd4 02bd 2b59 233d
000000a0: 57c6 05be 490f d73b f67d 1d3a aa31 793c
000000b0: b457 b63c a4fd 913c 45dd 703c abfc 5139
000000c0: 6029 dd3a b1ad 24bc f81a 07be 615d b1be
000000d0: af92 2f3d 98c9 5a3e db62 7c3b 4fe2 8ebe
000000e0: dc99 563e 7711 e03d e398 fe3c fe4b 3dbe
000000f0: 4955 113c 6fc7 f43d 16ee adbd 5b6d a4bd
00000100: b9d4 bf3c f3c5 0f3c 9c53 133e 1581 bb3d
00000110: 4a31 85bd bc5c 0d3e 473d 9b3d 1db4 633e
00000120: 9214 da3d f4e9 9b3e c193 7c3e
0.053388953 0.024093809 -0.0010749206 -0.0022059788 -0.008408642 0.0154782245 0.0030718264 -0.0031689072
0.022397416 0.021386981 0.09430783 -0.034492444 -0.01283131 -0.00784463 -0.025362955 -0.017662032
-4.1327517e-06 -8.391635e-05 9.958509e-05 0.00010534627 0.07832309 -0.06662886 0.027592296 0.098885
0.006255095 0.03482913 -0.034872655 -0.008349369 0.014216628 0.033434086 -0.01565176 -0.006664638
-9.3371e-05 -0.015398576 -0.023761813 -0.09915967 -0.028533125 0.013559101 -0.031940814 0.03987996
-0.13063942 0.0065631014 0.00060078443 0.015209595 0.022258617 0.01782114 0.014701192 0.0002002592
0.0016873293 -0.010051177 -0.13193882 -0.34641555 0.042864498 0.21365964 0.003851107 -0.27907035
0.2095713 0.10940831 0.031078761 -0.1848602 0.008870431 0.119521014 -0.08492677 -0.080286704
0.023416864 0.008775222 0.14387363 0.0915548 -0.06503542 0.13804907 0.07580047 0.22236677
0.10648455 0.3045193 0.24665739

grapher.0.gru.weight_hh f4 [15, 5]
00000000: 056b 87bb c2c8 07b6 78bb c9b9 10b4 b3b8
00000010: ced9 26b6 5de7 2a3c 4717 a434 f194 3136
00000020: eba6 a8b6 d52d a2b7 48bf 83bb 4683 2035
00000030: 095b 06bb e95b 8ab7 190d 0b39 1d9d cdb8
00000040: d84f 1a35 1c8b 0038 b25a eb37 8e51 5fb4
00000050: f782 bd3c f4f9 21b3 fd12 0d38 973f 1a37
00000060: 3c2f 2c3b eddb 87bb eaf0 b9b5 21de 3a3b
00000070: 07ee 203b 617a d5b8 8676 a1bb 2514 8db6
00000080: a78b b2bb 97dd 64ba 6811 2238 7d0a 133c
00000090: c19e 3238 29e3 abbc 3417 c03b 6653 65ba
000000a0: 6f66 b43c 54ea 02b7 2d79 2abc f65c 9dbc
000000b0: f3ec c338 d4ff 32bb dd39 91b6 a7a1 99ba
000000c0: 9bdc b5ba cd8e eb36 67d5 d43d 0706 10b6
000000d0: d59c a63c 4ea4 11bb 5987 a5bb b0f8 6d3d
000000e0: 8fdf 53bc db0c b53c 8418 7e3b ff82 a2bc
000000f0: 5eef e7bc f854 b7b6 a36b 0cbb 53a0 ddb8
00000100: d358 1738 ab65 593d e800 7e3a 9d5f 1b3d
00000110: 223b 22b9 bb6a 1ab8 959b 7ebe b08d d53b
00000120: 674c ed3d 90f4 52bb fc79 23bc
-0.004132631 -2.0233424e-06 -0.00038477383 -8.5689244e-05 -2.4862707e-06 0.010431138 3.0564317e-07 2.646175e-06
-5.026222e-06 -1.9333247e-05 -0.0040206052 5.979567e-07 -0.0020501039 -1.6493681e-05 0.00013260952 -9.8044264e-05
5.748566e-07 3.0647134e-05 2.8056416e-05 -2.0798163e-07 0.023133738 -3.7713065e-08 3.3634704e-05 9.193921e-06
0.002627327 -0.0041460902 -1.3853689e-06 0.0028513747 0.0024555938 -0.00010179426 -0.004927459 -4.2044726e-06
-0.0054487768 -0.0008730529 3.864002e-05 0.008974669 4.2586358e-05 -0.020982342 0.005862141 -0.0008748084
0.0220215 -7.803163e-06 -0.010404867 -0.019209366 9.34246e-05 -0.002731313 -4.328073e-06 -0.001172115
-0.001387495 7.02017e-06 0.10392266 -2.146118e-06 0.020338455 -0.0022223177 -0.005051535 0.058098495
-0.0129317185 0.022100857 0.0038771937 -0.019837854 -0.028312381 -5.4637167e-06 -0.0021426461 -0.00010567964
3.608393e-05 0.053075474 0.0009689466 0.03793298 -0.00015471553 -3.681586e-05 -0.24864037 0.0065171346
0.11586838 -0.0032189228 -0.009977814

grapher.0.gru.bias_ih f4 [15]
00000000: de55 363d d486 b93c 8db3 1ebd 25f5 c1ba
00000010: a7d1 efbc 9a54 a03d 4c5a e63b c87d 6c3d
00000020: ac65 c1bd 553f bcbc 2a36 bf3d 4b6d 853e
00000030: 8446 7bbe a0ce 4e3d 76bd 433e
0.044515483 0.022647299 -0.03874545 -0.001479779 -0.029274775 0.078286365 0.007029807 0.05773714
-0.094432205 -0.022979418 0.09336503 0.26059946 -0.24538618 0.05049002 0.19115242

grapher.0.gru.bias_hh f4 [15]
00000000: d615 2a3d ffff 69bc 353b 723d 4655 f13a
00000010: 6a3c e73d ef6d 04bd 4f76 a7bc 1dad 473c
00000020: 055c 333d d46f e93b f0c0 2a3e bc0d 493d
00000030: e95d a73d f8ac ea3d 0ebf 7dbe
0.04152473 -0.014282226 0.059138495 0.0018412254 0.1129082 -0.032331403 -0.020442156 0.0121872695
0.04378893 0.0071239267 0.16675162 0.049085364 0.08172209 0.114587724 -0.24779913

grapher.0.gru.ln_resetgate.weight f4 [5]
00000000: 7e04 123e 9ec3 1db7 31f8 0338 6cb0 ef3c
00000010: 3a0b 1b3e
0.14259526 -9.403475e-06 3.146398e-05 0.02925893 0.15141001

grapher.0.gru.ln_resetgate.bias f4 [5]
00000000: 1bb3 533b cdf5 9338 2637 e8b7 2a51 ab3a
00000010: 7d66 583b
0.00323028 7.05529e-05 -2.7682236e-05 0.0013070453 0.0033020072

grapher.0.gru.ln_inputgate.weight f4 [5]
00000000: b6e5 0e3d 7f44 3a3a c046 503e 64f3 9f3e
00000010: bb9b 513e
0.03488704 0.00071055436 0.20339489 0.3124038 0.20469563

grapher.0.gru.ln_inputgate.bias f4 [5]
00000000: e0b8 9a3c 9219 0a39 5425 e4ba 8e22 043c
00000010: 82fd 09bb
0.018886983 0.00013170231 -0.0017406144 0.008064879 -0.0021055643

grapher.0.gru.ln_newgate.weight f4 [5]
00000000: 1c13 e23e 6dc6 903e 0c2e ef3d 0eb2 453d
00000010: c87a 2e3f
0.44155204 0.28276387 0.116787046 0.04826551 0.681561

grapher.0.gru.ln_newgate.bias f4 [5]
00000000: 2082 0cbd a05b e4bc 8cb7 07bb 7221 a93c
00000010: 3947 dfbb
-0.034303784 -0.027875721 -0.0020708768 0.02064583 -0.0068139103

grapher.1.weight.weight f4 [5, 5]
00000000: b66d 003e cde7 b83d a668 92ba 2f3a 263e
00000010: 774b 603e f3cf 94be 830e 903e f4f0 cbbb
00000020: ca6d 383e 07c6 69bd 94eb 0fbe f8b3 c5bd
00000030: 6432 7b3c 39f0 f23d 6a82 923d 7c96 a63e
00000040: 2b06 b73c 3526 84bd e44c 3a3e 07bf d3bc
00000050: 4b7c 883e 2695 1ebe 0ba8 233c 668c 913e
00000060: aaa9 b83e
0.12541851 0.090285875 -0.0011170104 0.16233133 0.21903788 -0.29064903 0.28136072 -0.006223792
0.18010631 -0.05707362 -0.1405471 -0.09653467 0.015331838 0.11862225 0.07153781 0.32536685
0.022341808 -0.064526 0.18193394 -0.025847925 0.26657328 -0.15486583 0.009988795 0.28427428
0.36066943

grapher.1.weight.bias f4 [5]
00000000: 9c2c abbc 51b9 563d ed1b e03d 9169 2cbe
00000010: 7b4d e03d
-0.020895295 0.052422825 0.109428264 -0.16837145 0.10952278

grapher.1.reduce.weight f4 [5, 5]
00000000: 9f16 40ba 2f50 b5b7 87a0 f535 73ba 2fb8
00000010: 8065 afb6 0f66 10bd 171c 5ebb 9092 2634
00000020: 314c 95ba 0fb9 ebbc 8243 01bc 3138 0eb9
00000030: a63e 4a31 0323 8fb9 5e82 19b4 620f 8eba
00000040: 15b0 adb7 a03e 5a35 9370 36b8 25f6 1fb7
00000050: 4c9a 4d3e 603e 183e e6be 0c3d 5c17 15bd
00000060: 183e debc
-0.00073275896 -2.161422e-05 1.8300642e-06 -4.1896896e-05 -5.2272226e-06 -0.03525358 -0.0033891255 1.5513274e-07
-0.0011390505 -0.028774766 -0.00788963 -0.00013563108 2.943048e-09 -0.0002730117 -1.4296663e-07 -0.0010838325
-2.0705202e-05 8.130246e-07 -4.3497024e-05 -9.5344485e-06 0.20078391 0.14867544 0.034361742 -0.03639923
-0.027129218

grapher.1.reduce.bias f4 [5]
00000000: 8c46 23bb 4f97 043e 7f8f 26bc 1b2c 78bb
00000010: ccd6 a83d
-0.0024913875 0.12948345 -0.010166048 -0.0037868086 0.08244094

grapher.1.gru.weight_ih f4 [15, 5]
00000000: b38d 4bbc 0a06 14bb 669e 2e39 ab4c 7739
00000010: dbb3 43bc 08d8 733a f2ec efb8 1720 9937
00000020: 3aac ef36 c1db 603c e143 833b 1688 c3b9
00000030: 41ed 0cb7 ef2c 8537 efa6 b83c 0b5a 2e3d
00000040: 6737 2b3c 45e3 28b9 9cfa ddba 1e64 92bd
00000050: b2da d53b 8236 843a d413 a638 9938 4137
00000060: c372 1c3d c141 c9bd 34c2 34bd 3fdc 7c3a
00000070: 9e8b b83c ce73 953e 9568 ccbd a92c 843d
00000080: 8356 16ba 43a9 033d e9e1 f93d 03b4 d3bd
00000090: cc54 26bd bacd 08b9 8d28 c83c a81d 58bd
000000a0: d05f 7fbe 7177 09be 189d 3ab9 0af2 f43b
000000b0: 74b6 47be 1ef9 7ebc 1a16 fd3c 56b4 603a
000000c0: c3b8 313c 656a b2bc 754b b3be 5765 16be
000000d0: fca8 e13d 4469 1a3e 3b2c f2bc c608 42be
000000e0: 0636 4ebe c626 14bc d504 6bbc 50d0 873e
000000f0: b420 283e 1eda 99bd 68c9 0abb 834d 70bd
00000100: e31a efbd 3d2a 77be d8f1 053e 5bad cdbc
00000110: f430 5fbe 3b9c cb3e 2a95 afbe 6884 5bbe
00000120: 99a3 5a3b b609 543d a50a 78be
-0.01242392 -0.0022586607 0.00016652941 0.00023584317 -0.011944736 0.00093019055 -0.000114405426 1.8253964e-05
7.142805e-06 0.013724268 0.0040058945 -0.0003729469 -8.39989e-06 1.587576e-05 0.022540538 0.04256634
0.010450221 -0.00016106393 -0.0016935649 -0.07148002 0.0065263147 0.0010087045 7.91919e-05 1.1516874e-05
0.038195383 -0.09826995 -0.04413052 0.00096458563 0.022527512 0.29189914 -0.09980885 0.06453831
-0.0005734937 0.032143842 0.12201292 -0.10337069 -0.040608212 -0.0001304661 0.024433399 -0.052762657
-0.24938893 -0.1342447 -0.00017796864 0.0074751424 -0.19503194 -0.015562324 0.030894328 0.0008571794
0.010847273 -0.021779248 -0.35018507 -0.14687096 0.11018559 0.15079218 -0.029562106 -0.1894866
-0.20137796 -0.009042447 -0.014344414 0.26526117 0.16418725 -0.07512306 -0.0021177176 -0.05866767
-0.1167505 -0.24137206 0.13080537 -0.025107076 -0.21796018 0.39767632 -0.3429349 -0.21437228
0.0033361672 0.051767074 -0.2422281

grapher.1.gru.weight_hh f4 [15, 5]
00000000: 1891 8f3d 0603 d338 b4c4 a5bc 7c4e a3bd
00000010: cd95 3839 5047 813c 89b4 6b38 555b efb8
00000020: e1a0 3b3c 2de9 1d39 09be 8f3d 73e2 0bb9
00000030: 606f 52bb 1121 e4bd 234d a5bb f114 14be
00000040: 94df 93b9 f1e9 42bd f412 ec3d 03a2 bbbc
00000050: 01fb 5e3c 0ce3 4837 a600 2db9 f653 523d
00000060: e6b9 84ba 8223 37be ea2c 803d a1bb 253d
00000070: b6d8 0cbe ebaa 21be 93f6 94be 2c94 853c
00000080: 8943 af3d 1c3a 84be fa9e 4d3d 4937 043d
00000090: 0daf 9e3c 0f65 7dbc f615 293e 50e2 15bd
000000a0: 307f e13c 0103 05bc 3fd2 0cbe 3527 463e
000000b0: 5a1f 1dbe ca7a d2bb f8fc 9f3b 0ff1 673c
000000c0: b413 063e 5b2d 773d 29ce 40be 19f2 eabb
000000d0: cee4 c53d e4b1 07be 1a67 f6bd 1af9 00be
000000e0: 98e1 b23c 6c83 2bbd 967e 5f3e b0d1 893d
000000f0: ee6f 25be 7467 63bd 9fe2 2ebd 17fb 84bd
00000100: 4a89 a9bd efa8 14be 40ed 3fbd 161e 123d
00000110: d1c4 b03c 313d e8bd 0cb8 f13d 8bef 8d3c
00000120: 3a88 f33d c988 8c3e 65f2 a0bd
0.07010096 0.00010061827 -0.020235397 -0.07973954 0.00017603413 0.015781075 5.6196503e-05 -0.0001141342
0.011451931 0.00015059552 0.07018668 -0.00013340432 -0.0032109842 -0.111391194 -0.005044596 -0.14461114
-0.00028204604 -0.047586385 0.115270525 -0.022904402 0.013609649 1.1973792e-05 -0.00016498807 0.051349603
-0.0010126203 -0.17884639 0.06258567 0.04046214 -0.13754544 -0.15787856 -0.2909437 0.016306005
0.08557803 -0.25825584 0.05020044 0.032279287 0.01937058 -0.015465989 0.16512284 -0.03659278
0.027526468 -0.008118392 -0.13752078 0.19350894 -0.15343991 -0.006423329 0.004882451 0.014156594
0.13093454 0.06034599 -0.18828644 -0.0071699736 0.09662782 -0.13251454 -0.12031384 -0.12595025
0.021836087 -0.04187338 0.21825632 0.06729448 -0.16155979 -0.055518582 -0.04269659 -0.06493204
-0.08278139 -0.14517568 -0.04685712 0.035673223 0.021578224 -0.11339796 0.11802682 0.017326137
0.118912175 0.2744811 -0.07858733

grapher.1.gru.bias_ih f4 [15]
00000000: f317 83bd 2621 6abd 63fc 013e 4959 56be
00000010: bc23 21be 4448 28bd 728c d93d 592f 83bc
00000020: 84c7 17bc fd7d 1e3e ec42 693e ba8c cabe
00000030: 192a c9bd f09c d43d 3945 9cbe
-0.06401052 -0.05716052 0.12693934 -0.20932497 -0.15736288 -0.041084543 0.10622491 -0.016013788
-0.009263877 0.15477748 0.22779435 -0.3956049 -0.098224826 0.10381496 -0.30521563

grapher.1.gru.bias_hh f4 [15]
00000000: 1812 1ebe 1120 333d 9b44 92bd 6c2b 983d
00000010: 8b6b a33d 766d 2fbe a78c 723e e01e 153e
00000020: 296f 6ebd a406 a63e 8cd9 333e 385e 0fbe
00000030: 01bb 5fbe 1c2f 96bc 73e1 ee3a
-0.1543659 0.043731753 -0.07141992 0.07430157 0.079794966 -0.171316 0.23686467 0.14562559
-0.05821148 0.3242694 0.17563456 -0.14000785 -0.2184868 -0.01833301 0.0018225148

grapher.1.gru.ln_resetgate.weight f4 [5]
00000000: 9d9c c53e cb7c b73b a2b3 a33d 54f4 423e
00000010: 867e a93d
0.3859605 0.0055995933 0.079932466 0.19038516 0.082760856

grapher.1.gru.ln_resetgate.bias f4 [5]
00000000: 4fce ecbb b031 d938 16b1 883c 25cd bfbc
00000010: f165 2abc
-0.0072267423 0.00010356621 0.016686004 -0.02341325 -0.010400281

grapher.1.gru.ln_inputgate.weight f4 [5]
00000000: 7af8 5a3f c20b 403b df98 fe39 ae04 463f
00000010: c2e0 3e3f
0.85535395 0.0029303883 0.00048560553 0.7735089 0.74561703

grapher.1.gru.ln_inputgate.bias f4 [5]
00000000: 68a6 483c fd01 26b9 83d9 4f39 10a9 08bd
00000010: 5e15 63bc
0.012246706 -0.00015831734 0.00019822088 -0.033364356 -0.013860075

grapher.1.gru.ln_newgate.weight f4 [5]
00000000: 953c 783f 05de 623d 32b9 8e3e a49d 7b3f
00000010: d716 d43e
0.9696744 0.055387516 0.27875668 0.98287416 0.41423675

grapher.1.gru.ln_newgate.bias f4 [5]
00000000: 83c6 583c bde0 65b9 a0f7 db3c b794 3b3d
00000010: 807c 9ebc
0.013230923 -0.00021922863 0.026851475 0.045796122 -0.019346476

grapher.2.weight.weight f4 [5, 5]
00000000: f5cb 82be 39e5 04ba 1d59 8fbb c9a1 ea3e
00000010: 83a7 5c3c 527f 293e e61e 743b e651 133d
00000020: 232b 81be 4c4e 75bd 7042 8a3e 002f 13bb
00000030: 18f7 47bc 69dc aebd fcaf 063c badf d7be
00000040: 1b59 913b 1794 c7bc 142c 1fbe 4a5c ba3d
00000050: 7157 0abe a507 8a3c 08dd 27bd 1d86 21be
00000060: 7d5b 55be
-0.25546232 -0.0005069557 -0.004374637 0.45826557 0.013467672 0.16552475 0.0037249862 0.035966776
-0.25228223 -0.059889123 0.27003813 -0.0022458434 -0.012204908 -0.08538134 0.008220669 -0.42162877
0.004435671 -0.024362607 -0.15544158 0.09099634 -0.13509919 0.016849348 -0.040982276 -0.15773816
-0.20835681

grapher.2.weight.bias f4 [5]
00000000: 1e44 3cbe 8459 f0be bebb 8a3d 7d85 63be
00000010: 6bb1 153e
-0.1838536 -0.46943295 0.0677409 -0.2221889 0.14618461

grapher.2.reduce.weight f4 [5, 5]
00000000: 2c23 11bd 7f7b 0f3a ba32 9bbb cbd3 203e
00000010: d947 f93d d957 0f3f c0b3 81bb 8b8e 8abc
00000020: 09db 8a3d a4d5 5abc 5c67 e2be 819c 46b8
00000030: 19d3 87b9 563e b3be 59c9 61b9 c84e 35bd
00000040: 5015 9fb7 abdc 87b8 c49a 63bd 5ade 86b7
00000050: 2a42 c93d cf5e 1936 6929 f937 34fb e7be
00000060: b37d da3d
-0.035433933 0.00054734194 -0.0047362717 0.15705793 0.12171907 0.5599342 -0.0039581954 -0.016913673
0.06780059 -0.0133566 -0.44219482 -4.7352634e-05 -0.00025906487 -0.35008496 -0.0002153268 -0.044264585
-1.8964201e-05 -6.478404e-05 -0.055567518 -1.6077585e-05 0.09827073 2.2853962e-06 2.9702396e-05 -0.4530884
0.106685065

grapher.2.reduce.bias f4 [5]
00000000: be63 e83d 000c e43e 7e6d 04bf 0515 c8bd
00000010: 031d 563e
0.11347149 0.44540405 -0.5172957 -0.09769634 0.20909505

grapher.2.gru.weight_ih f4 [15, 5]
00000000: 12dd 253e fe72 3f3e 12c2 343e e7ca 7a3e
00000010: 9a0f 143e 3d5e 0c3e 4fc9 1d3d b570 953d
00000020: 4786 10be 3d87 5bbc e479 2ebe 41c6 433d
00000030: fe7f 353e 5394 133e 922a 1fbd 0a8c 2bbd
00000040: 6205 58bd eec3 c43d c5e2 19be b5ce b8bc
00000050: cc21 943e 1bf2 0bbe d691 18be 66bb c53c
00000060: 01c6 343d 2b32 fe3e 4dba 673e f931 84bc
00000070: 4111 e33e 9405 2e3a 5970 01bd 08fa 943e
00000080: 390b d63e bc5e 65bd 38d6 a43e 0391 143e
00000090: d448 e2be e44a 843e d52e 2a3d 13bf a13c
000000a0: 7c2e 34bd 01a1 83bc b93f ab3e 549a c53e
000000b0: 3af2 2b3e 74f0 9fbd 2d78 823e c92d 01be
000000c0: 65a3 a13e beb7 08bd da16 52bd cdb5 593e
000000d0: e15b 7bbe c9c9 9abe 3d92 c8be 3a6c 02be
000000e0: c49a 873e 21fe 65be 2922 dc3d a05f 703e
000000f0: fc8c e53d 22d2 c93d a97c 6f3d 885b 02bf
00000100: d345 febe aea5 fbbd 52ab 4cbe 29bf 8cbe
00000110: 5b4d 653e b8e2 b83e b8f5 d33e e57d 473e
00000120: 2eb4 f4bb c545 333d a716 7f3e
0.16197613 0.1869621 0.17652157 0.24491464 0.14459077 0.13707824 0.03852206 0.07296888
-0.14113723 -0.013398943 -0.17038685 0.04779649 0.17724606 0.1441205 -0.038858958 -0.0418816
-0.05273951 0.09607683 -0.15027912 -0.022559503 0.28932035 -0.13666575 -0.14899382 0.02413721
0.044134144 0.4964765 0.22629662 -0.01613711 0.443491 0.00066384044 -0.031601284 0.2909701
0.41805437 -0.05599855 0.32194686 0.14508443 -0.44196188 0.25838387 0.04154857 0.019744432
-0.043989643 -0.016067984 0.33447054 0.38594306 0.16791621 -0.07809535 0.25482312 -0.12615122
0.31569973 -0.033378355 -0.051291324 0.21260758 -0.24546768 -0.30232075 -0.3917407 -0.12736598
0.26485264 -0.22460224 0.10748703 0.23473978 0.11208531 0.09854533 0.058468495 -0.50920916
-0.49662647 -0.1228746 -0.19987229 -0.27489594 0.2239279 0.36110473 0.41398406 0.19481619
-0.007467768 0.04376771 0.24910985

grapher.2.gru.weight_hh f4 [15, 5]
00000000: dd84 963d c0c0 1dbe 5609 ffbd c22d 0a3e
00000010: e504 5b3b 7bfd 8ebe 0eb7 52be 41ac babe
00000020: 48c7 31be 0cf5 9dbd 6022 0c3b 23e5 8b3e
00000030: 608e 31be 3dfb 1dbe fa95 8f3d 5d94 ec3d
00000040: 7dbf 37be 9de4 7c3e 14ae d23d 0926 6ebe
00000050: 36f2 1bbd e8d3 0fbe 6097 31bc 9249 a3be
00000060: 9783 703d bea3 89be 0ac7 5abe 43dc 45be
00000070: fac8 b6bc 8dd2 f83e d824 a7bd f16e 6dbe
00000080: 49c6 e5be bba5 993e caa9 453d 8962 a03d
00000090: a682 0e3f d996 2ebe 2d78 c5be 1f23 f2be
000000a0: ab1e 4abe 0723 9cbe 3045 89be 0358 6dbe
000000b0: c21f ff3d e6ae fdbe bf2b 29be 0e7d 2b3e
000000c0: c55a 0f3f 632a a2bd 7d6e 4b3d f887 c53d
000000d0: 4812 b13e 2519 ebbe 3fcf ac3e 3b50 ff3d
000000e0: f00a cd3e 04b6 9fbe b483 52be 00e8 07bd
000000f0: 32bd b03e 1b13 e23e 6333 cc3e 8325 1c3e
00000100: 9303 86be 854c 973e 7e71 6a3e f2b5 5c3e
00000110: a1f4 03bf 312d 08bf e4e2 2d3e 6f3c cabd
00000120: 808d 3bbe b513 bd3e ccb1 833e
0.073495604 -0.1540556 -0.124529526 0.13494018 0.0033419665 -0.27927765 -0.20577642 -0.36459544
-0.17361176 -0.077127546 0.0021382794 0.27323255 -0.17339468 -0.15427871 0.07011028 0.115517356
-0.1794414 0.24696584 0.10287109 -0.23256697 -0.038072787 -0.1404568 -0.010839313 -0.31892067
0.058719244 -0.26882738 -0.2136499 -0.19322304 -0.02231263 0.48598137 -0.08161324 -0.23186852
-0.44877842 0.30009255 0.048257627 0.07831294 0.55668104 -0.17049731 -0.3856825 -0.4729242
-0.19738261 -0.30495474 -0.26810598 -0.23178105 0.12457229 -0.495475 -0.16520594 0.16746923
0.5599788 -0.07918241 0.049665917 0.096450746 0.3458426 -0.4591762 0.33751866 0.124664746
0.40047407 -0.31193554 -0.20558053 -0.033180237 0.34519345 0.441552 0.39882955 0.15248685
-0.26174602 0.29550567 0.22894856 0.21553782 -0.5154515 -0.53193957 0.16981083 -0.09874808
-0.18315697 0.36929098 0.25721586

grapher.2.gru.bias_ih f4 [15]
00000000: 380e 403e d173 f8be fa5d d93e 26d9 eb3d
00000010: 4659 bb3e e248 da3d 859f bdbe f9c9 123b
00000020: fa00 f3be f50c c13d 1fbd d2bd caef 873e
00000030: d3ab c13e 7038 223d fb46 393e
0.18755424 -0.4852586 0.4245451 0.11516027 0.36591548 0.106584325 -0.37035766 0.0022398217
-0.47461683 0.094262995 -0.10289978 0.26550132 0.37826404 0.039604604 0.18093483

grapher.2.gru.bias_hh f4 [15]
00000000: 2a73 e13d fcbd 8b3e c880 d8bc a71a 34be
00000010: 99d2 5d3e 6949 b0be 5291 e3be 828b 4cbe
00000020: d676 c2be 251c 193e 4eb4 bbbe 4247 4dbe
00000030: fb19 a73d 5eb4 2dbe e732 b3be
0.11008294 0.27293384 -0.026428595 -0.17588292 0.21662368 -0.34431008 -0.44446808 -0.19975093
-0.3798129 0.14952143 -0.36661 -0.20046714 0.08159252 -0.16963336 -0.34999773

grapher.2.gru.ln_resetgate.weight f4 [5]
00000000: fda8 283f 5864 413f c989 593f 5652 1f3f
00000010: 6dbd 7d3f
0.65882856 0.7554374 0.8497587 0.6223501 0.99117166

grapher.2.gru.ln_resetgate.bias f4 [5]
00000000: a982 47bd a455 333c 8098 bf3d 3a34 143e
00000010: df6c d43d
-0.04870859 0.010945711 0.09355259 0.14473048 0.10372328

grapher.2.gru.ln_inputgate.weight f4 [5]
00000000: 1bec 633f 2ae9 523f 15d3 843f 7564 833f
00000010: 309f 3f3f
0.89032143 0.8238703 1.0376917 1.0265032 0.74852276

grapher.2.gru.ln_inputgate.bias f4 [5]
00000000: 279d 2a3e c3d1 f33d faa6 843e 0753 16be
00000010: 6009 0dbe
0.16661511 0.11905243 0.25908643 -0.1468011 -0.13773108

grapher.2.gru.ln_newgate.weight f4 [5]
00000000: 6e39 323f 2d1d 503f 7e31 423f 958e 883f
00000010: 096a 6d3f
0.6961888 0.8129452 0.7585677 1.0668513 0.9273992

grapher.2.gru.ln_newgate.bias f4 [5]
00000000: e2e3 cbbd 34c0 67bd f199 67be d284 23be
00000010: 9be1 2ebe
-0.099555746 -0.056579784 -0.22617318 -0.15968636 -0.17078249
