scheduler/BaGTI/checkpoints/energy_latencyGNN_GRU128L3_4_Trained_Intense.ckpt (torch, 724895 bytes, 150 tensors)

find.0.weight f4 [128, 240]
0	0x3b306d3a	0.0026920573
1	0x3acaf76d	0.0015485116
2	0xbb1c3247	-0.0023833679
3	0x3ca8c9bc	0.020604007
4	0x3baf9a22	0.0053589502
5	0x3b312fb7	0.0027036497
6	0xbd1ada7e	-0.037806027
7	0xbb1b0369	-0.0023653156
8	0x3b0a2176	0.0021077073
9	0x3baf9a0d	0.0053589405
10	0x3b2e1a14	0.0026565837
11	0x3cae83fe	0.021303173
12	0xbb1769f0	-0.0023103915
13	0x3ce6b99c	0.028164677
14	0x3baf9a0c	0.00535894
15	0x3b2f865b	0.0026782963
16	0xbd4d08d5	-0.05005725
17	0xbb17384a	-0.0023074322
18	0x3a888b3d	0.0010417473
19	0x3baf9a44	0.005358966
20	0x3b310b26	0.0027014702
21	0xbd5bd55a	-0.053670265
22	0xbb1cbae2	-0.0023915102
23	0x3b00989e	0.0019622217
24	0x3baf9a3f	0.0053589637
25	0x3b2e678f	0.0026612019
26	0x3cdd8009	0.027038591
27	0xbb1c2e20	-0.0023831204
28	0x3c563578	0.013074271
29	0x3baf9a1b	0.005358947
30	0x3b319817	0.002709871
31	0xbd379b24	-0.044825688
32	0xbb297fd0	-0.0025863536
33	0x3d0281f8	0.03186223
34	0x3baf99d7	0.0053589153
35	0x3b2edfa0	0.0026683584
36	0xbd077710	-0.03307253
37	0xbb1e8e37	-0.0024193653
38	0x3cabb757	0.020961447
39	0x3baf9a31	0.005358957
40	0x3b317970	0.002708044
41	0x3d36bc89	0.044613395
42	0xbb172a6f	-0.0023066064
43	0x3b859520	0.004076615
44	0x3baf9a1e	0.0053589484
45	0x3b30101d	0.0026865073
46	0x3a9f7fe3	0.001216885
47	0xbb1b101c	-0.0023660725
48	0x3cccff69	0.025024133
49	0x3baf99f8	0.0053589307
50	0x3b30c573	0.0026973158
51	0x3d2f9bb4	0.0428731
52	0xbb2ce15a	-0.0026379437
53	0x3d263678	0.04057929
54	0x3baf99f5	0.0053589293
55	0x3b34eb36	0.0027606017
56	0x3d5b8978	0.053597897
57	0xbb1d849d	-0.0024035343
58	0x3d2b9853	0.041893315
59	0x3baf99f5	0.0053589293
60	0x3b316c27	0.002707252
61	0x3d211f6c	0.039336607
62	0xbb188fbb	-0.002327903
63	0xbb49cd88	-0.0030792672
64	0x3baf99f8	0.0053589307
65	0x3b2fb507	0.0026810782
66	0x3d5cf1ee	0.05394166
67	0xbb2cfa57	-0.0026394331
68	0x3c9f11e7	0.019417716
69	0x3baf99de	0.0053589186
70	0x3b3164d7	0.0027068162
71	0x3d37239a	0.044711687
72	0xbb19ccef	-0.0023468097
73	0x3cdd395a	0.027004886
74	0x3baf99ec	0.005358925
75	0x3b2fa8e1	0.002680354
76	0x3d082271	0.03323597
77	0xbb183e77	-0.0023230591
78	0x3c2d5dba	0.010581428
79	0x3baf99d0	0.005358912
80	0x3b312190	0.0027028061
81	0xbd2737d9	-0.040824745
82	0xbb1593da	-0.0022823722
83	0x3c1550f4	0.009113539
84	0x3baf99d4	0.005358914
85	0x3b2fbb29	0.0026814437
86	0xbd40d95a	-0.047082283
87	0xbb2bde7d	-0.0026225143
88	0x3d013ee5	0.03155412
89	0x3baf99cc	0.00535891
90	0x3b2ee442	0.0026686345
91	0xbd0f93c6	-0.035053037
92	0xbb1a5a6d	-0.0023552433
93	0x3af92b42	0.0019010084
94	0x3baf99d4	0.005358914
95	0x3b30e08a	0.0026989304
96	0x3c9b1a3f	0.018933414
97	0xbb175fed	-0.0023097948
98	0xbb393463	-0.0028259985
99	0x3baf99d4	0.005358914
100	0x3b30898c	0.0026937453
101	0xb92e41a7	-0.0001661839
102	0xbb1ad2e8	-0.0023624245
103	0x3c9b58ca	0.018963236
104	0x3baf9a24	0.005358951
105	0x3b2e60c1	0.0026607963
106	0x3c4989f2	0.012300955
107	0xbb19aea3	-0.002345004
108	0x3cda0afd	0.026616568
109	0x3baf9a30	0.0053589568
110	0x3b335142	0.0027361666
111	0xbc9262fa	-0.017869461
112	0xbb2c2644	-0.0026267925
113	0x3cebd6e3	0.02878899
114	0x3baf99ba	0.005358902
115	0x3b312215	0.002702837
116	0xbc04588a	-0.00807775
117	0xbb1c8ae0	-0.0023886487
118	0x3c649ea6	0.01395384
119	0x3baf9a22	0.0053589502
120	0xbd6dc2a6	-0.05804696
121	0xbd30940e	-0.043109946
122	0x3e3fc145	0.1872607
123	0xbdcd5a9b	-0.10027047
124	0x3e30a42e	0.1725013
125	0xbdf73b12	-0.12071814
126	0xbde41cd7	-0.11138313
127	0x3bd5da15	0.0065262415
128	0x3b7b5110	0.0038347878
129	0x3d34874b	0.044074338
130	0x3be645a9	0.007027347
131	0x3d303092	0.04301507
132	0xbc47ae04	-0.012187485
133	0xbd3fb210	-0.046800673
134	0x3dfde7a4	0.123976976
135	0xbdaf3ece	-0.08556901
136	0xbe145eeb	-0.14489333
137	0x3e52f29b	0.20600359
138	0x3d10ae9f	0.03532278
139	0xbb7eb2c1	-0.003886387
140	0x3d83a4f6	0.06427948
141	0xbc243f42	-0.010024847
142	0xbe046359	-0.12928523
143	0x3d977dd5	0.073970474
144	0xbc3ae561	-0.011407227
145	0xbd4ec3e1	-0.050479773
146	0x3ce28513	0.027651345
147	0xbd00cd00	-0.031445503
148	0xbdb9b4f1	-0.09067715
149	0x3d7373b7	0.059436526
150	0xbd8403e0	-0.064460516
151	0x3cad26d6	0.021136682
152	0xbdc6a287	-0.096989684
153	0x3d9e4099	0.07727165
154	0xbd502923	-0.05082048
155	0x3dabe5dc	0.083934516
156	0xbcb10dce	-0.021613028
157	0xbe398a57	-0.18119179
158	0xbc332f67	-0.010936595
159	0x3d449c0e	0.048000388
160	0xbde8fbe4	-0.11376169
161	0x3da78cf1	0.08181179
162	0xbd9330fc	-0.071870774
163	0xbe197f93	-0.14990072
164	0xbd179c91	-0.037014548
165	0x3d02e71c	0.031958684
166	0x3e374752	0.178983
167	0x3c88b576	0.01668809
168	0x3d1fc34d	0.039004613
169	0x3d2bd40b	0.041950267
170	0xbe12b6ae	-0.143275
171	0xbc406a75	-0.011744131
172	0x3e02715c	0.12738556
173	0xbc80cc41	-0.015722396
174	0xbd228928	-0.039681584
175	0xbc4de87e	-0.0125676375
176	0xbd9805e4	-0.074229985
177	0xbd2ba28c	-0.041903064
178	0x3dbe6709	0.09296996
179	0x3b3eac65	0.0029094454
180	0xbcf0bead	-0.029387796
181	0xbddf0710	-0.10890019
182	0xbc287f29	-0.010284224
183	0x3d8fdc91	0.070244916
184	0xbd1578e1	-0.036492232
185	0x3d1d0343	0.03833319
186	0xbdb992fd	-0.09061239
187	0xbda5c346	-0.08093886
188	0x3d98ba1e	0.07457374
189	0x3d1cdb6f	0.038295206
190	0xbd5f116d	-0.054459978
191	0x3cffbed2	0.03121892
192	0x3ccb4788	0.024814382
193	0xbdd141d8	-0.10217637
194	0x3dc1da22	0.09465434
195	0x3d273b29	0.040827904
196	0xbdd4d06b	-0.10391315
197	0xbd2d296b	-0.042275827
198	0xbd16fcaf	-0.03686207
199	0xbddba23a	-0.10724302
200	0x3db82772	0.089918986
201	0x3e421e33	0.18956833
202	0xbda7076c	-0.081557125
203	0x3cdab91b	0.026699593
204	0xbd0528d8	-0.032509655
205	0xbe1e7363	-0.15473704
206	0x3c841d0c	0.016127132
207	0xbd003864	-0.03130378
208	0x3d2c19db	0.042016845
209	0x3dadd019	0.08486957
210	0x3d75ca8f	0.060007628
211	0xbc8b7f00	-0.017028332
212	0xbd8a68fb	-0.06758305
213	0x3dd9af45	0.10629133
214	0xbd3e7f70	-0.046508253
215	0x3df1a9c4	0.11799958
216	0x3bd5d096	0.0065251095
217	0xbdc93278	-0.09824079
218	0x3d9e3aa0	0.077260256
219	0x3daa97e2	0.083297506
220	0xbd9b6ab0	-0.075887084
221	0x3bf12042	0.0073585818
222	0xbcbb9792	-0.022899423
223	0xbdabfc80	-0.0839777
224	0x3c44e0f2	0.012016522
225	0xbd9d5233	-0.07681694
226	0x3da6de15	0.081478275
227	0x3d3dcfe9	0.046340857
228	0x3db4b913	0.088243626
229	0xbc9b092f	-0.018925278
230	0xbd2f29d2	-0.042764492
231	0x3cffe02d	0.031234825
232	0x3d0ef7c4	0.034904256
233	0x3de57a5f	0.11204981
234	0x3d3bf5be	0.045888655
235	0x3d041ac6	0.032252096
236	0xbd8fad05	-0.07015423
237	0x3dac889c	0.08424494
238	0x3d431138	0.047623843
239	0x3b51947e	0.0031979377
240	0xbcb4f699	-0.022090243
241	0xbd314cb7	-0.04328605
242	0x3cc08993	0.0235031
243	0x3cba8dde	0.022772726
244	0x3b5be8c0	0.0033555478
245	0xbcb53d41	-0.022123935
246	0xbd0b381e	-0.033989064
247	0x3cc03e04	0.023467071
248	0x3c6bac5c	0.014384355
249	0x3b5be8c1	0.003355548
250	0xbcb52f0c	-0.02211716
251	0xbd842b11	-0.06453527
252	0x3cbfab17	0.023397012
253	0x3cfb84b7	0.030702932
254	0x3b5be8c5	0.003355549
255	0xbcb4f57a	-0.022089709

find.0.bias f4 [128]
0	0x3cdea946	0.027180325
1	0xbd6fc299	-0.058535192
2	0xbc9f34d3	-0.019434368
3	0xbd9b5191	-0.07583917
4	0x3cfd56c5	0.030925164
5	0x3a07bf3d	0.0005178338
6	0xbcd1cc56	-0.02561013
7	0xbbf9dbef	-0.007625095
8	0xbd2193b6	-0.03944751
9	0x3d46a6be	0.04849886
10	0x3da252c9	0.07925946
11	0x3ca56cac	0.02019342
12	0xbd19b029	-0.037521515
13	0x3cfeec7f	0.03111863
14	0xbd17f361	-0.03709734
15	0x3c0eb403	0.00870991
16	0xbd9885ba	-0.07447381
17	0x3bc0c2cc	0.0058825966
18	0x3cb7f330	0.022454828
19	0x3b56270c	0.0032677082
20	0xbbe1468b	-0.0068748645
21	0xbc22d0d0	-0.00993748
22	0xbcecc011	-0.028900178
23	0xbd4df33a	-0.050280787
24	0x3d2b4871	0.041817132
25	0x3bf1ab69	0.00737517
26	0x3ad624a7	0.0016337828
27	0xbd8538d3	-0.06504979
28	0xbb58be39	-0.0033072366
29	0x3d849c30	0.06475103
30	0xbd1bdfb6	-0.038055144
31	0x3d6a5604	0.057210937
32	0xbbf81fb7	-0.00757214
33	0xbd4d3a62	-0.050104506
34	0xbd1d76d3	-0.038443398
35	0x3d9c61b2	0.076358214
36	0x3d23a5b3	0.039952945
37	0x3d472c46	0.048626207
38	0x3d7683f5	0.060184438
39	0x3d13aaa4	0.036051407
40	0x3d988544	0.074472934
41	0xbc9c6615	-0.019091645
42	0xbcfb3c8e	-0.030668523
43	0xbc6b831b	-0.01437452
44	0xbcd77133	-0.026299095
45	0x360a5f40	2.0619045e-06
46	0x3d258e9e	0.040419213
47	0xbc38f76b	-0.011289458
48	0xbd45b502	-0.048268326
49	0x3c4d6fe5	0.012538885
50	0xbd2b18c8	-0.04177168
51	0xbb9a5b72	-0.004710608
52	0xbd55f9ca	-0.05224017
53	0xbd08ce13	-0.033399653
54	0x3c51a5c7	0.012795872
55	0xbcd117a4	-0.025523968
56	0xbb1d894f	-0.002403814
57	0x3cbf1f35	0.02333031
58	0xbc17f3ef	-0.009274467
59	0xbbd11b4d	-0.0063814283
60	0xbd30b946	-0.04314544
61	0xbd417fae	-0.047240905
62	0xbcb7d23a	-0.022439111
63	0xbd906e2f	-0.07052266
64	0xbd0c3172	-0.034226842
65	0xbd3fb08d	-0.04679923
66	0x3daa730c	0.08322725
67	0xbdacc14b	-0.08435305
68	0x3ca01f7d	0.019546265
69	0xbd051637	-0.03249189
70	0xbd23c4a4	-0.039982453
71	0xbc590a0b	-0.013247023
72	0xbd56cec6	-0.05244329
73	0x3d44eece	0.048079304
74	0x3c767a06	0.015043741
75	0xbd98f158	-0.07467908
76	0xbd1758e8	-0.036950022
77	0x3cdf5cb7	0.02726589
78	0xbc756da8	-0.014979757
79	0xbbfe73ee	-0.0077652847
80	0xbd365748	-0.04451683
81	0x3cddf947	0.027096404
82	0xbc869737	-0.016429527
83	0x3d145352	0.036212273
84	0xbcf2bd4d	-0.029631281
85	0x3db22c30	0.08699834
86	0xbc8b54c9	-0.017008202
87	0xbcb1741c	-0.02166181
88	0xbd15c205	-0.036561985
89	0x3d0de2d8	0.034640163
90	0x3c6ca500	0.014443636
91	0xbdabd61a	-0.08390446
92	0x3b65fa6f	0.0035091897
93	0xbd037995	-0.03209837
94	0xbc0a27b9	-0.008432322
95	0xbca2dd45	-0.0198809
96	0xbcfd506f	-0.030922143
97	0xbd9e3992	-0.077258244
98	0xbd1cf3a8	-0.038318306
99	0x3c1d3214	0.009594459
100	0xbd706f76	-0.058700047
101	0xbccbce55	-0.02487866
102	0xbbd40c87	-0.00647122
103	0x3d2f5477	0.04280516
104	0x3cc585a1	0.02411157
105	0xbcb104bd	-0.021608705
106	0xbc00d83f	-0.007864057
107	0xbbab6a36	-0.005231167
108	0x3d82252f	0.063547485
109	0x3d427187	0.04747155
110	0x3c06f1ed	0.008236391
111	0x3b223f4e	0.002475697
112	0xbbca7a0d	-0.0061791004
113	0xbd2553e6	-0.040363215
114	0xbd06d1b2	-0.032914825
115	0x3de0d74f	0.10978567
116	0x3d42ddfb	0.04757498
117	0x3cef7075	0.029228428
118	0xbcb7fcef	-0.022459475
119	0x3d877c09	0.06615455
120	0xbbd8e48a	-0.006619041
121	0x3bf67b3a	0.007522014
122	0xbc9a5997	-0.018841548
123	0xbd9cd2fe	-0.07657431
124	0x3c02788e	0.007963313
125	0xbd2876b5	-0.041128833
126	0x3d07bd3d	0.033139456
127	0x3d01a271	0.031649057

find.2.weight f4 [128, 128]
0	0x3d0857a9	0.033286724
1	0xb8f0aafd	-0.00011475941
2	0x3b54e224	0.0032483423
3	0xbcdbafd2	-0.026817236
4	0x3b895f8c	0.0041922983
5	0x3db65fda	0.08905001
6	0x3bcee29e	0.006313636
7	0xbe287aa0	-0.16453028
8	0x3bbfed3a	0.005857137
9	0xbcf634e2	-0.030054513
10	0x3cbadafb	0.022809496
11	0xbd03a7f1	-0.032142583
12	0x3c9e6937	0.01933728
13	0xbdc0539c	-0.09390947
14	0xbd9c61f9	-0.07635874
15	0x3d6895b0	0.056783378
16	0x3baf86da	0.0053566517
17	0xbd60cc82	-0.054882534
18	0xbcf8b07d	-0.030357594
19	0x3c844ac1	0.016148927
20	0xb9ef81b5	-0.00045682272
21	0xbc974c56	-0.018469017
22	0x3ae72e6c	0.0017637736
23	0x3d32b99c	0.043634042
24	0xbdabde3a	-0.08391996
25	0xbb2a4130	-0.0025978796
26	0xbe06cf1b	-0.13164942
27	0x3d4707dc	0.04859148
28	0x3a939e60	0.0011262409
29	0xbdd668dd	-0.1046922
30	0xbb6375df	-0.0034707708
31	0xbdc0aca8	-0.094079316
32	0xbda728ac	-0.081620544
33	0x3d0fafd7	0.035079803
34	0xbab206fd	-0.0013582405
35	0xbd9d2ce4	-0.07674578
36	0xbd8c1308	-0.068395674
37	0x3df60051	0.12011779
38	0x3d3224cb	0.04349212
39	0xbda229ac	-0.079181045
40	0xbcd2d452	-0.025736008
41	0x3b9d9e19	0.0048101065
42	0x3cb6e429	0.022325592
43	0xbb892060	-0.0041847676
44	0x3c0b0a12	0.008486288
45	0xbdde268e	-0.108471975
46	0xbdb2a38e	-0.08722602
47	0x3ac993c3	0.001537912
48	0xbd4a715e	-0.04942452
49	0xbd3dd2df	-0.04634368
50	0x3c14b4b6	0.009076288
51	0xbd84c18f	-0.06482231
52	0xbcf194a8	-0.02948983
53	0xbaf02a5c	-0.0018323171
54	0x3bbb7316	0.0057205064
55	0x3ae27390	0.0017276872
56	0x3d02a80f	0.031898554
57	0xbbed461d	-0.007241024
58	0x3ccddbfb	0.025129309
59	0x39d2950e	0.00040165376
60	0x3afb2a84	0.0019162451
61	0x3da480df	0.08032393
62	0x3c19daa8	0.009390511
63	0xbd4ed968	-0.050500304
64	0xbc83c06a	-0.016082961
65	0x3d1b7442	0.03795267
66	0x3db51216	0.0884134
67	0xbd9127f4	-0.070876986
68	0xbb082afa	-0.002077757
69	0xbd854729	-0.06507713
70	0x3bba120e	0.005678422
71	0xbd5163a5	-0.05112042
72	0xbba36c0a	-0.0049872445
73	0x3da0a490	0.07843888
74	0xbd3951dd	-0.045244087
75	0xbd6cba9c	-0.057795152
76	0xbd3fff1e	-0.046874158
77	0x3cd6d15f	0.026222883
78	0x3c58e4f8	0.013238184
79	0x3b638937	0.0034719238
80	0xbd984387	-0.07434755
81	0xbd8141eb	-0.06311401
82	0xbd007646	-0.031362794
83	0xbd676865	-0.056496043
84	0x3ca96cb0	0.020681709
85	0xbd83a932	-0.06428756
86	0x3d2a8857	0.04163393
87	0x3c5fdeb7	0.013663939
88	0x3c48eb22	0.012263091
89	0x3d84b81e	0.0648043
90	0xbd0b1d26	-0.033963345
91	0xbce665a0	-0.02812463
92	0x3e0a663b	0.1351556
93	0x3b4eaa25	0.003153452
94	0xbba07d3e	-0.0048977425
95	0x3c347a41	0.011015476
96	0x3cc52f45	0.024070391
97	0x3d387b1a	0.045039274
98	0xbca680a0	-0.020325005
99	0xbdaee74b	-0.085402094
100	0x3c0d2220	0.008614093
101	0xbd15c56a	-0.03656522
102	0xb96dcdc0	-0.00022678729
103	0x3c36a88e	0.011148585
104	0x3e0e9368	0.13923419
105	0x3d789b66	0.060695074
106	0xbabe223b	-0.0014506051
107	0x3cb536d9	0.02212088
108	0xbe1940e9	-0.14966168
109	0xbd434dd4	-0.047681645
110	0xbd84818e	-0.06470023
111	0x3bdb499e	0.0066921255
112	0xbe0b71a1	-0.13617565
113	0xbd271d15	-0.04079922
114	0x3ccde464	0.02513332
115	0xbe530d94	-0.20610648
116	0xbd749a28	-0.059717327
117	0x3ce0add0	0.02742663
118	0x3b40d513	0.0029423877
119	0xbd8e9d26	-0.069635674
120	0x3c045ecd	0.008079243
121	0x3e177695	0.14791329
122	0xbb8b963e	-0.0042598536
123	0xbc162e0a	-0.00916625
124	0xbbc7f4e5	-0.0061021917
125	0xbcec9cd4	-0.028883375
126	0xbd92c4b3	-0.07166424
127	0xbe08b311	-0.13349558
128	0x3d96cf7a	0.07363792
129	0xbd04692e	-0.03232687
130	0x3b8050e7	0.0039158943
131	0xbb6d4e33	-0.003620994
132	0xbd6e2cb0	-0.058148086
133	0xbd8ec313	-0.06970801
134	0x3b4d8f8b	0.0031366076
135	0xbbd2fdc7	-0.006438944
136	0xbc359273	-0.0110822795
137	0x3b4c672e	0.003118943
138	0xbd2c550b	-0.04207329
139	0xbcaaf9b2	-0.020871017
140	0x3d022f90	0.03178364
141	0xbc3ce260	-0.011528581
142	0xbd6be4de	-0.05759131
143	0x3cfdab3a	0.030965436
144	0xbca8bb18	-0.020597026
145	0xbdd07211	-0.101780064
146	0xbdeab145	-0.11459593
147	0xbc82429c	-0.015900902
148	0xbc5441cf	-0.012955143
149	0x3b20cf6d	0.0024537698
150	0xbd5be3a1	-0.05368388
151	0x3d4663b0	0.048434913
152	0xbd9803ed	-0.07422624
153	0x3bf78108	0.0075532235
154	0xbd4ec9ad	-0.0504853
155	0x3cab3c21	0.020902695
156	0x39e345c1	0.00043348785
157	0xbdab7eba	-0.083737805
158	0x3b7dfd66	0.0038755774
159	0xbd818d84	-0.0632582
160	0xbc06207d	-0.008186457
161	0x3d5aa751	0.05338222
162	0x3cafefbc	0.021476619
163	0xbcefc41c	-0.029268317
164	0x3bd905f5	0.0066230246
165	0x3d5d1cbf	0.053982493
166	0x3d8a2269	0.067448445
167	0xbc862004	-0.016372688
168	0xbbb4f1ee	-0.0055220043
169	0x3b04cfec	0.0020265533
170	0xbbe51090	-0.0069905
171	0x3b12ad9f	0.0022381318
172	0x3c45d287	0.012074119
173	0xbd812b25	-0.06307057
174	0xbd64340c	-0.0557137
175	0x3b146ea5	0.0022648957
176	0x3c802637	0.015643222
177	0xbd5911c4	-0.05299546
178	0xbc53c609	-0.012925633
179	0xbcbe0ed0	-0.023200423
180	0xbce81984	-0.02833248
181	0x3b80d13c	0.0039311927
182	0xbbd9f4d1	-0.006651499
183	0x3cce1f4f	0.025161413
184	0xbd4ed4e1	-0.050495986
185	0xbd981781	-0.07426358
186	0x3c97065e	0.018435653
187	0x3b2151c9	0.0024615398
188	0x3bb34d10	0.005471833
189	0x3cdbd7eb	0.026836356
190	0xbc73f6a5	-0.014890348
191	0xbb1d6f12	-0.0024022502
192	0x3bb5f307	0.0055526528
193	0x3bca761d	0.006178631
194	0x3d20d386	0.039264224
195	0xbd1d04f1	-0.03833479
196	0x3b36f42c	0.0027916534
197	0xbcbcfbf4	-0.02306936
198	0x3b01b091	0.001978908
199	0xbd01a33f	-0.031649824
200	0x3cc62140	0.024185777
201	0x3d8a4126	0.06750707
202	0xbd977f8e	-0.07397376
203	0xbc7874ec	-0.015164595
204	0x3cfad184	0.030617483
205	0xbd2f5c1b	-0.042812448
206	0x3ce9fe19	0.028563546
207	0x394eda33	0.00019726976
208	0xbd773584	-0.06035377
209	0xbc6a7084	-0.014309052
210	0x3db57429	0.088600464
211	0x3d0b5f42	0.03402639
212	0x3d4f3061	0.050583247
213	0xbccecd5b	-0.025244405
214	0x3d7a1076	0.061050855
215	0x3ceaee74	0.028678156
216	0x3ce61688	0.028086916
217	0xbd872df3	-0.06600561
218	0x3d1dacc6	0.038494848
219	0xbd0325bc	-0.03201841
220	0x3d7293ac	0.059222862
221	0x3bc2b7d1	0.005942323
222	0x3aa57310	0.0012622792
223	0x3d6bedb1	0.057599727
224	0x3ccf84c5	0.025331864
225	0x3d8e13ae	0.06937347
226	0xbd0c8bce	-0.034313016
227	0xbd1191c9	-0.035539422
228	0x3bd3ac51	0.0064597507
229	0xbd849cf8	-0.06475252
230	0x3bcc770b	0.006239777
231	0xbdabfab8	-0.0839743
232	0x3d896e1a	0.06710453
233	0x3d4e9f90	0.05044514
234	0xbbd68b64	-0.0065473784
235	0x3c8b464e	0.017001297
236	0xbc2a28a0	-0.010385662
237	0xbd9fc7ea	-0.078018025
238	0x3cc51d6e	0.024061885
239	0x3b5b3997	0.0033451074
240	0xbcb5db7e	-0.022199389
241	0xbcc2b31a	-0.023767043
242	0xbd096dbf	-0.033551928
243	0xbc81c370	-0.015840262
244	0xbda51ba0	-0.0806191
245	0xbc58ea24	-0.013239417
246	0x3b283c45	0.002567069
247	0x3d173243	0.036913168
248	0x3c7d914e	0.015476538
249	0x3db6c496	0.089242145
250	0x3b01df05	0.0019816768
251	0x3914d719	0.0001419451
252	0x3d76c603	0.060247432
253	0x3c2022fc	0.009773966
254	0x3c9df5e3	0.019282287
255	0xbd8bfa3c	-0.06834838

find.2.bias f4 [128]
0	0x3cbd863d	0.023135299
1	0x3c3e5847	0.011617727
2	0xbd8b3bcb	-0.06798514
3	0xbd457d8d	-0.048215438
4	0x3dba84c4	0.09107354
5	0xbde2638a	-0.11054142
6	0x3b928f59	0.004472655
7	0xbd21398d	-0.039361525
8	0x3cbabe46	0.022795808
9	0xba49b967	-0.00076951686
10	0x3bff3413	0.00778819
11	0xbcfc6ada	-0.03081267
12	0xbd08c36b	-0.03338949
13	0xbcc7eaab	-0.02440389
14	0x3db7b318	0.08969706
15	0x3c32e7ec	0.010919552
16	0xbdd1fde7	-0.10253506
17	0x3d780da2	0.060559876
18	0xbd8c6785	-0.06855682
19	0xbc69bff1	-0.014266954
20	0xbd709f6b	-0.058745783
21	0xbc094b63	-0.00837979
22	0xbd0bf112	-0.03416545
23	0xbc4298aa	-0.011877218
24	0xbd0fd7e9	-0.035118017
25	0xbc5d703a	-0.013515526
26	0xbd274144	-0.040833727
27	0xbcbdb4fc	-0.02315759
28	0x3c5f4372	0.01362692
29	0xbd09791e	-0.033562772
30	0xbd589079	-0.052872155
31	0x3d20c049	0.039245877
32	0x3ca4a375	0.020097474
33	0x3d22c572	0.03973908
34	0x3da0ef16	0.07858102
35	0xbd842d56	-0.0645396
36	0x3caa3b5f	0.020780263
37	0xbd1529d4	-0.036416844
38	0x3c1f5b6f	0.009726389
39	0x3d08aebb	0.03336976
40	0xbd344c38	-0.044018
41	0xbd897c65	-0.067131795
42	0xbd17504b	-0.036941808
43	0xbd9edfb0	-0.07757509
44	0x3d5705aa	0.052495636
45	0xbd643cdf	-0.055722114
46	0xbce4db02	-0.027936462
47	0xbe2951ec	-0.16535157
48	0xbd55459e	-0.052068345
49	0x3c6f29b7	0.014597348
50	0xbc867e1e	-0.01641756
51	0xbdcee8c1	-0.10102988
52	0x3d2c13df	0.042011138
53	0xbde105b8	-0.10987419
54	0xbd83d394	-0.0643684
55	0xbb351c93	-0.002763544
56	0xbd356940	-0.044289827
57	0xbd068f0e	-0.03285127
58	0xbc80619c	-0.015671544
59	0xbd785009	-0.060623202
60	0xbd42eb23	-0.047587525
61	0xbc370feb	-0.011173229
62	0xbcdbfec8	-0.026854888
63	0x3d11f20b	0.03563122
64	0xbd0dc962	-0.03461588
65	0xbd91f4cc	-0.071267694
66	0x3d292e9d	0.04130422
67	0xbd00830e	-0.031374983
68	0xbd0fe205	-0.03512766
69	0xbdbbaeb8	-0.09164184
70	0x3c9cee97	0.019156737
71	0xbd300b59	-0.042979572
72	0xbd3b9c89	-0.04580358
73	0x3c094fab	0.008380811
74	0xbc9ee00b	-0.019393941
75	0x3d782bde	0.06058871
76	0x3d7734fd	0.060353268
77	0xbd9b1cc6	-0.075738475
78	0xbd49f0c9	-0.049301896
79	0xbdb81a15	-0.0898935
80	0xbd8b3b87	-0.06798463
81	0xbdb50d47	-0.08840423
82	0xbc8eb702	-0.01742125
83	0xbbca3093	-0.0061703413
84	0x3c96f864	0.018428989
85	0xbcbe058b	-0.023196002
86	0x3cc43a1d	0.023953492
87	0xbd7dc3bb	-0.06195424
88	0xbd71041b	-0.058841806
89	0xbc854164	-0.016266532
90	0xbd0fbd5c	-0.035092697
91	0x3c306764	0.010766838
92	0xbc8a487d	-0.016880268
93	0xbd910f33	-0.07082977
94	0x3d2ae94c	0.041726395
95	0xbd2f5269	-0.0428032
96	0xbd4e5ab9	-0.05037949
97	0x3cc43158	0.02394931
98	0x3c9bcc55	0.019018332
99	0x3d5da45b	0.05411182
100	0x3cca82cc	0.024720572
101	0xbd29085c	-0.041267738
102	0xbe08303c	-0.1329965
103	0xbd5c1c46	-0.0537379
104	0xbd8778f0	-0.06614864
105	0x3c30edc9	0.01079888
106	0x3d7c8811	0.0616532
107	0x3d435d3e	0.047696345
108	0xbb2c28d9	-0.0026269464
109	0xbcfb32d5	-0.030663887
110	0xbcd595e5	-0.026072452
111	0xbd87c4aa	-0.066293076
112	0x3c8ce393	0.01719836
113	0x3cf76cfb	0.030203333
114	0xbdb5b250	-0.08871901
115	0x3d56c7cf	0.052436646
116	0x3dcf0fc9	0.10110433
117	0xbd8b4ee3	-0.06802156
118	0xbc015527	-0.007893837
119	0x3d169126	0.036759518
120	0xbd41f068	-0.04734841
121	0xbd21cb0e	-0.03950029
122	0xbc8477ff	-0.0161705
123	0xbd122ee4	-0.03568925
124	0x3c22121f	0.009892016
125	0xbc047cce	-0.008086396
126	0x3b7a62d3	0.0038205876
127	0x3afb2c4c	0.0019162982

find.4.weight f4 [64, 128]
0	0xbda29cfa	-0.07940097
1	0xbda101a2	-0.078616396
2	0x3be48f35	0.0069750794
3	0x3caff92c	0.02148112
4	0x3ce20ce9	0.027594047
5	0x3e4441d0	0.1916573
6	0xbd1c6c5e	-0.038189285
7	0x3c38c50c	0.011277448
8	0xbc93f812	-0.018062625
9	0xbd045bbf	-0.03231406
10	0xbe0227fc	-0.12710565
11	0xbdc80e37	-0.09768336
12	0x3bb4457e	0.005501448
13	0x3d0ec96c	0.03486006
14	0xbda78ff7	-0.08181756
15	0x3d5c7cbc	0.053829893
16	0xbc1d5a5e	-0.009604065
17	0x3cc6ed71	0.024283143
18	0xbd4c32ea	-0.049853243
19	0x3cc3ea26	0.023915362
20	0xbdb0aa8b	-0.086262785
21	0x3da3e9db	0.08003589
22	0x3c187ad5	0.009306629
23	0x3dfb02cd	0.122563936
24	0xbbd7f10f	-0.0065900157
25	0x3d5ad29e	0.053423516
26	0x3be4cdd2	0.0069825435
27	0x3d8307e5	0.0639799
28	0x3a8e8303	0.0010872785
29	0x3af744f1	0.0018865151
30	0x3c75dbdb	0.015006031
31	0xbdd40c7f	-0.10353946
32	0x3dba2715	0.090894856
33	0xbc0fadd5	-0.008769472
34	0x3dda3bb7	0.10655921
35	0xbd2f8ebb	-0.042860728
36	0xbd580576	-0.052739583
37	0xbb531b56	-0.0032212338
38	0x3d029351	0.031878773
39	0xbbdaa0c8	-0.0066719986
40	0x3d804bf5	0.06264488
41	0xbb4c22d2	-0.0031148684
42	0x3ba5f33e	0.005064397
43	0xbcec8a6b	-0.028874597
44	0x3ce72bbb	0.028219094
45	0x3baeb45f	0.0053315605
46	0xbc6e0a6a	-0.01452885
47	0x3d5b185a	0.05349002
48	0xbca0aca8	-0.019613579
49	0xbc5e2516	-0.013558647
50	0xbdafd055	-0.08584658
51	0xbcac63eb	-0.021043738
52	0x3c2d5e5c	0.010581579
53	0xbc4c7575	-0.012479176
54	0xbbc2a06f	-0.0059395353
55	0xbc6ca1a8	-0.014442839
56	0x3c2d3f64	0.0105741955
57	0x3dc992d0	0.098424554
58	0xbda6ba7c	-0.08141038
59	0xbb50fcea	-0.003188903
60	0xbd9d3503	-0.07676127
61	0xbd512a55	-0.05106576
62	0xbb17ff52	-0.0023192954
63	0xbb235ea5	-0.0024928239
64	0x3af9d2d5	0.0019060025
65	0x3dcdc734	0.100477606
66	0x3d508153	0.050904583
67	0xbdb4cee9	-0.088285275
68	0x3d83528d	0.0641223
69	0x3d2c145f	0.042011615
70	0x3db9b635	0.09067956
71	0xbd097924	-0.033562794
72	0xbc876590	-0.016527921
73	0x3dc1a8ef	0.0945605
74	0x3c459d8c	0.012061488
75	0x3c69d66b	0.014272313
76	0x3dc2c7be	0.09510754
77	0xba8b7a3c	-0.0010641287
78	0xbd4630c1	-0.04838634
79	0x3bf30a35	0.0074169883
80	0xbb805779	-0.0039166776
81	0x3df41462	0.1191795
82	0xbceffccc	-0.029295348
83	0x398eda26	0.00027246884
84	0xbd9dd41d	-0.07706473
85	0x3d2c5e78	0.04208228
86	0x3db2ba44	0.087269336
87	0xbcd0665a	-0.02543943
88	0x3d7190d2	0.058976002
89	0x3a040d10	0.0005037347
90	0xbd811ef2	-0.063047305
91	0x3d98c501	0.074594505
92	0x3c73dd6b	0.014884333
93	0x3d47a24c	0.048738763
94	0x3a173680	0.0005768314
95	0x3d7a71e1	0.06114376
96	0xbc06f7c1	-0.00823778
97	0xbd5553ef	-0.052082
98	0x3df690b1	0.120393164
99	0x3cc9d557	0.024637861
100	0xbd49cc90	-0.04926735
101	0xbb5aef9d	-0.003340698
102	0x3cd0937c	0.025460951
103	0x3ae16756	0.0017196934
104	0xbc1c03e0	-0.009522408
105	0x3dc98842	0.09840442
106	0x3c9c1ca4	0.019056626
107	0xbd58265c	-0.052770957
108	0x3c350e15	0.011050721
109	0x3c19310f	0.009350075
110	0x3c2c9ff5	0.010536184
111	0xbccbe5f0	-0.024889916
112	0x3d51b87e	0.051201336
113	0x3c8961aa	0.016770203
114	0xbbdbe25f	-0.006710335
115	0xbc4ea193	-0.0126117645
116	0x369f9ae0	4.756599e-06
117	0x3d4f1f48	0.05056694
118	0xbb58edcd	-0.0033100725
119	0xbcad171d	-0.021129185
120	0xba9a2731	-0.0011760948
121	0xbd8d90b8	-0.069123685
122	0xbc830df9	-0.015997874
123	0xbd947856	-0.07249515
124	0xbe09c2b1	-0.13453175
125	0x3a796d49	0.0009514881
126	0x3b8e08b8	0.0043345354
127	0xbc95e889	-0.018299358
128	0x3d4713b3	0.04860277
129	0x3d8d6154	0.069033295
130	0x3a2e83fb	0.000665724
131	0xbd391d68	-0.04519406
132	0x3dbbf758	0.091780365
133	0x3d10eb7a	0.035380818
134	0x3bd988ae	0.006638608
135	0x3b0ad63f	0.002118483
136	0xbdab6124	-0.083681375
137	0xbe13bad1	-0.14426734
138	0x3d00459a	0.031316377
139	0x3df3513b	0.11880728
140	0x38c09d2f	9.184551e-05
141	0x3b0181a6	0.0019761114
142	0x3d6d0dc0	0.05787444
143	0x3c8b6973	0.017018056
144	0xbce6efe5	-0.028190563
145	0x3d909877	0.0706033
146	0x3d1115e3	0.035421263
147	0x3d48f044	0.04905726
148	0x3dfc5d6f	0.123225085
149	0x3d6a6ef0	0.057234704
150	0xbd82374b	-0.063582025
151	0xbbd7ca57	-0.0065854
152	0x3ad58393	0.0016289823
153	0xbc5142aa	-0.012772242
154	0xbdde510c	-0.10855302
155	0xbc899137	-0.016792877
156	0x3da69615	0.081340946
157	0xbb32dc62	-0.0027292003
158	0x3984c6bb	0.00025325068
159	0xbbcb77a5	-0.006209331
160	0xbd1f207f	-0.03884935
161	0x3d1e5b9c	0.038661584
162	0x3cd6b3a3	0.026208704
163	0x3a745513	0.00093205384
164	0x3d14dbdc	0.036342487
165	0xbc8ccc3b	-0.017187228
166	0xbdde5683	-0.108563446
167	0x3dca625a	0.0988204
168	0xbc261f67	-0.010139323
169	0xbd5b7f96	-0.053588472
170	0xbccbc1b7	-0.024872644
171	0x3d44f0c1	0.048081163
172	0xbd8def23	-0.06930377
173	0x3ce7279c	0.02821713
174	0x3c1cf33f	0.009579479
175	0xbb9575a9	-0.0045611453
176	0x3d72daa1	0.059290532
177	0x3db8754b	0.09006747
178	0x3d554042	0.052063234
179	0xbc897603	-0.016779905
180	0xbce4b4fa	-0.027918328
181	0x3d0bab6a	0.03409902
182	0x3ac06228	0.001467769
183	0xbb16e42f	-0.0023024192
184	0xbd00b62f	-0.031423744
185	0x3c7c55f6	0.015401354
186	0x3dd5e038	0.10443157
187	0x3ce4319c	0.027855687
188	0x3df83e9a	0.12121315
189	0xbb8f16dd	-0.004366739
190	0xb8a02560	-7.636356e-05
191	0xbc5d2fb3	-0.013500142
192	0x3c21e171	0.00988041
193	0xbd84e8b5	-0.06489698
194	0x3d22fa60	0.039789557
195	0x3de27a3f	0.11058473
196	0xbd808ecc	-0.06277236
197	0x3b6c12fa	0.0036022053
198	0xbd552ffb	-0.05204771
199	0x3dd91169	0.10599024
200	0xbd6c1205	-0.057634372
201	0xbd081b53	-0.033229183
202	0xbc8885ae	-0.016665306
203	0x3cc9e326	0.024644446
204	0xbc423735	-0.011853983
205	0x3dce7c2a	0.10082276
206	0x3c7ed493	0.015553611
207	0xbb49bcd0	-0.0030782707
208	0x3c95d305	0.018289099
209	0x3d8415cf	0.06449472
210	0x3d60162d	0.05470865
211	0xb9370689	-0.00017454675
212	0x3aa28a4a	0.0012400832
213	0xbcc5ffa8	-0.024169758
214	0xbdbfd637	-0.0936703
215	0x3c0553c3	0.008137646
216	0xbd93c79b	-0.07215806
217	0x380d428c	3.3678996e-05
218	0x3d4119fc	0.04714392
219	0x3ad1f691	0.0016018917
220	0xbdab87aa	-0.08375485
221	0xbc445923	-0.0119841425
222	0x3d5b5a55	0.053552944
223	0xbd500c11	-0.050792757
224	0x3dba0f5f	0.09084963
225	0xbcc5882f	-0.024112789
226	0x3cfbf1c0	0.030754924
227	0x3c504666	0.012712097
228	0x3dce8d34	0.10085526
229	0x3ca8d77b	0.020610562
230	0x3d366b9e	0.044536225
231	0x39852527	0.00025395417
232	0x3b14a91f	0.0022683812
233	0xbcd72151	-0.026261004
234	0x3cbb2bb9	0.022847997
235	0x3d4b250a	0.04959587
236	0xbbbddc0c	-0.005794054
237	0xbab5eb64	-0.0013879356
238	0x3ce18f7c	0.027534239
239	0x3ce11dd8	0.02748005
240	0x3cb44fec	0.022010766
241	0xbdcd4923	-0.10023715
242	0x3b38a1ac	0.0028172536
243	0xbd6856bf	-0.056723353
244	0xbc73b65c	-0.014875021
245	0xbcc102bd	-0.023560876
246	0x3b4298c8	0.0029693116
247	0xbc096561	-0.008385987
248	0x3c16ffb5	0.009216239
249	0x3d796415	0.06088646
250	0xb9e74f59	-0.00044118872
251	0x3ac6bba6	0.0015162125
252	0x3de14d97	0.11001127
253	0xbcb6d80d	-0.022319818
254	0x3d525ee8	0.05136004
255	0x3c713dac	0.014724176

find.4.bias f4 [64]
0	0x3d9504a9	0.072762795
1	0x3c3bfb3a	0.011473471
2	0x3b966921	0.004590169
3	0xbdb02ccc	-0.08602294
4	0xbd0a766e	-0.03380435
5	0xbe10655d	-0.14101167
6	0xba409580	-0.0007346496
7	0xbc95fe25	-0.018309662
8	0xbd6d8189	-0.057984862
9	0xbc2f3b37	-0.01069527
10	0xbc5d1170	-0.013492927
11	0x3d5e7f56	0.054320656
12	0x3cd1b421	0.025598587
13	0xbccab248	-0.024743214
14	0xbbad0b68	-0.0052809007
15	0xbd54c991	-0.05195004
16	0x3d020432	0.031742282
17	0x3d9b5b43	0.07585766
18	0x3e068546	0.13136777
19	0xbba1aa71	-0.0049336483
20	0x3d43828c	0.04773192
21	0xbd3554d0	-0.044270337
22	0xbe0d1734	-0.13778383
23	0x3da2bc8c	0.07946119
24	0x3cd97e89	0.026549594
25	0xbdd86f97	-0.10568159
26	0x3c947b26	0.018125128
27	0x3d272201	0.040803913
28	0xbda93a9c	-0.08263132
29	0xbe19c269	-0.15015568
30	0xbd549a42	-0.051904924
31	0xbd635af0	-0.055506647
32	0x3d227cec	0.039669916
33	0x3d8e9484	0.06961921
34	0xbdccab9d	-0.0999367
35	0x3adb289a	0.0016720474
36	0x3d139386	0.03602936
37	0x3c8f065b	0.017459085
38	0xbd3c701f	-0.046005365
39	0x3d8379c3	0.064197086
40	0x3d3660d6	0.044525944
41	0x3d6e27df	0.058143493
42	0xba0d72f8	-0.0005395855
43	0xbc86c67c	-0.016452067
44	0x3dc29ab1	0.09502161
45	0xbd20e4e3	-0.039280783
46	0xbd1a8d9f	-0.037732717
47	0xbc5baa21	-0.013407261
48	0xbc81ecea	-0.01586004
49	0xbccb6871	-0.024830075
50	0xbc9a0c23	-0.018804615
51	0xbcad8f2e	-0.021186437
52	0x3d9efc06	0.077629134
53	0x3c01f3d0	0.007931665
54	0xbd28f6f7	-0.04125115
55	0x3da77926	0.08177404
56	0xbc58a9a5	-0.01322404
57	0x3b310dbf	0.002701625
58	0x3d236d78	0.03989932
59	0x3dc8773a	0.09788366
60	0x3d282635	0.041052062
61	0x3d9145b4	0.07093373
62	0xbd35f5de	-0.04442393
63	0x3cd06fd8	0.025443956

find.6.weight f4 [2, 64]
0	0x3db7e61a	0.08979435
1	0xbd12ea75	-0.035868127
2	0x3cd4faa8	0.025998428
3	0x3ca0fc07	0.019651426
4	0x3d8f17e9	0.069869824
5	0xbe02351d	-0.12715574
6	0xbe694865	-0.22781523
7	0xba0bb822	-0.0005329867
8	0x3dbb3fbd	0.091430165
9	0xbd6a929a	-0.057268716
10	0xbb730d66	-0.0037086844
11	0x3d8678ba	0.065659955
12	0x3dac6444	0.08417562
13	0xbda7240e	-0.08161174
14	0x3d33a9c2	0.043863066
15	0xbd21ea7e	-0.03953027
16	0xbd918117	-0.071047
17	0x3e4c4b7c	0.1995067
18	0x3d65f736	0.05614396
19	0x3dff16a5	0.12455491
20	0x3e1de376	0.154188
21	0xbd0dd686	-0.034628414
22	0x3c8893bc	0.016672008
23	0xbe020b3b	-0.12699597
24	0xbbb45796	-0.005503605
25	0x3df4d412	0.11954512
26	0x3d8bee32	0.068325415
27	0xbdabbc8b	-0.08385571
28	0xb9b0d722	-0.00033729622
29	0xbcfd1675	-0.030894497
30	0x3da0f712	0.07859625
31	0xbb864332	-0.004097366
32	0x3dd4eeb9	0.10397095
33	0xbe0d1c12	-0.13780239
34	0xbd121693	-0.03566606
35	0xbd1a7a59	-0.037714336
36	0xbd752d84	-0.05985786
37	0x3de5261d	0.1118891
38	0xbddacfa7	-0.10684138
39	0x3e0f2706	0.1397973
40	0xbdc85627	-0.09782057
41	0xbddaa1d4	-0.106753975
42	0xbc0cdf22	-0.008598121
43	0xbc129a2c	-0.00894789
44	0x3d8cd7a5	0.068770684
45	0xbcdd0a77	-0.02698253
46	0xbda2fa3a	-0.07957883
47	0x3da39176	0.07986729
48	0xbd8377b7	-0.06419318
49	0x3e3c3363	0.18378977
50	0x3ca8e8dd	0.02061885
51	0xbc1d6826	-0.00960735
52	0xbdec823c	-0.11548278
53	0xbb30ed04	-0.002699674
54	0x3c3ce40a	0.011528978
55	0x3cf5f42a	0.030023653
56	0x3e286d1c	0.16447872
57	0x3b7e9643	0.0038846887
58	0xbd0c0938	-0.03418848
59	0xbdbdb2aa	-0.09262593
60	0xb941292a	-0.00018421249
61	0xbd68946f	-0.056782182
62	0x3c24de75	0.0100628035
63	0x3de1c9ed	0.110248424
64	0xbe3cef7b	-0.1845073
65	0x3dc38b2f	0.095480315
66	0x3e2bf306	0.16791925
67	0x3db7c8a2	0.089738145
68	0xbe4313cb	-0.19050519
69	0xbbaa4655	-0.0051963725
70	0x3e107aa4	0.14109284
71	0x3ab53bc1	0.0013827012
72	0xbe75be3c	-0.2399835
73	0x3dda9f15	0.10674874
74	0xbc8b149d	-0.016977603
75	0xbe8078c8	-0.2509215
76	0xbe5de756	-0.21670279
77	0xbbca8ce3	-0.006181346
78	0x3e35668c	0.177149
79	0x3cff1646	0.03113855
80	0x3d6f5d98	0.058438867
81	0x3ceaabb9	0.028646337
82	0x3d84239f	0.06452107
83	0xbd86cb27	-0.06581717
84	0x3d7ca59e	0.061681382
85	0x3d93ba00	0.07213211
86	0xbb36ff9c	-0.002792335
87	0x39e1807a	0.00043011067
88	0xbe8d43d7	-0.2759082
89	0x3d795acf	0.060877617
90	0xbe5964fa	-0.21229926
91	0x3d5fd1f6	0.054643594
92	0xbc7c3f80	-0.015395999
93	0x3e4b5c54	0.19859439
94	0xbd98b506	-0.074564025
95	0xbe7dbf25	-0.24779947
96	0xbe14fe84	-0.14550215
97	0x3e226c89	0.15861715
98	0x3e124816	0.14285311
99	0x3c83b8c0	0.016079307
100	0x3dcadd90	0.09905541
101	0x3e458273	0.19288044
102	0x3d9f3915	0.077745594
103	0xbc7f799e	-0.015592961
104	0xbe50074a	-0.2031528
105	0x3e10ee82	0.14153484
106	0x3a94ea4d	0.0011361331
107	0xbe798dec	-0.24370545
108	0x3d9530a1	0.07284666
109	0x3c991ed9	0.018691467
110	0xbe64ca6e	-0.22342846
111	0xbe45c26c	-0.19312447
112	0xbe4392ce	-0.1909897
113	0x3e5d4f69	0.21612324
114	0x3cb54ad0	0.0221304
115	0x3cf718bc	0.030163161
116	0xbe5042ce	-0.20337984
117	0xbe1379c6	-0.14401922
118	0x3d3f6f4e	0.046737008
119	0x3e056497	0.13026653
120	0xbae14308	-0.0017186115
121	0xbe17c17a	-0.14819899
122	0xbe614e18	-0.22002447
123	0xbd568e52	-0.05238182
124	0x3c8c0ad8	0.017095014
125	0xbdda2a28	-0.10652572
126	0xbe8e5185	-0.2779657
127	0xbe45bd59	-0.19310512

find.6.bias f4 [2]
0	0x3db33497	0.08750265
1	0xbcb43c13	-0.022001302

grapher.0.weight.weight f4 [5, 1]
0	0xb51bf5cd	-5.8099687e-07
1	0xb8807d2f	-6.126833e-05
2	0x350d3b2d	5.2612705e-07
3	0xb65ab2ef	-3.2588684e-06
4	0xafcbb830	-3.7056358e-10

grapher.0.weight.bias f4 [5]
0	0x380e6935	3.395342e-05
1	0xbaac23b0	-0.0013133194
2	0xb8450f26	-4.6982568e-05
3	0xb99f011c	-0.0003032767
4	0x33df4087	1.0395984e-07

grapher.0.reduce.weight f4 [5, 1]
0	0x9a3ed761	-3.946506e-23
1	0x3417ec61	1.4148965e-07
2	0xb6baafc7	-5.563695e-06
3	0xb38482ea	-6.170542e-08
4	0x29e2590b	1.00518626e-13

grapher.0.reduce.bias f4 [5]
0	0x9a102f34	-2.9816632e-23
1	0x3629826f	2.5258885e-06
2	0xb6b19604	-5.292475e-06
3	0xb5470509	-7.4140604e-07
4	0x3261137d	1.3101155e-08

grapher.0.gru.weight_ih f4 [15, 5]
0	0x20512769	1.7716028e-19
1	0xa2e9b6e2	-6.334841e-18
2	0xa0b58cf2	-3.0755862e-19
3	0xa039d349	-1.5740018e-19
4	0x1aade600	7.192271e-23
5	0x1e429826	1.0301738e-20
6	0xa2a1d04d	-4.3859684e-18
7	0x9ec2d988	-2.0630518e-20
8	0xa207274b	-1.8316713e-18
9	0x1c7d0dab	8.3728343e-22
10	0x1ed80054	2.2870025e-20
11	0xa1cfd85e	-1.4084138e-18
12	0x9ea2fc6b	-1.7256815e-20
13	0xa197fb2d	-1.0298644e-18
14	0x1b2c5508	1.4254982e-22
15	0xa0ad4bec	-2.935758e-19
16	0x236a06bc	1.26865915e-17
17	0x2177de21	8.398084e-19
18	0x21a2181a	1.0983927e-18
19	0x1a14b3e0	3.0750985e-23
20	0x1c452670	6.523151e-22
21	0xa20fe092	-1.9499e-18
22	0x9e1c532c	-8.275771e-21
23	0xa20fc4fd	-1.9484399e-18
24	0x1c1daa8d	5.2167374e-22
25	0x36b3c193	5.3571507e-06
26	0xb8fbc3c5	-0.000120050776
27	0xb82a47ca	-4.0598017e-05
28	0xb3efaafc	-1.11604066e-07
29	0x310222dc	1.8937305e-09
30	0xb327012e	-3.888379e-08
31	0x3410f5a4	1.3500409e-07
32	0x3538fa43	6.890952e-07
33	0x2d582217	1.2285748e-11
34	0xa9b0a4d6	-7.8445646e-14
35	0xb38b5593	-6.488258e-08
36	0x34a1f1d0	3.016453e-07
37	0x3572c712	9.044171e-07
38	0x2d9a9096	1.7571982e-11
39	0xa980366f	-5.6937846e-14
40	0x35f51ecf	1.8262889e-06
41	0xb673c3e4	-3.6323845e-06
42	0xb7a3f4c1	-1.9545087e-05
43	0xb101eaca	-1.8905433e-09
44	0x2eeb67ee	1.07050244e-10
45	0xb2ca6265	-2.356064e-08
46	0x33389766	4.2978535e-08
47	0x344f2107	1.9290393e-07
48	0x2d5fa97f	1.2713718e-11
49	0xabc4c346	-1.3980837e-12
50	0x3013b8db	5.3740984e-10
51	0x32f883f1	2.8931e-08
52	0xadf1dd85	-2.7496902e-11
53	0x31fbe1a1	7.3307125e-09
54	0xac66d538	-3.2803326e-12
55	0x32cfb445	2.4179949e-08
56	0x3195e6d5	4.3627133e-09
57	0xb39669d5	-7.00417e-08
58	0x32003a3c	7.463822e-09
59	0x2ca8744c	4.7877587e-12
60	0x3c5041e9	0.012711027
61	0xbb85375c	-0.0040654372
62	0xbcdfcbe9	-0.027318912
63	0xb927f743	-0.00016018473
64	0x395f285a	0.0002128197
65	0x3b07b22b	0.0020705562
66	0x3b603559	0.0034211485
67	0xbc125f33	-0.00893383
68	0x38dd840b	0.00010562696
69	0x383380c7	4.279686e-05
70	0x38873541	6.447221e-05
71	0xb4c4d699	-3.6663985e-07
72	0x360f5f1a	2.1364017e-06
73	0x30e1b20a	1.6421506e-09
74	0x35ea1e4a	1.7443174e-06

grapher.0.gru.weight_hh f4 [15, 5]
0	0x82e34e5e	-3.3399633e-37
1	0x9de78182	-6.12791e-21
2	0xa28408b1	-3.5787874e-18
3	0xa1bd3110	-1.2820125e-18
4	0x9ac3dbd1	-8.100524e-23
5	0x033537e2	5.325527e-37
6	0x9fb0c515	-7.4864944e-20
7	0xa4077e47	-2.938042e-17
8	0x21bfe093	1.3002108e-18
9	0x9aa6c928	-6.8980976e-23
10	0x8251a864	-1.5403221e-37
11	0x9fc7caa0	-8.461499e-20
12	0xa378f240	-1.3495405e-17
13	0x21a9a038	1.1494295e-18
14	0x99c9f42c	-2.0881533e-23
15	0x83ae7f5f	-1.0256044e-36
16	0x1f488eac	4.2469663e-20
17	0x24857c16	5.7889765e-17
18	0x21693b2c	7.9021784e-19
19	0x1c28241c	5.5633207e-22
20	0x82c331a9	-2.8681178e-37
21	0x9f75fc4e	-5.208947e-20
22	0xa40c72b5	-3.045482e-17
23	0x21b8e166	1.2527987e-18
24	0x9acde222	-8.515135e-23
25	0x0e8eb775	3.5182365e-30
26	0x3790f236	1.7278926e-05
27	0xaf377cff	-1.668816e-10
28	0xacd4eb61	-6.0515347e-12
29	0x2ef829af	1.1285139e-10
30	0x8e6f4ac1	-2.9495017e-30
31	0x2aa22847	2.880493e-13
32	0x2ee29ef3	1.0305525e-10
33	0x2ca223f5	4.608309e-12
34	0x25be9f66	3.3067759e-16
35	0x8e76f029	-3.0437474e-30
36	0xac8a149d	-3.9244844e-12
37	0x2f14b9df	1.3526556e-10
38	0x2cbbbf43	5.336094e-12
39	0x26080113	4.7185934e-16
40	0x0e422844	2.3931733e-30
41	0xb29dc417	-1.8366377e-08
42	0xaf4c6b61	-1.859184e-10
43	0xad2420be	-9.329591e-12
44	0x2c9b8d30	4.42104e-12
45	0x8dd2c720	-1.2990187e-30
46	0x2ac14762	3.433322e-13
47	0x2f040073	1.200549e-10
48	0x2cb97937	5.271474e-12
49	0x2605a23c	4.6363513e-16
50	0x92c2e6d8	-1.2300029e-27
51	0x2e55f308	4.8646448e-11
52	0x33161850	3.494671e-08
53	0x30919468	1.0592318e-09
54	0x2a036d19	1.1672988e-13
55	0x11635883	1.7934417e-28
56	0x2eef67b3	1.08868824e-10
57	0x32c1c782	2.2558883e-08
58	0x30f06419	1.7490748e-09
59	0x29ba1a8d	8.264665e-14
60	0x9b02564d	-1.0781233e-22
61	0x327d640a	1.47492845e-08
62	0x336634d5	5.35991e-08
63	0x311c9207	2.2783995e-09
64	0x2aa0c3ea	2.8557652e-13
65	0xa1237c2e	-5.53909e-19
66	0x3431273c	1.6498683e-07
67	0x3527787f	6.2387693e-07
68	0xb227c9d8	-9.766573e-09
69	0xac65a596	-3.2634776e-12
70	0x92ed7a17	-1.49869e-27
71	0x2e61c42c	5.1333313e-11
72	0x3328fe87	3.934704e-08
73	0x3095c3d7	1.0896838e-09
74	0x29cfa428	9.221123e-14

grapher.0.gru.bias_ih f4 [15]
0	0x26402a97	6.66711e-16
1	0x270bd520	1.940566e-15
2	0x275b2982	3.0414857e-15
3	0xa8ba3df1	-2.0677011e-14
4	0x27310df8	2.4571257e-15
5	0xbc17e854	-0.0092717
6	0xbb310c98	-0.0027015563
7	0xbb3070ec	-0.0026922775
8	0x3ba0aa2d	0.004903099
9	0xba92fe0f	-0.0011214631
10	0x3a31587e	0.00067652005
11	0x3a35377c	0.000691287
12	0xbd627c4a	-0.055294313
13	0xbc8b7c3c	-0.017027013
14	0xba9f4075	-0.0012149947

grapher.0.gru.bias_hh f4 [15]
0	0xa5bd16f5	-3.280183e-16
1	0x271d8548	2.1860379e-15
2	0x2747683a	2.76733e-15
3	0xa8bace2f	-2.0739566e-14
4	0x2731f0c2	2.46942e-15
5	0x3aa88f22	0.001286004
6	0x39a4a393	0.0003140239
7	0x3a3d358b	0.00072177564
8	0x3bd0dca0	0.006373957
9	0xba532f72	-0.0008056081
10	0x3826dc18	3.9782462e-05
11	0x37ca6065	2.4125164e-05
12	0x392c8198	0.00016451476
13	0x3bff863b	0.007797984
14	0x36802c6b	3.819868e-06

grapher.0.gru.ln_resetgate.weight f4 [5]
0	0x1922b298	8.4112704e-24
1	0x1c0c9bad	4.652332e-22
2	0x1d0c4ac2	1.8567495e-21
3	0xaf8e404e	-2.587534e-10
4	0x9ab61ac5	-7.5316684e-23

grapher.0.gru.ln_resetgate.bias f4 [5]
0	0xaf317ea2	-1.6143045e-10
1	0xaf64ba86	-2.0802746e-10
2	0xb04197a8	-7.042851e-10
3	0x34312ba5	1.6500287e-07
4	0x2d74c90e	1.3914437e-11

grapher.0.gru.ln_inputgate.weight f4 [5]
0	0x80a64705	-1.527017e-38
1	0xa68a1ee2	-9.584044e-16
2	0xb3731468	-5.6596406e-08
3	0x3e08f952	0.13376358
4	0x9d9dcbf5	-4.176844e-21

grapher.0.gru.ln_inputgate.bias f4 [5]
0	0x0096f15c	1.3861908e-38
1	0x27801640	3.555126e-15
2	0x34afa26a	3.2714462e-07
3	0x3903c733	0.00012567341
4	0x1eca2647	2.1403413e-20

grapher.0.gru.ln_newgate.weight f4 [5]
0	0x98f435ce	-6.312685e-24
1	0x31c9ac9a	5.8694924e-09
2	0x3c1ada18	0.009451412
3	0x3d88dc65	0.06682662
4	0x3003d396	4.7958204e-10

grapher.0.gru.ln_newgate.bias f4 [5]
0	0x18809558	3.3238023e-24
1	0xb83feefb	-4.5760517e-05
2	0x3a987c0d	0.001163365
3	0xbb19de4e	-0.0023478451
4	0xb3c98e51	-9.385679e-08

grapher.1.weight.weight f4 [5, 5]
0	0x17affdba	1.137316e-24
1	0xad8c9440	-1.5981994e-11
2	0xbd35644b	-0.0442851
3	0xbcb05b30	-0.021527857
4	0xab221d6c	-5.759479e-13
5	0x16491e56	1.6246223e-25
6	0xaf8b6b78	-2.5360314e-10
7	0xbd100d9e	-0.035169236
8	0xbcd6f445	-0.026239524
9	0xa96a4170	-5.2015196e-14
10	0x1727a6d9	5.41712e-25
11	0xb137e86d	-2.6762124e-09
12	0xbc44a765	-0.012002801
13	0x3cc115f8	0.023570046
14	0xac6ee88d	-3.3950926e-12
15	0x1839feb8	2.403929e-24
16	0xb25d8c7a	-1.2895834e-08
17	0x3e444c00	0.19169617
18	0x3d31ba23	0.043390404
19	0xad907871	-1.6424391e-11
20	0x17e81c44	1.4999784e-24
21	0xb20e99a9	-8.300426e-09
22	0xbe1bcf53	-0.15215807
23	0x3dce3763	0.10069158
24	0xad87ba02	-1.5430327e-11

grapher.1.weight.bias f4 [5]
0	0x3e24105e	0.16021869
1	0xbe098f1a	-0.13433495
2	0x3b4ceef2	0.0031270352
3	0x3ea4f8ee	0.32221168
4	0xbec0e3eb	-0.37673888

grapher.1.reduce.weight f4 [5, 5]
0	0x127fc06e	8.0701e-28
1	0xac5b125b	-3.1131961e-12
2	0xb098cfba	-1.1118495e-09
3	0xaeb22a76	-8.1020454e-11
4	0xa7a17801	-4.4816585e-15
5	0x182b8696	2.216918e-24
6	0xb18d3204	-4.109326e-09
7	0x3939eebe	0.00017731913
8	0x3ac1f74a	0.0014798429
9	0xacbf232b	-5.432451e-12
10	0x1935a106	9.389999e-24
11	0xb2e422f4	-2.6558588e-08
12	0x3d65f694	0.05614336
13	0x3c242a3c	0.010019835
14	0xae15b223	-3.4036895e-11
15	0x94c261d4	-1.962758e-26
16	0xafd23824	-3.8238668e-10
17	0xbd22c45f	-0.039738055
18	0xbbc1c785	-0.005913677
19	0xab58dd77	-7.704596e-13
20	0x176bff50	7.6254845e-25
21	0xb12bacba	-2.4981959e-09
22	0xbd79bff1	-0.060974065
23	0x3d9f897f	0.07789897
24	0xacd67fb1	-6.0964224e-12

grapher.1.reduce.bias f4 [5]
0	0xb639a2c5	-2.7661893e-06
1	0x3d969055	0.07351748
2	0x3ed0288e	0.4065594
3	0x3df10895	0.11769215
4	0x3ea4f1f9	0.3221586

grapher.1.gru.weight_ih f4 [15, 5]
0	0xba1a6feb	-0.0005891311
1	0x3aaa275e	0.0012981703
2	0x33bc8bd5	8.7798675e-08
3	0xbc4be88e	-0.012445582
4	0x3c6d125b	0.014469708
5	0xbc687ee3	-0.014190408
6	0xbbb754fb	-0.0055948473
7	0x3310a808	3.3680436e-08
8	0x3db066ad	0.08613334
9	0xbc94164e	-0.018077042
10	0x3c4bb1ec	0.012432557
11	0xbd73deaf	-0.05953854
12	0x3934d8cc	0.00017246901
13	0x3e221b14	0.15830642
14	0xbe05a0db	-0.13049643
15	0xb8a4aeec	-7.852711e-05
16	0x3a27c6db	0.0006400176
17	0x32cd675b	2.3912142e-08
18	0xbb6b84f3	-0.0035937398
19	0x3c06f53c	0.008237179
20	0x3b55cdc3	0.0032623864
21	0x3bf904f7	0.007599469
22	0x37010252	7.689539e-06
23	0x3d4d2fc4	0.05009438
24	0xbd8430c0	-0.06454611
25	0x39ec5199	0.00045074223
26	0xbb34e16d	-0.0027600185
27	0xb7a38588	-1.9493295e-05
28	0x3b2f3958	0.002673706
29	0xba838f6a	-0.0010037248
30	0xbaa452a9	-0.0012536842
31	0x3bf0f930	0.007353924
32	0xb772ff4c	-1.4483765e-05
33	0xbb8330b8	-0.0040036105
34	0xbc66fd87	-0.014098532
35	0x3b07991f	0.0020690633
36	0xbb753d1f	-0.0037420464
37	0x37baa8bc	2.2251501e-05
38	0xbae170ac	-0.0017199717
39	0xbcc33b6f	-0.023832051
40	0x3ba0057b	0.004883466
41	0xbb99a718	-0.0046891086
42	0x382cccdf	4.1198797e-05
43	0x3d1124fc	0.03543566
44	0xbd7ac704	-0.061224952
45	0xbbbc26e6	-0.0057419417
46	0x3ac86064	0.0015287516
47	0x38296081	4.0382616e-05
48	0x3d296874	0.04135938
49	0xbdaccf4f	-0.084379785
50	0xba9c4d3c	-0.0011924873
51	0x3e3117bd	0.17294212
52	0xba913e43	-0.0011081178
53	0x3da60b9e	0.081076846
54	0x3e7afb90	0.24510026
55	0xbdc1ed59	-0.094690986
56	0xbe3ccd59	-0.18437709
57	0x3cd2b6e8	0.025721982
58	0x3e97b458	0.2962978
59	0xbe361ce9	-0.17784466
60	0xbd45e636	-0.04831525
61	0xbe009a66	-0.12558898
62	0x3b3f397c	0.002917855
63	0xbe1976dc	-0.14986748
64	0xbeb509ce	-0.35359043
65	0x3cd1e30a	0.025620956
66	0xbb8b8557	-0.0042578387
67	0xb91b778f	-0.00014826491
68	0xbe1756db	-0.14779226
69	0xbe10e2fb	-0.14149086
70	0xbe201f64	-0.15636975
71	0xbd8928fc	-0.0669727
72	0xbd498473	-0.04919858
73	0xbe055da6	-0.13024005
74	0xbe48cf3d	-0.19610305

grapher.1.gru.weight_hh f4 [15, 5]
0	0x38195da8	3.6565267e-05
1	0xbc4530d6	-0.012035569
2	0xbc051246	-0.0081220325
3	0x383df249	4.5286757e-05
4	0xbaae80d0	-0.0013313536
5	0xbae0563f	-0.0017115547
6	0x3de5fd63	0.1122997
7	0xbd6c8b42	-0.057749994
8	0x3b0dd844	0.0021643797
9	0xbc3b872d	-0.011445803
10	0xbc0a3d17	-0.0084374165
11	0xbd8ae9e2	-0.06782891
12	0x3ddacbf5	0.10683433
13	0x3c005dca	0.007834861
14	0x3d6e5860	0.05818975
15	0x37fac904	2.9895928e-05
16	0x3b75ab73	0.0037486225
17	0xbc976a73	-0.018483376
18	0x382c9025	4.114224e-05
19	0xbae07b1c	-0.0017126533
20	0xb9a0069a	-0.00030522497
21	0x3baaee3b	0.0052163876
22	0x3c2e92fa	0.010655159
23	0xb9142df4	-0.00014131499
24	0xbc48e86c	-0.012262445
25	0x38e030ef	0.00010690267
26	0x3bffab33	0.007802391
27	0xbc486833	-0.012231874
28	0xb9c66579	-0.00037841106
29	0xbb679819	-0.003533846
30	0x397b1e97	0.00023948621
31	0xbc64890d	-0.013948691
32	0x3be3a0e0	0.006946668
33	0xb8a6fd3e	-7.962667e-05
34	0xbc5a4b37	-0.013323597
35	0xb975c456	-0.00023438162
36	0x3cc85679	0.024455296
37	0xbb91a20f	-0.0044443677
38	0x3a3c91db	0.0007193365
39	0x3bf47f9f	0.0074615027
40	0xba650c90	-0.00087375287
41	0x3cb688cd	0.022282029
42	0x3c872653	0.016497767
43	0x399aa64f	0.00029497079
44	0x3d1ec9a8	0.038766533
45	0x3a713ec0	0.0009202771
46	0x3cc0faa1	0.02355701
47	0x3d54cf6b	0.05195562
48	0x39438bc3	0.00018648714
49	0xbb65ab22	-0.003504463
50	0xb8157742	-3.5635436e-05
51	0xbd6f15b4	-0.058370307
52	0x3d6c9900	0.0577631
53	0xba9b232b	-0.0011836042
54	0xbd3e3541	-0.046437506
55	0x3c486d34	0.012233067
56	0x3e93c886	0.28863925
57	0x3e947e4c	0.29002607
58	0xbd2f7b0f	-0.042841967
59	0x3dbe4244	0.09289983
60	0xbe06156e	-0.13094112
61	0x3e6b226c	0.2296235
62	0xbe1f219c	-0.15540165
63	0xbdec2518	-0.115305126
64	0x3e35dc80	0.17759895
65	0xbb9aba29	-0.004721899
66	0x3e04c863	0.12967066
67	0x3d6f9032	0.058487125
68	0x3a48e9e5	0.00076642475
69	0x3cdde08f	0.027084617
70	0x3d9b1358	0.07572049
71	0x3e043d8b	0.12914102
72	0xbc8abd2b	-0.016935905
73	0x3cd91a43	0.02650178
74	0xbe64df41	-0.2235079

grapher.1.gru.bias_ih f4 [15]
0	0xbcd1a97e	-0.025593515
1	0x3dffc616	0.12488954
2	0xbde87ff0	-0.11352527
3	0x3d063fe9	0.032775793
4	0x3e46a6c2	0.1939955
5	0x3d3482b7	0.044069972
6	0xbe1dd6e5	-0.15414007
7	0xbaace5bc	-0.0013191025
8	0xbd86d93b	-0.06584402
9	0xbd7c545d	-0.061603893
10	0x3e0241ac	0.12720364
11	0x3eaebe77	0.34129688
12	0x3e78b8a3	0.24289183
13	0xbe14f672	-0.14547136
14	0x3e9bc2e4	0.30422127

grapher.1.gru.bias_hh f4 [15]
0	0xbccbd27a	-0.024880636
1	0x3e2c4832	0.16824415
2	0x3ea0f160	0.31434155
3	0xbd000711	-0.03125674
4	0xbd0aade0	-0.033857226
5	0x3dc953d4	0.09830442
6	0xbdc7cf9d	-0.09756396
7	0x3de4b1ef	0.11166751
8	0x3db76af9	0.0895595
9	0x3e169f3c	0.1470918
10	0x3d1de637	0.038549628
11	0xbd85f6b1	-0.06541193
12	0x3e935c00	0.28781128
13	0x3de577d3	0.11204495
14	0xbec16d49	-0.3777869

grapher.1.gru.ln_resetgate.weight f4 [5]
0	0x389922e3	7.302107e-05
1	0x3e67fe49	0.22655596
2	0x3ebdce07	0.3707125
3	0xbbed8038	-0.007247951
4	0x3db9cbeb	0.090720974

grapher.1.gru.ln_resetgate.bias f4 [5]
0	0xb7568f6d	-1.2788788e-05
1	0x3c189635	0.009313156
2	0x3d26dc20	0.04073727
3	0x3c0ce476	0.008599391
4	0x3d013ce4	0.03155221

grapher.1.gru.ln_inputgate.weight f4 [5]
0	0xb8b84d3b	-8.788189e-05
1	0x3f4a68dc	0.7906625
2	0xbd00769b	-0.03136311
3	0xb7a7c638	-2.0000254e-05
4	0x3eea6c0a	0.45785552

grapher.1.gru.ln_inputgate.bias f4 [5]
0	0xb93a0e5f	-0.00017743696
1	0xbdbfbde6	-0.09362392
2	0xbd1dcebb	-0.03852723
3	0xbb5a9b29	-0.0033356643
4	0x3c6b5863	0.014364335

grapher.1.gru.ln_newgate.weight f4 [5]
0	0x3e3646ee	0.17800495
1	0x3f847583	1.0348362
2	0x3f72b714	0.94810605
3	0x3e2f1592	0.17098072
4	0x3f258395	0.64653903

grapher.1.gru.ln_newgate.bias f4 [5]
0	0xbce57028	-0.028007582
1	0x3e00070a	0.12502685
2	0x3e06767d	0.13131137
3	0xbcd154d7	-0.02555315
4	0x3b458390	0.0030138232

grapher.2.weight.weight f4 [5, 5]
0	0xba8c6ea2	-0.0010714123
1	0x3ea5d2ed	0.32387486
2	0x3eb65047	0.35608122
3	0xbaccda18	-0.0015628962
4	0x3ea65afa	0.32491285
5	0x3aa34d8a	0.0012459022
6	0xbecf3a55	-0.4047419
7	0xbe3ca485	-0.18422134
8	0x3af6b2a3	0.0018821548
9	0x3c807ea6	0.01568539
10	0x387d988b	6.0461967e-05
11	0x3ee5a142	0.44849592
12	0xbe036aee	-0.12833759
13	0xbb01d618	-0.0019811448
14	0x3ebdf8c2	0.3710385
15	0xbb8f9ceb	-0.0043827198
16	0x3f0388e5	0.5138076
17	0x3e7d1dff	0.24718474
18	0xbba6c79e	-0.005089714
19	0xbd6357c3	-0.055503618
20	0xbc9c0aa6	-0.019048046
21	0x3c8c889c	0.017154984
22	0xbe32be32	-0.17455366
23	0xbceba86b	-0.028766831
24	0xbe1ba082	-0.15197948

grapher.2.weight.bias f4 [5]
0	0x3ecf175b	0.40447506
1	0x3dd4d4c6	0.10392146
2	0xbe8a1ec3	-0.26976594
3	0x3dba2bb3	0.09090366
4	0xbd743cff	-0.059628483

grapher.2.reduce.weight f4 [5, 5]
0	0xba26a303	-0.0006356688
1	0x3dfb7c42	0.1227956
2	0x3e4a43a9	0.19752373
3	0xba57a1fb	-0.0008225736
4	0x3db1dc4e	0.08684598
5	0x394c7eb6	0.0001950216
6	0x3db469ba	0.08809228
7	0xbe470f1c	-0.19439358
8	0x397a6d64	0.00023882609
9	0xbc9a0787	-0.018802417
10	0xb660ca00	-3.349618e-06
11	0xbce6d7c9	-0.028179066
12	0xbd031bbf	-0.032008883
13	0xb6e1a61c	-6.72486e-06
14	0x366386e0	3.3904143e-06
15	0xb73a12c1	-1.109083e-05
16	0xbce26964	-0.027638145
17	0xbc7c6191	-0.015404121
18	0xb7074cbc	-8.064493e-06
19	0x36647927	3.4045167e-06
20	0x374ef97a	1.2336643e-05
21	0xbd3c2bab	-0.045940083
22	0xbcb5b82a	-0.022182543
23	0x374ff7b8	1.2395838e-05
24	0x37bde92c	2.2639135e-05

grapher.2.reduce.bias f4 [5]
0	0x3e4c116e	0.19928524
1	0xbe52b2c4	-0.20576006
2	0xbd947c5d	-0.07250283
3	0xbcc840b3	-0.024444913
4	0x3c951339	0.018197643

grapher.2.gru.weight_ih f4 [15, 5]
0	0x3d8083f3	0.06275167
1	0xbd3419a3	-0.04396976
2	0xbe17768e	-0.14791319
3	0x3ea6ea02	0.3260041
4	0x3b22d491	0.0024845938
5	0x3e8863ee	0.2663874
6	0x3be8ada1	0.0071007763
7	0x3d10d4bf	0.03535914
8	0x3e2f56e9	0.17122997
9	0xbe5eb3cf	-0.21748279
10	0x3e9b207b	0.30298218
11	0xbc78486d	-0.015153986
12	0xbe17bb44	-0.1481753
13	0xbe5a7ab0	-0.21335864
14	0x3d2335c4	0.039846197
15	0xbe9907c6	-0.29888743
16	0x3e3aa094	0.18225318
17	0xbc0a8a98	-0.008455895
18	0x3e9b0a8b	0.3028148
19	0xbdbb5565	-0.09147147
20	0xbcade812	-0.021228824
21	0x3d3bdb39	0.045863364
22	0xbccedfde	-0.025253233
23	0xbe4768b1	-0.1947353
24	0x3d62f4ec	0.055409357
25	0xbe58ef9a	-0.2118515
26	0x3eee0eb2	0.46495587
27	0xbeae7ba6	-0.3407871
28	0xbe71eae4	-0.2362476
29	0xbcb196a4	-0.021678276
30	0x3ebeb782	0.3724938
31	0xbedf95b3	-0.436689
32	0xbd80aeca	-0.06283338
33	0x3ebd0d50	0.3692422
34	0x3e38182f	0.17977975
35	0xbd872178	-0.065981805
36	0x3e75fbc5	0.24021824
37	0x3c4c48a0	0.012468487
38	0xbed1d15a	-0.40980035
39	0xbe250470	-0.16114974
40	0xbda9d5b5	-0.082927145
41	0xbde79bed	-0.11309037
42	0x3e4bbcd0	0.19896245
43	0xbea7b152	-0.32752472
44	0xbda3d279	-0.07999129
45	0x3ea089d7	0.31355163
46	0xbe0a6030	-0.13513255
47	0x3e86a135	0.26294866
48	0x3e074514	0.13209945
49	0xbec39c7a	-0.3820532
50	0x3e9d6b43	0.30745897
51	0xbe07f029	-0.13275208
52	0x3eaac600	0.33354187
53	0x3e6e8efe	0.23296735
54	0x3e18d376	0.14924416
55	0x3f09a661	0.537695
56	0x3ba9378e	0.0051640933
57	0x3e81966f	0.25310084
58	0x3ed15d89	0.40891674
59	0xbe780922	-0.24222234
60	0x3e4cc8ec	0.1999852
61	0x3d8d72c7	0.06906658
62	0xbc89050e	-0.016726043
63	0x3ed88ab3	0.4229332
64	0xbe4c1065	-0.19928129
65	0x3e933594	0.28751814
66	0x3dc4cd1f	0.09609436
67	0xbb7ba528	-0.0038398001
68	0x3e8bbde4	0.27293313
69	0x3eb5c708	0.3550341
70	0xbeb384b3	-0.3506218
71	0xbdae4927	-0.085100465
72	0xbec6b2c0	-0.3880825
73	0xbde35e0e	-0.11101924
74	0x3e37e0d4	0.17956859
